working_networks/OR_lstm_16_8_3_best_V1.pth (torch, 15394 bytes, 14 tensors)

lstm.weight_ih_l0 f8 [32, 3]
0	0x3fc1c87396143f87	0.1389297945793226
1	0xbfcd6273d8107f43	-0.22956703233739448
2	0xbfd05303f35894b5	-0.2550668598581283
3	0x3feb46b9efb89403	0.8523835832644412
4	0x3fea68ddfeb18dc5	0.8253011679157046
5	0x3ff04ef16465ed84	1.0192731782725284
6	0xbfdfefbda616ebc7	-0.4990076181381337
7	0xbfdb8117d47260c4	-0.42975421664005986
8	0xbfd3fe14bc3dc353	-0.3123828733724185
9	0x3fe6f9f6b1fb8cc5	0.7180131412718757
10	0xbfbf5b329d86160d	-0.12248531671328795
11	0x3f75995c21eb459c	0.005273208515704477
12	0x3fd8225bf3a2494f	0.3770971183049782
13	0xbfc0a2972607edd5	-0.1299618659685239
14	0x3fd57803c290fac8	0.33545011520974954
15	0x3fdd90fc14dc4a99	0.4619741634098005
16	0x3fe118f763d90b2d	0.5342976522591464
17	0x3feeab9443d86e47	0.9584447217088802
18	0x3fe455c69271d2d6	0.6354706630941915
19	0x3fd61b7295db443a	0.3454252685015181
20	0xbf972e3d066ff822	-0.022637322919756404
21	0x3feb03b93cb2a029	0.844204538870149
22	0x3fd4312a31c274bc	0.3155007825788052
23	0xbfcd87f3953cd011	-0.2307114103983854
24	0x3fe274f724ddff4f	0.5767780036985445
25	0x3fe2bf43b8dc7938	0.585847722107963
26	0x3fe1cb6875da931a	0.5560800840217752
27	0xbfc27fdd3d133dc5	-0.14452710611520395
28	0xbf920e31b4db8e68	-0.01763227144591753
29	0x3fc1c6af981eec7e	0.13887591293118712
30	0xbfe2641c94eb4c99	-0.5747206600739388
31	0x3fcef2545956ddf3	0.24177030908843697
32	0x3fc400bbb71a6463	0.1562723774011686
33	0x3fda2a132accb8ff	0.4088180463758277
34	0xbfdfa2439c902ff1	-0.4942788151681717
35	0xbfcf40537fd6a1c6	-0.2441505789004294
36	0x3fe69a8b1927326e	0.7063651553413146
37	0x3fe57094fa4f4584	0.6699929131374778
38	0x3fd8f457ba89c491	0.3899134942685772
39	0x3fd5ccd518bff580	0.34062697808243314
40	0x3fe673a005019387	0.7016143892075072
41	0x3fd35c99f82d1ab5	0.3025269435496896
42	0x3fd81ce6a285ba84	0.3767639720089522
43	0x3fc973b4eed73b7e	0.19884359037538596
44	0xbfe089686b3fa8c4	-0.516773423643166
45	0x3fe62d837c52d4a4	0.6930558613008952
46	0x3f64a0e42a3ba65f	0.002518125185692096
47	0xbfd44e4113d7adb5	-0.3172762578749045
48	0x3fe24559b01a001c	0.5709656180843043
49	0xbfd4a55e084b9aa5	-0.3225932198533122
50	0xbfb533c584ccbc7d	-0.08282122127705978
51	0x3fabc230fc05715e	0.05421593738967333
52	0xbfd26e7cd2f51fd1	-0.2879936275608062
53	0x3fe83871ce9d9a43	0.7568902049504874
54	0x3fbb0a655d98fabe	0.10562737975213118
55	0xbfd7f4664cd4ebce	-0.3742919683751865
56	0x3fe007f3c4941bda	0.5009707297730259
57	0x3fb906f33f35d92c	0.09776230138036074
58	0x3fea4bc22fc6dee6	0.8217478688374882
59	0x3fdab0fa5f4cc1e1	0.41705188089966155
60	0xbfd345bbbcc2ddaa	-0.30113118585310394
61	0xbfcebe61e86a48f0	-0.2401850113715862
62	0xbfd37484162e6f0b	-0.3039865700354631
63	0x3fcdb7c3bbff12c7	0.23217055015097385
64	0xbfe2cb1244e16a8c	-0.5872889848063365
65	0xbfee512d266021ae	-0.947409224464584
66	0xbfc51b0110046c27	-0.16488660127728957
67	0xbfe3f30ff4b1417d	-0.6234206942699952
68	0xbfcbb4fe5aa3fd76	-0.21646098542985798
69	0x3fe4263442dc4613	0.6296635919445087
70	0x3fec48b04a2bc8ad	0.8838731239941545
71	0xbfa7cd6b3f37ded9	-0.04648909708697397
72	0x3fd0983b7401cd08	0.2592915184861373
73	0x3fedb7bbb3d2dd55	0.9286783706838074
74	0x3fd2fa46393862b2	0.2965255316535532
75	0x3fc656dbd9c6509a	0.17452571996239358
76	0x3ff4fe52f3b9c658	1.3120908279928667
77	0x3ff09e1570186df9	1.0385946634986551
78	0xbfe4559846eda1e3	-0.6354485879247104
79	0xbfb7b690361d3931	-0.09262944527765594
80	0xbfde6a8b414dcaa1	-0.47525292756396637
81	0x3fde018d4c19f992	0.46884472305091507
82	0xbfa6f6b21fc1edca	-0.04485088956513612
83	0x3fe09969a52f4358	0.518727133394445
84	0x3fc83c39eee74165	0.18933796086504198
85	0xbfa61f1a152fefea	-0.04320603855737189
86	0x3fd83e27d565e16e	0.37879367675443276
87	0x3fe4cdb40817fe5e	0.6501102598267143
88	0x3fec2551843e78a5	0.8795554716960124
89	0x3fed44f3119b59ca	0.9146666854747363
90	0x3feb95806c99c67e	0.8619997140032891
91	0x3fe209fafbe534e8	0.5637183112936812
92	0xbfe3f27d266acf9a	-0.623350691827443
93	0x3fe16bb1713cc144	0.5443961345354542
94	0x3fe17fd0b495e3e5	0.546852448183128
95	0xbfd2aec26950a7d9	-0.2919164684741396

lstm.weight_hh_l0 f8 [32, 8]
0	0xbfb296eb858f190d	-0.07261535654751956
1	0xbfcc0bef55da9948	-0.21911422435841588
2	0xbfd931cde356f31b	-0.39366481019151117
3	0x3fe63cedd61b5403	0.6949376279613947
4	0xbf9d99643f1ef97a	-0.028905454971885437
5	0xbfd978458114513c	-0.3979657898464841
6	0x3fd013f35198bedc	0.2512176796762853
7	0x3faf1d1cf0872f55	0.060768989907585315
8	0x3fab353e95a23e4d	0.05314059807380698
9	0xbfc4c2d0e89bb69d	-0.16219531400513612
10	0xbfe64d71b3334f47	-0.6969536304481857
11	0xbfc63e074a7468a4	-0.1737679589794584
12	0xbfe953c0a7635401	-0.7914737004563223
13	0xbfe690e6c4b8f124	-0.7051881639704658
14	0x3ff22b292d864644	1.1355373171139869
15	0x3ff580d5b2140528	1.343953796022399
16	0xbfe3a7e48a44f065	-0.6142447186061984
17	0x3fd0ecd824ba7ee5	0.26445582949416596
18	0xbfdcb0fbed055b76	-0.4483022513062943
19	0xbfb02336a78aee71	-0.06303731527708024
20	0x3f929351449fefd8	0.018140096486589957
21	0x3fcbe1a18129a2f5	0.21782320791978518
22	0x3fd666b3c98b4457	0.3500184505656469
23	0xbfdf4480dc6ecfba	-0.48855611349722106
24	0x3fe17ae433a7ab9f	0.5462513932119356
25	0x3fe660ba568dd870	0.6993076029309702
26	0xbfb3a3c04aaa604e	-0.07671739409340825
27	0xbff238f130776f1e	-1.1389018910621824
28	0x3fcf84e02b0a36c7	0.24624254323537384
29	0xbfbff45337ba7614	-0.12482185469203727
30	0x3fdb5d365b549164	0.4275642291925321
31	0xbfe02c8096725f67	-0.505432409135193
32	0xbf78f43017e98baf	-0.006092250695107034
33	0x3fe343cb1e5b2924	0.6020255654232511
34	0x3fe61bef3eeb2535	0.6909099797132173
35	0xbfe00793dac6fd53	-0.5009249947542379
36	0xbfb5f4a41dff7a30	-0.08576417667743708
37	0xbfb8da49e67aae34	-0.09708082081731889
38	0x3fb1a192953bb54d	0.06887165206326991
39	0xbfe196752f990c0a	-0.5496164254803955
40	0xbffbcf5c8dc23110	-1.738125375503902
41	0xbfa1315a37225673	-0.03357965395950382
42	0xbff142971f76015d	-1.07875740327298
43	0xbfe77ed634be85a2	-0.7342330007706332
44	0x3ff141ada6d4d1b5	1.0785347477768543
45	0x3fdeee2d04db9f67	0.48328710054783247
46	0x3fe7fcf0a28ec09c	0.7496264624551432
47	0x3fe185f9f3ed4576	0.54760453836404
48	0x3fd7fe00c2c2e14b	0.37487811107304897
49	0x3fc15296ee6849ee	0.1353329338167692
50	0x3fed375acb986004	0.9130071617573781
51	0xbff114e26fc8c1a5	-1.0675987593241214
52	0xbfd68abbfc1f56e7	-0.3522176706440931
53	0xbfd4cd96564f74a1	-0.3250480502009144
54	0x3fceb83f3e071b4d	0.23999777344416842
55	0xbfddf08140550256	-0.46780425341061027
56	0x3ff3afbaad7a8ee4	1.2304026390565292
57	0x3fcf895221ae2d96	0.2463781990485187
58	0xbfb84e83a01aff74	-0.09494803103279797
59	0xbf80de94cbb69323	-0.008237040011246649
60	0x3fa4de6c41c4845b	0.04075945189311688
61	0x3f70ff3adb459113	0.004149656208344748
62	0x3fe61227ae6a53c5	0.6897161871480583
63	0x3f95fb7f0b1532ba	0.021467194606247665
64	0x3fd95b75dad63d76	0.396207298000227
65	0xbfe47e958d769942	-0.6404521716074572
66	0xbfe60737fd8f3605	-0.6883811905224212
67	0x3fd29c621c1c37c2	0.2907948755754398
68	0xbfadd51ae6568483	-0.05826648771040601
69	0x3fc6279a95019d23	0.17308361316393314
70	0x3ff24051266a8a01	1.1407023907310079
71	0x3fcd008dc50d3745	0.22657940026913984
72	0x3fc621422debb4a6	0.17288996927473937
73	0x3fb0fa5feae2e1e9	0.06632041439559767
74	0x3fee69894b22b8f1	0.9503828494541989
75	0x3fc33609a7c38c99	0.15008660022349288
76	0x3fe46e80bffd651f	0.6384891271401648
77	0xbfd2fefbe454519d	-0.2968129853991515
78	0x3fd6868c8ed129eb	0.3519622225473131
79	0x3fc64deae3f6237f	0.1742528546422157
80	0xbfc663412d3e960d	-0.17490400990679725
81	0x3fb9b3a7a7bb8f7c	0.10039756627116775
82	0x3fb7c678c176832c	0.09287218783584866
83	0x3fd547c7b31bc22f	0.332506108198717
84	0x3f55725e78a3cbd7	0.0013090059824747335
85	0xbf7c275fab9299c0	-0.00687348719762898
86	0xbf92c3abd63c65f0	-0.018324551535533418
87	0xbfd3e5db06cfff23	-0.310904270794696
88	0xbfb5311d5ab5a2f2	-0.08278068031871635
89	0x3ff24612b6e6a17b	1.1421076912466492
90	0xbfd0668de1178b04	-0.25625941259038165
91	0xbff68e4c0ff3f92d	-1.4097405074276808
92	0x3fe55fe12fee72e0	0.6679540573273606
93	0x3fc84e7069e2c6a9	0.18989377184111803
94	0x3fec351cbbfde4e2	0.8814834281648951
95	0xbffa3cd26de580f4	-1.6398491185028066
96	0xbfb0362a3e9f405c	-0.06332649258479378
97	0x3fc731826623b4df	0.1811984060981677
98	0x3fba5d7915b4aff8	0.10298878459860805
99	0x3f9af80fcf58647b	0.026336905508376845
100	0xbfd8a1ea5a73531c	-0.3848825343423401
101	0xbfbda8b82f127505	-0.11585570477696557
102	0x3fd77fd287613996	0.3671766588276112
103	0x3fd64316b32553b3	0.34784476752002574
104	0x3f92dc4962ae0bcf	0.018418451927128928
105	0x3fbf6ebeda0b7f17	0.1227835924469186
106	0xbf9dbc82903b8fd5	-0.029039421132338667
107	0x3fddfdf38911bde2	0.46862495790170844
108	0xbfd71128d15fd7bc	-0.3604223293945059
109	0x3fe44bd87730ba63	0.634258492272988
110	0x3fbf5915a3c5da87	0.12245307205544452
111	0x3fe4ff6208abd7fb	0.6561746758804924
112	0x3fe30d5eec348125	0.5953821767216466
113	0xbfd1c86c9abe9f80	-0.27785792457370206
114	0x3fd10a8f1a969e38	0.2662694701816437
115	0xbff081c298e71a44	-1.0316797230494936
116	0xbfb35f163e3c4624	-0.07566966075344134
117	0x3fe38e49338e5caa	0.6111188895182711
118	0x3fd24c7e161ea006	0.2859187332164769
119	0xbfe9115b026879dc	-0.7833685919793498
120	0x3fdd5a74f1d66d15	0.4586460458464939
121	0xbfc516970c53879f	-0.16475189306134738
122	0x3fbf9ffc341fa2f0	0.12353492996738757
123	0x3fe691969c64186f	0.705272012187164
124	0xbfcc97fafca2cac1	-0.22338807426202403
125	0xbfc328dd8f329655	-0.14968461505957245
126	0x3fd00d4fbafcabc1	0.25081246624420933
127	0xbfbf78d042d8e8eb	-0.12293721801771411
128	0xbfb165a46aeea931	-0.06795718775416472
129	0x3fc0a0d2dd516fab	0.12990794951008175
130	0x3fd97c06dd70c01e	0.3981949961189474
131	0x3fbd007d3994344d	0.11328871398673464
132	0xbfcb6f8a674cfab2	-0.2143414501569701
133	0xbfb98bcf76c3d71c	-0.09978958749328765
134	0x3f8f3cfce31b36cf	0.015253043823942573
135	0x3fca9061ac94ce95	0.20753117491550613
136	0xbf63cd7c06823b77	-0.002417318570287315
137	0x3fa777991cddb933	0.04583433606500122
138	0x3fde5d5f83916eb8	0.47444904182860226
139	0x3fceaf8f04144f62	0.23973262499986975
140	0x3fa77f1ea31e9536	0.04589172116474531
141	0xbf94c2639ea38dff	-0.020272785718487892
142	0xbf977403a61c336e	-0.022903496755179935
143	0xbf9515a7d663c052	-0.02059042211561774
144	0x3fc1a39592660596	0.13780469559064262
145	0x3fc126662b80efea	0.13398434757425487
146	0xbfc1f0f5491b6082	-0.14016595906901236
147	0xbfe2de4b68005ac6	-0.5896355658795407
148	0xbfd3a3e11ccf4fb2	-0.3068774014802741
149	0xbfb4de91b9940430	-0.0815211370536566
150	0x3fb3133fd7a62ebb	0.07451247229453888
151	0xbfc46aec1fc40b27	-0.15951301146568506
152	0xbfd84f55478a1f83	-0.3798421095493653
153	0xbf96f3967bb5fdab	-0.022413588810648182
154	0x3fe18e706b30de9d	0.5486375897953227
155	0xbf81f5eff0877c12	-0.008769869354123858
156	0xbfcca683c1a7b345	-0.22383162456335462
157	0x3fb4155d7f42fb7d	0.07845100743268847
158	0x3fd8cdb5aed02b38	0.38755552360150913
159	0x3fd35e880c5926ce	0.30264474111446027
160	0xbfceb01d52dcb310	-0.23974958940507252
161	0xbfd4ca99d809a4cc	-0.32486578080586237
162	0xbfd1d61eac992ace	-0.27869383673957493
163	0x3fe0c40055883179	0.523925940565774
164	0xbfcb1cac9c696c88	-0.2118125690202286
165	0x3fcfe3f13140a3aa	0.24914374260813804
166	0x3fd5178bd369f192	0.32956214567072906
167	0x3fdb637de095aed9	0.427947491951938
168	0x3fd4a4654ffa2ca5	0.3225339203861018
169	0xbfdf69541d346c18	-0.4908037457659602
170	0x3fcdf850ffa5df73	0.23414051516351328
171	0xbfc67f8226c52f7f	-0.1757662476833239
172	0xbfd60336acd7a08e	-0.3439461410439514
173	0xbf98d319f16a3859	-0.024242787704274658
174	0x3f913f9c83c3a76a	0.016844220678570755
175	0x3fd0c6d6c5af509f	0.2621361666217669
176	0xbfd08143d3dbf38f	-0.2578897065102916
177	0xbfdc998fcfc93434	-0.44687266627881006
178	0x3fa39ceb069d9f01	0.03830656486280582
179	0xbfe6d90dae550804	-0.7139957814144968
180	0x3fcbe85a7d3e46af	0.21802836528200006
181	0x3fd0c84806a86fbf	0.2622242035883992
182	0x3fb3266180ac1496	0.07480439559374683
183	0xbfc71210bede1c0f	-0.18023881263454242
184	0x3fec91c639bbc640	0.8927947166068364
185	0xbfc492218f829bd3	-0.16070956713994508
186	0xbfd1292c03164778	-0.26813793469874936
187	0x3ff81e867ad9e7d7	1.507452468764759
188	0xbfc818a12d59ffe2	-0.18825163568908382
189	0xbfdb771ebfdd7296	-0.4291455148393565
190	0xbfe7e6c0829942ce	-0.7469179678683646
191	0x3fe601c14e55c835	0.6877142457945015
192	0x3fcdc0684b5d625b	0.2324343078605747
193	0xbf9a87fdf6eceb63	-0.025909393497595256
194	0xbfe9c16280bf4aee	-0.8048565401644205
195	0x3fd366b55664590b	0.30314382015912206
196	0x3fc2dd413ea3fd5b	0.14737716253874109
197	0xbfe58be9714c9c36	-0.6733290875316758
198	0x3fd2a7199a0267ba	0.29144897499065403
199	0x3fd7672155be302c	0.36566956876117973
200	0x3fd778581cf93a4c	0.3667202265686782
201	0x3fd9eccd3f16757d	0.40507823143874316
202	0xbfdc6f813f28c0d2	-0.4443057171620356
203	0x3fb2dd3db0ac34f1	0.07368836940095826
204	0xbffaa0bb96b05afb	-1.6642413984570215
205	0xbfc9bfe4ca7d03b4	-0.2011686314308726
206	0x3febedd5a1e99e01	0.8727825319628552
207	0x3feeaaa305be7dfd	0.9583296882810256
208	0xbfe466d86cc43cad	-0.6375543712946602
209	0xbfb2a994e176c45d	-0.07290010933390208
210	0x3fa5784fad129ac7	0.041933526875529696
211	0xbfb7ffbfc0043f6d	-0.0937461704054365
212	0xbfc0bd60641157d8	-0.1307793129550976
213	0x3fb0b7c304a37c0c	0.06530398238417962
214	0x3fccd666b37bd087	0.22529300464487198
215	0xbfd2954c4b92fa5c	-0.29036242847715754
216	0x3fe144e7caf64259	0.5396613086796364
217	0x3ff3d6821846b006	1.2398701618467398
218	0xbfdc9aaa5b73271c	-0.4469400303902249
219	0xbff6df588adaf387	-1.4295277999910654
220	0xbfdf3405781548a0	-0.4875501320540341
221	0xbfd045d5fd76a8aa	-0.25426244499488837
222	0x3fe8d25254bd43ad	0.7756740241112446
223	0xbfd36c4bb58c3a59	-0.3034848473479648
224	0x3fd8893996ac5be1	0.383375546590683
225	0x3fec5e3f610f85c5	0.8865048309054876
226	0x3fcfc10cf166dce8	0.2480789355010764
227	0xbfdc7233b6af96eb	-0.4444703372995337
228	0xbfdbccfe9987eaf3	-0.4343868731809117
229	0xbfe6af27b4a7cfad	-0.7088812378337842
230	0xbfb95b2d73031a51	-0.09904750879204839
231	0xbfd26707b725e4f7	-0.28753846059369387
232	0xbff4c822ec0d0499	-1.2988614292847045
233	0xbfb15340458a79b7	-0.06767656038071022
234	0xbff211617737feec	-1.129243341158083
235	0xbfd48b90cd7e79a6	-0.3210184103753825
236	0xbfd18114ae234fa2	-0.2735034657064209
237	0xbfde9087f53963dd	-0.4775714773909934
238	0x3fe9541f5bded345	0.7915188593238801
239	0x3fe24704d5a58759	0.5711692974839294
240	0x3fc8fa89fa591eed	0.19514584278135008
241	0xbfecf6a6c623fabb	-0.905108820908786
242	0x3fd6702465fbfa55	0.3505946155491178
243	0xbfdc7324109c2a07	-0.4445276415068808
244	0x3fd1e1160ca2478c	0.27936316713123044
245	0x3fdcc834fd02e7b5	0.44971966465129337
246	0x3fd8d4ab47b02d2c	0.38798028946685537
247	0x3fcb73744018613e	0.21446087960863197
248	0x3fda0a48d3229688	0.406877714335089
249	0x3faa2bc264162965	0.05111510726699712
250	0x3fa1f860eecee66e	0.03509810366763309
251	0x3fe960450e686eef	0.7930016786008006
252	0x3fcb2d5229d5e688	0.2123205856585637
253	0xbfe2b160565c947f	-0.584152382540779
254	0xbfdc91f0f0d0d253	-0.44640754239234076
255	0x3fb17895fb2c35ee	0.06824624426027245

lstm.bias_ih_l0 f8 [32]
0	0x3fe2565b94e8ae07	0.5730417164208469
1	0x3fe86d5f140f04d4	0.7633510009547089
2	0xbfc86a52e8f1f3e5	-0.19074474691652124
3	0xbfc25bb452d8fc91	-0.143423595860416
4	0xbfa089f531f810b1	-0.032302534436924
5	0x3fe99948d97ade56	0.799961495175874
6	0x3f978a47be8c575d	0.022988434796466495
7	0x3fba4de6f27aa8c8	0.10275119228268459
8	0x3fe59dca51309b4a	0.6755115113963737
9	0x3fc5325c3b28b4e8	0.16559937370894962
10	0x3fd19c1718de3403	0.27515199116243155
11	0x3fd0e9d9fbee3238	0.2642731628664339
12	0xbfd39b9e9baf3bdd	-0.3063732643467441
13	0xbfc636cb90be15b9	-0.17354721610551652
14	0xbfce4355c1dd7c55	-0.23642990079949536
15	0x3fc60be0f526c614	0.1722375103977788
16	0xbfb9a17adb77ff23	-0.10012023790477236
17	0x3fb9faa3bc023ac2	0.10148070659691213
18	0xbfd52c651d5a248d	-0.33083465448778143
19	0xbfd98abe47e68366	-0.3990932180550345
20	0x3fb0b7c03c399cf2	0.06530381651247177
21	0x3fc3f6813509e93f	0.1559602269151785
22	0x3fe078460f707561	0.5146818448589948
23	0x3fa286121e0f74f1	0.03617912880847907
24	0x3ff361f946dc81a0	1.2114193695088957
25	0x3fe559380f7a9cf9	0.6671409895251649
26	0x3fb253d20e5d8cad	0.07159149981230213
27	0x3f7235f8eac082e3	0.004446003276854712
28	0x3fd366c40055ac4a	0.3031473162906805
29	0x3fea2a027d7ed7f3	0.8176281405528684
30	0xbfc21b80a669f7d9	-0.14146431089096614
31	0xbfc9c7321bb2ac2a	-0.2013914714092107

lstm.bias_hh_l0 f8 [32]
0	0x3fcf84c693a1daf6	0.2462394924984534
1	0x3fe1d5d962c2bbfe	0.5573546341819335
2	0x3fcacb10583f7739	0.20932201680164456
3	0x3fac6549c310cbf5	0.055460267125816566
4	0xbfe184e2cc14f59d	-0.5474714265798643
5	0x3feb747b7ed89056	0.8579690434894569
6	0xbfb148e1ef6b5e80	-0.06751834960174996
7	0xbf944c337017baa4	-0.019821933476061773
8	0x3fc35f77399131b9	0.15135088263413168
9	0xbfd76684081f4b03	-0.3656320647543653
10	0xbfb3164b3bbc54ba	-0.07455892761602714
11	0xbfd30b4acbe6ef7e	-0.2975642195922247
12	0x3fcf08acdf7eff68	0.24245224869627724
13	0x3fc7ebae143b48bf	0.18687988269681985
14	0xbfddb95bd4f501d2	-0.46443839832866474
15	0xbfa165ca9353735a	-0.03397973106777981
16	0xbfb8f365de469e02	-0.09746395756393869
17	0xbfdda4b7bc31cdd3	-0.4631785714948055
18	0xbfdd6ccd8aeae235	-0.45976580206073275
19	0xbfd694c5e49b8647	-0.35283038449242493
20	0x3fa1308af7734db0	0.03357347746500794
21	0x3fcbc70e72d3ea5f	0.21701222044778753
22	0x3fcfb6ad73ba1e4f	0.2477623763154377
23	0x3fdb1d4c995591b5	0.42366328214691445
24	0x3feb412905c1cf3f	0.8517041313593622
25	0x3fee41444258ee08	0.9454671188208872
26	0x3fd776e13407405e	0.3666308410729523
27	0x3fd2309a81e8ce41	0.2842165249487359
28	0xbfcb44d4a664b7d3	-0.21303804516486355
29	0x3ff26c1a077b38db	1.151392010902376
30	0xbfc1be3ccafb8641	-0.13861808692222335
31	0x3fd3363faad99c64	0.30018607792448493

lstm.weight_ih_l1 f8 [32, 8]
0	0x3fcc19ed40ebe159	0.21954122228613462
1	0xbfe2d5fdd8dc019a	-0.5886220202956338
2	0x3fcc074f20aa7808	0.21897305579199178
3	0x3fdcd77a432b02b2	0.4506517082154843
4	0x3fd5af2de8225447	0.3388170973715358
5	0xbf5ab3773d673c9a	-0.0016297020389293483
6	0xbfe90de02825f9d5	-0.7829438003680546
7	0xbfe608b6c16c60d9	-0.6885637071418628
8	0xbff09fda1315c702	-1.0390263314733947
9	0xbfcd868bf7be2181	-0.23066854092418157
10	0xbfc689fee9ce5fe8	-0.1760862962371441
11	0xbfd57bebce4c9612	-0.33568854471590825
12	0xbfd65eb8dead5297	-0.34953138109021026
13	0xbfc77373ccb84efe	-0.18321082588283127
14	0xbfd40e51731322d2	-0.31337391126411973
15	0xbfb0d9e12622477e	-0.06582457715037823
16	0x3fde8508954b9e24	0.47686972217204215
17	0xbfc907b691f3f184	-0.1955478871021904
18	0xbfcb158ceabda726	-0.21159516775088
19	0xbfe052c44f7f2f42	-0.5101033737823644
20	0x3fd733f39468fc83	0.3625458669011509
21	0x3f9aa8306874fa9f	0.026032215476556982
22	0x3fd9fa1bedfb6ab9	0.4058904480022352
23	0x3fb823b37c96b2b9	0.09429475585666126
24	0xbfd5282a3f41316a	-0.3305764787408153
25	0x3fd216cf49052036	0.2826421940885696
26	0x3fcd0add8494ca60	0.22689408277217904
27	0xbfd5e268cfe3037e	-0.3419439344543703
28	0x3feab6f2cc02f9a5	0.8348325714685428
29	0x3fe26584facf72dd	0.574892511238058
30	0x3fca3be4f216a0a0	0.20495282955858318
31	0xbfa7169716917805	-0.045094224457656686
32	0x3ffbd701bca5a543	1.7399918908143526
33	0x3fd8632947ac0117	0.3810523223801438
34	0x3fc33475e16d4495	0.15003846652192424
35	0xbfe86a61617568aa	-0.762985887860187
36	0xbfd733bf2f40bff6	-0.362533374925078
37	0x3fea11545a3d36be	0.8146154177172418
38	0x4002a494b2c2c6fd	2.330361744469768
39	0x3fe87dc5933fe004	0.7653530002562552
40	0x3fdc098419755967	0.4380808113686698
41	0xbf895db47449c390	-0.012385759161789328
42	0xbfe2e46385084771	-0.5903794859207051
43	0xbfeb71b90e39ae21	-0.8576321866834783
44	0xbfe046240e174e08	-0.5085621142592922
45	0xbfa8f767c0669e20	-0.04876255248683159
46	0x3fdec93fa219600e	0.481033237743305
47	0x3f8d430f8b464e12	0.014288064420532574
48	0xbfc9f2770c874df2	-0.2027119456457594
49	0xbfe5071a5c227386	-0.6571170615676329
50	0xbf7f3f6e09fd07cd	-0.007628850784216779
51	0x3fdad85fe8258336	0.4194564597183218
52	0x3fdb96ce090d9051	0.4310793960960427
53	0xbfe174744a6a7637	-0.545465607970704
54	0xbfd8c0e1c70e2c24	-0.3867725795650492
55	0x3fa646d640783fd2	0.043509192819442113
56	0x3fe72147fccb1f98	0.7228126466152274
57	0x3fe041c60b36b3ae	0.5080290049569294
58	0xbffae9530cd7952d	-1.6819639684338867
59	0x3fceae9a6a2c79bf	0.23970346626533787
60	0xbffc7d385dd7928c	-1.7805713334757085
61	0x3fd6aa706061c1bf	0.3541527692059638
62	0x3fd96cde96cc02e8	0.3972698662401357
63	0x3ff10681e4be2109	1.0640887198697462
64	0x3fe4cccf1d1d826e	0.6500011032731672
65	0x3fb808a48affbf4f	0.0938818778374728
66	0xbfbce627d1306e6a	-0.11288689477117378
67	0x3fe652ad778995b7	0.6975924811092032
68	0xbfc8c85fd85f77b1	-0.19361494126399983
69	0xbfb743b7028504df	-0.09087699710382278
70	0xbfd5579812fc9081	-0.33347131590040396
71	0x3fcac7256d089cbb	0.20920245956333425
72	0xbfe89a6d7320c29e	-0.7688510178177983
73	0xbfce848d7b92f7ad	-0.2384201863659973
74	0x3fc1099d905a82ec	0.13310594128144915
75	0xbfd55a27cd0b777e	-0.3336276533499286
76	0x3fdc9e841fe9fe8b	0.44717505566220755
77	0xbfe128860e78ce5c	-0.5361967356352113
78	0xbfe02eff35390520	-0.50573692698541
79	0xbfdad79d92788056	-0.41941012672214606
80	0xbfcc8d885fecbd9f	-0.22306923564745504
81	0xbfdc387810a83355	-0.4409465944925633
82	0x3fb7b00947d30dbe	0.09252985003973088
83	0xbfe2d0a9c58df649	-0.5879715784537406
84	0x3f99b6ad3c3eff7a	0.025110918810014017
85	0x3fe00c650992b365	0.5015130221341734
86	0x3fe24d2ef8a616d5	0.5719218117162322
87	0xbfb724e66a129a4d	-0.09040680017151566
88	0x3fe708ea546b97fe	0.7198382996400594
89	0x3fea3f5dd502b641	0.8202351723063616
90	0x3ff6cea7ef397d29	1.4254531235417949
91	0xbfde030a0849db7c	-0.4689354973738131
92	0x3fe664c940317987	0.6998029950880643
93	0x3fdce480a2006078	0.451446684078753
94	0x3fc64e150072916b	0.17425787469722862
95	0xbfd88aee68444e47	-0.3834796922903689
96	0x3fd47d35f42f3360	0.3201422581303657
97	0x3fdd67465e39d9a2	0.45942839814906666
98	0xbfdf871edb943dc2	-0.4926221031500654
99	0xbff585f77d29d22c	-1.345206726951015
100	0xbfdd1bb6de8abfe1	-0.4548165486585259
101	0x3fc581f64e9afc01	0.16802862966684987
102	0x3fe59f1ae585ccd0	0.6756720049728759
103	0xbfb24b2996bac91d	-0.07145938806460035
104	0xbfd46cd6c6aeea90	-0.31914300348913915
105	0xbfe2d6ed46836710	-0.5887361886227342
106	0x3fe143275a8f8102	0.5394474762688619
107	0xbff30dbf95bf560f	-1.1908565377719957
108	0xbfcdb75ca3105591	-0.23215825998401532
109	0xbfa4dd1c4196ad40	-0.04074943829194888
110	0x3fca4751b7084a2d	0.20530148923042316
111	0xbfe18732053f7e65	-0.5477533438206136
112	0x3fd8c1e66743d307	0.386834717602412
113	0xbfda21e98c2ddc48	-0.40831984223718054
114	0xbfe79ce1a14682f2	-0.7379005575095035
115	0x3ff8522d37a348b0	1.5200626538612987
116	0x3fc249349338a15c	0.1428590506414008
117	0x3fb5f808d0bd77c3	0.08581595512575206
118	0xbfcff482c68758da	-0.2496493787172714
119	0x3fd30637b5766293	0.2972544929594189
120	0x3fd627977f99aee1	0.34616649113625725
121	0xbfcc9836c4bb31b5	-0.22339520078675226
122	0xbfe94b95fedfcbd6	-0.7904767969142721
123	0x3fca39c6c79fea0c	0.20488819834993455
124	0xbfa31d258f9a74fa	-0.0373317468449645
125	0x3fe0ebbb06802492	0.5287757040943168
126	0xbfe8bbd6b9acb206	-0.7729295374352325
127	0xbfcfbfafdbc91f28	-0.24803732139320656
128	0xbfb14e423e2f108f	-0.06760038393173516
129	0xbf9a048f352a3a98	-0.025408017749720985
130	0x3fe90123b5116f19	0.781389096878658
131	0x3fea4a90fc3a53a9	0.8216023374867422
132	0xbfd299349c20a5c7	-0.2906009220774561
133	0xbfe4bd2e3a48b3cd	-0.6480933321341752
134	0xbfe7bd96938c9cb5	-0.7418930894681554
135	0x3fd6668db2ddc2a5	0.350009369539331
136	0xbfdb76bc48a7556c	-0.42912203879435284
137	0xbfee42f6364f05ac	-0.9456740437237179
138	0x3fa1eb6be0333836	0.03499924766366329
139	0x3fe5dab457937f76	0.682947321936793
140	0xbfc4e7bcee767b71	-0.16332208293621478
141	0x3fd77888fa707a5c	0.3667318769165939
142	0xbfe1e72afbf7c807	-0.5594687386749236
143	0x3fd3a8c8d60c1718	0.3071767893128352
144	0xbfe5c4313e942f74	-0.6801992628329416
145	0xbfc4f7f31fe3f2d8	-0.16381682450437185
146	0xbfdf2968a90f6917	-0.48690239438805477
147	0x3fc9d84bf255020a	0.20191335041637642
148	0x3fb368d0ad4ae234	0.07581810217642088
149	0xbfdddc81d4295d48	-0.46658368796257266
150	0xbfc01c05322cbf76	-0.12585511159840806
151	0x3fd88b8f286be634	0.3835180182209996
152	0x3fdbb9a04cb1148e	0.43320472230363627
153	0xbfd7398408100a64	-0.3628854826676273
154	0xbfe9b3fb0ea01db3	-0.8032202993062384
155	0x3fee0a17a57093b9	0.9387319785351941
156	0xbfd6ecd8dfae8fe3	-0.35820600360807314
157	0x3fd8d5515bb9ed95	0.38801988561291384
158	0x3ff1244bf745ceef	1.0713615092362792
159	0x3fc5bccbd2d232a1	0.16982410234449666
160	0xbfd06152791251dc	-0.25594007323641477
161	0xbfd362591c09aa02	-0.3028776906782299
162	0xbfeeb8f92916eaf0	-0.9600797464875921
163	0xbfb419669c8cd387	-0.07851258584999075
164	0x3fdb3a567f757723	0.42543566176560627
165	0xbfda23947a03cd38	-0.4084216300536414
166	0xbfad95bdbe357534	-0.057783059567308476
167	0xbfa44dbc89d7a451	-0.03965558226247679
168	0x3fe6e4ac054336f8	0.7154140570434881
169	0xbfd18822427020f4	-0.2739339493569013
170	0xbfaa49c4532d5acc	-0.05134404673906587
171	0xbff4ba3752dfac35	-1.2954629170660727
172	0x3fdc3042e6bd1fbc	0.44044563801844183
173	0x3ff200844b5f109c	1.125126165789914
174	0x3fcf59fc3bffd962	0.24493363313349464
175	0x3fa9051ec0fc9dad	0.04886718850894609
176	0xbfe02ddc06883f78	-0.5055980804045097
177	0x3fba1c2373c82cfa	0.10199185921389989
178	0xbfabaea9f782dcb9	-0.05406695505501475
179	0xbfdf2d82671647cd	-0.4871526724538143
180	0x3fca8716dbd4f7bc	0.20724759801845305
181	0xbff1bad726f7533b	-1.1081153413881129
182	0xbfa734eaecbcc148	-0.04532560481891551
183	0xbfdf63d346b3756e	-0.49046785263438764
184	0xbfc52446e3e9a98c	-0.16516958359291
185	0xbffbc22aa2d40eca	-1.734903942154164
186	0xbf97fd71c13e0b1b	-0.023427750987603618
187	0xbfd2a129eb9240dd	-0.29108665471086487
188	0x3fced33d9f9ec7d4	0.24082155508000247
189	0x3fe758ef78d33b70	0.7296063766351448
190	0x3fa15c59e49c633a	0.03390770831737773
191	0xbfbe2657075d6fb5	-0.11777252130326483
192	0x3fd254c50633e61b	0.28642392736182537
193	0xbfe6fc124e5fb472	-0.7182704478015138
194	0xbfc0c10c2dd593b5	-0.1308913444328518
195	0x3fd517e2bc020648	0.3295828662886362
196	0x3fb56507c6c53b31	0.08357285120767412
197	0x3fd3739cd00dd310	0.30393143003247847
198	0xbfd35a8588152279	-0.3024000004702781
199	0xbfc0f035514ababf	-0.1323305746968426
200	0xbff9e2f0e1a3e537	-1.6179055036612462
201	0xbfe542215cfa7e35	-0.6643225494371509
202	0xbfdcea769388e858	-0.4518104973573194
203	0x3fa988d10d8f3268	0.04987195292014662
204	0x3fd7067946ee16d3	0.3597701256443148
205	0x3fbd57ce242c72da	0.1146210516275902
206	0xbfdb714f77542ba0	-0.42879091885759557
207	0xbfd7423ffae2d9cc	-0.36341857433890534
208	0x3faa3316a8175be9	0.0511710243405828
209	0xbfd52d25089ae6f3	-0.3308804115327881
210	0x3fc4cc9b650b8feb	0.16249411043020187
211	0xbfeae9b8d3ea147a	-0.8410305155708919
212	0x3fc85ad1aa3ea700	0.1902715760491489
213	0x3fe909f4e1660e7c	0.7824654009168195
214	0x3feb217d0be627cb	0.8478379471209733
215	0x3f937884a14864a8	0.0190144275130463
216	0xbfcc23ea1a9e1b22	-0.21984602260291647
217	0x3fe12afd210c0ad9	0.5364976544809351
218	0x3fe463cf9bccc87c	0.6371839564292396
219	0xbfe6cc628e91cb0f	-0.7124493393479002
220	0x3fd0d886db3f9bbc	0.26321574603064923
221	0xbfa1e653e090751f	-0.034960385477669435
222	0x3fe20be9644b4fa5	0.5639540633078367
223	0xbfcbe0869f627b73	-0.2177894857640826
224	0x4010e256bc878789	4.2210339982719995
225	0x3ffdf0bd8ef44657	1.8712745269916888
226	0x3fe73891987d5b44	0.7256553629220908
227	0xbfd14539d69a077c	-0.26985021550364485
228	0xc0000b997e5bdf4c	-2.00566385953781
229	0x3fef20e8f834d333	0.9727673385410526
230	0x400cca6955d1965b	3.59883372350559
231	0x3ff734d63a6e273a	1.4503996164734887
232	0xbfe0bbff55c086d2	-0.5229489016384952
233	0xbfdfa35a4bd4975c	-0.4943452587634647
234	0xbfb8792087a43f16	-0.09559825240671346
235	0xbfe0aa3e4bd28248	-0.5207816582588487
236	0xbfdf5a958257b85f	-0.48990380982184506
237	0x3fe08e2318571cbd	0.5173507190128458
238	0x3fe7eb7b867e16fd	0.747495424919833
239	0xbfcab7cf4a9b859c	-0.20873442786163998
240	0xbfd10d919a600d45	-0.26645317149833075
241	0xbff334aa5652a4e0	-1.2003577587113838
242	0xbfebaa40c4a01173	-0.8645328369462234
243	0x3feb1a405826c88d	0.8469545098980845
244	0x3fd377025f0b7481	0.3041387489482262
245	0xbfcb528643e97a48	-0.21345594707504945
246	0xbfe997028598bf61	-0.7996838197050061
247	0x3fcea61045718139	0.23944285765447562
248	0xbfc0fac975bdc5c4	-0.13265341042601453
249	0xbfd2d6e10992df6e	-0.29436517653402106
250	0xc0006d605e42e899	-2.053406464020622
251	0xbf83dfd848c8ae0a	-0.009704293938816572
252	0xbff10fb9a5703279	-1.066339155429118
253	0xbfdcabc79c11f2e7	-0.44798460236761034
254	0x3ff0fd259ea96f24	1.0618034551361655
255	0x3fe92998d56646e3	0.7863277595481261

lstm.weight_hh_l1 f8 [32, 8]
0	0xbfa26bb0f30d0df9	-0.035977868718443724
1	0xbfe25e011d3833ea	-0.5739751406377966
2	0xbfd5c1f905b49551	-0.33996415669601726
3	0xbfd5468dd2412e95	-0.3324312737720246
4	0xbfe4b1b28b51fa1d	-0.6466915818307971
5	0xbfd43e7846a480c1	-0.31631285570803064
6	0xbfe92a0a23df5ecc	-0.7863817883143951
7	0xbfe1945073f55bb1	-0.549354769212064
8	0xbfc42fb0d641e25b	-0.15770540677819408
9	0xbfd5d91277f727e8	-0.3413740321672081
10	0xbfbffc0db19c99cd	-0.12493978105758359
11	0xbfd7ad932b31e404	-0.3699691697907499
12	0x3ff9239d8fb9e900	1.5711951841645373
13	0x3fb4cae029006aa0	0.08122063637748989
14	0xbfdf2c28f4b3ce24	-0.4870703115149999
15	0x3fdce8d46e1a01ae	0.45171080352886406
16	0x3fc777a623c8a768	0.18333889720207286
17	0xbfe0d015bfc9a478	-0.5254009958126877
18	0x3fc119a13fe6570e	0.1335946619043899
19	0xbfd6f36ee0ac1e1f	-0.3586079782548683
20	0x3fec9807a6e34089	0.8935583362126788
21	0xbfd3854f3811b8f8	-0.3050115630675374
22	0xbfe7e771e74d49be	-0.747002555619751
23	0x3fd9fa55ce565cc3	0.4059042468083584
24	0x3fe47abd1ec8d042	0.6399827576883654
25	0x3fc6d66b3364faf5	0.17841854104513968
26	0x3fd179704740525e	0.2730370231450133
27	0xbfe459328ade814f	-0.6358883583343785
28	0x3ffd5c421e0f2f1d	1.8350239919845486
29	0xbfd6b7a9eeb3569d	-0.35495994864082
30	0x3fd446f150101943	0.3168299943794361
31	0x3fd05b5587506318	0.2555745908189677
32	0x3fdbe1f9887057a1	0.43566740345101534
33	0xbfed950fcad76657	-0.9244460069414328
34	0xbfe3ab3e41c488d3	-0.6146537098432198
35	0x3fe43ad2c88b9c53	0.6321805874730536
36	0x3ff3bbe6a21fbad0	1.2333742459265302
37	0x3ff2f93c21326a91	1.1858483597522176
38	0xbff03e83caf402c9	-1.0152624061449151
39	0x3fe64ecb95de7dc2	0.6971185614710793
40	0xbfdf72b0aa52c38b	-0.49137512810835265
41	0xbfd6d9525884640a	-0.35701426166775774
42	0xbfea6fbfe6a4f50f	-0.8261413101933232
43	0xbff080b7fd78d552	-1.0314254666567035
44	0xbfed681a4e2f6c4a	-0.9189578558974827
45	0xbfb0fdfc2a268d23	-0.06637550381724515
46	0xbfe6ac9555e1efb5	-0.7085673024553133
47	0xbfeca623d07db268	-0.8952807495202935
48	0x3ff2b1036ef63435	1.1682161650126208
49	0x3fe246c93f128109	0.5711408836250779
50	0xbfb733b6234c25ce	-0.09063280450586506
51	0x3fb43b419b4a0354	0.0790291790126621
52	0xbfdf618879865040	-0.4903279482616689
53	0xbff138fadfc96102	-1.0764111272492873
54	0xbfd7c0e5e431ec64	-0.37114856037778154
55	0xbfa3ad8483c63283	-0.03843320950099829
56	0xbfe82139834c8516	-0.7540557445937874
57	0x3fc3ab9f6ac4e747	0.15367500985467528
58	0xbfd2570baac6b39c	-0.28656284024583
59	0x3fef12c5548beb16	0.9710413600253982
60	0x3fe2f3bd8076967a	0.5922534474418193
61	0xbfbceaea9394c1ef	-0.11295953848890126
62	0x3fb9c2da19af2b83	0.10062945487076828
63	0x3fd89af0235d66bc	0.38445666745756646
64	0xbfb65edb87b02cb9	-0.08738491118144766
65	0xbfd5f80fb7251d92	-0.3432654655957431
66	0xbfd77f4316fda1a3	-0.3671424603003521
67	0x3fb81e6d793224de	0.09421428879626911
68	0xbfe12f98fe13e726	-0.5370602571922276
69	0xbfe9893bf71d6cfe	-0.7980022264922864
70	0xbfec3c756c74ad95	-0.8823802107121305
71	0xbffc060ac046c3dd	-1.751475096778669
72	0x3fea858f6ed3eb61	0.8288037457090064
73	0xbfe89e1cef147a4e	-0.7693009061366156
74	0xbfd8e199cf6ddced	-0.3887695813823047
75	0xbfedcc064fe61c44	-0.9311553535961896
76	0x3ff54e5e3f6da862	1.3316328504247612
77	0x3fdafd82c7c4b5ba	0.4217230749953519
78	0xbfe43be2b05c63eb	-0.6323102421330281
79	0xbfcc705f5479256a	-0.22217933296841902
80	0x3fdfd855b3ca0905	0.4975790267709644
81	0xbfc1350bb37197ec	-0.13443132650280576
82	0x3fe3762322e366b0	0.6081710511600331
83	0xbff0bee8c2ddfc62	-1.0466086971280437
84	0x3ff768662c560765	1.4629880649449316
85	0xbfdd594c27616f41	-0.4585752853943071
86	0xbfde8d02d9992f57	-0.4773566365226904
87	0x3ff0b67d69de4de2	1.0445531974299844
88	0x3fe1e8a922af65bd	0.5596509625858556
89	0xbfdf3b6edf94bcc2	-0.4880025084884886
90	0xbfcedce3a0ac95ee	-0.2411160025159655
91	0xbfec002477a41b3f	-0.8750173889864995
92	0xbfce39b4a82c1dc3	-0.2361360379365874
93	0xbf7bcd20415c95cd	-0.006787420270290179
94	0xbfc8dceac0960ebd	-0.19424185184117518
95	0xbfed1aec100a0ad2	-0.9095363915697254
96	0x3fd96ec5525ca7c7	0.39738591235311244
97	0xbfe24ec59364cf6e	-0.5721156958374942
98	0x3f938ec0bf2eccf8	0.01909924666297244
99	0xbfc6f47dbab005cb	-0.17933627715687658
100	0xbfc775f6430123ef	-0.18328741332723505
101	0x3ff0969fd24b24ee	1.0367735113707641
102	0x3fb6a02cfc0a0df8	0.08838158753683689
103	0xbfe4358fbd19296f	-0.6315382664991328
104	0x3fd130c806db8422	0.26860237760235084
105	0xbfd187ee5a8eddb4	-0.27392157405435147
106	0xbfcdbdf48cdb7c10	-0.2323594749240958
107	0xbff209b242978440	-1.1273672677273368
108	0x3fb18acd4f954973	0.06852420037220046
109	0xbfd696db8abd8baf	-0.35295761631840156
110	0xbfe161efca62863e	-0.5432051613644899
111	0x3fc8fbf1900f1745	0.1951887086308323
112	0x3ff0b81d066419ea	1.0449495553635821
113	0x3fecafbc4f9b9e41	0.8964520983544803
114	0xbfda31000b6c9df1	-0.4092407332959445
115	0xbfb34891c29d1eb5	-0.07532607079803706
116	0x3feef6eed1db5158	0.9676431750072352
117	0xbff5010441d5df6e	-1.3127482005783935
118	0x3fc08df95266877c	0.1293326999994483
119	0x3fde10c7b13cea45	0.4697741728629448
120	0x3fe162e30c9f89ee	0.5433211561724514
121	0x3fcada0d16a3fde1	0.20977939229486167
122	0xbfc9503709ec6fcc	-0.19776046738195274
123	0x3fe43a8ded610529	0.6321477543171216
124	0x400481fb8b03af2e	2.563468061494766
125	0xbfea729736e359c5	-0.8264881202729205
126	0x3fe1d31ca7a73be6	0.557020499656457
127	0x3fd0b144232674c3	0.2608194678558215
128	0xbfc5f0c6b8f2cac3	-0.17141040831264406
129	0xbfa0a4a7085b2700	-0.03250619866373761
130	0x3fdd6001e76b9a4f	0.4589848289455504
131	0x3fd03a35b97f654e	0.2535528480053316
132	0x3fd65d5f2dc9cfe8	0.34944896193996877
133	0x3fd8b5f1df873d7d	0.38610503033574856
134	0xbfc669b6c5ba86ce	-0.17510113386838672
135	0x3fe2b73a3a954f85	0.5848666328624722
136	0x3fdb836cea5abfde	0.4298965729349201
137	0x3fd9414aa5fa2669	0.39461008270936887
138	0xbfcd1227cde92596	-0.22711656145319797
139	0x3fd6b31b3c7f1063	0.3546817866119964
140	0x3fd4dccfba1d41db	0.32597726035331015
141	0xbff8458644d0e2d3	-1.5169737518428306
142	0xbfe62370331dc31f	-0.6918259619106698
143	0x3fadf80f0724bdd9	0.05853316271020121
144	0xbfafabc0adea0408	-0.061857243757010905
145	0x3fc3fc6b3a78d546	0.15614071230963072
146	0x3fb22c11020afb6b	0.07098490047336063
147	0x3fd2e5a697defc5c	0.29526676970630716
148	0xbfdcb2f5ed388e52	-0.4484228912935794
149	0x3ff1aa963947c5b7	1.1041471707834327
150	0xbf9ca4528d4b8e3c	-0.02797059047123994
151	0x3fd31d508b9e388b	0.29866422304702017
152	0xbfee6f5308e72009	-0.9510893987544488
153	0xbfe9dde16e2fee15	-0.8083350326627988
154	0xbfda6a62dd94900b	-0.4127432979460088
155	0x3fca770a157f572e	0.20675779390028864
156	0xbfec175347907164	-0.8778473279703971
157	0x3fc71b50de8fe581	0.18052111499109105
158	0x3fd01c323636ba35	0.2517209557944711
159	0x3fce3d5bab4da5df	0.23624750008029502
160	0xbfd2a9f68234fa7f	-0.29162371364137835
161	0x3ff143a1dce7dddf	1.0790117863779114
162	0x3fd8c040e7a4ce18	0.38673422452413453
163	0xbfe335ed298f036a	-0.6003328143780042
164	0xbfca7cf95b3450ca	-0.20693890527093678
165	0x3fea174288653fe6	0.8153393424963695
166	0x3fb65917447041cf	0.08729691906797331
167	0x3fce152b842c6194	0.23502105668809448
168	0xbfe34e24362cdaf3	-0.6032887514218984
169	0x3fccac6211ed5632	0.2240107142958308
170	0xbfd1ec10868d80c3	-0.28003323688427545
171	0xbfdf94521118abdb	-0.4934277693707238
172	0x3fa6225637ae33d3	0.04323071889584864
173	0xbfd6ac475ff9fc66	-0.3542650639792043
174	0xbfe903b49bff738c	-0.7817023321946279
175	0x3fdb3b29b69e294b	0.4254860194565892
176	0xbfd877fd29992739	-0.3823235422356564
177	0xbfc450ed03d5ab58	-0.1587196606372696
178	0x3fd9723539d19b37	0.39759569784512244
179	0xbfd31a2698efd367	-0.29847111640201834
180	0xbfb1c703385e75ba	-0.06944294096179862
181	0x3ff107243d901967	1.0642435459900186
182	0xbfa52f13fe337ee9	-0.04137480238000341
183	0x3fc1bab8e80d799b	0.13851081209845692
184	0xbfd24cfa9732ff65	-0.2859484173350125
185	0xbfbc00ba3fef65e7	-0.10938610134999004
186	0xbfbccb6479c8d0f3	-0.1124785229993142
187	0xbfdab955f00766aa	-0.41756199302981634
188	0xbf908402b5d9a329	-0.016128580426456516
189	0xbfc749cea91a4475	-0.18193991906131016
190	0x3fdd64e07a62e02b	0.4592820353677804
191	0xbfe09d778ff78059	-0.5192220508433919
192	0xbfd4d8a586fe3178	-0.32572305853752637
193	0xbfd62affd61db67e	-0.3463744727112966
194	0xbfd45aa2f313eefb	-0.3180320142562178
195	0xbfde6665c79cabb6	-0.47499985211714646
196	0x3fb7b7a7800b3469	0.09264609218662802
197	0xbfc52963ae3bce4f	-0.1653256035566408
198	0xbff1d3a54edfcf4a	-1.1141713219667104
199	0xbffe3649694da426	-1.8882536042604072
200	0x3fefcf477a8398e4	0.9940526383259365
201	0x3f98112cf3921dab	0.023503019682292663
202	0x3fa51600a7abdf3a	0.04118349119920457
203	0xbfc4ac136dede45a	-0.1615013396038048
204	0x3ff802c0e06946d5	1.5006722227157543
205	0xbfe7aa15317d932a	-0.7395120588886119
206	0xbfe514da4cff85e1	-0.6587955001706939
207	0x3fe4469635ac242c	0.6336165474214162
208	0x3fe4d784e64b5a93	0.6513084886490382
209	0x3fd130ab042ed6c6	0.2685954609727158
210	0x3fcfe553652afbae	0.24918596687163358
211	0xbf9bf92d032584c4	-0.027317717854548076
212	0x3ff0013751d0bfbc	1.0002968974986137
213	0x3fc346f77168259c	0.15060322797243664
214	0xbfcbac952c39e22b	-0.21620430621602912
215	0x3fe8235c3a2d42a7	0.7543164383187858
216	0xbfc8f30c61a5b01a	-0.194917247466379
217	0x3faab5c0f04c1c31	0.0521679204303428
218	0x3fd23c3cd4f6aa37	0.2849266128274936
219	0xbff07053a756a304	-1.0274235283524726
220	0x3ffafa08f30a1476	1.686043691036756
221	0x3fef7531bc6a6d41	0.9830559425348967
222	0x3fd8b07a74de5371	0.3857713834088861
223	0x3fecbe9af6bdf9c6	0.898267251890325
224	0xc005b424b93c9098	-2.71296066967086
225	0xc001de2abbe0adc7	-2.233479945940164
226	0xbffc3454e80b39b4	-1.7627762855732785
227	0x4018d550b48ca427	6.208315678676661
228	0xc0052ce21fdfd1f8	-2.646915673273039
229	0xbfbf3ef3a6588249	-0.12205431758094067
230	0xc00740b1f1b9bebb	-2.906589401703824
231	0xc00f7973251a0599	-3.9343016527715915
232	0xbfb00641784a691e	-0.0625954550436387
233	0x3fa60506c846ac85	0.04300709910179371
234	0xbfa08fe87cf3ed7b	-0.03234793210318806
235	0xbff6fd77e4b1b4b7	-1.4368819173208018
236	0xbff17496ebc1b74d	-1.0909642419096202
237	0x3fbe498c7ba6e458	0.11830976504178758
238	0xbfd0eab5fc7b3045	-0.26432561546676353
239	0x3fe751350bd94e11	0.728662989752083
240	0x3febb3039b8ca289	0.8656023061822263
241	0x3ff99c0645a9df4b	1.6005919190628954
242	0x3fca2c3afb0cddd1	0.20447480448068103
243	0xbfc114244eedac5b	-0.13342717985082939
244	0xbfde537932ccb60c	-0.47384481392768474
245	0xbff59644ad4c0136	-1.3491865891847517
246	0xbfbca3fdd0a04aeb	-0.11187731116687487
247	0x3fcb029b536d0c6e	0.21101705144437538
248	0xbff697c1b99eb7aa	-1.4120499850064143
249	0x3ffafc232ad3f63b	1.6865569756477174
250	0xbfd6452c38cdfa10	-0.3479719691021339
251	0x3ff0f4e7e5950a45	1.0597914665273873
252	0x3fa6e010abe0086f	0.04467823122105662
253	0xbff0cd5dfe18db11	-1.05013846642186
254	0x3fe11859b4631cc8	0.5342224620043448
255	0x3fe44099c6be178f	0.6328858262720461

lstm.bias_ih_l1 f8 [32]
0	0x3fbe6254825c2b70	0.11868789847009764
1	0xbfa42ba8ada541b4	-0.039395590970005584
2	0x3f90fdd56b5234ce	0.016593298602448674
3	0xbfd33f7357e8eaa5	-0.30074771485275625
4	0x3fb7acbb4957d54b	0.09247942486384379
5	0x3fdeb2167d921a2f	0.47961961996807906
6	0xbfd9163e679287eb	-0.3919826518487059
7	0x3fe8af7a6950b3dd	0.7714206749857301
8	0x3fc33aa0e0fedaa6	0.15022669778928338
9	0x3fbfdcbd7dccb842	0.12446197816163454
10	0x3fc324217d03feae	0.14954012493398267
11	0xbfa14427d963421e	-0.03372311142596039
12	0x3fe50f50de37238d	0.6581196155685675
13	0x3f564e1caf8f6c50	0.0013613968023864671
14	0xbfdbd6ccddac161d	-0.4349853672759723
15	0xbfe6f49ed68d43da	-0.7173608961548965
16	0x3f84ac8aa1840877	0.01009472184569325
17	0x3fc0dbd1f3fbea84	0.1317083779648166
18	0xbfcceaa3e24dbe19	-0.22591064977631062
19	0x3fb83adbd211657a	0.0946481120930879
20	0xbf8abfab217bd4ba	-0.013060891112653617
21	0xbfa0d82e43cdf25f	-0.03289932801906014
22	0x3fbf72a34545f18c	0.12284298363915108
23	0x3fc55195d4fb5375	0.1665522851896203
24	0x3fb222cad70c6873	0.07084338903624303
25	0x3fccdd99d4c2b721	0.22551272286130433
26	0xbfb0c2401c9541a4	-0.06546402643039656
27	0x3fcb45e59f2ab68a	0.21307058593577138
28	0x3fe672e860f3a352	0.701526822432337
29	0x3fe5dcc775b5210b	0.6832005785918523
30	0xbfd6332a0311e670	-0.34687280940816034
31	0x3ff552f01d90a51c	1.3327485232242173

lstm.bias_hh_l1 f8 [32]
0	0xbfc2c0b3a7bced62	-0.14650579157192128
1	0xbfd0292f49b7c907	-0.2525137157346226
2	0x3fbd919b30a9e00c	0.11550302446437416
3	0x3fc7dbb477449a0c	0.18639236281997318
4	0x3fcc274e2161f44f	0.21994949941646033
5	0x3fdb9389ed82394c	0.4308800525112886
6	0xbfcf3aad9b8ca163	-0.24397821517164706
7	0x3fe82ee51b55ee09	0.7557244810008693
8	0x3fd36c852a8c3499	0.30349854617163313
9	0xbfc0cb950491db9c	-0.1312128326714771
10	0x3fc37df537a33cb8	0.15228142944986245
11	0xbf97e0f64913a750	-0.023319099626781636
12	0x3fe5f554b157abbf	0.6861976112098701
13	0xbfd07340d3ecf4c7	-0.25703449912891724
14	0x3f97c4b50e5c2544	0.023211316110097316
15	0xbfe06f4cb889bb73	-0.5135863880403647
16	0xbfdbee75f7e3ea00	-0.43642949302707734
17	0x3fb4a22ee1ba62bb	0.08059971819819627
18	0xbfc3ccdace135456	-0.1546891695240073
19	0xbfc02f15cedbc7f8	-0.1264369258929603
20	0xbfd069fa42b96d2b	-0.25646835819289276
21	0xbfcbb4101d68586d	-0.21643258510511335
22	0x3fb3ebaa5704c524	0.07781471847990368
23	0xbfdb6cda24ee385b	-0.42851880651949664
24	0x3fc20a73519fabbc	0.14094392285855217
25	0xbfc512123a6c859e	-0.16461398937921684
26	0x3fc9c80c51d7e977	0.20141748424778047
27	0x3fbadb74cc40be68	0.10491113649981687
28	0x3fe87c394655aedd	0.7651640294766043
29	0x3fde6557ca0003bb	0.4749354813248449
30	0xbfd6c3a21fbb74af	-0.3556905088315245
31	0x3ff6047b08227c9f	1.3760938947450894
