Ventil_trained_NNs/lstm_ws16.pth (torch, 4188 bytes, 6 tensors)

lstm.weight_ih_l0 f8 [20, 3]
-1.3300606007933513 -0.8147189527419301 -0.9488372910816859 0.7678544768258232 0.32427645413563316 -0.07287625236931912 -0.9125202719343818 -1.0940906531583159
-0.5652879335622073 -0.608937958225675 1.731418083976357 -3.20565847071187 -0.7916882553674018 -3.9821486516782607 0.3245791474048518 -0.49156563815353205
-0.3670127892392944 -0.632190130122472 0.4259267499531316 0.020227523290866897 -0.16990121940100048 -1.3408960420007792 -0.5897941011595628 -0.48497781292911957
0.7211129788668422 1.7850185516498007 -1.7257064648336582 -0.49216854202635435 -2.81473158039608 0.41791257898812445 -0.2391428664069018 0.5744103514490163
-0.7661083133102488 -0.4668181359052472 -0.2545364896684651 0.16607431670974857 0.02630545013060061 -0.563463607736013 0.8789540154294998 0.3523188557930392
1.289328341490761 -0.867676289548889 -0.6602597851429118 2.0024341378176014 -1.084607217553654 -0.7400875941508368 -0.9105958527083279 -0.38471617594710006
-2.2383931445993177 -1.4732225734100446 0.6585355069071847 -1.3295815549489205 -0.9412386724884854 0.08465767937849279 -0.1842062887412762 1.1083442562597434
-1.4649585898089499 -0.26043954303312955 -3.2594873690578625 0.07856409888916045
00000000: 5bb0 e19f ed47 f5bf 9aa7 2e7b 2d12 eabf
00000010: 6f79 cd05 e05c eebf 31bb 418d 4392 e83f
00000020: 5d06 5807 f2c0 d43f fdcd 94a0 04a8 b2bf
00000030: 73a5 9cb6 5d33 edbf b6c9 6233 6581 f1bf
00000040: a523 6fb8 d616 e2bf c9e9 fb74 6b7c e3bf
00000050: 5c1a e672 e3b3 fb3f a6d2 ae44 30a5 09c0
00000060: eac4 ad9b 8255 e9bf 2526 96c0 70db 0fc0
00000070: 4f50 c49d e7c5 d43f 0c3c edb8 cf75 dfbf
00000080: d3c6 bf35 237d d7bf 2d5c b7cb e63a e4bf
00000090: c893 6245 6242 db3f 0cac 0d1c 86b6 943f
000000a0: 555c 70ba 52bf c5bf c2aa 7b68 4f74 f5bf
000000b0: 4754 fbe0 97df e2bf 343c 7461 e009 dfbf
000000c0: 0689 9e86 5b13 e73f 496d e19c 6f8f fc3f
000000d0: 274d cf61 7e9c fbbf 67e2 077c b07f dfbf
000000e0: 758e a6fd 9184 06c0 21d3 d566 14bf da3f
000000f0: 1a09 25c3 3b9c cebf f3a2 3ed1 9161 e23f
00000100: 478f db94 f583 e8bf 5322 b92c 59e0 ddbf
00000110: d6f0 b06a 534a d0bf 4ba9 7c57 ec41 c53f
00000120: 85e8 11e0 d0ef 9a3f 8fcb f6d4 e407 e2bf
00000130: 81a4 de2b 6420 ec3f ab4b d962 648c d63f
00000140: cb23 48c1 16a1 f43f 3e11 e410 01c4 ebbf
00000150: 7bb0 0121 d920 e5bf 7f90 7230 fc04 0040
00000160: 4360 0619 8d5a f1bf 87b3 a12d ccae e7bf
00000170: 112d e8e9 9923 edbf a8d6 7b98 309f d8bf
00000180: 4828 3daa 3ae8 01c0 d066 48d5 5192 f7bf
00000190: fb79 2d0e b912 e53f 53ed fd4e f745 f5bf
000001a0: 2631 8290 a01e eebf 712f 492c 20ac b53f
000001b0: 8c3f ee58 1294 c7bf 4a85 d52f c7bb f13f
000001c0: 5a94 136b 7870 f7bf 0266 fa9d 0aab d0bf
000001d0: faa0 1e1d 6e13 0ac0 1d60 5edb c61c b43f

lstm.weight_hh_l0 f8 [20, 5]
-0.20769160628501934 0.5833819316304066 0.4141743406599254 0.23605598826889362 -0.9075367319703433 0.02686073761797844 -0.44699079270489855 -0.18154684081028905
-0.17179891277289538 -0.02922118641130822 -0.40103215607686904 1.0646271485612295 0.3089277999570264 -0.5373032743478657 -0.35555758891425776 0.006346952546651163
1.4732222892602351 -0.1541400219285827 1.8342893924380983 0.6966691120804833 -0.27991271988606203 1.0831515000582141 -0.2239037343224797 -0.30016433860888786
0.13325643346043806 0.022709072701011003 0.7117906159303093 -0.16196690102036093 -0.06268236780791953 -0.760340114278798 -0.07986145471161402 0.11749317438034042
-0.5551679265817608 -0.3368826614193491 0.5739533258455425 -0.20889093075792087 0.2938862809146917 0.09438028306057246 0.32131340952302334 -0.1672706505945088
0.06805812477067978 -0.317362804865742 0.4154490465226307 1.1370187826198457 0.7618841376863271 -0.03398302314778096 1.0757437056627783 -0.2965293392516652
-0.26388020669962226 0.512833489161684 -0.36989139555405653 -0.008526366312370245 -0.1730502291607072 0.2559604823688455 -0.46538809525493874 0.3240387445999759
0.6912080244308784 -0.10119904752484712 0.19713839938179983 -0.6390464911150785 -0.3963089050936243 0.088659176417519 -0.507054532858398 -0.6099337488095038
0.39453365083283326 0.7437865917666181 0.449462792606199 0.36381624971636867 -0.2687874253403625 0.747308791366002 -0.3787802345929053 0.002685358700112114
-0.14913070593521963 -1.186217177351524 -1.0991799399631956 -0.6543793557448435 1.0396067725176434 -0.09021467221491111 -0.1741627116202274 -0.6969388576277343
-0.09941482769871514 1.7685908642256496 -0.7494167340886759 -1.2708686446207136 0.5445551302891154 0.18863314238283022 1.131791971752365 -0.22781722788616768
0.05782569373327905 -0.2932482817952099 0.7304391750457504 0.8567021050761594 0.2235127314058488 2.1702447649618044 0.27920435256813114 0.044367427639188016
0.7680347127278804 -0.2159406415540509 0.40284215234939663 0.34859350685863544
00000000: 47ed 5278 a395 cabf c7c1 ad95 10ab e23f
00000010: f482 fe17 d581 da3f dce6 d126 1537 ce3f
00000020: 2867 f778 8a0a edbf 176e 7696 6181 9b3f
00000030: 3ff6 1145 7f9b dcbf a474 fc47 ed3c c7bf
00000040: 6089 ecbb 81fd c5bf e092 f29f 28ec 9dbf
00000050: 38a6 bfc6 82aa d9bf 4311 187a b608 f13f
00000060: 8d00 691b 79c5 d33f 1773 eba2 9631 e1bf
00000070: 6dce 0e9e 74c1 d6bf 66c4 df19 43ff 793f
00000080: 80c6 0189 5192 f73f e90f 9838 dcba c3bf
00000090: d1bd 7ed5 3f59 fd3f ee9b 9005 1d4b e63f
000000a0: 6c48 690a 17ea d1bf 5fd0 d5aa 9654 f13f
000000b0: 7104 2fa8 e0a8 ccbf 8b0a 707c e435 d3bf
000000c0: f1da d8fb 8b0e c13f aa16 4b12 0c41 973f
000000d0: eaa6 201d fdc6 e63f 9c5d 75d7 54bb c4bf
000000e0: ec56 c59f f30b b0bf 4642 95ca b454 e8bf
000000f0: aa86 32e0 cc71 b4bf 5d7f 775d 0814 be3f
00000100: 0a9e 0e87 efc3 e1bf c6ac 584b 7c8f d5bf
00000110: 34fc 7d5d d35d e23f 84a4 0422 f0bc cabf
00000120: 0a63 5167 08cf d23f c1e3 2165 4e29 b83f
00000130: 9eba 6a1e 6690 d43f d228 f1ea 1f69 c5bf
00000140: 03fe 1ddc 416c b13f 4c5f f714 ac4f d4bf
00000150: 6e05 fe98 b796 da3f b8a3 649b 3a31 f23f
00000160: a586 d6d7 5a61 e83f a9ee 130a 3966 a1bf
00000170: 1531 2b08 3f36 f13f 2bfc 9831 56fa d2bf
00000180: d18a 75ce 69e3 d0bf afc6 07c7 2169 e03f
00000190: 877e bef5 4cac d7bf 7e07 b983 4576 81bf
000001a0: dfbf 6789 8226 c6bf c4ec 3513 a861 d03f
000001b0: 1c55 4426 ebc8 ddbf 1b67 ac00 0dbd d43f
000001c0: 813a 754a 601e e63f ea6c 8147 2ee8 b9bf
000001d0: 0eb8 10c1 d43b c93f 65cf 7ea0 1173 e4bf
000001e0: 5f67 9f06 205d d9bf 1a1b 3427 5eb2 b63f
000001f0: c44a 7d6d ca39 e0bf c6a1 fbc7 9384 e3bf
00000200: 75e7 df11 0a40 d93f e1e8 da89 19cd e73f
00000210: 11cc c096 ffc3 dc3f 4540 92f3 c348 d73f
00000220: ee6c 5a2c d033 d1bf bdc4 5d20 f4e9 e73f
00000230: b5a7 fc73 ef3d d8bf 12ba 70f9 9aff 653f
00000240: d11b 6908 b716 c3bf 05da eadc befa f2bf
00000250: 8cfa 68b4 3d96 f1bf bd40 83f9 acf0 e4bf
00000260: 3f9d 0ab6 3aa2 f03f 924b c80a 4f18 b7bf
00000270: 1ab8 4bb7 f64a c6bf b753 1ab8 524d e6bf
00000280: b915 b409 4073 b9bf 1ba8 1def 254c fc3f
00000290: 3e8d 7fcd 38fb e7bf 6586 225c 7a55 f4bf
000002a0: a0be 6ee1 fe6c e13f 7fec bc7c 2125 c83f
000002b0: 06d4 08e6 d11b f23f a144 9e6b 1d29 cdbf
000002c0: 7fe8 e74e 549b ad3f a6ca fa70 94c4 d2bf
000002d0: 2c3d 11fa c15f e73f 3eed 7688 1a6a eb3f
000002e0: 335a d0af 109c cc3f f89b 8e49 a95c 0140
000002f0: 2095 cbee 7bde d13f 5398 6fd5 53b7 a63f
00000300: f07c ab88 bd93 e83f 4c0b ad64 f1a3 cbbf
00000310: 3d9e 7273 2ac8 d93f 1492 e323 5b4f d63f

lstm.bias_ih_l0 f8 [20]
-1.2511813705620416 0.819551175730477 -1.6367125194068968 -0.37223369658412936 -0.5871132052874898 -1.0530153053125981 0.6521638679787668 -0.6069249455863908
0.07100198852547071 -0.6767875894207369 0.7100021749273477 -0.6653748525768766 0.058559654384676266 -0.013795254896660447 -0.20305081729295066 -0.7391333143141555
-2.7794388761999937 -1.0885208080155027 -0.13440229106601354 -0.7366543792458363
00000000: d5da bec1 d604 f4bf d824 2563 c339 ea3f
00000010: f6e6 7c77 f92f fabf cd12 5348 add2 d7bf
00000020: d94d f8a1 a1c9 e2bf be14 a893 26d9 f0bf
00000030: d740 93c2 86de e43f b071 0ddd ed6b e3bf
00000040: 22f9 aab2 2f2d b23f ded2 5c72 3ea8 e5bf
00000050: cadb 2c7b 56b8 e63f 90c0 ec33 c04a e5bf
00000060: a2fd e4f0 87fb ad3f 8018 f8c4 af40 8cbf
00000070: 7a82 d9b5 91fd c9bf dda0 8be8 faa6 e7bf
00000080: 6914 1473 4a3c 06c0 c112 77cb 946a f1bf
00000090: 7c68 5122 1834 c1bf 111d 6a34 ac92 e7bf

lstm.bias_hh_l0 f8 [20]
-0.9179616924720859 0.7553803737879254 -1.6993792307391393 -0.7767883532326083 -0.7783533718737562 -0.40678279341945195 0.31321735479049007 -0.9048404726999894
0.05616263642990342 -0.6315839140756205 -0.04714461077330325 -0.7987292828435713 -0.4929284459382511 -0.8328099453834756 0.12801556173450707 -1.0622994537816053
-2.58723655647023 -1.164152038211639 -0.8684826821493256 -0.3569740160667715
00000000: d8bf 0433 f15f edbf 5eb3 2e76 132c e83f
00000010: 7c6b b846 a830 fbbf 2887 a13f 73db e8bf
00000020: 43bb 9d54 45e8 e8bf f5f8 93b2 ba08 dabf
00000030: 9e58 d7cd c00b d43f 0fff ca01 74f4 ecbf
00000040: 3678 725d 59c1 ac3f 884d f477 ef35 e4bf
00000050: f370 e8a2 5623 a8bf 2676 85b6 308f e9bf
00000060: 45aa a4c0 238c dfbf 1094 e60a 61a6 eabf
00000070: f6ae 835d d062 c03f 7fcf 48b6 2dff f0bf
00000080: 3f71 6814 a9b2 04c0 3d0d 3be3 5da0 f2bf
00000090: af28 9f31 9cca ebbf f6d3 218b a9d8 d6bf

linear.weight f8 [2, 5]
0.37215603535366787 -0.013746713154470626 -0.32194092569197974 -0.04558973796283852 0.09924792381336538 -0.5964148416252731 -0.08223270379445849 0.23024775809283818
0.3527996959954736 -0.9340377236573473
00000000: ef97 368c 67d1 d73f 8155 689b 3c27 8cbf
00000010: 42d3 c51c ae9a d4bf c4cd 2ac3 8957 a7bf
00000020: fb6b f9da 4f68 b93f 6b25 f493 d415 e3bf
00000030: 7a77 75d5 330d b5bf 3137 7e2f c278 cd3f
00000040: 1db7 152d 4594 d63f bfd5 8a14 a3e3 edbf

linear.bias f8 [2]
0.0020637470652060297 -0.00453014399728586
00000000: a971 dfc4 fde7 603f 4a3f 0845 338e 72bf
