Ventil_trained_NNs/lstm_ws4hs64layer3_nummer329.pth (torch, 680038 bytes, 14 tensors)

lstm.weight_ih_l0 f8 [256, 3]
000000 87 dd 15 17 ce 3f d6 3f c0 b4 6e 02 15 75 b1 bf
       0.3476443505710098 -0.06819278058420064
000010 0b e0 27 03 f1 c1 c3 3f 5e 42 a9 01 dd d8 d4 bf
       0.1543561234864231 -0.3257362858030656
000020 c2 e9 47 36 c4 80 a8 bf dd 53 5b e1 2a a2 d2 bf
       -0.047857410074317666 -0.2911479187726494
000030 8f 79 17 f6 41 f8 c1 bf 68 d6 cb b4 c7 8b ca bf
       -0.14038872257419796 -0.20739075019780562
000040 9d 9d 02 27 e5 16 ad bf 63 03 8b 98 bf f6 8d 3f
       -0.056815300952901306 0.014630791514152091
000050 f3 7d c0 04 6f 94 bf bf 14 20 8a bb 70 47 dd bf
       -0.12335866800321309 -0.45748537363442776
000060 fc 6d cc d7 86 d4 b9 3f 47 a5 e4 f2 90 fa c5 3f
       0.10089915054816595 0.1717091737748808
000070 e2 9c ba 7e a8 04 d5 3f 18 57 d3 5d 3a 61 bc bf
       0.32840931297182696 -0.11085858145392213
000080 f7 0f c9 26 72 46 bb 3f d2 b9 84 34 6e 3f b8 bf
       0.10654366919430901 -0.09471787244976973
000090 f9 1d a4 66 0f 38 a0 3f 80 d7 d1 43 a2 12 b6 bf
       0.03167770507758045 -0.08622182994608174
0000a0 58 47 17 29 f0 63 b5 3f b1 49 e5 47 8f 00 cb bf
       0.08355618479916183 -0.21095458040742934
0000b0 27 a6 cb 18 85 2c d7 bf b5 20 c6 13 e2 51 dd bf
       -0.36209227963863316 -0.45812274867104047
0000c0 64 12 47 58 39 52 c8 3f 5c 04 d0 34 16 23 c8 bf
       0.1900092774432266 -0.18857076243151283
0000d0 58 38 c2 21 eb 45 b8 bf 20 20 71 28 8d 98 b2 bf
       -0.0948168713968881 -0.07264024960852611
0000e0 29 20 ea 43 a1 49 b0 bf 1d c2 12 ad 01 c0 86 bf
       -0.06362350376196048 -0.011108410925175833
0000f0 87 58 30 83 ff 0f 89 bf 7a 9e 47 7b af 6b c3 bf
       -0.012237545195642475 -0.15172379989165902
000100 ae 18 78 27 5f 32 c1 3f 6e 01 b1 3b 36 5e ce bf
       0.13434972216800162 -0.23725011744137298
000110 2b 60 f0 88 37 bb d1 bf 2f 81 60 59 bc 13 d2 bf
       -0.2770518147749523 -0.282454573900412
000120 e4 dd d1 eb 78 7a d4 bf 68 de 27 14 f5 3f c1 bf
       -0.31997511891628805 -0.13476432308356157
000130 95 4e 0c 49 69 6e d1 bf e2 2d a1 e0 9d c7 c3 3f
       -0.2723639691696261 0.15452931850664614
000140 a4 42 a2 f4 98 ad 96 3f 0b 62 2a f5 d8 60 84 3f
       0.022146596843017577 0.009950346929415784
000150 cb 02 16 8f 9d 31 79 bf 5e 07 09 3c 08 66 b2 3f
       -0.006150832619255818 0.07186938729958345
000160 05 3a ac 15 e3 f1 87 bf d6 3f e1 3b e7 80 b0 3f
       -0.011691831683063656 0.06446690761481419
000170 5b 63 78 8e a5 7c c1 bf 59 d5 3c 81 d6 e6 c2 bf
       -0.13661641556316337 -0.14766961393767522
000180 20 70 7e e4 79 b5 a1 bf 0e 5e 6b 4d c9 0f c4 bf
       -0.03458767809135588 -0.156731760790294
000190 c1 a1 98 61 d0 f8 b4 3f 2f 7d 74 71 99 54 b5 bf
       0.08192160017700358 -0.0833221342077095
0001a0 7b ad ad b3 74 83 b7 3f 76 fd 39 44 c2 ba b6 3f
       0.09184960734062557 0.08878721395193687
0001b0 44 d3 38 10 21 be c0 3f 77 ac 65 c5 26 f8 bd 3f
       0.1308022813042503 0.11706774062410995
0001c0 5b 7a 13 33 bf 40 c6 3f ff 8b 3d 69 14 2a b0 bf
       0.17385091775846004 -0.06314208573671463
0001d0 25 5d dd 7d da 06 ce 3f c1 11 a4 ab e9 1f 8f bf
       0.23458415170419147 -0.015197587538303805
0001e0 75 52 1b 0e 7a 2c 85 bf 58 22 55 7a 16 d3 7b bf
       -0.010338738971236364 -0.006793105892321259
0001f0 f6 77 8f c0 e1 d8 ae bf 59 38 1c c5 1e b2 bb bf
       -0.06024842715827099 -0.1081866484857711
000200 ef f3 ba 6e 5c 21 cf 3f 64 fb 23 df 2c fc be 3f
       0.24320559889557056 0.12103538940207909
000210 4b 23 ac 7b 64 58 d0 3f 35 8e 20 5e 0b 1d b0 bf
       0.25539505078682073 -0.06294318244959458
000220 6a 73 00 f2 41 a0 ad 3f b1 ed 01 a1 99 a6 cc 3f
       0.0578632934486681 0.22383423196502641
000230 f3 ab 0c 08 34 5f ca bf 4d b3 31 21 dd f5 c9 bf
       -0.20603037255327158 -0.2028156673508427
000240 23 9c 3f 85 3a 63 ab bf 3e 03 7f f6 7f 4b c0 3f
       -0.05349142910545648 0.12730407272285932
000250 3e e6 34 60 c6 67 b1 bf 28 6c 4e 24 41 2e b3 bf
       -0.06798972939295653 -0.0749245370520134
000260 82 1b b0 97 61 bf 84 3f 5a 94 93 52 61 21 b6 3f
       0.010130655709884587 0.08644684091594126
000270 18 49 70 40 e5 6a c4 bf 4c 33 7a da bb 2e cf bf
       -0.1595121922151257 -0.24361370246733782
000280 9c e7 0e 04 00 16 ca bf 7a 51 83 70 d9 46 9f 3f
       -0.20379638860850668 0.030543706409689154
000290 50 45 84 a5 a0 7b b5 3f e8 0b 84 91 04 f7 95 bf
       0.08391765633520731 -0.021450110799388883
0002a0 a6 a8 80 4a 67 f0 d3 bf cb b9 a1 b0 94 87 b9 bf
       -0.3115480639995759 -0.09972504913614626
0002b0 1f 6c 0f d3 00 ac dd bf 8d 1b 86 e7 3b 1e c8 3f
       -0.4636232434401694 0.1884226685035312
0002c0 1f 60 d4 99 c9 70 ca 3f 72 57 5e d5 aa 14 ab 3f
       0.2065670014496854 0.05289205412479604
0002d0 2a 5b 54 39 54 60 b7 bf 8f 62 6e be 3e 4e c7 3f
       -0.09131361388822926 0.18207535074613587
0002e0 1d e6 7e d2 b9 83 92 3f e9 56 a9 7e d8 d9 ab bf
       0.018080619309079993 -0.05439640566025423
0002f0 1a 80 fb eb 6f 87 cb 3f d9 e7 22 ce 6e f5 cd 3f
       0.2150707151658942 0.2340525156521938
000300 33 9d c8 21 c6 f4 ab bf b1 6c 32 39 d3 d4 c6 bf
       -0.054601852058392096 -0.17836990635701036
000310 0f c2 44 7c e3 f0 cc 3f 1f b2 e7 20 be a8 ad 3f
       0.2261013371257978 0.057928029553157005
000320 23 8b 6b 91 42 00 b4 bf 16 69 ae d5 82 48 c0 3f
       -0.07812896776480875 0.12721286233574663
000330 74 e7 07 35 35 24 be 3f 0a 45 2e 14 9e 6e be 3f
       0.11773998779963596 0.11887538902944442
000340 ee e2 8a c7 60 7b d1 3f dc b3 b3 11 6c 8b b2 bf
       0.27315539824080204 -0.07243991310288272
000350 a3 a0 fd 6f b4 e6 8e 3f b4 8c 56 af fc 76 ae bf
       0.015088472049413609 -0.05950154915196873
000360 c7 9f e0 10 2d 5f 70 bf 55 1b 93 f7 23 04 ba 3f
       -0.003997016943721072 0.10162567896177895
000370 c1 4d 87 4f aa 63 8a bf 4a c1 a6 5f a6 6b c4 bf
       -0.012885408927934773 -0.15953521414258837
000380 95 f9 cd 8d 57 82 bd bf 22 04 50 64 22 04 cc bf
       -0.11527011119867432 -0.21887617014002198
000390 ed e4 8f cc 63 85 9f bf 3b 87 06 8b ec b1 bd bf
       -0.030782279358366905 -0.11599615472962636
0003a0 e3 bc c8 90 a4 b7 ac 3f d0 ef 9e f3 5a 8b a5 3f
       0.056088583635181676 0.04207882141005792
0003b0 d5 d6 55 2c 14 af a8 bf b2 39 bc 69 b4 d6 d3 3f
       -0.04821074525072581 0.30997953725536853
0003c0 ae d0 59 12 cf 7e 97 bf b1 bf 5c dd 9c e8 c5 3f
       -0.022944674963995375 0.1711612778540235
0003d0 cc 09 48 8b 9a 98 a1 3f 6f de 22 a7 f3 74 ab bf
       0.03436739874088665 -0.053626646187180486
0003e0 a9 9d b5 59 f8 7d d4 bf f2 90 1d 9b 4b c0 be 3f
       -0.320188605887291 0.12012169396399822
0003f0 52 53 10 89 56 e5 ad bf 4e d9 1d 95 f9 16 83 bf
       -0.058390335303704646 -0.009321164954354668
000400 4d a8 d9 e4 35 4d c8 bf a7 31 53 f6 6c 17 ab bf
       -0.18985627817466125 -0.05291309840103802
000410 72 28 b7 3a b8 69 c7 3f 16 7b 6c 39 b0 19 c2 bf
       0.18291380755391945 -0.14140894702810475
000420 a1 bb 7c 2a b6 80 d4 3f 54 bf 73 0d b9 23 b4 3f
       0.32035593175072036 0.07867008760854094
000430 85 dd da d0 4c c6 cb 3f 74 9c 0b d7 bd 5a 9c bf
       0.2169891376304173 -0.027689901590659052
000440 39 75 b3 fd 4a 72 72 bf d2 8f db 36 96 27 a8 3f
       -0.004503529485387952 0.04717702312134943
000450 e0 0f 27 8d 13 6d 8f 3f af ca f2 c4 f4 58 b6 bf
       0.015344765420088835 -0.08729486282644915
000460 dd bf c7 45 e6 95 d0 bf c8 41 b9 bc 96 9b b7 bf
       -0.25914913954238533 -0.09221784694205504
000470 b5 15 2a bb 5d 49 b7 3f 27 c7 48 b8 75 8a 8d bf
       0.09096322841113287 -0.014424247442636663
000480 a1 f8 5d c0 49 9d 68 bf d8 d6 ac 68 fd 63 c4 bf
       -0.0030046883065884687 -0.15930144892779796
000490 31 64 67 42 36 73 cb bf 73 dd 32 73 b9 72 a0 3f
       -0.21445348970772352 0.032125277817096974
0004a0 c8 89 2d 19 da 40 be bf 11 70 77 cb 12 43 aa bf
       -0.11817706217474389 -0.051292979562021064
0004b0 62 6a ad e7 f4 69 d1 3f f3 b6 86 57 a0 6b c0 3f
       0.27209208130594764 0.12828449510327963
0004c0 d6 ae b7 12 58 83 a0 bf 9a 2d bb a5 85 51 d2 bf
       -0.032252075466968996 -0.2862257116764454
0004d0 39 9c 67 53 e6 c7 bc bf c7 34 b6 6b f7 36 d4 bf
       -0.11242522751091223 -0.3158548881409157
0004e0 f9 98 fe 3b 00 97 c6 bf 16 6c e0 0e f3 fe b0 bf
       -0.1764831822340012 -0.06639021981429524
0004f0 19 0a 69 a2 08 1b b0 3f 77 d3 4f 39 85 e9 b6 bf
       0.06291250195594279 -0.08950073861326567
000500 3c ec 50 0d ac 71 c7 bf 8a 7a 42 f5 5e be ba 3f
       -0.18315649652672217 0.10446732986245358
000510 d0 3f 64 cc 3a 30 9d 3f f8 bd dc 58 18 5a b6 bf
       0.028504294133256114 -0.08731224221695999
000520 8d 0a 5d 7d c1 e8 c1 3f 73 66 67 40 ee 72 b2 bf
       0.1399156438947852 -0.07206620285378466
000530 43 ec 65 38 ce a8 51 3f 2b 01 2a f9 11 9b 6d 3f
       0.001077844035164658 0.0036139822998963087
000540 ad 26 c1 1b 9a d6 ce 3f a2 71 dd 47 58 9d b9 3f
       0.24092413287353534 0.10005714182393047
000550 a0 1c 95 41 da 7e a0 bf 56 6d b1 56 65 2c d6 bf
       -0.03221780825202214 -0.3464597078907067
000560 46 b6 88 4f e7 8d d0 bf 3d 98 95 28 13 6a c1 bf
       -0.25866110579486123 -0.1360496471563141
000570 4f 99 4a 98 6b 1d c6 3f e1 7e 23 51 b3 14 be 3f
       0.17277283607581714 0.11750336390423001
000580 40 ea 3b 3a c8 bf a0 bf b1 76 94 07 f0 88 d2 bf
       -0.03271318159928116 -0.28960800876834997
000590 5c 26 5b 18 1c 55 c8 bf 6f 30 fc b1 6f 23 d2 bf
       -0.1900973433424039 -0.2834128606925849
0005a0 77 bb 5b 41 10 e3 7c 3f d6 5f 62 8a 56 6c ba 3f
       0.007052482125557861 0.10321560743830047
0005b0 5f 2e 20 c0 3a be a5 3f 30 4a d6 64 53 d4 cf 3f
       0.042466960862012064 0.2486671678894523
0005c0 10 9e 9c e5 4c ef 81 3f c9 33 81 e8 6f 18 d6 3f
       0.008757210499950069 0.34524152474915276
0005d0 22 40 1b ec 06 6c d1 3f 4c 8f 28 9a b1 df 8b bf
       0.27221844727773903 -0.013610255734483843
0005e0 19 e4 f6 5b 6c d4 c8 3f 06 f7 a0 b7 39 eb a8 bf
       0.19398264399004075 -0.04866962782442212
0005f0 8e 57 29 e6 4c 3b c2 3f 92 a6 02 c5 11 16 96 bf
       0.14243470419267762 -0.021568563127095937
000600 54 53 1e 5e 9c 7b b2 3f 6f 9f d2 37 22 cd c9 bf
       0.07219865129293385 -0.20157268262596115
000610 d3 96 0e 07 37 82 c2 bf d9 56 b6 fb 8d f2 bc 3f
       -0.14459884495334183 0.11307608981436647
000620 ef 01 36 b3 51 14 93 bf f1 37 c9 09 1f b3 b9 bf
       -0.0186321988708204 -0.10038942326465851
000630 3a b0 91 eb 19 5f b0 bf 7f 0c ca 38 5c e9 c5 bf
       -0.06395112992476096 -0.1711840894023204
000640 f3 5e f5 0a fe 72 b5 bf 29 36 66 85 de 22 b2 3f
       -0.08378589408436792 0.07084456211870162
000650 7b c9 11 b5 ed 9c bf 3f 44 59 b8 a8 e9 5b c2 bf
       0.12348828955308548 -0.14342995394026492
000660 b3 03 2e ca 13 59 c7 3f 7f c0 e2 21 58 31 ae bf
       0.1824059235769063 -0.05897021688122183
000670 44 fb 44 b1 96 32 c8 3f 4f 06 0e 26 da 4b c3 bf
       0.1890438428472071 -0.15075232370513666
000680 29 0b f6 0d 26 e8 ab bf 0a 62 bf a1 77 89 c1 bf
       -0.05450552864478759 -0.13700766942817239
000690 8f ae 9c 74 9a 8f d4 3f df c4 4d a0 5b fd 68 bf
       0.3212648524083556 -0.0030504979680975176
0006a0 eb 15 dd 34 70 71 d0 3f c2 29 b1 08 38 cf b0 3f
       0.25692372477018804 0.06566190921981899
0006b0 b5 1f 61 d8 64 aa be bf 9d 5a e9 75 fa d6 b9 3f
       -0.1197875049848552 0.10093655947398834
0006c0 90 d9 0f 45 ae ac 7a bf c8 6d dc a4 53 97 93 bf
       -0.006512337437916918 -0.019131953179664568
0006d0 0a 67 3b a4 11 71 a9 bf 7d 99 f9 ff f0 f8 be bf
       -0.04969077234063775 -0.1209860444010697
0006e0 5c 8f 17 7a 11 ad c8 bf 3d 1a fa c0 5c 25 ba bf
       -0.1927816244270798 -0.10213260375358231
0006f0 fb 2e 55 2e 63 27 bf 3f b4 4f 42 e1 74 ed 8c bf
       0.12169475442095383 -0.014124787449226385
000700 16 64 13 c9 96 83 97 3f f8 0c 1e c7 8d 17 6e bf
       0.02296290972012479 -0.0036733407113743698
000710 fe d2 15 56 55 78 af bf 51 bb ff 97 2a c8 b3 3f
       -0.06146494556279512 0.07727304659759439
000720 b8 1a 1d 99 4f 80 ad 3f 36 76 78 06 c5 b6 b9 3f
       0.057619559708248 0.10044509323093895
000730 f3 17 f5 be 00 f1 a2 bf 68 17 41 3d b9 6d bb 3f
       -0.03699495631239804 0.10714299912896552
000740 32 04 b2 44 70 79 b4 bf ba 24 09 52 a6 91 ab bf
       -0.07997800519116607 -0.05384559394276196
000750 63 f8 87 81 76 3c bf bf b4 ba 29 d0 4b ea bc bf
       -0.12201634085065076 -0.11295007545570962
000760 0f 0d cf f6 a4 5c c1 bf 4e 73 b7 cb e5 6b 77 3f
       -0.1356397824402866 0.005718133582800556
000770 a2 24 66 0c da 65 b3 3f 41 7c 9e 95 5c 1f d1 bf
       0.07577288439473986 -0.26753916369665737
000780 69 91 ad a1 0c 7c b8 3f a6 78 7c b3 b4 d1 b0 bf
       0.09564284274308012 -0.06569985754001326
000790 07 83 88 5d 99 3d bc 3f 74 84 72 b8 de 93 c0 bf
       0.11031492742086978 -0.12951263433663807
0007a0 5f de 03 a0 31 22 bd bf 16 2f 25 94 32 61 c0 bf
       -0.11380300671214048 -0.12796623452811023
0007b0 41 2e fe fd a6 03 86 bf d8 13 11 55 5d 8f b9 bf
       -0.01074915373444363 -0.09984381987403823
0007c0 c3 44 a7 cf ed 1b c3 3f 47 9e 1d f4 0c a5 a9 3f
       0.14928982390714482 0.05008736114433226
0007d0 f1 62 70 67 fb 4e c3 bf 01 74 fc a1 14 8d c1 3f
       -0.15084784079296967 0.13711793813209286
0007e0 cc 5c 92 6b be a3 a3 3f ae 36 bf f1 f9 7a ce bf
       0.0383586412728448 -0.23812794021653388
0007f0 dc 90 76 71 08 6e a5 3f 58 b7 e2 3b a4 07 c9 bf
       0.04185511002586548 -0.19554570125677162

lstm.weight_hh_l0 f8 [256, 64]
000000 56 3e bc 55 7e 75 c0 bf e7 95 06 3a 46 f3 a9 3f
       -0.12858561693473075 0.05068416078874432
000010 21 c5 3c 83 e4 44 d0 bf c1 07 99 95 71 0d b4 bf
       -0.25420487228537253 -0.07833013441361826
000020 58 b1 64 97 0e 77 c1 3f ba 3f 5a 2d 98 ff c7 bf
       0.13644583122494214 -0.1874876233528065
000030 71 3a a0 d9 ee 5e c8 bf c1 ff 64 8d 9f 89 d0 3f
       -0.190397125494616 0.25839985664424253
000040 0d 7d 4b f5 52 90 c4 bf 40 8e 7f b0 d4 1d b5 bf
       -0.1606544206360713 -0.08248643216170937
000050 43 3b 31 5a fc 5a 85 3f 2c 29 f2 ab d3 78 c2 bf
       0.010427447798205263 -0.14431234260366332
000060 88 82 01 42 a5 ea c2 3f e7 7a 1b ae e1 0b a5 3f
       0.1477858135504173 0.041106274131143476
000070 77 4b 44 4e fb 0d d3 bf 96 ad b5 c3 c9 4c 73 bf
       -0.2977283729862203 -0.004711902754347538
000080 37 8d 87 34 fa 2c be 3f 11 36 bd 3c 53 ef b6 bf
       0.1178738001104208 -0.08958931191337906
000090 d5 a1 5e 86 a9 9b c0 3f 2e ce 2a e1 9b e8 9b bf
       0.12975043355005647 -0.02725452005206657
0000a0 00 67 c7 f5 44 09 a9 bf 1e 67 e0 4e f2 9a c8 bf
       -0.04889884472113515 -0.19222859240908802
0000b0 47 00 5d dd b9 f7 b0 3f a0 0e cc 67 cd 67 c1 bf
       0.06627999929787719 -0.13598029678552326
0000c0 e9 13 b8 55 d3 ea c1 bf 96 47 97 57 a4 22 d3 bf
       -0.13997880635739016 -0.29898937753488875
0000d0 26 12 a5 a2 5f f6 6d bf 5a 89 1a e2 4a 12 a3 3f
       -0.003657519138103876 0.03724893579534934
0000e0 4f e4 5a 59 a9 85 b6 3f 03 ed 2f 9f 65 4c a9 bf
       0.08797701293487246 -0.04941098755076647
0000f0 b2 f7 6e fe 07 f8 b5 3f c6 3a 97 a1 38 37 c5 3f
       0.08581590615992132 0.1657477177636421
000100 3e 98 0e 9b d6 3e c5 3f 16 b6 02 b9 06 62 96 bf
       0.165980172835761 -0.021858315508032154
000110 d3 52 b0 02 16 21 a9 3f fd eb 36 d3 d5 13 99 bf
       0.04908055098363708 -0.024489727989685395
000120 d8 37 3e f3 a1 ba a9 bf d2 6c bd ea 61 56 95 3f
       -0.05025201887393366 0.020837335541142483
000130 0f 2f 76 e3 a8 03 b9 3f a8 cb 36 6b fa 5b 9a bf
       0.09771209290755344 -0.025741493982149116
000140 4c d9 60 8b 6a ef bd 3f 30 e4 2e b6 7e 43 c0 bf
       0.11693445112982664 -0.12705978294050757
000150 67 59 a8 9c c3 e3 ac bf 1b e0 b6 f8 7d e3 ba bf
       -0.05642520224880592 -0.10503375360610827
000160 80 be 1b f4 87 45 b2 3f 19 b9 b2 86 d3 a8 a0 bf
       0.07137345990826738 -0.032538042252200756
000170 b8 1b 23 33 2a b9 d0 bf 10 de 9f f5 0e dd aa bf
       -0.26130156511174674 -0.052467792018372816
000180 8a 20 2e 50 1d 5f 65 3f 7a ff 8f 7e 3a 6a c7 bf
       0.002608830692626245 -0.1829293363552969
000190 32 bf b2 b5 a0 8b bd bf 2e 14 ab b6 2f 9e ba 3f
       -0.11541180072776738 0.10397623262095188
0001a0 06 b8 f7 81 5b 75 cd bf 27 41 d5 7d 38 34 ac 3f
       -0.23014396520687813 0.05508591209457086
0001b0 4c 0d d2 8f 18 59 c3 bf 56 9a df be a4 17 cb bf
       -0.15115649244772056 -0.21165904350273718
0001c0 d4 85 e1 3a 86 b3 af bf ae bc 55 26 e2 9e b1 3f
       -0.06191653698693825 0.06883061824713607
0001d0 5e 78 d2 54 fd 5a c8 3f e3 83 04 40 88 d8 c7 bf
       0.19027678147989752 -0.18629553914891436
0001e0 ac 9b d5 67 fe dc a8 3f 55 a6 20 6f 65 e4 bc bf
       0.04856104867467734 -0.11286004984926852
0001f0 57 ae 3d c0 17 9d a5 bf 0f 73 9c 38 10 bd c7 3f
       -0.042214147774612236 0.1854572559758698
000200 05 d3 c5 0a 66 88 ac 3f c2 50 bd 14 0c 84 b2 3f
       0.05572813874724684 0.07232738024078159
000210 e2 8e 1d 66 ac d9 94 3f 41 8f 76 28 11 8f ae bf
       0.020361608250268122 -0.05968526476797687
000220 7e 54 88 8e 9c cb b0 bf f7 97 ee d8 95 ec bf bf
       -0.06560686569021532 -0.12470375581924019
000230 c2 0c 76 f9 30 89 b7 bf e8 6a 97 c6 3f 7d 9e 3f
       -0.09193712320670769 0.029774662490903575
000240 cf c6 c3 29 7a af c2 bf d9 19 6c ee da 8e a7 bf
       -0.14598013915342853 -0.04601177368572324
000250 86 0a a3 7f c9 0a 93 3f 0c ca c0 6c 33 25 85 3f
       0.018595837035500405 0.010324861294155795
000260 73 b2 2a d9 58 91 c1 3f 6d b1 de b7 3d a1 a2 bf
       0.13724814037177033 -0.03638642186646988
000270 b7 3f d1 0e ea 38 bf bf 39 1e ae 1c c8 e8 75 bf
       -0.1219621931243172 -0.0053489510418170344
000280 e5 47 f2 b8 cf 06 ca 3f 1f 1e a9 4d dd 3c c1 3f
       0.20333286791407015 0.13466993610403308
000290 b2 c3 c0 63 c2 90 ca 3f 8e e7 82 92 d2 f2 a1 3f
       0.20754270430327676 0.03505571402042938
0002a0 e2 65 3c 40 7a ae 54 3f 35 a6 d5 56 67 8c c5 bf
       0.0012623018128067255 -0.16834727992982015
0002b0 e7 3a 8c c9 23 3c bf 3f b3 1b 0c 1e 2a 8f c7 bf
       0.12201141043281503 -0.18405653445389944
0002c0 2e 35 f4 27 ab d2 b8 bf 23 60 ba ca 35 27 90 bf
       -0.09696454739988233 -0.015774574755227044
0002d0 5b 18 50 4d 22 36 c0 bf de e8 b6 53 dc 76 75 3f
       -0.12665203833620606 0.005240307476407772
0002e0 fe 49 bd 4e a3 d5 b5 3f 07 7f 3e 4d 4f 02 bd 3f
       0.08529110596035847 0.11331649432986178
0002f0 93 7f 60 0c 76 20 a1 3f 87 e4 64 58 4d c3 a8 bf
       0.03345078373990797 -0.048365037002846605
000300 4d d9 1a fe 0e c3 b0 bf fd 38 02 1e 2e 65 99 3f
       -0.06547635749561671 0.024800034123978233
000310 ce b4 32 9e 78 b9 ab 3f 54 cf 18 fe da 67 a2 3f
       0.05414940768364716 0.03594860412377324
000320 50 3f 4f fa 0b bd aa 3f 5f a2 76 78 7e 92 70 3f
       0.05222356253182048 0.004045957589746323
000330 58 7f 19 84 9c 2a b6 bf 2b ec 53 56 fd 38 b2 bf
       -0.0865876982220447 -0.07118209226239063
000340 39 40 24 06 c9 dc 9c 3f bb 1b 2d 20 4e ba c2 bf
       0.028185978889325922 -0.14631058283904771
000350 3a 2a 8d 9e 63 a9 c3 3f 9d fd aa fa b2 e7 be 3f
       0.15360684625405147 0.12072294826338355
000360 8f e8 f3 96 d4 a7 97 3f 89 f6 d4 14 da 39 c0 3f
       0.023101159776139964 0.1267654992788503
000370 85 de 06 df a3 3c b7 3f c6 26 c0 a1 75 45 b0 bf
       0.09076904482832944 -0.06355986784924558
000380 03 23 3e 95 9e be b1 3f db 86 92 ed b5 87 c7 bf
       0.06931487220402847 -0.18382906055653944
000390 a0 77 89 64 93 51 99 3f d8 57 63 eb ca 3a c0 bf
       0.024725249301233654 -0.1267942094188459
0003a0 76 14 80 68 86 83 ba bf f0 ff b6 8f c0 8f ac 3f
       -0.10356941272046236 0.05578424219447686
0003b0 1d 87 25 a9 ba 92 bd 3f cb da 06 7e c5 7f c1 3f
       0.11552015904956332 0.13671177533770726
0003c0 6d aa 3a bb 8f 5c ac bf e3 73 7c 8b bc 6a af 3f
       -0.055393687825319705 0.06136120989524565
0003d0 55 e2 ee 92 5f 9b b4 3f 19 22 ce 61 a3 a5 b0 bf
       0.08049580895647897 -0.06502743852446037
0003e0 29 b5 8c a6 2b ea a8 bf a2 fc db fd 0b 16 a3 bf
       -0.04866157920910503 -0.03727757905834862
0003f0 52 3d c6 89 c1 62 bf bf d7 20 5f 50 c2 22 a5 3f
       -0.12260064710266264 0.04128081542109079
000400 54 c8 f4 26 ba 58 cf 3f 19 4b fc fb 8a f5 92 3f
       0.2448952379432422 0.01851479685781063
000410 38 12 e5 cf a2 66 b5 3f 95 8b cf 56 1c 1f bc bf
       0.08359735084111086 -0.10984971160318786
000420 fb a9 a0 27 ad 44 ba bf 08 78 d1 76 91 6f 73 3f
       -0.10261041848631429 0.0047450716202472945
000430 d7 1d 3b 0d 95 7b bc 3f 59 26 c9 20 21 bb b7 3f
       0.1112607152273236 0.09269911814149036
000440 da 32 01 1a f7 8a cb 3f 28 04 32 98 c5 b2 c2 3f
       0.21517838258514282 0.14608068400778618
000450 af 21 3a a2 46 f8 96 3f 90 35 c2 eb 72 81 4d bf
       0.022431472446017228 -0.0009004412782062533
000460 fd 2e da 12 11 91 a0 3f d9 14 ae 04 44 08 b9 3f
       0.032356771041206024 0.09778237451799345
000470 5b 5a f8 81 df 32 b3 3f dc b1 4f df 0b e4 bc 3f
       0.07499501154993864 0.11285471155105803
000480 3e cf c9 ac d4 c8 9f 3f 40 8a 3f a9 a0 71 bb 3f
       0.03103954605690195 0.10720256931339467
000490 c0 4d 61 b1 c0 3c a5 bf 9e e6 88 09 c9 29 c0 bf
       -0.041479131367534006 -0.12627518621029749
0004a0 99 3f 3c f5 7b 6f c7 bf 7f df 49 04 bc 52 aa bf
       -0.1830897281110964 -0.05141246368742624
0004b0 c7 fb b3 37 e3 55 a3 bf 4d e0 fc 55 e8 66 ac 3f
       -0.03776464514702798 0.05547262239127857
0004c0 b9 a4 6c d2 c4 6c bd 3f 4b c6 6d b9 cc 16 ba 3f
       0.11494093072237178 0.10191039588041766
0004d0 0e 16 92 f8 1c 7b ae 3f aa 40 e2 8d ae 6c b7 bf
       0.05953302892980271 -0.09150210346183721
0004e0 d8 f2 ca 94 1d 28 ab bf 7d ef a7 91 7c f8 99 bf
       -0.053040432370357216 -0.02536196364415798
0004f0 ff 28 0a 80 c6 d4 c5 bf db 68 5c 25 7e 04 a4 bf
       -0.17055588962495702 -0.039096777020135774
000500 58 a3 4f 7b 00 fb 92 3f 8d c5 de 0b 34 34 ca bf
       0.018535621191321766 -0.20471811847305013
000510 a0 97 60 e8 28 40 b8 bf 34 bb c9 b8 99 ce c0 3f
       -0.09472900079035051 0.13130494616367516
000520 d9 68 1d 84 ad 51 b7 3f 6c 8d f0 48 ae e3 ad bf
       0.09109005427800144 -0.05837769165398296
000530 72 f2 6f d6 7f eb ab bf 75 58 e2 77 25 6c a5 bf
       -0.054531092573573484 -0.041840716251656675
000540 2a f9 4e d8 26 e4 c1 3f cf 14 23 a4 4c 34 b4 3f
       0.13977513849199258 0.07892302520038473
000550 d1 25 22 64 9d 02 b6 3f 32 60 a3 9e 7e 03 c5 bf
       0.08597739882147627 -0.16416914697652057
000560 32 a1 8c 0c d7 83 ab 3f 43 4e b1 de e7 66 bf 3f
       0.053740234643841936 0.12266396700697961
000570 15 f6 e5 a3 a8 d8 c6 3f 93 6e 4b 35 8d 6f b7 bf
       0.17848690035673145 -0.09154589224947988
000580 86 4e f8 e0 fe 4e 89 3f 24 45 31 f9 7e 9f b7 bf
       0.012357703438318223 -0.09227746566582035
000590 34 05 6a a2 d4 aa cc 3f 91 d4 54 aa 6c cd a8 3f
       0.22396333628061316 0.0484422643589052
0005a0 ff 20 d1 06 d5 71 c3 bf 8b b8 ed 81 d0 c0 c3 bf
       -0.15191138108117028 -0.15432173103494437
0005b0 63 56 18 c4 e0 3d 72 3f 63 77 1f 4c 4c 4b b6 bf
       0.004453542701886445 -0.08708645685643783
0005c0 35 e9 0f 19 9d 3e 82 3f 1c ce 43 cb 2e 31 ae 3f
       0.00890848858579272 0.05896898490200561
0005d0 df de ab 05 2b 9c 84 3f 27 49 cb 7a 34 b6 a5 3f
       0.010063491926742994 0.04240573882056458
0005e0 3c 52 a3 e6 f3 d8 b6 bf 85 f3 b7 6c 07 a8 b0 bf
       -0.08924793606576825 -0.06506391910802563
0005f0 99 37 f1 5c a6 d3 c3 3f 9e fa 80 0b bd 0a c7 bf
       0.15489654100605035 -0.18001521169386064
000600 48 00 b8 21 79 ce b5 3f c8 20 7f 64 d1 0c c6 3f
       0.08518178055965209 0.17226617247638942
000610 a3 9d bb d2 6b d5 92 bf 4f 9f ec 8c 1a 08 ac 3f
       -0.018392262208093545 0.0547493264223805
000620 f3 6e ef 1f 37 18 a0 3f 9a 1d 42 e3 f3 ff 9d bf
       0.031434748314238 -0.02929669451307646
000630 b8 1d 52 aa 2b e2 b5 bf e2 25 c8 68 3b ed be 3f
       -0.08548233898374391 0.12080737407827472
000640 d6 9e e0 df 78 5f bf 3f 5a 78 c8 9c df 99 ab 3f
       0.1225505396438352 0.05390833653312717
000650 f6 26 d3 07 7b 57 88 3f 3f a5 1b 3d ef c8 19 bf
       0.011885605980200147 -9.836158940470118e-05
000660 39 a5 ee ec 91 f6 ba bf a9 2e ed 89 08 24 98 bf
       -0.10532485994794606 -0.0235749563392306
000670 b6 61 ba 49 35 d6 c6 bf 22 1b d5 47 d1 d9 a0 3f
       -0.17841211414339647 0.03291181566105751
000680 72 1b a7 ff 82 dc c4 3f 8f 93 5b 0d 87 1c 71 bf
       0.1629794834427361 -0.004177596614430081
000690 b6 5a cd e9 3b 68 bc 3f ed 35 86 4b 6c 24 8e 3f
       0.1109654851728504 0.014717908911530986
0006a0 d0 16 4b 7d 9b 11 b6 bf 93 db 56 40 6e 13 b8 3f
       -0.08620616730612629 0.09404648848327062
0006b0 93 b2 a2 58 2b d2 c8 bf 55 98 fa 69 5c 53 a3 bf
       -0.1939138586798391 -0.037745368897319644
0006c0 94 bf 4d 9d ce 0d 64 bf 5e 41 15 9e 9f 85 bc bf
       -0.0024479899824924687 -0.1114139328904051
0006d0 2e ca 41 ea 12 40 a9 3f 72 f4 7d 64 a5 bf a8 3f
       0.04931696996290601 0.04833714343747254
0006e0 0d 9d e3 1a 4d 12 ac 3f 09 ff 59 ff 1f 45 ae bf
       0.05482712701069135 -0.05912113182148288
0006f0 0a 35 79 96 b7 ad 98 bf 37 46 5d b7 9c 0a c0 3f
       -0.02410017829816006 0.12532385781610042
000700 97 29 c9 72 a9 4d a5 3f de da 87 66 75 77 af 3f
       0.041608138334214555 0.061458271757080615
000710 11 46 da 22 4a 73 c1 bf 83 51 b5 f3 54 81 9b bf
       -0.13633085920132307 -0.026860549330494542
000720 c4 96 d0 e8 4f c1 ab bf d9 1c d2 db c2 91 b7 bf
       -0.054209229631209804 -0.09206788889615626
000730 90 69 9e 67 c1 0a c0 3f 0d ed b9 90 12 00 c8 bf
       0.12532823142539629 -0.18750221316063467
000740 49 a4 4e 85 7d 12 b6 3f 67 ab 71 7b 55 6e b7 3f
       0.08621963982172177 0.09152731193323192
000750 19 ea 51 56 42 d5 87 bf 5f 75 2e 2c 17 55 c0 bf
       -0.011637228259350473 -0.1275967565278888
000760 bf e7 84 40 f0 3c cf 3f 72 d3 57 95 48 7a 7a bf
       0.24404719496106783 -0.0064642749107307485
000770 0b 6d d2 69 c0 c2 b1 3f 45 85 e5 42 d2 9c c9 3f
       0.06937792380852074 0.20009830728944614
000780 5e 0a 6f 4c c1 93 74 3f 2e 1d 5d a5 81 48 b6 3f
       0.005023722717796801 0.0870438603134189
000790 5f 87 f3 d6 03 06 c5 bf f3 b3 ff 85 c7 b0 74 bf
       -0.16424606319111043 -0.005051402462396648
0007a0 ab 7b 60 c2 22 2a bf bf 1f 2e 1c a6 45 1f 99 3f
       -0.12173669095544308 0.02453335596423589
0007b0 3a 06 11 d5 c4 f2 ac bf 92 22 9b b9 d7 20 c0 bf
       -0.0565396795359558 -0.12600227892678056
0007c0 b6 aa d2 a0 9d fa 94 3f b2 14 c8 65 45 cd 79 bf
       0.020487273159839524 -0.006299277386010592
0007d0 b8 db 69 93 ea 4f 97 bf e8 aa 24 05 3e ab 93 3f
       -0.022765794036299275 0.019207924903791446
0007e0 8c 9b 4f 08 9f d5 cd bf cb 9c e4 03 a7 2b a4 bf
       -0.23308170228775926 -0.03939554140588938
0007f0 c3 19 fa 1d 2e 05 c7 3f e7 91 6d c4 ca da b3 3f
       0.17984558547705207 0.07755725188832906

lstm.bias_ih_l0 f8 [256]
000000 d7 1b d3 a6 fc 7f d3 3f ec d7 e4 98 e9 68 b4 bf
       0.30468670169324014 -0.0797258375431224
000010 b8 09 49 99 4a a8 a5 3f 3e 84 76 11 d5 e6 a9 bf
       0.04229958649786475 -0.05058923566981165
000020 ed 58 34 bd b5 13 ca 3f 0f 0b ac 5e 3f d9 a5 3f
       0.2037264989709863 0.042673092180868115
000030 9c 36 d6 3f 2f 5d 7a bf 1d ce 80 24 93 8e c3 bf
       -0.006436523979017086 -0.15278853685741547
000040 49 8e 3b 25 38 67 b2 3f c5 7e 89 07 76 c1 c3 3f
       0.07188750180244442 0.1543414627840233
000050 44 e8 94 14 a9 55 b3 3f b6 bd b8 9c 86 01 b2 bf
       0.0755258250473228 -0.07033578230106383
000060 e4 45 8f e5 b4 72 ce bf a5 c6 7b 7e bc 6f c1 3f
       -0.23787556847541602 0.1362224214167799
000070 63 3f f0 a6 47 e6 a9 3f b9 c1 11 49 e1 1e a0 3f
       0.05058502114127241 0.03148559586486805
000080 d3 8e c0 13 70 e4 b3 bf 73 7e 4a ae 72 dc c5 3f
       -0.07770443422537747 0.17079003820707647
000090 d8 80 63 c1 d8 85 75 3f 35 d4 87 2e 18 73 c3 3f
       0.005254599285962246 0.15194990417481483
0000a0 09 35 92 24 ef df b8 3f ad ad 6d 1c 3e e1 9f 3f
       0.09716696398591664 0.031132669911512135
0000b0 aa 21 12 d6 30 5b 93 3f e0 a3 a6 3d 30 94 b4 3f
       0.01890255266747124 0.0803861761584268
0000c0 c6 a7 44 49 f8 a7 a9 3f 24 a7 39 20 c7 42 b0 bf
       0.05010963339221024 -0.0635189489054509
0000d0 ee e1 c4 14 01 b4 a3 bf b7 dd 0f fd d2 61 ab bf
       -0.03848269823578564 -0.05348071421752414
0000e0 3b 25 b6 c7 5f 62 d0 bf 4d b2 73 82 10 ff bf 3f
       -0.2560042810733482 0.12498572525846292
0000f0 76 55 a4 94 d2 97 b5 3f ad d4 05 de d8 66 c4 3f
       0.08434787873223634 0.15938864556270485
000100 f7 20 2c 1e 4c 01 c8 3f 82 d5 16 b1 f3 2d b7 3f
       0.18753959153423924 0.09054492066828426
000110 52 05 9a 8b 5e 84 c2 3f f9 da 2f 03 7d 76 c0 bf
       0.14466459099279888 -0.1286159768639761
000120 ef bc a8 00 c9 18 a8 3f 5e 1e 98 a0 33 50 c2 bf
       0.047064095812283095 -0.14307256070627522
000130 24 ff 50 fa 2a 84 79 bf 8a 36 a7 7c 6e 48 ab 3f
       -0.006229560739541094 0.05328698417325224
000140 fd a1 8e f5 24 24 d2 3f 16 a8 88 31 64 58 4e 3f
       0.2834560773867734 0.0009260644174606837
000150 0f f0 04 3c 42 36 c3 3f 9f 52 b7 67 d9 69 b7 3f
       0.15009334498051927 0.09145888120776612
000160 5c ad 1a 06 53 41 a1 3f b7 08 42 ce 4b d1 c2 3f
       0.03370150994791274 0.14701221057118172
000170 a9 6d 39 ee b9 51 c0 3f 1f 72 37 d6 23 1d d3 3f
       0.12749408847853985 0.2986535636862601
000180 a0 2f d4 ea a4 a6 c1 bf 9f d9 c4 be 07 5c cf bf
       -0.1378980776429417 -0.24499604048623966
000190 d1 2b 3b c0 bc 9c b7 3f 43 2a b4 1e e1 bc b8 bf
       0.09223537152426721 -0.09663207053760296
0001a0 cf d8 68 ea 57 f4 b7 bf 76 81 00 08 2f 7d b9 bf
       -0.09357213471307378 -0.09956640191422203
0001b0 2a 9d be 46 9b 3d b3 3f 6e 1d 4d 07 b0 86 ae 3f
       0.0751587913242601 0.05962133492590281
0001c0 4d df 13 6b cd c0 a6 3f 61 e7 21 41 2e d1 cd bf
       0.044439715691565775 -0.2329461877850987
0001d0 76 dd 9f d9 c0 85 ad 3f 6a 2a 66 ba 92 60 a6 bf
       0.057661081853377746 -0.043705544713778036
0001e0 0c d1 07 29 f8 46 c4 3f a3 8a db 85 7a d4 d4 3f
       0.15841581347888967 0.3254686648562403
0001f0 7f 7b 63 86 75 d5 b9 3f f4 86 bb c9 b7 d0 9b 3f
       0.10091337710353619 0.027163383186127057
000200 a5 18 22 1c 3d 28 80 bf e2 94 e7 6b cc 3e ca bf
       -0.007889249249512462 -0.20504145878582053
000210 e4 02 e9 f1 98 55 9c bf 32 54 16 19 0d 13 b5 3f
       -0.027670278325106504 0.08232194769364368
000220 98 d4 fe 2e e8 fb b7 bf 1c 63 a4 d5 49 a4 b3 bf
       -0.09368754527425194 -0.07672559228775494
000230 99 24 b6 6f 90 3a c9 bf 60 c3 58 2b 39 1d 8a 3f
       -0.19709973768866432 0.012751051555001502
000240 cf c6 71 66 9d 12 b0 bf f1 01 79 8a 9f b0 c2 bf
       -0.0627840399845596 -0.14601511250840774
000250 a8 59 67 ef 01 94 c7 bf 5d a4 20 79 7c f6 aa 3f
       -0.18420433225283017 0.0526617906437614
000260 af 6f 5c 8b 8c 21 ad bf 49 09 f5 b8 27 17 a6 bf
       -0.05689658356843041 -0.04314540989664068
000270 3d 2b e7 70 8a 95 ac bf ef 73 36 9b 02 45 bf bf
       -0.05582840564928524 -0.12214676179287641
000280 d0 8a cd da b0 6d ae 3f 9c e5 cf ee 83 56 70 3f
       0.05943062468465643 0.003988757479413432
000290 ab 9e 2d e4 81 0d ad 3f c2 65 32 55 2a 0b bd bf
       0.05674367819193312 -0.11345161991120903
0002a0 40 ff 30 13 87 7f ca bf a8 f6 c8 c2 83 16 c1 bf
       -0.20701683461265397 -0.13349959383952137
0002b0 cc c1 ce 5d b9 6d c5 bf 96 8e 68 ec ed ac b3 bf
       -0.16741101341678044 -0.07685744306268769
0002c0 0b 9e 0a d1 f7 59 be bf 09 ca 2c 08 05 a1 be bf
       -0.11856030324508297 -0.11964446496566707
0002d0 82 8c ea 8f 8a 6c 92 3f a7 2f aa f2 41 7a b0 bf
       0.017992177041957998 -0.06436550306733456
0002e0 8e 6e 01 77 3a 4d ab bf c5 b8 c4 ac 33 d0 c2 bf
       -0.053323580767679166 -0.1469788163753433
0002f0 46 08 43 8f 35 33 4e bf a4 a6 7c e9 9b 9f b5 bf
       -0.0009216319581570951 -0.08446669054378703
000300 14 68 da 4f 3b 46 87 3f 8a 8e 70 fc bd 3c 97 bf
       0.01136442506258465 -0.02269265034932614
000310 3f ae a8 9c c8 25 c7 bf 42 eb c7 17 5a 18 bc bf
       -0.1808405651985243 -0.10974658089245984
000320 04 70 10 d4 d7 71 b8 bf ba f9 d4 c8 58 f5 bb bf
       -0.09548710753773554 -0.10921244528888155
000330 40 22 b3 39 e1 1f a4 bf fe d9 52 6f 7c 07 c3 bf
       -0.03930572347013994 -0.14866595683788825
000340 41 70 5e 04 c5 58 c8 bf 20 4f 57 41 eb f5 c5 bf
       -0.19020903313946927 -0.1715673512504674
000350 0d 4e 23 eb 6f 89 a5 bf ee df 4e a7 77 d7 ca bf
       -0.04206418748222172 -0.2097005431112388
000360 38 05 0f f4 0a ff c9 bf 39 25 de 45 1b 90 c8 bf
       -0.20309578816344653 -0.19189778243552683
000370 6e 36 cd 47 d6 c8 85 bf 14 bf ec f9 84 4f c8 bf
       -0.010636972490512177 -0.18992674067839543
000380 94 21 d0 fa d1 a1 b4 3f b6 94 3d 48 bf b7 b7 bf
       0.08059418080677566 -0.09264750970540345
000390 c8 f1 5d dc 2e 82 95 bf 29 d4 77 dc 0a 48 bf bf
       -0.021004421424992065 -0.12219303019067297
0003a0 80 01 7a 6d 42 f3 c5 bf f2 69 00 86 0e 62 ae 3f
       -0.17148619027649303 0.05934186349641725
0003b0 ba d3 97 34 3a 4f a8 bf c4 a0 1f e3 b6 25 78 bf
       -0.04747945682530692 -0.005895342257623951
0003c0 8c 49 d7 b7 2d 04 c1 bf 34 3c 2d bd e7 e4 b9 bf
       -0.13294002033815067 -0.10114906662532591
0003d0 81 7a 34 1d 08 91 92 3f 1b c3 18 da 95 21 90 bf
       0.01813137701275958 -0.015753117977683844
0003e0 c9 3d 64 b3 72 7c cc bf e2 50 b3 d4 ef d2 c0 bf
       -0.22254785308221717 -0.13143728147281936
0003f0 e3 22 88 e3 c2 2f 98 bf 7a 10 e7 9f 60 04 c6 bf
       -0.023619694840848814 -0.17200858886474518
000400 48 1b 79 4e 63 b3 ab 3f 42 08 91 98 72 9f 8e bf
       0.054102996186478125 -0.014952559739075725
000410 e5 23 64 04 ca 1f bc 3f 6c 8c 47 ee 22 21 66 3f
       0.1098600636215817 0.0027013475648672205
000420 ad 88 c2 2c 76 70 a6 3f 7a 08 75 d6 24 c8 a8 3f
       0.04382676407227968 0.048401976755955325
000430 4c fa 07 82 1f ef b5 3f 6b 03 f6 20 83 0f 90 bf
       0.08567997860516491 -0.015684174429682878
000440 27 ff 08 7c 34 73 ad 3f 59 d5 7d 40 0b b7 a6 3f
       0.05751956953144904 0.04436526453256801
000450 39 6a b1 0b 37 45 c2 3f 19 50 8e 0b f2 0c 66 3f
       0.14273727484654034 0.0026917197651048605
000460 c6 e2 fd 25 59 83 b1 3f c4 f9 af 78 c5 62 b8 3f
       0.06841046502621415 0.09525713154287191
000470 ea 53 90 11 51 2f b3 3f 35 87 3b 2f 8d 89 ae 3f
       0.07494074515155061 0.05964318467682831
000480 72 98 ad ea b7 a2 a6 3f b0 6f fa cf 48 0b a2 bf
       0.044210193059186845 -0.03524234331891252
000490 6b 14 4f c1 d8 86 b1 bf 68 ce 41 e3 bf c2 aa bf
       -0.06846384734588333 -0.052267071238841833
0004a0 54 56 c3 d6 43 29 ba 3f a3 38 6c 6f d0 ea 97 bf
       0.10219215386617836 -0.023356682587341592
0004b0 23 76 f3 ed b5 80 b9 bf ea 4b 73 75 87 e9 bf 3f
       -0.09962021884299381 0.12465712182465408
0004c0 65 ea a4 0c 7e 2f 92 3f df f2 c7 ea 6c 02 c2 3f
       0.017759294053784198 0.1406990190879673
0004d0 a9 dc 48 22 81 d0 b6 3f 7b 3a fb c0 f4 e9 b1 bf
       0.08911902510668547 -0.06997613631686221
0004e0 b2 b6 25 06 aa 95 a4 bf 17 a2 98 81 d8 ae bf 3f
       -0.04020434689560427 0.12376168407411857
0004f0 20 c9 89 b4 f2 00 85 3f 35 be e8 f2 05 ea a5 bf
       0.010255714544858352 -0.04280108061027158
000500 d5 31 ac 84 a2 92 96 3f d2 d0 00 d1 cd 93 ad bf
       0.022043742511458426 -0.05776827980335643
000510 ff a7 f4 3f 19 12 ab bf 2b 31 98 87 f8 8b a3 3f
       -0.05287245660504424 0.03817726760107328
000520 a4 26 a7 4c d9 fe a4 bf 41 09 9b 93 94 ab 97 3f
       -0.041006842238471536 0.023115464696055858
000530 6f c7 a7 9c f0 74 b6 bf 89 79 17 05 66 60 a2 3f
       -0.08772186112017065 0.03589171230463523
000540 77 42 a7 f2 c4 81 a4 bf 79 2b aa 81 85 19 c4 bf
       -0.04005256139828799 -0.1570288546684784
000550 d3 c4 6a b9 f6 4f a2 3f 24 3d 8a ec 86 d9 9f bf
       0.03576632512466351 -0.031103237330680447
000560 e0 1c 92 ed f0 56 a6 3f b3 38 51 05 6b ff be 3f
       0.043632058143936225 0.12108487014595219
000570 54 f0 4f a6 d7 5d 92 3f 00 91 fe 7e 99 8a af bf
       0.01793610527600749 -0.061604305984731766
000580 64 06 81 68 d6 2d c3 3f b8 f3 99 d3 09 47 ad 3f
       0.1498363504670578 0.05718260486626242
000590 84 5d 0f 1c 30 03 c1 3f 9c cc e4 9d e0 74 c3 bf
       0.1329097878467388 -0.1520043154683649
0005a0 cf 76 3d d9 96 bf b0 3f 04 f5 11 ac 5b 02 c0 bf
       0.06542341998780475 -0.1250719633280043
0005b0 dd 0d ca 6c 5e b5 9c 3f f9 d5 11 bb d0 f3 bb 3f
       0.02803561724659952 0.10918907706385274
0005c0 64 a4 68 31 81 14 bd 3f 04 4e 5b 48 01 cd b3 bf
       0.11359412628429905 -0.0773468782093048
0005d0 ba 88 aa 28 6c a8 bc bf 1e 01 4c 29 ab 44 c1 3f
       -0.11194492333246134 0.1349080993313771
0005e0 01 65 51 e4 ca af c2 3f 4f 96 ea df 95 05 af 3f
       0.14598976276719358 0.060589488585986666
0005f0 03 8f 7e 8d 11 12 26 3f 11 11 0b 3c fd 52 be bf
       0.00016838516489513935 -0.11845381465815687
000600 4d 71 c7 d0 07 cf d2 3f a0 9c 1a 3b c8 28 c8 bf
       0.2938861407144671 -0.18874457250533272
000610 34 b0 f5 e3 2b ec b1 3f a0 b5 8c f2 39 2a 95 bf
       0.07000994029448365 -0.02066889326959187
000620 73 e3 84 b1 d4 c5 cd 3f 53 55 46 01 11 48 cb 3f
       0.23259981792378034 0.21313679277651917
000630 2d e4 41 57 e7 8b bd 3f 7d 65 a7 4c 03 f4 cb bf
       0.11541601066882441 -0.21838418238511884
000640 57 bd 3c 36 53 99 84 3f a3 f1 36 f6 e4 ff a9 3f
       0.010058069317521996 0.050780444198127904
000650 e4 6e c9 f7 8c a5 bc bf 41 dd 74 d2 ba 58 97 bf
       -0.11190110253795243 -0.022799414725537707
000660 1d 69 8a db 47 68 b6 bf aa 26 18 64 4d 97 bb bf
       -0.08752869710807372 -0.1077774400111148
000670 2e 3c b3 29 44 23 c3 3f fd ec 6c 6f 3a dd 91 bf
       0.14951374088420394 -0.017445481348869574
000680 ac 53 58 5c c7 85 aa bf 08 75 d2 cd d7 ab b6 3f
       -0.05180190088518741 0.08855961585000582
000690 02 37 22 43 57 47 a7 3f c8 02 eb 16 01 07 c8 3f
       0.045466162629152165 0.18771375292819514
0006a0 05 8d ee 5e 91 9c c2 3f a6 fa 6f 48 a9 cb b9 3f
       0.14540307174056735 0.10076387423030528
0006b0 93 34 52 1b eb 74 c3 3f db 3e 8a 6c d4 ce b1 3f
       0.15200556596792988 0.06956222200301047
0006c0 35 05 7e 69 79 d9 b2 bf af a6 ff 2b 07 3c a7 bf
       -0.07363089395041274 -0.045379852410247216
0006d0 c0 94 97 52 17 78 c2 bf 11 bb 52 2b ea c4 c4 3f
       -0.14428988964860956 0.16225936046017655
0006e0 dd bc 2e 3c 5e ed d4 bf 8c 47 73 24 23 02 cf 3f
       -0.32698779942707096 0.24225272445488277
0006f0 9f a0 9c ea cb 1d b2 3f 89 41 6f ad 97 8f d3 3f
       0.07076715925052433 0.3056391900727467
000700 22 5a c1 0c 06 0c a2 3f c9 2c fc ce ae ae b2 3f
       0.035247983033219535 0.07297794869753028
000710 ea 15 8c 34 f6 d7 cc 3f 5e c7 e5 8f 05 1b 9b 3f
       0.22534062925130566 0.026470267207919
000720 62 ff 37 e2 16 e1 c2 3f e0 15 36 df 05 9c b0 3f
       0.14749418302380507 0.06488072108739784
000730 9c 72 1e 85 f2 fb bb bf ab 20 8f 88 44 d4 d3 3f
       -0.10931316137289077 0.30983079276894426
000740 23 c0 5d a9 30 44 da 3f 78 05 f6 31 00 24 a7 bf
       0.41041199245137444 -0.04519653901935333
000750 f2 b3 98 e6 4c 64 b1 3f 26 64 fe 26 d6 68 b0 3f
       0.06793671254918346 0.06409967853541385
000760 55 f9 95 3e f6 10 b4 3f 8b 34 3e 2e ad 36 a7 bf
       0.07838381793951517 -0.045339023489853046
000770 02 15 d1 9a 83 c7 8d bf d3 8b 0e 2c c1 60 d4 3f
       -0.014540699159747653 0.3184054308168786
000780 77 8a e7 f0 c0 55 78 bf e3 49 01 b9 51 cf c2 bf
       -0.005941156078253066 -0.14695188077401075
000790 c4 da fc b6 28 59 c4 3f 58 70 25 ad d0 b0 d1 bf
       0.15897091803500107 -0.27641693981946025
0007a0 66 9d c5 59 c0 86 b9 bf 31 7a f7 19 f5 c5 bb bf
       -0.09971239272782881 -0.10848934062912786
0007b0 34 98 50 23 7d 44 c8 3f 17 55 8a cd 5d 71 c0 3f
       0.18959011291843952 0.12845966850424226
0007c0 b6 14 0e db 2a 7e b7 3f f2 b2 ef f7 01 3e c8 bf
       0.09176891181967303 -0.18939232450738747
0007d0 5f 44 00 f8 d3 d0 c8 3f 78 2b 78 06 d5 77 c3 bf
       0.19387292489458027 -0.15209448638810463
0007e0 42 61 14 f2 6a 07 d0 3f fe 0a 47 36 a3 54 d6 3f
       0.2504527439173395 0.3489158659032653
0007f0 08 a5 3d c4 3a 28 a6 bf 53 1d 03 7c b9 38 a2 3f
       -0.04327567716138431 0.03558902396030796
