Ventil_trained_NNs/lstm_ws222.pth (torch, 3817 bytes, 6 tensors)

lstm.weight_ih_l0 f8 [20, 3]
0	0x3f958c8ce9096e8f	0.02104396984428419
1	0xbf82af2177d3d173	-0.009123097867338647
2	0xbf96c92238498964	-0.022251639066220533
3	0xbf9bcc5a3a551307	-0.02714673024208294
4	0xbfa427ca33aa2c8d	-0.039366072470408665
5	0x3fb9051ba3c15660	0.0977341913979557
6	0xbf826bd1b315f4a9	-0.00899471118713742
7	0x3f8ae8eafd113fea	0.013139568183902346
8	0xbfb41b4eed332818	-0.0785416916943692
9	0x3fab8315788486ca	0.053734465562468595
10	0xbf8336491b0c4707	-0.009380885255754657
11	0xbfc5b9836337cf83	-0.16972391457204247
12	0xbf983e475cb4b4b7	-0.023675074609106086
13	0x3fa360c39cf8bf46	0.03784762660177292
14	0xbf9a33c59610d3e8	-0.02558811882427739
15	0xbf9f2b0e35abd753	-0.030437681222756762
16	0x3f9684a00f671170	0.021990300121403406
17	0xbfc84d6489eede33	-0.18986183867467474
18	0xbf740d84917c85cf	-0.004895704121538682
19	0x3fb742058db67aa5	0.09085116109643339
20	0x3fd03b7be292d144	0.2536306107170001
21	0xbf9a1049d5bfe241	-0.02545276038287825
22	0x3fa2dc8ed91737ed	0.03683897399933742
23	0xbfb867cd6b855ac7	-0.09533389925978063
24	0x3f8b5142a694d195	0.01333858557573179
25	0xbfb1ad69137f280c	-0.06905228353494425
26	0xbfc3d874a0e1c44b	-0.15504320006906122
27	0xbfa105fc381214f6	-0.03324878868537866
28	0x3f6d2273725673ff	0.003556466561987381
29	0xbf9e5b68eca12dd9	-0.029645575945591893
30	0xbf97788b93b9f2f6	-0.02292078103208702
31	0x3faa9530ba1012d1	0.0519194819571901
32	0xbfc9ecba645ff645	-0.20253686810603902
33	0x3f9a308e43d34947	0.025575850381593736
34	0xbfa4061cd508e541	-0.03910913563272312
35	0x3fc66d6d8a7834dd	0.17521447430809803
36	0x3fae0c1487ccc8e2	0.0586859145900165
37	0xbfbcf17d4062b2f6	-0.1130598337355869
38	0x3fdc71ff79bba72c	0.4444578827666301
39	0xbf4ac7027c60a0f1	-0.0008171808374344542
40	0xbfa2464700ce4192	-0.03569242367587146
41	0xbfaec166b969e43f	-0.06006928456640325
42	0x3fb6792260a4284f	0.08778586253552699
43	0xbfc041418d8f0fd6	-0.12699145710041532
44	0x3fda9dfc62616d4a	0.41589269263723294
45	0xbfb0bf6314da50f1	-0.06542033442594054
46	0x3fb46da1b05c3294	0.07979784541766782
47	0xbfc9461ea0e67c78	-0.19745238167249446
48	0xbf6a07d46bb867a0	-0.0031775616496476228
49	0xbfa004180c578bad	-0.0312812342706573
50	0x3fd828664b8e8fee	0.3774657953128998
51	0x3f66a42cf4b3a4c5	0.0027638319057713156
52	0x3f887a08481c20ed	0.011951508236521547
53	0xbfc01d0a34d03466	-0.12588622645162956
54	0x3fa4395c28645838	0.039500122004185234
55	0xbf6c26873f5166a4	-0.0034363404798057485
56	0xbfd20cde10cff6cf	-0.2820353664572907
57	0xbfa6e4455b400996	-0.044710318936284896
58	0x3fb1bb3ada439647	0.06926315144263483
59	0x3fbacdab73bb3793	0.10470077109786606

lstm.weight_hh_l0 f8 [20, 5]
0	0x3fc1580808f4416f	0.13549900471890505
1	0x3fd0aef900c09478	0.2606794841142981
2	0x3fd2d45ef5aa924b	0.2942120932660017
3	0x3fa5fe584f9183cd	0.04295612307829053
4	0x3fd2c3754580a8e7	0.29317981517182407
5	0x3fd35a9605a9ae46	0.3024039321232731
6	0x3fc30b84ab957b58	0.14878900888558166
7	0xbfd9216772851042	-0.3926638239247532
8	0x3fb6eb0851f39195	0.08952381134765226
9	0xbfca83d151f6e006	-0.20714775564351856
10	0xbfa0081991bf3066	-0.031311797181474074
11	0xbf91a9931d002c7d	-0.0172484384966478
12	0xbf8a89260b6d2e18	-0.012956902717312466
13	0x3f6804c1b0101401	0.0029319556201721224
14	0xbf8a8014da7c066d	-0.012939608495347
15	0x3fabafbbb872f45c	0.05407511354994973
16	0x3fb13b258eb710e0	0.06730875715499307
17	0x3fa19631c15960a6	0.034349017002285806
18	0x3f9bb06ed83bed99	0.027040225932962157
19	0x3fa8dd3cb2787e60	0.048562905107470966
20	0xbfca28e3a367792a	-0.2043728397247347
21	0xbfc37463ca15aec0	-0.15198943488518601
22	0xbf9e8b8c7a1eeb63	-0.02982921119085392
23	0xbf839529d21d331c	-0.009561850285217548
24	0xbf9329fed8126c3d	-0.01871488755987748
25	0x3f7170590975025a	0.004257533836892502
26	0x3fb6f7be69a6904b	0.08971777037965116
27	0x3fa13fa0084e157a	0.0336885461938818
28	0x3faff151111521aa	0.06238797505881462
29	0x3fc0c16f6e4c6ca8	0.13090317617102198
30	0x3f8595f57c3b295b	0.010539930204136174
31	0x3fb2bf16269abe85	0.07322824900142606
32	0xbfbe9213db16dacc	-0.1194164667020729
33	0x3f9ec6ff46d364e2	0.030055988977299893
34	0xbfaeb2497d6555b4	-0.05995397239409375
35	0x3fa2404c56315419	0.03564680626065115
36	0x3f9bd8f33c6d6dbd	0.027194786608885958
37	0x3f364c08c65571e3	0.00034022535540659103
38	0xbf5d6f636c8b7960	-0.001796576589348918
39	0xbf9359e8759971c4	-0.01889765947122314
40	0x3faa37b38a565311	0.05120621741949639
41	0x3f90f05f16e231ee	0.016541944286062753
42	0xbf9b5328b2b26f88	-0.026684413821029845
43	0x3fa4e7406ea23e1c	0.04082681036481636
44	0xbf6c7a4a5b3ccff2	-0.0034762813828823564
45	0xbfaebc96f0d40233	-0.06003257455632074
46	0xbfc0dac690815483	-0.13167650276105655
47	0x3fb8fd92fc5e5e98	0.09761923467010047
48	0xbfb85dd4d2f42f99	-0.09518175268402586
49	0xbf9d6b65410bdb19	-0.02872999391089612
50	0x3fce13183238af63	0.2349577183934982
51	0xbf99c87bcdb7c848	-0.0251788467703096
52	0xbfc0ee35585fb02e	-0.1322695428383453
53	0xbfb17c9a7682ae1e	-0.06830754655191426
54	0xbfcf142fb98e9582	-0.24280354080580585
55	0xbfa76a2af42e37e1	-0.04573187094420895
56	0x3fd436d0cf7c5e6e	0.31584568273817737
57	0x3fdb5dae9e9f9dec	0.4275929020936633
58	0x3fa721bb79bb5e1c	0.045179232225276617
59	0x3fc6d0e6c3da2ce9	0.1782501655874065
60	0x3fce268582f3e0e9	0.2355505837838401
61	0xbfd14dc43d61c1fb	-0.27037149423907153
62	0xbfd9bc0dd1115d55	-0.4021029035261184
63	0x3fc32564539fbd0c	0.1495786102600295
64	0x3fd9dcc973385dc3	0.40410076381655474
65	0x3fddbfe498dbd268	0.4648372166405239
66	0x3f8df3d0999213c4	0.014625196158030714
67	0xbfd2b42716721d0c	-0.29224564735382397
68	0xbf933fd7404f2cca	-0.018798220920683652
69	0xbfd13e6d2f0e422c	-0.26943521113665514
70	0x3fe73cefae2b8576	0.7261885072477259
71	0xbfefae55503993de	-0.9900309149639914
72	0xbfe3a458e384f350	-0.6138119167077125
73	0x3fdab4ce0a8cf388	0.4172854521782985
74	0xbfdc8c1c23e1f7e5	-0.446051631013573
75	0xbfb9ca018f652cd2	-0.10073861838207002
76	0x3fd34b68dcf18af3	0.30147763802067046
77	0x3fc2fd30c148e813	0.1483517593167681
78	0x3fb896a77d0e09f1	0.09604880145165119
79	0x3fd1c6be0458653a	0.27775526451440025
80	0x3fc8eff159ae9758	0.19482247237209083
81	0x3fc2049fce3a44cb	0.14076612062175395
82	0xbfda905ba89bb287	-0.4150609156193145
83	0x3fc49d58fd128ddc	0.16105186802916094
84	0xbfc15188293e4d94	-0.13530065549694525
85	0xbfb14b0876a1ab80	-0.06755116363789959
86	0xbf9d30d9b6b5569f	-0.02850666215575492
87	0xbfa5d109cea60bea	-0.04261046073499826
88	0x3f653ed90c659b13	0.0025934447505052776
89	0xbf9142291fa87dcb	-0.01685394530988819
90	0x3fb037569c3bffb9	0.06334439577403729
91	0x3fa620799fa00d20	0.04321651528882797
92	0xbf8ef5bff5203799	-0.015117168110034206
93	0x3fad3bfc4af11fcf	0.05709827818696988
94	0x3f9021c5d32b72c4	0.015753832830216266
95	0xbfcdfe83b621b16d	-0.23432966607232278
96	0xbfc29ca0cde23d8b	-0.14540491154592092
97	0xbfb057bd32a95f7c	-0.06383879172187606
98	0xbfa6b218728fedd8	-0.04432751081909786
99	0x3f721c26af787b33	0.0044213782453244475

lstm.bias_ih_l0 f8 [20]
0	0x3fa290cc001216bd	0.03626096249449293
1	0x3fbfd3f5ca303116	0.12432800470577762
2	0x3fd4a880bbc5f28d	0.32278459870557513
3	0xbf879d782781be6b	-0.011530817704822746
4	0x3fe45fce2ab11740	0.6366949876616914
5	0x3fdaed43e4a92a16	0.4207315190330133
6	0x3fda2acb266e5199	0.4088619113256527
7	0xbfab0cc0440110fd	-0.052831657697000246
8	0x3fa80c484c6447f1	0.0469687073947539
9	0xbfd899469a9cd58b	-0.3843552122010229
10	0xbfb5195af493d528	-0.08241814108972234
11	0xbf7d65a316b8445c	-0.0071770067838921835
12	0xbfc3a6d27851233a	-0.15352850794649858
13	0xbfb5c5eca391bc3a	-0.08505133622541985
14	0x3fcaf3eedd853759	0.21056924644875144
15	0x3fd88632e691b989	0.3831908466007908
16	0x3fc3c79c07692dec	0.15452909814699411
17	0x3fda87b79168c6a3	0.4145335121166715
18	0x3fb191313c193c5b	0.0686217090344469
19	0x3fe48c3816e7f4bb	0.6421165892967545

lstm.bias_hh_l0 f8 [20]
0	0x3fc7592a1072dd77	0.18240857890280512
1	0x3fb133cd37fc2ac7	0.0671966802293965
2	0x3fd4952d03960b1a	0.3216049704571319
3	0x3f7ef8fc32dbd441	0.007561669493715562
4	0x3fe4ae3e5b78eade	0.6462699686593074
5	0x3fdede63ebd6e0e8	0.48232362776935966
6	0x3fd6fb5702a33652	0.35909056909153947
7	0xbfaade283877c030	-0.05247617425254736
8	0x3fa5d52f15048a12	0.04264208919109448
9	0xbfdbe10e8dcac16c	-0.43561138007046085
10	0xbfdb5862a7f7eddb	-0.4272696152035828
11	0xbfdc5bde3117e59a	-0.44310717386505305
12	0x3fb15868e8158de1	0.06775527635686941
13	0x3fad340c260f0ae2	0.057037715574116424
14	0xbfce50f72324f3ac	-0.2368458673098791
15	0x3fdc48de8afa1f20	0.44194758960701286
16	0x3fc0254219928f4a	0.12613703011185812
17	0x3fdae98bb86013a8	0.42050450330162414
18	0x3fb515c982d83628	0.08236369556853929
19	0x3fe43109506306ad	0.6309858865790453

linear.weight f8 [2, 5]
0	0xbf91f1ddd5bd5919	-0.017524210138924
1	0x3fa9da21b2271c4a	0.05049233722416398
2	0xbf80bc8c748c62ba	-0.008172128016256653
3	0xbfaac2d36f3ffb9a	-0.052267653780283044
4	0x3f98d45aa2b9fd7e	0.02424756639675029
5	0x3fe04c89b7b53037	0.5093430126230548
6	0xbfe62441218c7d43	-0.6919255881547673
7	0x3fd9d8bf926f8a88	0.4038542680774886
8	0x3fdb1125e1750c63	0.4229216291170756
9	0x3ff462627b0c5438	1.2740196997231248

linear.bias f8 [2]
0	0x3f6c5701eb6154d1	0.0034594571580251828
1	0x3fad35b6b8c74347	0.05705042844386426
