Ventil_trained_NNs/lstm_ws4hs5layer1_nummer335_decay0.3.pth (torch, 4522 bytes, 6 tensors)

lstm.weight_ih_l0 f8 [20, 3]
000000 55 09 6d f0 96 42 d6 bf 43 4a 44 44 a4 9c bb 3f
       -0.34781430701345545 0.1078589121500864
000010 e8 6e d0 8b 2a 5c d0 3f 2f 61 c7 e5 f3 fc d8 bf
       0.2556253781674358 -0.3904390090879301
000020 65 33 71 61 e8 46 cb bf 0a a3 f7 1b c1 33 c1 bf
       -0.21310143239898163 -0.1343919169005619
000030 17 bf 81 7a 36 2a c2 3f 8b c1 09 e2 29 e6 c7 3f
       0.1419132326295702 0.18671153580681862
000040 35 2f b7 fe 19 9d c3 bf ba f3 fd 27 b6 9e d8 bf
       -0.15323185860904123 -0.3846869841143491
000050 bd ac e2 f4 92 bd bc 3f 4d 2a 81 22 df bb d9 bf
       0.11226767042778625 -0.4020917736967576
000060 6d 91 5a c3 ec 43 d0 3f d5 d1 c3 6c ef 75 d1 3f
       0.25414580419080474 0.2728231966168811
000070 e8 c3 75 12 0b f7 b7 bf 24 6d 8b 96 45 1b d1 bf
       -0.0936133308475885 -0.26728954030632424
000080 3a 30 78 ff 06 a0 da bf a0 6d 36 26 ee c8 cd bf
       -0.41601729343597393 -0.23269440523004636
000090 54 da 4e d8 20 f4 c5 3f 31 57 b3 f1 ac 55 97 3f
       0.17151270448603617 0.022787763836127076
0000a0 c9 71 07 8b 36 1d e1 3f dd bf e2 0e ff ce 39 bf
       0.5348160472308844 -0.00039380766873886396
0000b0 03 b3 92 12 4c 92 de bf 71 1f 65 52 2a 5f c9 bf
       -0.4776792699220069 -0.19821671508020303
0000c0 5e 25 ab a8 d6 03 a4 bf 7e 51 10 c0 b8 ff 97 bf
       -0.03909178551618696 -0.023436438295975297
0000d0 df 93 78 94 b2 44 da 3f e4 ba 4f 1c b8 5c e2 bf
       0.41044296740647995 -0.573818259521286
0000e0 d7 0f c8 b1 8d 0a e1 bf 45 d8 dc 4e d2 e2 d5 bf
       -0.5325382683081398 -0.34196908666070086
0000f0 2e 52 b0 0e 4d 65 d8 3f 98 d5 6d 0a af 04 d3 bf
       0.381182922691809 -0.29716087358914356
000100 4e 17 35 fd 36 8a c8 3f f3 36 45 5f bf b3 a9 bf
       0.19171798099176346 -0.05019948995560055
000110 5c 36 d1 a5 03 ff c7 3f 78 2c f9 0a b4 00 d1 bf
       0.1874699172644111 -0.2656679255639527
000120 5e f3 71 60 1a fb c2 bf a0 77 c0 b7 49 85 7e bf
       -0.14828805646166193 -0.007451332054214804
000130 ce 60 ae 66 72 eb b8 bf e0 d9 bb f1 ee 84 c6 bf
       -0.09734263426651354 -0.17593180468948244
000140 76 69 6a d8 39 4c d9 3f 46 41 5e 2b fc be dd 3f
       0.39527746328680935 0.4647818015592019
000150 24 6d ae ef 93 6c d1 3f 1d 0a 4d 3c 0a 44 a7 3f
       0.27225206762678256 0.0454409788713017
000160 23 da 8d 14 3e 97 84 3f b3 7b 26 aa 28 7f c1 3f
       0.010054097177755022 0.1366930800258764
000170 87 57 60 48 b4 99 cd bf 30 04 f4 eb 61 a6 d2 3f
       -0.23125318082810173 0.2914051822882042
000180 f0 19 76 bc d0 ff d2 3f 3a a6 bd c1 ec 2b b6 bf
       0.29686373142649725 -0.08660773973465377
000190 80 f3 02 ad 86 03 cc bf fc 5c 02 2e 74 b3 cb bf
       -0.21885760734394566 -0.21641399618668078
0001a0 6f 5c 75 2d 5c ff b5 3f 48 1f 37 c5 bd 63 b4 3f
       0.08592773542237507 0.07964693131282019
0001b0 a8 b1 4e bd da 6b c6 3f 17 f2 10 e3 6e 3c bc bf
       0.17516645663762387 -0.1102971367226434
0001c0 71 d2 ec d1 a1 ae dd bf ee 9e 53 f4 4d bf d1 bf
       -0.463783698086707 -0.2773013006212598
0001d0 1c db 19 7a 96 d4 dc bf e7 4f cb 90 2d 39 d1 3f
       -0.45047532962728254 0.2691148675924055

lstm.weight_hh_l0 f8 [20, 5]
000000 ee fa a1 4e 6c 8e 82 bf 86 39 b9 d4 82 67 d7 3f
       -0.009060712957077634 0.36569281362326256
000010 5a 5d 34 64 d1 80 ca bf ee fa 99 8e 50 ba 9a bf
       -0.2070562114028956 -0.02610135908480065
000020 75 94 fe 98 77 52 cf bf 95 54 c9 db 55 1a d1 bf
       -0.24470419855530037 -0.2672323843338032
000030 29 83 ea 2b 54 61 d8 3f c4 1c 63 bb f3 f4 ce bf
       0.3809404782169162 -0.2418503441788059
000040 8d 72 dc 81 db cf bf 3f b7 d5 bf be 9f 73 cd 3f
       0.12426540298879214 0.23009106458600367
000050 40 f1 33 91 6f df c0 bf 84 1c 2d 08 c6 81 bf bf
       -0.13181871976838444 -0.12307393741240175
000060 10 54 e6 8f 1a e7 c8 3f 26 42 07 dc 9c 01 e7 bf
       0.19455272699693227 -0.7189468667439243
000070 28 9f fa 37 8f 35 dc bf 52 c9 b0 e8 ab a1 c4 3f
       -0.4407690092725596 0.16118382322162944
000080 54 98 24 4e 80 8b d0 bf 48 61 59 e3 13 2a bf 3f
       -0.25851447707316777 0.12173580456272248
000090 3d fe 4e 46 44 7d 78 bf d7 61 ec a6 20 d6 b0 3f
       -0.0059788386324153816 0.065767327072883
0000a0 c0 82 7c 09 b9 e2 bd bf 1b d2 89 12 ae b3 db bf
       -0.1167407653961261 -0.4328417950667089
0000b0 0d a1 37 53 b3 65 cd bf 49 59 25 fc 12 e1 bd bf
       -0.2296661526045302 -0.11671560912995917
0000c0 7b 91 cc f0 12 71 e3 bf ca 52 82 f7 0b 78 d5 3f
       -0.6075529769046136 0.3354520718651598
0000d0 4a 5c 18 0c fc fd c4 3f ed f1 b7 5f 08 1f a9 3f
       0.16400099363883874 0.04906488579215194
0000e0 e8 33 1a 94 88 e9 d0 bf 8b 57 86 40 8a e9 e4 bf
       -0.26425375426407394 -0.653508306527088
0000f0 ec 98 f9 e6 39 67 bf 3f 2f 47 f6 95 fd c4 a4 3f
       0.1226688565162452 0.040565418773566335
000100 9e bb 8a fd a8 5e 96 bf e6 5d 51 e1 5c 3a a9 bf
       -0.021845474696131732 -0.04927339792692091
000110 8e 52 e8 a6 50 76 de bf 6c c5 fd d3 fd 48 d3 3f
       -0.47597137736855977 0.3013300485827901
000120 69 fd d9 50 85 05 dd bf 7e b5 fb b4 e2 3e d7 3f
       -0.45346196075111905 0.3632132308401522
000130 96 8a aa 20 36 94 da bf ea db 60 7e 26 b7 e5 bf
       -0.4152961081510197 -0.6786072223975428
000140 09 d2 98 51 4d 19 df bf 5a 94 68 19 6c 50 b0 3f
       -0.4859193131299269 0.06372714634251633
000150 a6 18 4d 3b 7c 1b cc 3f e4 fa 79 55 fb 09 ce 3f
       0.21958878417553257 0.23467961953789207
000160 70 b7 b7 70 c2 1f b8 bf ea af 1a 87 d6 30 a4 3f
       -0.09423461200614525 0.03943510436269533
000170 98 80 06 5d 20 52 c2 3f 31 ef 00 89 24 5e d9 3f
       0.143131299421843 0.3963710153509395
000180 9f 31 b5 d7 8b 83 d2 bf 84 70 ff c7 a8 2e da bf
       -0.289278946544778 -0.40909785777126495
000190 5e c7 89 03 37 b4 a7 bf 0e 4e 88 08 85 f5 e5 3f
       -0.04629680555525682 0.6862206617974509
0001a0 66 08 d5 46 87 85 b6 3f 23 8e 6d 22 41 ed d8 bf
       0.08797498206425444 -0.3894808613024187
0001b0 a6 f0 f3 6c be 9d bd bf 9b 73 70 26 0e eb df 3f
       -0.1156882301328915 0.49872163537821174
0001c0 9a fb 83 fb cb 2d dc 3f b6 02 49 4d 71 37 e1 bf
       0.44029521524492454 -0.5380178937412754
0001d0 26 83 08 0f a4 c2 da 3f c3 84 03 c6 17 26 d6 bf
       0.41812993496027884 -0.3460750039794897
0001e0 80 3a 08 23 45 9c c0 bf 2d 1d a2 18 8b ab d8 bf
       -0.12976898394159164 -0.3854701748427541
0001f0 5c f6 de b8 1b cf d9 3f a4 b3 38 9f ac 5a df 3f
       0.40326588681987174 0.4899093203446745
000200 5b aa c0 b5 72 39 e7 3f b1 f4 bc 58 5b fb c0 3f
       0.7257627057891328 0.13267080147662605
000210 6d bd 90 10 47 9c bd 3f 56 d4 6d 16 dd cd d1 3f
       0.11566585688045956 0.27818991842588525
000220 44 4b 05 98 6b fc e4 bf cf 8f 27 4a 9c ef aa 3f
       -0.6558130234865094 0.05260933308798565
000230 60 ca 9f e5 8f 54 df 3f 78 42 68 77 c5 42 c5 bf
       0.48953626083599566 -0.16610019998963188
000240 22 a8 8f d1 82 6a de bf db 90 7d 54 19 4c c0 bf
       -0.4752509161468216 -0.12732235551368984
000250 00 4f 09 a9 10 9e d2 bf 6f f5 88 e2 fd 96 d0 bf
       -0.2908975268121452 -0.2592158043151675
000260 5b 51 ab 84 a6 d1 cc bf 62 4a 76 69 50 31 ce bf
       -0.2251480243491056 -0.2358799471808935
000270 6c 95 8d fd 4d 81 be bf f5 dd 00 b8 a9 64 b6 bf
       -0.11916053238163266 -0.08747349493284402
000280 13 4f 49 e0 e9 c5 cc bf 07 8d 6f d6 77 45 be bf
       -0.22478984309656677 -0.11824749932525346
000290 7c 86 09 59 c8 8a e3 bf ba 67 c9 59 d8 38 c0 3f
       -0.6106912364013648 0.12673477539175143
0002a0 9a 06 b7 e9 39 38 c1 bf 88 35 4c 06 d3 0c dc 3f
       -0.1345283881365063 0.438282734060373
0002b0 2d b9 23 5e 8c 8a dd bf b6 6c 91 f7 5c 57 c8 3f
       -0.461581317837857 0.19016611183437754
0002c0 cc 70 78 e8 ed e1 bc bf df cf d1 ea 0a 6a db bf
       -0.1128224079661237 -0.42834732944106507
0002d0 af 49 f0 19 67 8d da bf f7 8f 6e e4 df 71 b0 bf
       -0.41488053830212385 -0.06423758818579005
0002e0 69 54 bb 4e b9 47 90 bf ec 8d 22 c1 8d a0 c9 3f
       -0.015898604803471637 0.20021221094530917
0002f0 b6 4c 3c 88 cc 41 d9 bf c0 0e d6 df e6 43 c2 3f
       -0.3946410494256257 0.1426972001028073
000300 66 e3 dd bb d3 d8 9f bf 87 14 c8 54 eb 9e a0 3f
       -0.031100567189671045 0.032462457751571576
000310 78 d1 9d 20 2d 27 d5 bf c3 e1 7f 8a 6b 45 97 3f
       -0.33051613030627136 0.022725754097310046

lstm.bias_ih_l0 f8 [20]
000000 ac bf ff c1 54 b4 b5 bf f3 bf d5 ed 16 94 d3 3f
       -0.08478288399032746 0.30591366983480767
000010 3b d4 e0 86 8c cd 88 bf bb b2 1a 9d 0b b8 bd 3f
       -0.012110803476483514 0.11608955941728542
000020 94 ab ff cb cc 1b b2 3f 9d 4b b7 19 92 e0 cf 3f
       0.07073669414937306 0.24904085403121892
000030 20 a9 37 ab c8 70 e0 3f 2e 91 8c b0 2b e4 b5 bf
       0.5137675613489456 -0.08551285801201366
000040 f5 c6 3c 81 8f e2 e2 bf 78 8f 6c 74 23 ef c7 3f
       -0.5901563190620595 0.18698542771118887
000050 69 f3 bc 5a 31 7e ce 3f 21 46 73 c4 eb c4 a5 3f
       0.2382260983521534 0.042518012743709706
000060 dc 2a 4d a5 1d b6 d6 bf 81 6e f5 ab e3 96 ca bf
       -0.3548654665252522 -0.20772977730199574
000070 2f c0 c8 5c b9 93 d1 3f 3d 40 50 62 98 5f dd 3f
       0.2746413618178875 0.45895967102933694
000080 9a e2 44 ff 38 53 c8 3f 44 f6 7d fc 20 fd cc bf
       0.1900397535735195 -0.22647487953865852
000090 6f 96 2f 8c 56 ff a6 3f 37 d1 22 b8 8c 4f d1 3f
       0.0449168249249795 0.27048032743484235

lstm.bias_hh_l0 f8 [20]
000000 32 58 25 0b 86 36 6d bf d7 ae ca d5 25 c2 d3 3f
       -0.0035660379445898943 0.3087248409089915
000010 4e 4b 59 53 bb e6 cd 3f fb ce da c3 f4 38 bf bf
       0.23360387391820797 -0.1219628313218059
000020 c1 01 dc 88 78 66 b7 3f 4d cc 88 fd 85 59 cb bf
       0.09140733090681065 -0.21366953734977515
000030 ed a6 bf d5 3f 14 da 3f 43 1a 9a 69 f3 f9 bb bf
       0.4074859225644179 -0.10928269699261599
000040 11 d8 cb ac 31 e5 b7 3f 4d 16 65 47 15 ee b1 3f
       0.09334097355517225 0.07003911011732918
000050 ca 10 8e a2 2e cf e0 3f eb cb 8e 0a dd b8 e0 3f
       0.5252907919789547 0.5225663381773961
000060 98 72 ad 74 93 c3 cd bf 71 88 8d 03 d7 8c b7 bf
       -0.2325310058321477 -0.09199279629459213
000070 04 81 b0 94 6d 5d c6 bf 69 e3 0c 84 d5 a2 d4 3f
       -0.1747261978171154 0.3224386014513159
000080 a0 3c 48 c8 66 55 cd bf 85 fe 19 46 c0 75 d7 3f
       -0.22916874675181464 0.36656195493558413
000090 4b 9a e3 04 b7 09 c6 bf ae 81 c2 32 09 06 d0 3f
       -0.17217147577976485 0.2503684039784514

linear.weight f8 [2, 5]
000000 fb eb 84 ab 4f 0d a0 3f 02 64 93 48 10 28 a3 bf
       0.031351556479840746 -0.037415036067336885
000010 43 b9 c8 03 44 bd d1 bf 69 f7 63 34 64 8f c1 3f
       -0.2771768605188251 0.13718845899705492
000020 e7 73 bf e8 ab fb c1 3f c4 5f 78 9b c7 69 c1 3f
       0.14049290527955735 0.13604064074820432
000030 b2 b0 e5 7f 4c 23 d1 3f 43 bc 22 18 b3 5a 99 bf
       0.26777946939433683 -0.024760053966641726
000040 77 d7 a5 40 84 e9 73 bf 49 e5 2d 63 cd 01 d5 3f
       -0.004861370669791635 0.3282350033328681

linear.bias f8 [2]
000000 76 5a 7e 28 bd 50 b7 bf 89 50 80 1a ed 16 cc bf
       -0.09107572783100601 -0.21944965166096989
