Ventil_trained_NNs/MLP0.pth (torch, 3064 bytes, 4 tensors)

network.0.weight f8 [8, 15]
0	0xbfbbaedff577f7db	-0.10813712828527804
1	0x3fc026d66ddc1b58	0.12618522991416614
2	0x3f77d5201570bdd1	0.0058184865256829124
3	0xbfc5bfbfd11c7b87	-0.16991422377119766
4	0xbfa501ada7d188e5	-0.041028429732948436
5	0x3fa5e6bdd72f1417	0.04277604343182178
6	0x3fa5f8d3aaeb14d2	0.042914023031281126
7	0xbf92789504431383	-0.018038109192974893
8	0x3fbde1d529a7de29	0.11672718302713093
9	0xbf9e5a7ee1307443	-0.029642088407957578
10	0x3fc4ba7130231999	0.16193976259655754
11	0x3fd51d0f4e863efd	0.3298986689414816
12	0x3fd037e3eff4ca9a	0.25341127808784736
13	0x3fd45778b6cb7540	0.3178388390641267
14	0x3fbbe24acf0434f0	0.10892169527160767
15	0xbfccc9f1c05be0c9	-0.22491285221599913
16	0x3fc7a2454b6d1aae	0.18463960822028497
17	0xbfb9641f2a68ac64	-0.09918398652432497
18	0xbfc79b049f40b43c	-0.18441827560437385
19	0x3fa9eb8631368a36	0.05062503195519634
20	0x3fc196b560d6eeeb	0.13741175869460362
21	0x3fc9a4e8ada61001	0.20034512022914444
22	0xbfb26d0308b671ce	-0.07197588885032433
23	0x3fc3c47ce499b91a	0.1544338337147984
24	0xbfd0122e90a9d521	-0.2511097347954366
25	0x3fc405825aa3e3e1	0.1564181273058969
26	0xbfb93cc85dc8c0cb	-0.09858372010853882
27	0xbfd2923dc2e6a1e5	-0.29017585786144046
28	0x3fa3e502daa4d5d9	0.03885659140579962
29	0x3fc1ff224cb9e0a0	0.14059857126608666
30	0x3fc972a77d5f8576	0.19881147023901818
31	0xbfbd08ad87bbcd02	-0.11341366351898688
32	0x3fb995f3854d01b8	0.09994432453550572
33	0xbfc64a52f13948e0	-0.1741431882715636
34	0xbfaf8029d621ed64	-0.06152468432352512
35	0xbfaed6fd8158adc8	-0.06023399547515457
36	0x3fa44b936de121e0	0.03963909832288315
37	0x3f894d95a55e3300	0.01235501204407674
38	0xbfb4a396edd845f6	-0.08062117869146576
39	0x3fc3cbd1215f2fe6	0.15465749864085793
40	0x3fc0df6eb2683952	0.1318186160210169
41	0x3fc3d5ac99b49ea0	0.15495831971314988
42	0x3fa48cd47747f540	0.0401369472128672
43	0xbfcdcbda90cbe52c	-0.23278362341060566
44	0xbfc62fbbbb4eca82	-0.1733317055310018
45	0x3fa4e611aa0f59e0	0.04081778717925366
46	0xbf86f177ceee9e90	-0.011202751162115804
47	0x3f93ef2fff360e40	0.019467115356304854
48	0xbfc881f20953f4c2	-0.1914656205698631
49	0x3fccc6d189583248	0.2248174591662908
50	0xbfa63eed1eb08050	-0.0434488391840665
51	0xbfcd9b25145a414a	-0.23129714483048708
52	0xbfbc5ff2c181d072	-0.11083905433935273
53	0x3fc0421ab3bd62d0	0.12701734329563985
54	0x3fc8389174d6a226	0.18922632412911006
55	0xbfb2f442123d4eee	-0.07403958268451635
56	0x3fac331a55beaea8	0.055077383963490434
57	0xbfb7aa3153dd5942	-0.09244068429447785
58	0x3f316f27537b0800	0.0002660246859528259
59	0xbfb4e49f17d515d8	-0.08161348659367407
60	0xbfcfd93551e0a4d8	-0.24881617067266038
61	0x3fccc86c964752f4	0.22486646020720225
62	0x3fc1d540a6cccdd8	0.1393204512074664
63	0x3fb13c45375d3d7c	0.06732590295472635
64	0x3f9a8c3bd1f71f00	0.0259255740072879
65	0x3fb1d2d9e77370b8	0.06962358379991229
66	0xbfcf790a4e262036	-0.2458813554369514
67	0x3fcc3873073a695a	0.2204726968091773
68	0x3f941060861f2bd0	0.01959372347463867
69	0xbfb2027a77831e5e	-0.07035031717088588
70	0xbfcdd2d5542e7f01	-0.23299662218504838
71	0x3fb7df76c8b58e0c	0.09325354004027292
72	0xbfc8b9d6429015e0	-0.19317129373682373
73	0xbf9a606faf91cd98	-0.025758500185884964
74	0x3fb325709f70887c	0.07479003803794798
75	0x3fc3faf528fda075	0.15609611989498587
76	0xbfb6cdbc6fe41e67	-0.08907678348270452
77	0xbfcfb9b87aa21638	-0.24785524356791355
78	0xbfc592d62da9f3eb	-0.16854359845811415
79	0xbfd21d6f9609a985	-0.2830466237270673
80	0xbfba00a9f41b49c2	-0.10157263002046249
81	0x3fc5d2c21bab2298	0.1704943308925706
82	0x3fc95e167f6e7f42	0.19818383428809666
83	0xbfa46e3dc9a1069b	-0.039903574812808894
84	0xbfcd9aa62ee1f976	-0.2312820176047798
85	0xbfcdf829a4244ca3	-0.23413582339035086
86	0x3fb669babcd49908	0.08755080328100828
87	0x3fa7929c59517700	0.046040426161864545
88	0x3fa7c9df2d06357e	0.046462034460186694
89	0x3fbbffd1bbbd0c35	0.10937224229296379
90	0xbf7edd2b9754ee57	-0.007535143163575584
91	0xbfc5d6f06c2ef916	-0.1706219223251046
92	0xbfcee374038bfb9b	-0.24131632016357404
93	0x3fbf4b5b73d16f72	0.1222436101683664
94	0xbfd34ed2fc1982fc	-0.301686044875211
95	0x3f7c317f0a92c4db	0.006883140807233813
96	0xbfbd05d893bcef10	-0.11337045294652293
97	0xbfc2f6291921086f	-0.14813722350124034
98	0xbf9a88e2a8207ba9	-0.025912801276827633
99	0x3f7b284abccb31cb	0.006630222266448669
100	0x3f8bacf6224eb952	0.013513491556150701
101	0xbfb9659bbafee717	-0.09920666995358506
102	0x3fc1c96d820a9034	0.1389595875708679
103	0x3f9ba1d951da3e5c	0.02698459207618807
104	0x3fc76937cb202e79	0.18289849680182949
105	0x3fbe28fc96ba9f24	0.11781290702731134
106	0x3fc1803a8b649c42	0.1367257290487221
107	0x3fcd0ea2e5f5298e	0.2270091650810397
108	0xbfc68acd0b703190	-0.17611086901196105
109	0x3fc517e5ce35d839	0.1647917992483501
110	0x3fd59e1c15f758d5	0.33777525086533206
111	0x3f71a24ab32d2de7	0.004305164143100871
112	0x3fb3d5b795deee1a	0.07747981461482603
113	0x3f807f8ca28f7e01	0.008055781088784466
114	0x3f92f6c95fbc62c2	0.018519541233305466
115	0x3fc2a68b9cd0c3f1	0.14570756108290042
116	0xbfc865d304adbf5e	-0.19060743072941028
117	0x3fc33708cf57700e	0.15011701702212615
118	0x3fb8807322305808	0.09570998749435955
119	0xbfd048003282dfd9	-0.25439457829224704

network.0.bias f8 [8]
0	0xbfb3fd24d6524a97	-0.07808141930062572
1	0xbfd2b1d21df0537f	-0.29210331844051746
2	0xbfcd70fbb9e3781b	-0.2300104768427794
3	0xbfc856a6e3f6235e	-0.19014440661365034
4	0xbfc5075309653598	-0.16428602179295804
5	0x3f976c8bad6ee8b2	0.022875006161236562
6	0xbfbd7b65e8739326	-0.11516415524563381
7	0x3f72dc6c5b0d44f8	0.004604743255940173

network.2.weight f8 [2, 8]
0	0x3fcb0d09aba80c73	0.21133538133298976
1	0xbfd0103bd12abd5c	-0.25099082399807116
2	0x3fcb3a4bb2c3f836	0.21271654347214203
3	0x3fd2235e0ed0d705	0.2834086556134568
4	0xbfd405a430786bc6	-0.31284432156979525
5	0x3fa4264480cf5fea	0.039354458545574136
6	0x3fb89ac8ab443ae3	0.09611181432067499
7	0x3fd5afd390887433	0.3388565932708076
8	0xbfd2a01129fc43b4	-0.29101971721780306
9	0x3fc8760063ce6a7c	0.19110112069468588
10	0xbfd28f0fd0c09132	-0.2899817980380873
11	0x3fc68e35c012f0e6	0.17621490362751685
12	0x3fd66b41c6070c27	0.3502964433538999
13	0xbf76048d64c4da99	-0.0053754351795790795
14	0x3fc953897d58996e	0.19786184902586562
15	0x3fd44872693ab822	0.31692180897050737

network.2.bias f8 [2]
0	0xbfc91fe2626e0e8b	-0.1962855320563118
1	0xbfa0502604ec6a2c	-0.031861484623920994
