Ventil_trained_NNs/MLP1.pth (torch, 101660 bytes, 8 tensors)

network.0.weight f8 [64, 60]
00000000: 31c6 0f2c 6d2e e33e 64e4 bbbc 25db e23e
00000010: 2ca8 fff7 6189 e23e 9058 3b31 af39 e23e
00000020: 9774 3988 deeb e13e b7e1 e38b bf9e e13e
00000030: db7f 05a5 b950 e13e cf19 4e30 3200 e13e
00000040: 7be2 2c68 f4ab e03e f556 68bb 5554 e03e
00000050: 8e39 35c7 86f4 df3e 8f46 fac5 bf3d df3e
00000060: ee97 e2dc ef87 de3e e488 abc2 f2d8 dd3e
00000070: 2e02 5fa1 1739 dd3e 3663 c7a6 19b0 dc3e
00000080: 1a80 b1b1 1b43 dc3e ed93 57dd 0bf5 db3e
00000090: 409f 8d28 57c5 db3e 34de 9de6 55af db3e
000000a0: 5bc3 05bd 8918 e93e 8922 990e 6554 e93e
000000b0: 9d50 b01b 8285 e93e 23d6 9b20 67aa e93e
000000c0: 78f5 6f0b 99c1 e93e ae60 9249 9dc9 e93e
000000d0: ec33 3e40 fbc0 e93e fa33 de4b 3fa6 e93e
000000e0: 8d80 f460 0078 e93e b538 ec7b e734 e93e
000000f0: b36c 1243 c0db e83e 1d98 2228 8a6b e83e
00000100: 539e 620f 88e3 e73e 52f4 4d72 4f43 e73e
00000110: ec1a 66f4 d78a e63e db36 a2ca 8dba e53e
00000120: 619e 3584 5fd3 e43e b4fe 3dbd c2d6 e33e
00000130: 23d0 292e 95c6 e23e 7fb4 cd30 59a5 e13e
00000140: abcb 1bca 2624 de3e 29cd 6367 3c8e dd3e
00000150: 9af0 2648 d5dd dc3e a495 e2e2 aa12 dc3e
00000160: 8bc1 7b3a 8f2c db3e 87b8 fca6 722b da3e
00000170: 7b6c b517 690f d93e 3d5f 2a1e d8d8 d73e
00000180: 0fa5 cb4d 8388 d63e 3b27 4386 1c20 d53e
00000190: 4391 92b5 b7a2 d33e 6958 1cca 9714 d23e
000001a0: 762b 7c99 1d7b d03e 1140 32b0 91b9 cd3e
000001b0: 6c2b b50f cb82 ca3e 42ee 5e2c f763 c73e
000001c0: 08a4 fa38 3a70 c43e 4137 e111 16bb c13e
000001d0: b67e d138 e5af be3e 08c9 4266 adae ba3e
000001e0: 5f29 ca06 800b ad3e 16ca 399e 1548 ad3e
000001f0: b893 ac62 bd89 ad3e 3da4 919f 51d0 ad3e
00000200: d2c2 1c85 9e1a ae3e 0e69 270c 696a ae3e
00000210: 787a de88 69c2 ae3e 67b5 667c bc24 af3e
00000220: de47 7405 9892 af3e 18c8 07eb 3604 b03e
00000230: 4b55 0358 c541 b03e 58f6 35ec 5f81 b03e
00000240: 1f68 235f e7c1 b03e ae7f 0c04 7e01 b13e
00000250: 5767 c844 c93d b13e 0544 cbb2 4174 b13e
00000260: 3df3 5f5e 1da3 b13e 3728 239e 6dc9 b13e
00000270: 6468 a9d5 f9e6 b13e 8f2c ebb0 cafc b13e
00000280: d153 d374 a54c 953e 6434 008c cc5a 943e
00000290: f664 da34 757f 933e cbe7 036f 72be 923e
000002a0: 3a89 5325 ad1b 923e d7b0 9f9b 1a9b 913e
000002b0: 4106 cde7 b040 913e 0009 c8fa 5010 913e
000002c0: 7b95 5e02 ad0d 913e ca89 b812 303c 913e
000002d0: e3da 5c85 c89e 913e 61ac 0ae4 ae37 923e
000002e0: 044d 568e 4908 933e 5b3e 9c0a 1c11 943e
000002f0: fe0d 355b ac51 953e 2fca 2de4 8fc7 963e
00000300: 60e7 39ee 0d70 983e ef7d 673f 5a47 9a3e
00000310: 3ed7 51fa a648 9c3e 1471 9e3d 4d6e 9e3e
00000320: 522a e527 4f96 c43e 3521 8f81 a5a1 c43e
00000330: 6161 3414 33b0 c43e 8432 eb0a 08c2 c43e
00000340: f557 c453 20d7 c43e e893 4e21 6aef c43e
00000350: edf9 c792 c10a c53e 41e2 42a7 e828 c53e
00000360: f596 01b5 9649 c53e 562e 1089 6f6c c53e
00000370: a09b e42e f790 c53e 1748 aa31 a1b6 c53e
00000380: 7322 1923 e1dc c53e 7118 94df 1d03 c63e
00000390: 3573 d2b7 ab28 c63e 51e9 5cb9 da4c c63e
000003a0: f6bd 81cf fb6e c63e 7986 fc7b 668e c63e
000003b0: e417 16a8 84aa c63e e29e e9f4 dcc2 c63e
000003c0: 9a6e 4a2c b473 2c3f 7fb9 ddd3 d961 2c3f
000003d0: 5005 c89f b056 2c3f 113a a81c 2151 2c3f
000003e0: d92f 863b f34d 2c3f aea7 54da 404d 2c3f
000003f0: 8689 51f8 f04e 2c3f e20e 92cd ae52 2c3f
00000400: a793 eb25 2b58 2c3f cdd9 2ec2 2f5d 2c3f
00000410: 5f43 b427 5e60 2c3f 5d9b 0b46 a961 2c3f
00000420: 8200 d21e e960 2c3f fc70 fa3e 085e 2c3f
00000430: 6962 4b47 1259 2c3f ae72 b7cc d854 2c3f
00000440: 6652 6474 5551 2c3f 56a6 1085 6c4e 2c3f
00000450: 4409 bdbd 874b 2c3f 7c64 470e c147 2c3f
00000460: 501e 35ec 396e 163f c483 229b 1cfc 153f
00000470: b265 680b 1c8d 153f a28b 1f88 c021 153f
00000480: 246a b1f8 a5ba 143f 78c4 7ee7 7658 143f
00000490: bcfb 7f18 ecfb 133f 20fe 468c cba5 133f
000004a0: 434b 653a e056 133f e175 7630 f10f 133f
000004b0: a7cc 0347 afd1 123f e622 2df9 a19c 123f
000004c0: 922c d049 1971 123f 505b d4e4 1f4f 123f
000004d0: 6dd8 2473 6b36 123f a40c 2dcc 4e26 123f
000004e0: 572b 94b1 b61d 123f e552 7517 271b 123f
000004f0: d643 d55a bf1c 123f 68d1 5044 5020 123f
00000500: 085c 14a9 8d4c 383f ca58 3a36 464a 383f
00000510: 8284 2fdb c447 383f 51db 9e2d 2345 383f
00000520: 1131 4a76 6142 383f 0b9b 9a0d 783f 383f
00000530: 3c65 b044 5e3c 383f 7a84 f734 0a39 383f
00000540: b110 b555 6435 383f ce30 b2ea 5531 383f
00000550: f2a3 f652 ae2c 383f ec5c 7d88 3a27 383f
00000560: 0fec 3541 d220 383f bbc5 35cc 5319 383f
00000570: d67d ad76 c810 383f ce3a 9cb6 8707 383f
00000580: 0a63 cfc4 2afe 373f f696 fa05 72f5 373f
00000590: 319b 7fe7 34ee 373f a4d9 a3fb 50e9 373f
000005a0: dac3 387c 5cee 4ebe eac8 3354 d0d8 4dbe
000005b0: 7cb4 bf2e 77ce 4cbe eea2 9210 4bcf 4bbe
000005c0: cf70 11d9 95d7 4abe 3f2e 70dc eee2 49be
000005d0: 6042 4a41 88eb 48be c8bc 2ad3 0deb 47be
000005e0: b0ba bb7a 70dc 46be 177e 0c84 70bf 45be
000005f0: e040 38db e295 44be 7758 b415 7f62 43be
00000600: 7587 8929 a92a 42be b9f4 5d5f 77f7 40be
00000610: aad3 4a3e 10ab 3fbe d238 7964 c4a4 3dbe
00000620: 6b19 b11c 5df0 3bbe 0302 15bd 2a9b 3abe
00000630: 417d 77f6 08a9 39be e785 56bc 6711 39be
00000640: 3553 aee6 1cd3 62be aacb 5767 c1dd 62be
00000650: b1ed 5109 ddde 62be 011b 8e05 92d5 62be
00000660: e39c f701 05c1 62be 58d4 14bb 5ca0 62be
00000670: 2385 501e c272 62be 9b6e dcf1 6137 62be
00000680: 1cd3 27ee 71ed 61be bd2b 1b9e 3494 61be
00000690: 0673 5359 002b 61be 611f 4bee 47b1 60be
000006a0: 1516 0bd3 a326 60be 8a72 e395 b915 5fbe
000006b0: d0ba d644 eebb 5dbe dcec 4b70 8040 5cbe
000006c0: e026 bb7f b5a4 5abe 1dfc 506c 8cea 58be
000006d0: 056e a802 c114 57be 70c3 4a21 bf26 55be
000006e0: 5af4 f30f be5e 3dbe 687f 1b43 73fc 3abe
000006f0: 3b8c c13a 2759 38be 5d19 9876 6d75 35be
00000700: 06e5 cb4a d051 32be 552c bb53 e7dd 2dbe
00000710: ecf7 b94c 6e9b 26be 8e36 dc04 6cc1 1dbe
00000720: 9562 da0a 94d3 0abe fab6 2cb7 a1dc ed3d
00000730: 828b 3fdf 968f 153e d3f3 eafb 7cf4 233e
00000740: 89b5 6ce6 5349 2d3e 7792 927c bb52 333e
00000750: 7633 51fe 67f0 373e 1376 8333 fb65 3c3e
00000760: 44ce 3086 924c 403e 8bf5 9b95 5c37 423e
00000770: 36ba 5368 3ee6 433e 7ae7 f35c 344e 453e
00000780: aa54 4471 51f8 86be f621 0a3a d616 87be
00000790: 0637 802c 6e33 87be c815 9859 164e 87be
000007a0: 7262 c283 1067 87be 4a09 3c39 937e 87be
000007b0: 5ce2 7904 e394 87be 75da e31b 16aa 87be
000007c0: 7fb7 2eaa 40be 87be b7e0 ff81 7fd1 87be
000007d0: 9aaf 1eeb e0e3 87be 9fdb 6b33 3bf5 87be
000007e0: 241a 04d0 9005 88be 35ff 2923 ed14 88be
000007f0: 36be 092c 1f23 88be c943 4c2f f32f 88be
9.146382014410446e-06 8.991262709911146e-06 8.838964049535316e-06 8.690514312997382e-06 8.545572433844065e-06 8.401923306853487e-06 8.256594043742841e-06 8.106596860246819e-06
7.949685146267337e-06 7.7864805066263e-06 7.618708980429424e-06 7.448484296583603e-06 7.2791585365213615e-06 7.116187627361477e-06 6.967310147432599e-06 6.839726307516366e-06
6.7382195779453145e-06 6.665518829750296e-06 6.6210892633934465e-06 6.600595591758517e-06 1.1966634617195727e-05 1.207812643423788e-05 1.2169607421376726e-05 1.2238328980877674e-05
1.2281533015463404e-05 1.2296465046454947e-05 1.2280384914986933e-05 1.2230588591477857e-05 1.2144449128615137e-05 1.2019470771143127e-05 1.1853409974718577e-05 1.1644400050702574e-05
1.139106505505732e-05 1.1092629913051419e-05 1.0749033788182723e-05 1.036106398924089e-05 9.930456264142092e-06 9.459928982157854e-06 8.952958016929306e-06 8.414217086383798e-06
7.186226101063319e-06 7.046606347527263e-06 6.882318418662817e-06 6.693105701815168e-06 6.478800891094096e-06 6.239347029963805e-06 5.974816640853739e-06 5.685579227552974e-06
5.372346291146177e-06 5.036696254909392e-06 4.681495590439923e-06 4.310713082286441e-06 3.929357624841688e-06 3.543481740538042e-06 3.1603468621291158e-06 2.7883637327677706e-06
2.4364457614401077e-06 2.1136767278999667e-06 1.8290931820471446e-06 1.5903910020429634e-06 8.656061375050928e-07 8.726590831744471e-07 8.803023708632356e-07 8.885188541699171e-07
8.97168556534829e-07 9.06457465806104e-07 9.167022356654119e-07 9.281486590872232e-07 9.409377622912658e-07 9.546555866904674e-07 9.689877913850616e-07 9.837967106235729e-07
9.988210619067229e-07 1.0136264025420276e-06 1.0276646832452728e-06 1.0403470682050178e-06 1.0512570667302344e-06 1.0601776172952255e-06 1.0670572324817908e-06 1.072136629853477e-06
3.1738578771855835e-07 3.033084219346444e-07 2.905410852821282e-07 2.7930637626317146e-07 2.698318771321985e-07 2.623479776742529e-07 2.570852542412864e-07 2.542694755026774e-07
2.541157776376476e-07 2.5682313051409666e-07 2.6256214390471206e-07 2.7146208840073597e-07 2.8360444866947236e-07 2.990191299992575e-07 3.176783948852744e-07 3.3944158788556174e-07
3.6415029411979094e-07 3.9158345490998533e-07 4.214614313721748e-07 4.5345524101750895e-07 2.454178967746948e-06 2.459458312096533e-06 2.466235089603763e-06 2.4745387102508655e-06
2.4843617706478022e-06 2.4956718882190243e-06 2.5084038013372188e-06 2.5224447260631057e-06 2.537662489076877e-06 2.5538893813120966e-06 2.570899929516199e-06 2.58843864504259e-06
2.6062500857774886e-06 2.6240556932925894e-06 2.6415431749318715e-06 2.658392484725419e-06 2.6742851524858567e-06 2.6889146908105977e-06 2.70200808988578e-06 2.7133445777322195e-06
0.0002170712888486151 0.00021653923061699593 0.00021620660835712036 0.0002160408897257803 0.000215946141690514 0.00021592537556474944 0.00021597568062066088 0.0002160871870594472
0.00021625067434807613 0.0002164002226813913 0.00021649503091982888 0.00021653357818892773 0.0002165112086096634 0.00021642542514122693 0.0002162775814642693 0.00021615168075940966
0.00021604698321965875 0.0002159602613869711 0.00021587402340556884 0.00021576148641492046 8.556583911911134e-05 8.38654002870551e-05 8.221133871479691e-05 8.06115877192552e-05
7.907522210485373e-05 7.761216863745753e-05 7.623318208514659e-05 7.494978769439402e-05 7.377379970323083e-05 7.271680453021331e-05 7.178909595832954e-05 7.09985600170316e-05
7.034985397085167e-05 6.984359898286091e-05 6.947546788613349e-05 6.923538152840914e-05 6.910731862689916e-05 6.906915756605852e-05 6.909292161096035e-05 6.914606008551693e-05
0.00037077387340062095 0.00037063802867843816 0.00037048870143336504 0.0003703318485536638 0.00037016753621156676 0.00036999398217078876 0.00036980916473934914 0.00036961077873171706
0.00036939334468778356 0.00036915156915352527 0.00036887412985692127 0.00036854914696023036 0.0003681672398767052 0.0003677205642907651 0.0003672112858818776 0.00036665976823339614
0.0003661016860952304 0.0003655818345385942 0.00036515037163413743 0.00036485888598694117 -1.4403415244438846e-08 -1.3898559309063598e-08 -1.3414074705143878e-08 -1.2949918930882337e-08
-1.2499340925290691e-08 -1.205432099799524e-08 -1.1604301555503274e-08 -1.1137770349526984e-08 -1.0645525203948274e-08 -1.012711348249426e-08 -9.585867078436003e-09 -9.026728412089149e-09
-8.459502696601205e-09 -7.900719172421617e-09 -7.373331255171204e-09 -6.9019435232842605e-09 -6.5050369076307415e-09 -6.194720251790658e-09 -5.974502538069123e-09 -5.836596044500329e-09
-3.5063661161344977e-08 -3.514109618218424e-08 -3.5149157509021604e-08 -3.508154184429508e-08 -3.4932014832649033e-08 -3.4694401471898074e-08 -3.436258903139272e-08 -3.393057411272412e-08
-3.339260758523255e-08 -3.2743304746023066e-08 -3.1977843631511445e-08 -3.109221128266255e-08 -3.0083464946185156e-08 -2.8950034696632403e-08 -2.769204270551762e-08 -2.6311687956003412e-08
-2.481359471956723e-08 -2.320502436405619e-08 -2.149592163480256e-08 -1.9698733382924862e-08 -6.8382564049194636e-09 -6.283198893222886e-09 -5.669019847388074e-09 -4.996243288453953e-09
-4.2653606590678984e-09 -3.4769544169584527e-09 -2.6318188512289234e-09 -1.732001225982658e-09 -7.807532586644647e-10 2.1727350091605346e-10 1.2550093160820177e-09 2.323071484606913e-09
3.4093899261056563e-09 4.499026881218218e-09 5.57375299133344e-09 6.6120094332145e-09 7.589864908526183e-09 8.48260544054112e-09 9.26637545381637e-09 9.9211402691188e-09
-1.7113978202006524e-07 -1.7202799275732015e-07 -1.7286017439703354e-07 -1.736359934030684e-07 -1.743629257685851e-07 -1.7504717374917289e-07 -1.756965295367997e-07 -1.7631351840299387e-07
-1.76900433049848e-07 -1.7746055025448132e-07 -1.7799549350877218e-07 -1.785005225502267e-07 -1.7897591676075913e-07 -1.7942297033182193e-07 -1.798361122409536e-07 -1.802094612636959e-07

network.0.bias f8 [64]
00000000: 047a 22ed 7611 d33e 0864 939e 8dd0 8b3e
00000010: 548f 4ad1 e008 333f 32e0 6439 992c 343e
00000020: 8c37 f768 ef5e 90be 1aef 1a55 2a5e c53e
00000030: 0208 a1a1 37e1 d1be 4544 d049 30b2 193f
00000040: 7c07 fba7 e292 20bf 875b 5b76 8e64 d6be
00000050: cac2 69fe 0ce2 a9be 9f07 e188 b087 fbbe
00000060: 6d18 9795 7fcc f0be 4ecf 91ff 4f49 e8be
00000070: e2f3 f3fc 4b14 363e 380c 0b57 526c 91be
00000080: 6a45 b6a6 a4d0 eabe 192c 0e41 7fec 86be
00000090: bac9 c354 e40c 10bf e775 cb95 b85b 48bf
000000a0: afb4 dafc b979 a9be 1819 f372 b680 f93e
000000b0: 2849 129d 80dd 00bf 4da6 57c0 e56a 073f
000000c0: 41b3 f1df fdca 543f 7b13 cd3d ae09 0cbf
000000d0: c5ac 9780 80da 95be f19e 5af6 0783 46be
000000e0: c18f 0894 df86 eabe d2c1 a9cd 9a31 a5be
000000f0: e2f9 d5ae 3e0c c2be 1f08 0744 6d6f 14bf
00000100: 7fa8 76ee 888b 98be 7b65 01de 8cce 1bbf
00000110: caa6 0d3a e078 5dbf eaf4 5a61 8601 423f
00000120: e358 f178 0e86 47bf d3ed 1e4d cd61 32bf
00000130: 5a90 07da 9bcf 28be babd 36e1 8542 27bf
00000140: 0124 3ceb 8c3e b23e 5785 611b 401d e63e
00000150: afdf 2b93 545a 62bf 4cfe f2f6 1d18 52bf
00000160: e7ee c9cd 27a4 3bbf cd8a 2e7a 2ba8 d0be
00000170: 8cf0 2ddb eefc 42bf cc98 fcc6 e872 b43e
00000180: ee0f 09ab 478a 51bf 521c 5a3a f2c3 903e
00000190: e9ae 38be 21fb b2be e8bd 37e1 b6a2 0dbf
000001a0: 8e65 65be b789 dabe 30a2 ff56 d034 59bf
000001b0: 3973 6465 ad52 f2be 690f 6eed 7e52 42bf
000001c0: c3ee f9a1 33fd 11bf 001d 529a 7647 5bbf
000001d0: 7248 b550 d88a 37bf c10b 2a59 65d7 54bf
000001e0: 5f57 1e04 3deb 1dbf 00a9 7f24 1299 0a3f
000001f0: 9185 7cd0 c0ae e7be 5e97 0871 b31c d3be
4.546218138083792e-06 2.0723537311784006e-07 0.00029044617375916415 4.697175001650649e-09 -2.439445347641212e-07 2.5472442438371765e-06 -4.262865809736076e-06 9.802264908411e-05
-0.0001264478378200615 -5.338859272638748e-06 -7.713738313219816e-07 -2.6254689651012912e-05 -1.6020604879839565e-05 -1.1580646957144423e-05 5.140734018373729e-09 -2.59624889625303e-07
-1.2786394299609943e-05 -1.707957442388876e-07 -6.122726080429785e-05 -0.000743355874501081 -7.592288910528558e-07 2.4321350051059292e-05 -3.216789958417266e-05 4.466546674193311e-05
0.001269100117293934 -5.347788803659097e-05 -3.256428731934591e-07 -1.048289250832301e-08 -1.2648987309189679e-05 -6.316235173342365e-07 -2.1514691669881654e-06 -7.795433430771201e-05
-3.657498681373182e-07 -0.00010607466492853171 -0.001798838588195672 0.0005494981912403084 -0.0007178850809264305 -0.00028048765409113585 -2.888377273673931e-09 -0.00017745861314953458
1.087447270844153e-06 1.05449006292969e-05 -0.0022403385022435533 -0.001104382765149031 -0.0004217717339895913 -3.971317627556991e-06 -0.0005794683732882762 1.218847298597959e-06
-0.0010705661662919713 2.498241492361283e-07 -1.131354786641548e-06 -5.6525426909700114e-05 -6.327142705175687e-06 -0.0015384707039577498 -1.747413474461059e-05 -0.0005591506731978782
-6.862285271752159e-05 -0.0016649873953456518 -0.00035922795423915584 -0.0012720575074644943 -0.0001141315451874381 5.073153130282122e-05 -1.1292757804040237e-05 -4.556682839528885e-06

network.2.weight f8 [64, 64]
00000000: 1abb 9fdd 3230 cebd 2dc6 1a68 e924 6e3d
00000010: 9fd7 3b05 b5d2 14be 92f7 f181 b1f4 37bd
00000020: d1c3 ef66 c140 59bd 1b5f 0b0f 9878 e8bd
00000030: 0a06 8ab0 5d44 85bd 3753 c465 289b 3bbe
00000040: f06c 9d63 7fd1 e8bc 4403 82e4 0a91 73bd
00000050: 5ed6 b898 1c4a b43d 171c 951d 0f2a bfbd
00000060: 3a47 979d 2298 89bd c53d b583 bc26 a73d
00000070: cf23 8467 3026 4bbd 6136 9ab7 8157 56bd
00000080: 1e81 096c da22 c33d 5864 1c44 af6f 7dbd
00000090: 89c6 7ed1 313c 8ebd ddc8 88ea bc3b 74bd
000000a0: c7e8 2b9a ca42 9abd 7938 c5ee efb4 10be
000000b0: 59f5 1374 65bd 99bd ae62 b02a 861c f6bd
000000c0: 8b42 ab58 12fc 0fbe c307 0afb a495 fa3d
000000d0: e4a6 f182 473a 153d 5bc4 a626 de6f 27bd
000000e0: ce7a 6c2a ba43 be3d 6c20 2ebc f60c 4e3d
000000f0: 69b7 6fb5 17a5 82bd 6921 ad8b 3f22 ca3d
00000100: 339a b116 f983 4a3d 4379 4672 8cce de3d
00000110: 67da 6108 0711 cfbd 638b f019 e633 03be
00000120: b719 6757 b5f5 edbd a162 5367 e863 f23d
00000130: 16f3 136b e23a 23bd ab1a 37f5 4007 043e
00000140: 6556 cfac fd4e 93bd 7a48 357a 56fe a23d
00000150: cbe7 efc3 4582 613e bb0b f41c 2756 893d
00000160: dea2 37a5 2550 a3bd 91de 69bb 195a 24bd
00000170: 9f90 fac7 6cc3 ca3d 01ef e262 2243 863d
00000180: 3668 5290 ccf5 323e c8b6 cda0 115a 93bd
00000190: 7c77 9b56 f75f 62bd d1ed 5154 c4e4 acbd
000001a0: b1e9 ae46 9ce9 e3bd 7385 8c5e 6c59 bc3d
000001b0: 9f01 a537 37e9 a6bd 7bbf 1384 91a0 9fbd
000001c0: 6748 657f a76f d0bd 81e7 f3a3 55d7 f1bd
000001d0: 5714 6cc3 c14c 053e 1a6a 4a25 71f2 1c3e
000001e0: c01d e07e bc1c f03d 89b8 3739 6868 f6bd
000001f0: 23b2 ab9f 10c0 6dbd 757f 9f2b 62da 813d
00000200: 9ce8 c5fd 4ee6 3cbe ea4c 213a 7b1d 013e
00000210: 4ef8 95f9 e7d4 80be 41e7 854e 35cc f7bd
00000220: f906 4b24 b212 61bd 5635 4727 65c4 70be
00000230: 7ae3 b90e 5788 203e ac4e c635 baef bdbe
00000240: 04f7 2b4b a67e 3abd bd8d 7b5d 31d8 143e
00000250: 9a5a 216d 395d 1fbe 2e86 99be 9c13 b7be
00000260: e1b2 b70a 8483 d1bd 3e25 1caa 76ea 3d3e
00000270: 6149 dee7 69c6 0bbe 94b5 5468 d18a 7fbd
00000280: 6ed7 eb4f 69b6 46be 5f0d a839 a186 e93d
00000290: 4405 ebe1 b4ef 81be b803 ec6d 544f d1bd
000002a0: 513d 1c41 0567 52be b142 fb6f 9d7d 9b3e
000002b0: 543d addd dc83 13be b3ce 88d6 6e28 84be
000002c0: 83b2 433e ce74 a53e d4cc 916d 4f97 413e
000002d0: ecff 4883 8df8 e73d 8e34 7c6e f7a8 8f3d
000002e0: 3374 11e4 38b0 723e 71f6 66ee 264b d8bd
000002f0: 31c1 ab56 25a9 ed3d 364e b931 6502 143e
00000300: 9a32 23f7 b6ed ddbd 3e55 62f9 dc27 3ebe
00000310: 80a2 49bd 6c5f a53e f46e c7a8 4bc0 963e
00000320: e2fe 0f28 a0d5 793e fdaa 4141 baae 6e3e
00000330: 957a 6c3e 1fbf a43d 7332 5c79 b2c8 7d3e
00000340: 6d14 a4dd 722d 163e 4ba1 0101 3d81 9dbe
00000350: 8f26 1c94 1100 0a3f 1e64 0075 0998 8b3e
00000360: 4de7 0fa4 9f40 b43e f6a4 548e 394d 62bd
00000370: 4303 4dca ae40 9dbe 7a64 527d a495 67be
00000380: a3de d50e 3bc4 983e 5366 82b0 2116 19be
00000390: 4d11 a3fb 30ef afbd 84c3 7af5 8fb0 4b3e
000003a0: 673e 4c4f e4bf 7cbe a021 6437 e2af 52be
000003b0: f689 0959 f554 0abe bc99 eb3c 503f 743e
000003c0: cb52 db61 334a 7b3e bbc9 c9a6 5dd4 6bbe
000003d0: 5bc1 4386 fae0 563e 315a a1ac c741 4d3e
000003e0: 7831 b43d 957e 683e a0c7 6ecf 0ce2 3dbe
000003f0: f9f3 186f f9e6 d6bd 39d8 e1da bf0f 37be
00000400: 2f00 7967 a7e3 343e 41e7 ac1d 0487 fa3d
00000410: cba1 909d c2a7 783e 358b 160c 3d15 7b3d
00000420: 6e4e 16bb d184 ef3d 12b5 b8f8 be70 303e
00000430: 0869 23bb be62 513e 3fd3 102f 15e0 723e
00000440: 77bb 8d81 005d e6bc aec8 bb08 fc3a 253e
00000450: 3fea e099 0e4b 9a3d e327 415b 38b5 523e
00000460: 77a7 9a6b 9099 513e 2344 de29 be95 02be
00000470: f715 fa15 d7c3 7e3d 9955 1ff1 eea9 87bd
00000480: d6c4 13e5 8d5d 583e 5b70 3773 6deb f53d
00000490: 16e2 763a 5cac e33d 2c84 172e 345f 903e
000004a0: 8281 c447 912d 243e d110 ea5d b316 d83d
000004b0: b7a6 3926 c5ac 6f3e 63d9 5ab4 c5d7 323e
000004c0: 3b1b 2ed7 0fa8 d6bd 9760 1175 869d 8d3e
000004d0: 8b58 3267 3521 f93d 8a3b fc39 35a5 6dbd
000004e0: 6573 794e 1ab5 723e 1a80 a0f8 3bf1 1e3d
000004f0: 0c29 0d20 eb55 e9bd 8b83 2390 a506 31be
00000500: e58c 1e96 9813 eb3d e552 16fb 2dda 7b3e
00000510: 17ae 2d1d d075 1cbe 0c84 2eb9 ab49 50be
00000520: aaca eb8f c85c ac3e f185 82a0 9b2e 79be
00000530: 5b4f a25b 6a27 6dbd e359 9e6e def5 923e
00000540: a297 bfa9 aa2e 1f3e 81e8 0879 9e17 49be
00000550: a465 f695 e00b c73e 4520 0ec4 8e44 da3e
00000560: 9094 5ae7 e460 b43e a5ba 98b6 0029 283e
00000570: c15e 786b 8694 7e3e 387e 8f8a c5cb 003e
00000580: 0673 8291 c713 d03e 012c 27b7 3674 8ebd
00000590: 409d 5b71 7a08 c7bd 7bab 30cb 7187 683e
000005a0: 5c62 df16 dc95 09be 73be 827a a3f0 da3e
000005b0: 916d 1be8 370b 06be 5907 e809 7be5 19be
000005c0: 687b df82 9dae a83e 1335 ebd9 aa56 5bbe
000005d0: 2365 d81c 377d a23e 8fb2 ac8b 932b be3e
000005e0: aca0 e742 a304 3dbe 5fab 474e 2ec0 fdbd
000005f0: 5dfa 3c6a 79bb 493e 9648 4a8b 2dd9 eabd
00000600: 2aa3 6698 64e6 b8bd 8741 8516 600b 41bd
00000610: 466f a708 7696 f9bd a3a5 a7b2 8e0e f4bc
00000620: ca12 6ddd c30c d5bc af76 6a38 7199 d0bd
00000630: 9f4a a7d7 f580 db3c 800a e5e0 d2c1 22be
00000640: ef75 c472 92d1 15bd 53e0 aae9 78d0 333d
00000650: b3a8 30c3 12ac 38bd 54c0 766c c3aa c2bd
00000660: 3c58 c792 ba39 3ebd 26a0 f0ae af45 3d3d
00000670: 1d86 e789 0520 2fbd fb95 9157 5e2c d2bc
00000680: 98d9 5354 0188 283d 876e 06e3 8ac0 3c3d
00000690: 8dde 9df2 9ef8 74bd b846 fe84 4abb 44bd
000006a0: 5808 ba98 f239 343d 1867 54fa 511b f6bd
000006b0: a461 9331 a49b 0c3d b57f c0fd fdc8 dfbd
000006c0: 5698 ba62 e1a8 f8bd 0fa2 d3af dcea c63d
000006d0: a07f 5be1 4e47 b73c 392b 05d5 03a4 e2bc
000006e0: 7695 7d61 300d 4dbd 552f dec2 1a3a 01bd
000006f0: 52a7 1ba8 c123 193d e6ae e09d 51fc 343d
00000700: 2134 dc43 24a6 df3c e04e 9bc2 da95 a73d
00000710: 1820 4dc7 172b 72bd 5803 c920 74a3 e7bd
00000720: 9590 fc4f 4d8f 91bd 4cb7 1d6b 88e8 c13d
00000730: 92d7 d446 48b6 f9bc 7cb1 8743 96ad ce3d
00000740: 5856 64cf 8aac 7fbd 87ec 6e9a 0f89 a5bd
00000750: ae77 415b 907e 0bbe 8042 881c 57d0 b03d
00000760: 7e77 1a1e 48f7 abbd c7c7 854d a6fb f4bc
00000770: 30bb f12d 27b4 a43d 5523 f77a a46f 49bd
00000780: e5ae 61b2 fbd6 f83d 31c2 5eb5 4fcd 73bd
00000790: a165 a412 8621 c93c 7fb2 57d5 25bf 90bd
000007a0: db7f 53a8 3481 c1bd bde5 4ed8 e6ec b03d
000007b0: ffe4 7495 11d5 803d fe91 4b62 4078 9cbd
000007c0: 06f3 f5dc 57aa 82bd 2d6c 1459 b667 b0bd
000007d0: be33 03fa 5333 d03d 4c2d e7fe 3113 eb3d
000007e0: c169 99ef 0ab7 80bd ff4a 9d66 d94b debd
000007f0: 7512 5daa 4a4a 09bd d534 6786 45d5 23bd
-5.491215442683799e-11 8.567493098032758e-13 -1.2120624685646413e-09 -8.510821754370776e-14 -3.588660189533847e-13 -1.7805046978650212e-10 -2.4177841839828505e-12 -6.427542578275807e-09
-2.7553903662851664e-15 -1.1122308739016141e-12 1.8453191704825767e-11 -2.8343759499955876e-11 -2.9097325514134766e-12 1.0527998712291601e-11 -1.9290649853985275e-13 -3.1749640182488907e-13
3.480844562642263e-11 -1.673258117182985e-12 -3.4373369052846156e-12 -1.150132867546647e-12 -5.971038254922257e-12 -9.724629392387807e-10 -5.852559594696011e-12 -3.217635417560435e-10
-9.308759746865377e-10 3.868560984047865e-10 1.8853943898459162e-14 -4.163244594397648e-14 2.7525456437995768e-11 2.1352263870626793e-13 -2.1196789267151137e-12 4.753707276734831e-11
1.8840409794854917e-13 1.1207459662475844e-10 -5.650965897283423e-11 -5.58872992918088e-10 -2.179862225634086e-10 2.6761357654694523e-10 -3.415937287462253e-14 5.829012640888078e-10
-4.390257862247889e-12 8.637247010497949e-12 3.261282487811219e-08 2.8804304654982885e-12 -8.782569431293956e-12 -3.615233470889616e-14 4.868230211083256e-11 2.5309240576144033e-12
4.414504544163237e-09 -4.4000970510873565e-12 -5.222451543743122e-13 -1.3139297492908548e-11 -1.4488280309992811e-10 2.578354709364523e-11 -1.0418716010495896e-11 -7.191197345679281e-12
-5.979436377363552e-11 -2.596229099350721e-10 6.199066874792043e-10 1.6849394285738169e-09 2.344641138146124e-10 -3.260769928529156e-10 -8.455530649410882e-13 2.0296579875166394e-12
-6.728722437192033e-09 4.981167598708256e-10 -1.2540567410549212e-07 -3.4630194417200116e-10 -4.852447184387352e-13 -6.246257006695845e-08 1.9246454341795787e-09 -1.7843505793800245e-06
-9.412817170886395e-14 1.2133097772406825e-09 -1.8256342449253807e-09 -1.3754731703830589e-06 -6.371459148421634e-11 6.96533200714088e-09 -8.0836044779512e-10 -1.7929697722547665e-12
-1.057635268034862e-08 1.8572534901345734e-10 -1.3363624958542224e-07 -6.297298401528294e-11 -1.7138592828830935e-08 4.0964310697465434e-07 -1.1359276771868884e-09 -1.5018836598130924e-07
6.394467360316771e-07 8.191473654093664e-09 1.7441132014546634e-10 3.599328182000154e-12 6.9619596325272e-08 -8.837946659282423e-11 2.1581018511776718e-10 1.164697844154883e-09
-1.0887951459208754e-10 -7.021174660894375e-09 6.369576746714426e-07 3.3901862009159057e-07 9.624091924786592e-08 5.7150664784679264e-08 9.434447971764762e-12 1.109539467769915e-07
1.2909023768025464e-09 -4.3965633356745516e-07 4.9591576056396134e-05 2.0559053348702235e-07 1.207139249224991e-06 -5.20164447963905e-13 -4.3589870761880347e-07 -4.392963119069178e-08
3.690499984147419e-07 -1.4602236659741955e-09 -1.4522057049638519e-11 1.2894019781871264e-08 -1.0710052207270664e-07 -1.740366736231114e-08 -7.663582425551328e-10 7.542713762916143e-08
1.0166260052829214e-07 -5.183658377963356e-08 2.1307564061194224e-08 1.362383041465194e-08 4.562449592614202e-08 -6.957679979834507e-09 -8.331787670759499e-11 -5.36942883047905e-09
4.863662909535813e-09 3.860245714014766e-10 9.184819961593344e-08 1.5394881959672052e-12 2.2932963648182515e-10 3.8278321723638336e-09 1.619171614221767e-08 7.031605854595465e-08
-2.482823832305891e-15 2.471544807241619e-09 5.978379600702427e-12 1.742308138066944e-08 1.6391146862255613e-08 -5.408927366213956e-10 1.7487878210189146e-12 -2.690262842158048e-12
2.2692090266686184e-08 3.1897272602436473e-10 1.4314196809822742e-10 2.439601712572608e-07 2.34902813705807e-09 8.763408703442771e-11 5.8999067656406736e-08 4.387195334172305e-09
-8.242383667518712e-11 2.2065142471733527e-07 3.6568557140447645e-10 -8.425713367049791e-13 6.969061738236016e-08 2.7482302067728173e-14 -1.8434088979733097e-10 -3.964166108410077e-09
1.9700780855598917e-10 1.0375776928466304e-07 -1.6566020679482847e-09 -1.5169173982571137e-08 8.452664415888854e-07 -9.381049193232378e-08 -8.286055686839415e-13 2.825323536180227e-07
1.8150482566523223e-09 -1.1684494955888018e-08 2.747344453002316e-06 6.262732370816762e-06 1.2146528240245025e-06 2.812613632251201e-09 1.1392003328896024e-07 4.888274413037541e-10
3.8331184201406304e-06 -3.462214396151897e-12 -4.189699817092531e-11 4.568897207125795e-08 -7.446328395426572e-10 6.422995206075918e-06 -6.415596528113268e-10 -1.5073693748284063e-09
7.355836311137707e-07 -2.5461003634251666e-08 5.510187805507151e-07 1.7982852528838563e-06 -6.7563066655895094e-09 -4.329297599927814e-10 1.1982545906569088e-08 -1.9534746532625956e-10
-2.264639302912599e-11 -1.2110799428966073e-13 -3.7235060230785826e-10 -4.4535186420240365e-15 -1.1685021651324962e-15 -6.038820667822496e-11 1.5267648954691862e-15 -2.183616627062592e-09
-1.9378845971362586e-14 7.039469445528455e-14 -8.765312490921729e-14 -3.395515601153922e-11 -1.0738255843086118e-13 1.0399578785793699e-13 -5.528925675279961e-14 -1.0088216121180616e-15
4.357628975011719e-14 1.0214804733494453e-13 -1.1920733044094465e-12 -1.4730691921305832e-13 7.185845866847707e-14 -3.216951100727135e-10 1.2704492634063037e-14 -1.1563361330782781e-10
-3.588457055191873e-10 4.168656216949101e-11 3.2305474084581304e-16 -2.0695315986873895e-15 -2.0642346131271912e-13 -7.65031187002137e-15 2.2328515673127204e-14 7.455590055427459e-14
1.7568719180120819e-15 1.0725384193154786e-11 -1.032750082085266e-12 -1.7199265656877748e-10 -3.9926302279876765e-12 3.257506537907518e-11 -5.709219842374445e-15 5.5803091697205915e-11
-1.8004580553232294e-12 -9.793163524945032e-12 -8.001920710344134e-10 1.5292088587833805e-11 -1.2717439029581382e-11 -4.6591633506154905e-15 9.41496311100531e-12 -1.8073438582685395e-13
3.614663450342064e-10 -1.1256132384482577e-12 6.975240396082837e-16 -3.807752146122597e-12 -3.1840881529301986e-11 1.5393559273850208e-11 1.9136109083004566e-12 -6.4732676995277564e-12
-2.1220106628942204e-12 -1.492037532368864e-11 5.893707614231583e-11 1.9699641870152053e-10 -1.900276699770984e-12 -1.1021724648716535e-10 -1.1231105736464585e-14 -3.523064882937156e-14

network.2.bias f8 [64]
00000000: 14a5 7af5 395f 38be fb0b 6e98 da42 f63e
00000010: 07e1 cd83 cacc 07bf eb77 29a3 6fee 20be
00000020: 2540 567d 424a 4d3f 9163 cb3a 398b 76be
00000030: 4dad 0af2 c2ef 05be 6c6d 57b7 782b 8abe
00000040: c9e0 c23d 2be2 6abe be67 98cc d2c6 b8be
00000050: 77c4 afca 2d43 1fbf e990 f009 0e39 91be
00000060: c13b 5a5f 8e0d 65be bd44 debc 4122 2dbf
00000070: b01a 8d11 3693 66bf 4726 54da 2b89 f2bd
00000080: 254f 451f b834 0fbf e349 b647 e6f2 32bf
00000090: b8f8 e57b b1a4 4abf b6ce 449c f173 56be
000000a0: 04b7 0c59 cd9f 61be e3a7 805e 74b9 b6be
000000b0: bad3 9f05 98ff 49be 8917 4868 7a2c bbbd
000000c0: 6caf 09e2 fa37 2dbf ced3 f94e 621c 003e
000000d0: 15f2 76a9 dd19 ff3e 7bde ca6c eb0b 143f
000000e0: f104 9146 3063 79bf b5b3 e903 2048 cfbe
000000f0: 3e5a d444 ea44 6fbf 0311 4e92 a949 2ebf
00000100: ccb2 39ea 3924 c93d b0c3 f84e 428f 80be
00000110: 8844 ae2e 8e56 2cbf ee10 8417 d734 843e
00000120: becc 5761 fc5a 953e f3ec c1ec 35ed f6be
00000130: 730b 1118 c09d 12bf 9583 4a74 fb9a 16be
00000140: 2842 e092 bb2e a93d 8519 5fbd 2ca8 6ebe
00000150: 16cd 0b06 d293 a13e 6bbf f091 4559 f3be
00000160: a7bc 8e3e 73af d5be 06b5 4a8f 5f8d 70bf
00000170: f368 270e d44b 80bf 1172 50d9 7adc 38be
00000180: 9a6b c837 1dc3 d9bd 5cb0 93f1 5531 7c3e
00000190: 12d4 2a8b b6e0 c4be 3540 21c7 fb45 e13e
000001a0: 72cb 8e18 92a3 54bf 81ea 7ffe 0d37 d2be
000001b0: 4cc2 94b4 fb74 0bbe 3ec1 8983 9044 7dbe
000001c0: 908e 6d40 e812 a2bd 3bb0 0a73 177b 7abe
000001d0: 626e c50b aad1 a5be 0a46 0db9 63dc 25bf
000001e0: 15d5 76ec 9f31 e5be 8efe 5668 a36f 4ebe
000001f0: f08c 6b40 e7d7 f4be c0c0 c486 25f8 bfbd
-5.674543355747594e-09 2.1229885102790735e-05 -4.539483095461661e-05 -1.9710733265148193e-09 0.0008938622146832427 -8.398235591277903e-08 -6.38438166989016e-10 -1.949802840701735e-07
-5.0074369291191184e-08 -1.4768036628088516e-06 -0.00011925665846469919 -2.5664076902717095e-07 -3.921418205182484e-08 -0.00022227337325068054 -0.0027557426477956212 -2.6973175978251436e-10
-5.9520596468103e-05 -0.000289136143430428 -0.0008130900021539244 -2.091089769500227e-08 -3.28276811345138e-08 -1.354481691260509e-06 -1.2106454661662393e-08 -2.4714375092966196e-11
-0.00022292077575813572 4.68888176507837e-10 2.966026167226979e-05 7.647156162248786e-05 -0.006198109223136004 -3.7290738242241045e-06 -0.0038170409740232716 -0.00023107714619297762
4.573213793609721e-11 -1.2337867570787962e-07 -0.00021620259880398098 1.505494642354869e-07 3.182204591771479e-07 -2.1864513471287058e-05 -7.101521443168643e-05 -1.3158074223635848e-09
1.1451697741016259e-11 -5.7102986935784544e-08 5.238480405830936e-07 -1.8452375226185086e-05 -5.17019086824982e-06 -0.004041074066362121 -0.007957131082481505 -5.7884607289926465e-09
-9.372220876612943e-11 1.0502605753457623e-07 -2.4888259642871335e-06 8.236586129722979e-06 -0.0012597014158301748 -4.342808075814332e-06 -7.991028751574455e-10 -1.0903116355056694e-07
-8.219038308774527e-12 -9.864876627613296e-08 -6.502569003629609e-07 -0.00016678540535024238 -1.0106013532555064e-05 -1.4172907523696868e-08 -1.9877788896571888e-05 -2.9075929531270798e-11

network.4.weight f8 [64, 64]
00000000: cb59 40e7 00b6 3dbc 528f 25c1 ff8e 423c
00000010: eb4a d1d5 cf70 eabb 0c7e 6649 5d23 c0bc
00000020: 841b 34ce 86be 8f3c a46a 82bd 4895 303c
00000030: 311c b766 f694 e0bc 2ff9 0ee8 6f2a 50bc
00000040: 1947 2749 e302 e23c 5a43 d563 8eeb 62bc
00000050: 47ee 076f 8956 993c 1249 188d 5402 20bc
00000060: 7305 2959 de6c be3b eb88 2176 5db7 a3bb
00000070: 68c6 52ef 9d39 84bc 558d 1c01 de92 a03c
00000080: 1c3a 8e11 ba41 61bc b17f 1ee8 e7ba 623c
00000090: 844e 1328 c213 cdbb a677 26ea 5415 9f3b
000000a0: f0d1 af74 9f80 a53b 53ae 3470 72aa 05bc
000000b0: 43bc 2081 50d2 eabc 8f63 ace0 6d3f f53c
000000c0: de51 8e9a 552a 8bbc c8d8 dea8 1270 003c
000000d0: 9892 3858 e481 4dbb 2c94 11b0 7354 573c
000000e0: e4b3 990f 158d 6e3c 9930 f439 2e67 62bc
000000f0: 6dbd 1c22 76fc 333c c63c 3815 025a 63bc
00000100: bbfd 0019 0f36 31bc 4e95 18d3 f4e3 77bb
00000110: 5634 8e19 c8a4 c03c a896 5df1 c029 cd3b
00000120: 2b3d b35e 8cb4 50bc 93bc 2030 b5c2 24bc
00000130: 7cc6 4a11 40fc 51bc 5493 b7c1 0a08 e93c
00000140: af5b d8c8 382a a33c 7280 7503 653b abbb
00000150: 013e d922 f348 f0bb 9c1c 8a91 4501 cebc
00000160: 5793 3a7c 9566 3ebb 8359 364e e3b9 233d
00000170: b51d 9c12 2e8e babb 3312 e63c 9d18 2ebc
00000180: e327 c035 af49 c93c 6d74 c315 bd4d c03c
00000190: 8438 e3ac 0f66 103b 86f3 1a92 fda7 90bb
000001a0: 0ba7 fc9b 1bd7 a0bc 2f25 4b8c 3f85 40bc
000001b0: 224b ef25 74cc c1bc c5e6 1baf cfb4 103c
000001c0: 2892 3757 b484 47bc ca34 ab14 7b23 433c
000001d0: 8ce2 a200 37d8 833c 48a0 c60e 425b 6a3c
000001e0: 9972 a8fa 04c4 d3bb ae04 9e0c 4b03 90bb
000001f0: 2605 d1b8 39d1 133c 883b 3a53 1fcb 31bc
00000200: 10bf 74ee ac1d 313c c7b6 2f09 c2cd dbbb
00000210: 490f 0605 f4b1 99bc 7a0f 08a9 76eb 97bc
00000220: 5217 710b d539 6d3c a769 3232 0a37 63bc
00000230: 4277 36c3 8ae9 d53c 8b40 05cc d1cd 41bc
00000240: ea29 1cdd d740 e0bc 18ca 0c89 b7bd 5ebc
00000250: e647 f7c1 96e8 ebbc f2bb 9154 190b 98bc
00000260: f901 21cf 5d21 67bc abbc 91c8 d40c 13bd
00000270: ba49 cc18 b6a8 4cbd f2d0 e111 3ec2 85bc
00000280: ebf5 acb6 0fd8 4ebd 2f47 007e f9ba ecbc
00000290: 951e cfe9 68b4 9cbc b4af 6e26 f4d3 43bc
000002a0: 42eb ba47 6bea 5bbc dcf9 ee48 ea74 f7bb
000002b0: 05be 1caf 151d e23c 46be cf19 8b23 eb3c
000002c0: 0c5e c4fe 74ac 50bc d23d 0002 9074 39bc
000002d0: 9eab 5727 0e09 35bd 1bbe cce6 b25b c1bc
000002e0: 0cf7 c4ef 419a e5bb 35d2 c5b9 01fa 95bb
000002f0: f435 8646 68aa e5bc 1ac9 4cf2 e7c7 22bd
00000300: abef 608e 1373 fabb 8767 2f47 c85d 023c
00000310: 2d64 f4f5 cce7 49bd fa02 b0d7 d7e0 11bc
00000320: dd9f a7f3 3377 2a3b 960c d1a0 4031 27bd
00000330: 7320 ef40 46b6 25bc 52ea 9f7f a068 e4bc
00000340: a01a b441 47b5 76bc c903 10cf e487 c2bb
00000350: 9415 60d7 f617 afbb 92d9 fc42 7b06 4bbc
00000360: 607f b5dd a149 eabc 3c9a 423d 3fa4 cc3d
00000370: 4038 4968 eef8 26bd 1f41 54f9 7628 04bc
00000380: 9cce 7844 3134 a4bc ec43 ff53 1f20 c1bc
00000390: a604 87a2 a93f 67bc 0226 2c7c 339c 3bbb
000003a0: c825 5b7b 8ccf 5fbc 00e0 bf2e 1640 b7bc
000003b0: 9d0a 3206 9439 b13c 040a 5eaf 9a25 433c
000003c0: fe41 d81b 6797 70bc 3578 e437 a977 d3bc
000003d0: 484e ba0c 6248 02bd 8549 c728 31fb 1cbd
000003e0: 51ea ecb6 beb5 16bd 7bd7 9800 052b 2bbc
000003f0: 5186 c464 2aa3 f7bb dd0f 5463 6e58 f8bb
00000400: 6b8a c8e8 9934 36bd 5122 4972 e9a2 ccbd
00000410: af8c 62c2 2d62 d8bd e4d4 b557 0f7c 36bd
00000420: ddc0 6454 f052 0abe 1bf1 8ba8 6180 4fbd
00000430: 62eb abb3 7d4b 113d 58f0 19fe fcf8 36bd
00000440: 98b8 7d7d fe4a 943d f6d5 b2e6 411a 013e
00000450: 5a9c 41eb 2a73 b6bd 44ae 684e 6ced a1bd
00000460: 7d85 91bc 3dfa 74bd 7995 224e 4b24 2cbe
00000470: 435b 2a9c 4112 90be 311a 9ad7 1857 48bd
00000480: cfa3 2109 93ba 19be deab e573 40f8 2dbe
00000490: 21a4 49b5 cc58 50be 99c5 57db 2cd3 3dbd
000004a0: 66b6 9f5f eedb 06bd b246 d2ac f22e 73bd
000004b0: dc5b d2b3 59af d0bc 9e9e 00be a3e8 f7bc
000004c0: cd7e e932 4480 30be 1efe e0ea d062 ddbc
000004d0: 9eaa d9ee 01a5 40be 1cfd ba06 f55d 60bd
000004e0: 9b5d 1b08 48ab 2c3e 1e7e 2b1d 3f5e cabc
000004f0: 9bb6 8588 88c8 6abe b9ae 2df8 365d 27be
00000500: ee8c 979e dd6e 20bd 1550 76f8 c5b5 6abd
00000510: 2057 88f2 2194 233e 5ca8 e4fb 2732 a93d
00000520: e1f3 e0fa 83a5 06be 5e8b ef84 25e4 1dbe
00000530: 4a0e 5cc0 3bd2 3bbe 8cd6 cf9e 741e d1bc
00000540: 8b0e e466 2973 f5bc 6d3b f256 d339 5abd
00000550: 3e3d 200a 7843 b73d 848a 337f 213a 85bd
00000560: 4f2c a6f4 e663 1bbe 42ea 80a4 a0e7 053f
00000570: 140a 9846 4c14 18be d19b 8a37 a0d3 25bb
00000580: e6fc e290 5a91 f8bc 5172 e184 1986 76bd
00000590: 05ec 591e 1731 e5bd 99a3 b47f 1b8c 21be
000005a0: 85c4 4027 bc92 333d 5a5a 3288 a11c 45be
000005b0: 8dc3 c76c 9206 1bbd 084a b508 c43e 373d
000005c0: da9b dfb8 80be cfbc ef56 d013 ba0e e5bd
000005d0: 76de 43c3 c7e7 dabd 5105 9159 279b 12be
000005e0: a9b1 51a1 9545 23be 6a2e ccee e531 dcbc
000005f0: 82ee 408d 95cc ddbd 9127 45b5 dfdc b43c
00000600: 72bf 2c1e 0c92 223d e92b 64f3 3a38 6d3c
00000610: 0b32 b876 f86e a73d a200 3ad1 2e48 d63c
00000620: 1c73 e369 67a6 5abd 86db 16be 3ffa d93c
00000630: c349 7f65 cb39 0b3d 9167 d076 6789 c63c
00000640: 7ad9 d425 b761 cb3c 5a10 e04a b160 c4bc
00000650: 2d5b 4a97 449b 2c3d c540 621a 7c4a eabc
00000660: 14f4 2b76 5bde 1e3d 96a0 9e9a 95a6 9d3d
00000670: e321 3289 6715 c13d 997c 27e3 07d5 44bc
00000680: 8f8e 4ade 1bca 693d cfee 0a7c 4d06 003d
00000690: 30fd 0e37 678a 783d c0e8 0a55 daf6 193d
000006a0: 836c 7386 8e70 f93c 6007 8568 12df 253d
000006b0: f9ca edfc 1041 c73c 360b c4ff 72d4 babc
000006c0: 760f cb70 e1a7 343d 6702 73ca fdd7 bb3c
000006d0: e524 b414 31b9 9c3d 9aff 8251 873a 143d
000006e0: 5243 3250 5149 203d 6c39 9d19 ef64 763d
000006f0: a00e a84e 7b06 103e 35e9 0b21 e829 b83d
00000700: dc61 b5d6 e99d b63c c8f0 d054 ca56 603d
00000710: e7a5 3f01 d627 f03c cc5d 6a91 e41b 89bc
00000720: 2537 0011 2d00 dcbc 4654 a862 007b 6a3c
00000730: abf0 9e67 a70b 7b3d 3d51 aa48 026d ed3c
00000740: fd51 9bec a38f fa3b f25c baa8 a409 3d3d
00000750: d51b 2be4 2037 9b3c fecd b023 0772 22bd
00000760: dadf 5aac dc53 f93c c8e7 dc51 9e13 6fbe
00000770: ac1b 3186 d772 c33d 1235 bf27 8282 b13c
00000780: 9327 3b98 67d9 663c 4bff 7bc8 407e e4bc
00000790: 4276 306d 4362 673d b3c2 75dc fcd3 5c3d
000007a0: ce65 390c 286f 093e 10ed 41b1 e1ec 613d
000007b0: 918a 30ee 6115 d03c 7104 fb92 f57a d83c
000007c0: 27b4 8622 de79 613c 5cf8 ba00 19a6 263d
000007d0: 9dc6 55ed 6666 61bd 0f8a 8234 8d58 af3d
000007e0: e17f 2d33 fe0a 3e3d e337 11be 6d92 653d
000007f0: b0fc 8b14 44a9 7e3d c8a3 885a 45ac fd3c
-1.6106338964175287e-18 2.0121263600227765e-18 -4.4792239500713697e-20 -4.479234259165201e-16 5.5067486106521e-17 8.989738846157551e-19 -1.840959027934107e-15 -3.505392603215951e-18
1.9996538431101068e-15 -8.205303384905103e-18 8.790896681454156e-17 -4.339275967677911e-19 6.4428010566108624e-21 -2.0875412708924094e-21 -3.5084897044334935e-17 1.1500314601609273e-16
-7.483920354596924e-18 8.122886528185262e-18 -1.2314665305726017e-20 1.6455376270286881e-21 2.2766586604974405e-21 -1.4681323031429545e-19 -2.9777892262823324e-15 4.7179527728115424e-15
-4.712440283362668e-17 1.1138676192656862e-19 -4.881588271758964e-23 5.058863539718643e-18 1.3249428730555593e-17 -7.981050329567776e-18 1.0834528570732056e-18 -8.392416224801211e-18
-9.330192799016667e-19 -3.161875322930979e-22 4.619548710515556e-16 1.2351053409259372e-20 -3.6223773275731964e-18 -5.627165728138846e-19 -3.899951670890652e-18 2.7790452310859713e-15
1.3298340875358458e-16 -2.8833012211834044e-21 -5.517559053310866e-20 -8.328051520977002e-16 -2.514688492125623e-23 3.504063644920618e-14 -5.623322673040856e-21 -8.157577602711574e-19
7.018782705556745e-16 4.525176471963992e-16 3.391166856698913e-24 -8.817725706277953e-22 -1.1685281239050184e-16 -1.7911562983521275e-18 -4.940117004530998e-16 2.2641250320232703e-19
-2.549867519883093e-18 2.0750108242989197e-18 3.4424874880081566e-17 1.1430299723560585e-17 -1.674219995185649e-20 -8.477139570442852e-22 2.68574320456113e-19 -9.64584680207286e-19
9.278558810386532e-19 -2.3550685533185197e-20 -8.914788939678092e-17 -8.298840559948736e-17 1.267471676834525e-17 -8.3331776070969e-18 1.2163755335457924e-15 -1.930311650266654e-18
-1.804478102366537e-15 -6.665909529481678e-18 -3.0984715215376798e-15 -8.341714562309956e-17 -1.0031184937918678e-17 -1.6919907091532452e-14 -2.0363464569815445e-13 -3.7745431104952164e-17
-2.1915972873040217e-13 -3.1897117667963376e-15 -9.958952360753118e-17 -2.1497500161600734e-18 -6.0532524014718916e-18 -7.947439060955568e-20 2.011014923705726e-15 3.0130166428682162e-15
-3.615523723472653e-18 -1.3799357915508594e-18 -7.473265461769206e-14 -4.817867929938151e-16 -3.659617472048701e-20 -1.1634309255448038e-21 -2.4053707489852816e-15 -3.3361549918132565e-14
-8.961444987166302e-20 1.2445514217435347e-19 -1.8406944379740158e-13 -2.422960581036663e-19 1.0945930693926061e-23 -4.1197964858092844e-14 -5.885051963330431e-19 -2.2658207547180478e-15
-1.9696153163525804e-17 -7.848113933137947e-21 -3.292164041299129e-21 -2.9300908838811447e-18 -2.9185127792179245e-15 5.209874862903483e-11 -4.0807158199612075e-14 -1.3659636436202014e-19
-1.4019255729849283e-16 -4.753275003899227e-16 -1.0082508687644055e-17 -2.283858955737961e-23 -6.897854104974314e-18 -3.2266326388318576e-16 2.390437142682542e-16 2.0759101421602043e-18
-1.4390760341145737e-17 -1.0806592185997743e-15 -8.119170278303027e-15 -2.5740493169168503e-14 -2.0170479795858723e-14 -7.363913374353056e-19 -8.008650988391168e-20 -8.248554016480278e-20
-7.88896893400312e-14 -5.2089261971212026e-11 -8.870669528461532e-11 -7.988137834678356e-14 -7.661286403781162e-10 -2.2383154990778656e-13 1.5360945233926368e-14 -8.161510706537058e-14
4.614081652169759e-12 4.977502415421131e-10 -2.041804113242355e-11 -8.15245306182711e-12 -1.192433076408172e-12 -3.276133684720165e-09 -2.394812349896958e-07 -1.7294768505718044e-13
-1.4976136203777502e-09 -3.488936167036728e-09 -1.5224212406720375e-08 -1.0595934160509989e-13 -1.0151482339814817e-14 -1.0904494972641463e-12 -9.262014766495662e-16 -5.308808616631734e-15
-3.841947911366204e-09 -1.6312507082892369e-15 -7.750727583362695e-09 -4.651786882301645e-13 3.3375187621010955e-09 -7.318631962230942e-16 -4.988784591234614e-08 -2.7199415510051846e-09
-2.9190994768417314e-14 -7.591453379786818e-13 2.2792540253264952e-09 1.1457779058572571e-11 -6.591012091639059e-10 -1.7398966883065703e-09 -6.477633545659459e-09 -9.502935652525689e-16
-4.762823578446694e-15 -3.7269218519342504e-13 2.115807584072193e-11 -2.413238874149703e-12 -1.5943219683661525e-09 4.178008072171616e-05 -1.401599081913784e-09 -9.027296428219028e-24
-5.455144819629211e-15 -1.2803313262583366e-12 -1.5419034033565816e-10 -2.0427739479524178e-09 6.953791672971758e-14 -9.830966490783942e-09 -2.4003618441362483e-14 8.258346448181117e-14
-8.810772013178486e-16 -1.5321367257101312e-10 -9.788124548406322e-11 -1.0830157658406592e-09 -2.2435344784682366e-09 -1.565132176425423e-15 -1.0840870155859487e-10 2.895293520835804e-16
3.298783007470753e-14 1.2672002994246073e-17 1.0656312386309735e-11 1.2368974941596936e-15 -3.787194979554213e-13 1.4420428814340899e-15 1.2090666172197734e-14 6.255200520650785e-16
7.599948687966369e-16 -5.655949394549806e-16 5.0815379220505723e-14 -2.918882487095245e-15 2.7416809350266004e-14 6.741793248606632e-12 3.107490753387924e-11 -2.25862640233207e-18
7.329813268169957e-13 7.116360754135472e-15 1.3949737329436858e-12 2.306090339572224e-14 5.648742531937032e-15 3.885136592540193e-14 6.454327479799279e-16 -3.7233937803502683e-16
7.338408529924564e-14 3.8640918646122244e-16 6.53094620354296e-12 1.7966630223576022e-14 2.893045268590627e-14 1.2729670616697998e-12 9.32796335508222e-10 2.197675554160834e-11
3.138718360978356e-16 4.64383016117965e-13 3.5872658633103155e-15 -4.355709616138594e-17 -1.5543504072089113e-15 1.1484075249111335e-17 1.537360000387365e-12 3.2669218551237438e-15
8.999249044080548e-20 1.0316252296283894e-13 9.442219794634374e-17 -3.2765650528523954e-14 5.623853817471547e-15 -5.78847425395281e-08 3.5376799384002345e-11 2.4299726830265532e-16
9.909276948886546e-18 -2.2751995856550646e-15 6.646087441327181e-13 4.0967161546183013e-13 7.402327851794595e-10 5.094682021794707e-13 8.928150191237724e-16 1.3589301719487124e-15
7.579026711385866e-18 4.0232384558540957e-14 -4.94537972677916e-13 1.425446708667227e-11 1.0673396844699014e-13 6.13112747399193e-13 1.742887154270103e-12 6.588714741057548e-15

network.4.bias f8 [64]
00000000: 33a2 d6aa f7e2 52be d957 753e 4a0c c2bd
00000010: 51b9 b950 d245 0fbf a61e 6393 7563 85be
00000020: 257f 700f 8874 fdbe b7d9 1148 48d6 a8be
00000030: 549b 4f97 156e 16bf cdd7 38ac f32e 45be
00000040: a653 5709 d50e b43e a621 27b0 c09b e0be
00000050: bb09 c542 5897 dc3e 29eb 28fa 352c d4be
00000060: 7261 da00 d9db 41bf 26d2 638c 6c3c 50be
00000070: e522 4849 2e8c a2be e9ee e009 7ca5 4fbe
00000080: e936 582f 3571 9fbe 5e6f 36b4 9477 4cbf
00000090: 8676 bd8f b1ca 30bf 8758 e918 0236 853d
000000a0: 80b8 7742 1e62 64be 1f72 c3a0 b3e7 8bbe
000000b0: 58e4 83fd 6275 9d3d 10a4 1d7c 8a4e 43be
000000c0: 8b81 198b b29c e6be 6aee 0d0e 1dda e8be
000000d0: 2c16 613c d895 25bf d429 c1d5 296c 1bbf
000000e0: 6b86 f857 7c1c 43be c3a7 e53b 9162 35bf
000000f0: 1f17 2c62 1cab fabd d464 f0a5 6ef4 80be
00000100: 530d 3c21 fe7b 99be cf47 1e8e d6c7 edbe
00000110: 11f6 2b33 4e7b 5dbf 28de 87bc 3afa 00be
00000120: 5559 b42f 52c6 86bf 7bbc 6a84 1344 16bf
00000130: 081b 6fc1 6a46 c5bd bc51 556a edd4 0cbf
00000140: 38cc fdd3 f5d7 a9be 4ff5 3c0d b692 b9be
00000150: 2421 9bf9 a212 adbd d5ea 1369 d419 79be
00000160: 7cfb 9df4 671b 703e fe6c 04db f188 d5be
00000170: 44d6 bac1 cb06 49bf 565b ddb5 64ee 10be
00000180: b7fd 9cd6 aea5 133f 7302 7c86 573e fbbe
00000190: 0f8b 5c8b d10f 7bbe 6912 fbfe 5b4e 38bf
000001a0: 88cd fa11 2d6a a53e 1454 a155 0ccf dfbe
000001b0: 6cba beca aaf4 14bf a80b 1d0c 62ac 63be
000001c0: 9f36 3478 e309 c6be a4a1 8c0c 7779 cdbd
000001d0: 2024 6a7e ba95 f5be f132 a1cf cabd f33e
000001e0: 3eae 4e99 1ce3 083f 4a7d afc1 e923 e9bd
000001f0: de29 65ba 1bf0 74bf bd14 0831 dd90 50bf
-1.7589509118032946e-08 -3.2829135076462414e-11 -5.964801866019615e-05 -1.593568385636896e-07 -2.809066878850445e-05 -7.402014860064702e-07 -8.556372434008241e-05 -9.864291944995464e-09
1.1955462800767695e-06 -7.919506519808044e-06 6.816671014599929e-06 -4.809546143176224e-06 -0.0005450067125876547 -1.512098248778878e-08 -5.527609965870227e-07 -1.4736514505304817e-08
-4.685255555477389e-07 -0.0008687473386319413 -0.0002562221049994057 2.41140804773973e-12 -3.796680686148457e-08 -2.0790908228971898e-07 6.698096904531609e-12 -8.990429626204017e-09
-1.0782289197653453e-05 -1.1850359841628778e-05 -0.00016468300435883273 -0.00010460858669706442 -8.899379676818893e-09 -0.0003263096404199051 -3.8807632296250835e-10 -1.2632320342611015e-07
-3.797463545703457e-07 -1.4200505066761571e-05 -0.0017994178458019575 -4.941090809610041e-10 -0.011120454865289156 -8.493775485861499e-05 -3.869912045266729e-11 -5.4992194501810265e-05
-7.701991435585096e-07 -1.5242749684251966e-06 -1.322077846521259e-11 -9.350812947901455e-08 6.000345567461065e-08 -5.134329896595888e-06 -0.0007637495904961396 -9.855269581827798e-10
7.494811657426144e-05 -2.598144820265204e-05 -1.008130280059076e-07 -0.00037088151928469385 6.382092898244072e-07 -7.583804597717704e-06 -7.993977004503724e-05 -3.6644509217416034e-08
-2.627209086398057e-06 -5.3613753687200144e-11 -2.058494274107339e-05 1.8826843167385252e-05 4.746848131928189e-05 -1.829196523788219e-10 -0.005111797631182273 -0.0010111007760554146
