Ventil_trained_NNs/my_example_model.pth (torch, 4898 bytes, 6 tensors)

lstm.weight_ih_l0 f8 [24, 3]
000000 e0 a3 f5 2d e5 5b d4 3f 4d bf 41 09 8b 11 df 3f
       0.3181088398765137 0.48544574645983546
000010 de a4 1a 82 d5 81 d0 3f 2b 73 fb 6c bf cd c8 bf
       0.2579244394824637 -0.1937789232387329
000020 91 dd 08 79 eb cb b1 bf 16 3a 01 0d 38 4f ad bf
       -0.06951781945178072 -0.05724501761197957
000030 f6 98 c1 56 02 58 d0 3f 7c d2 74 3a 41 2b d9 3f
       0.25537165138520324 0.39326506336809763
000040 f8 42 c4 90 b8 c0 cc 3f d8 ab e9 a0 98 a1 b9 bf
       0.22463137692150048 -0.10012201241049412
000050 96 43 b4 3d 9c 7c b0 bf aa 38 2c 11 21 ae d3 3f
       -0.06440140253495338 0.30750300099397043
000060 2d 67 a8 71 09 17 97 3f 3d 0d f4 ab 07 aa af bf
       0.02254881626331622 -0.061844100704571116
000070 db ec e8 6e 3e 37 c4 3f ff 0d 94 08 77 a4 a1 3f
       0.15793590941925725 0.03445789317813918
000080 59 53 13 99 2e 6f d9 3f e3 18 f6 3c 5f f0 b6 3f
       0.3974110121610486 0.0896052860099164
000090 ab d6 55 60 d4 5b d3 bf d0 c5 48 37 e9 85 c4 3f
       -0.3024798336767655 0.1603366393988339
0000a0 fc 31 98 4f c0 f0 c6 bf d6 75 88 b8 0a f1 a5 3f
       -0.179222143997677 0.0428546285877293
0000b0 4d f4 77 77 29 86 d2 bf 82 bf 82 78 f6 17 df 3f
       -0.28943859736302074 0.4858375717985767
0000c0 d7 a5 ee d8 d5 da c4 3f 05 7d a4 de c9 c0 c6 3f
       0.16292832462686022 0.17775843974320807
0000d0 5d 50 75 f8 de bc d3 bf 0b 6b ce 6a 93 82 d1 bf
       -0.3084027696943446 -0.27359471731476565
0000e0 b9 b0 55 3b b1 3d c8 bf 77 b1 c5 11 97 a1 d6 3f
       -0.18938269993976123 0.35361267791338186
0000f0 6c dd 2c 58 90 5e aa 3f d9 8d 28 1d eb f2 d5 3f
       0.05150271488531186 0.34295156333447846
000100 c6 09 22 5a 5b e2 d1 3f ec 26 e9 a6 58 d5 c7 3f
       0.2794407253460601 0.18619831228198025
000110 07 b8 6d 92 61 43 d5 bf 26 d7 59 a3 ca 41 d3 3f
       -0.3322376184431736 0.30089059784164573
000120 9f 50 ce cf d4 23 92 3f 8a 4c 35 d5 a9 d3 c6 3f
       0.017714810546366363 0.17833445463711356
000130 02 12 75 1a 4a e3 cc 3f 00 cd a4 82 4e 79 d9 3f
       0.22568632404194494 0.39802897222689637
000140 5c 89 50 dd 36 cc d0 bf a7 ef 03 34 c7 24 c4 bf
       -0.2624642525935508 -0.15737237968266735
000150 26 55 81 df 44 f4 bf 3f a9 19 d7 1e bd a2 c3 bf
       0.12482099968595559 -0.15340389257307877
000160 4c 8c c6 85 b7 bf cd bf 14 8f 8f 66 2a 81 da 3f
       -0.23241323501597078 0.4141336442537391
000170 1e 1d 98 16 43 a4 d5 3f ee c3 da 90 d1 96 d2 3f
       0.338150760712283 0.2904552378268467
000180 52 6e 2d e8 75 af ca bf ae 79 26 48 82 b2 c3 bf
       -0.2084796317748095 -0.15388515971149047
000190 eb 3f 30 be 88 c1 ce bf 1b cc 72 a7 61 3a b6 3f
       -0.24028119360491415 0.08682833040329323
0001a0 ce f4 4a e2 6a 07 c2 bf 17 88 f2 4b bf f1 d5 3f
       -0.14085136460736297 0.3428800813363763
0001b0 08 98 8f 24 83 2d be 3f 60 fe 35 b7 74 c6 de 3f
       0.11788196222877911 0.4808627881211347
0001c0 1a 3b a0 76 3f 30 d8 3f ae 71 6f 00 54 fc dc 3f
       0.3779448183494637 0.45290088694107566
0001d0 91 63 ed 1d 19 f2 d7 3f 67 9f 7e 10 d4 d2 d1 3f
       0.3741514961489481 0.2784929429130813
0001e0 20 ae b9 9b 4c e8 de 3f 31 78 d6 01 d8 52 a7 3f
       0.48292842109251133 0.045553922867143
0001f0 11 e7 50 8c 98 d0 d9 3f 72 54 ac 11 4c 5a d2 bf
       0.40335668280350584 -0.2867613003339279
000200 75 e7 73 e1 ce 39 dd 3f 60 26 13 f8 7a 7e 9f bf
       0.456653328102781 -0.03075592173698849
000210 28 a0 7e 94 b1 1c b4 bf 13 ba 6f 3f 55 a1 d2 bf
       -0.07856283068997583 -0.29109698481525575
000220 c7 5f f6 90 2a f7 d6 bf b3 f7 34 30 bd 9e d0 bf
       -0.3588358321808269 -0.2596886606951287
000230 4c e2 d4 2c c1 70 c7 3f 5d 8a 81 8c 2b cd d6 bf
       0.18312849701921363 -0.35627258988657734

lstm.weight_hh_l0 f8 [24, 6]
000000 a8 75 78 2a ed 38 dd 3f 9b 79 98 a2 f9 e5 ba bf
       0.45659951350702466 -0.10507164210910107
000010 ad 06 b0 62 a2 df dc 3f 2a e7 d5 72 96 30 c5 bf
       0.4511495555635559 -0.16554527861790663
000020 1b 48 d3 46 fb 84 cd 3f e7 fe 3c 07 01 02 c8 bf
       0.23062077482478646 -0.18756115773611912
000030 02 af 1c b0 72 6c c1 3f f0 9b 42 da 9a 0b 8f bf
       0.13612207030507056 -0.015158853326580485
000040 c5 91 b6 c7 02 16 c2 bf 5e ce 68 83 fd 85 ae bf
       -0.1412967181360171 -0.0596160147582878
000050 c0 9f c4 f1 b0 da cb 3f e6 64 83 c9 43 f2 cd bf
       0.2176114254482382 -0.2339558347655732
000060 29 c2 9c c6 fe d9 c2 bf 04 5f 34 2c 30 70 be bf
       -0.14727768609874772 -0.11889935569012883
000070 3e 23 c2 0c 5b 7b d7 3f ca 28 80 73 4f a9 92 3f
       0.36690403219158785 0.018223992752646002
000080 d4 e6 7a 54 db 39 e0 bf 4c fe 4a 22 de 8a d5 bf
       -0.5070625925065664 -0.3366008124248523
000090 bb 89 89 03 f4 b2 ac 3f f1 8b 2d af 52 bd d6 3f
       0.05605280440501611 0.3553053580018846
0000a0 bd 16 70 f6 5a 87 c7 bf ba 17 3f 0f d1 35 bf 3f
       -0.18381821663949963 0.12191492674091267
0000b0 d6 57 38 87 17 82 c2 3f 6d de ab 33 bf 87 b4 3f
       0.14459508993667097 0.08019633304126624
0000c0 71 a7 d0 13 2d 4c d1 3f 0e 71 ee ff 9a f8 aa 3f
       0.27027441916526757 0.052677959195735466
0000d0 3a 7a 67 37 c3 e2 d5 3f e9 99 96 98 f4 21 b4 bf
       0.34196548853461517 -0.07864311909961653
0000e0 d6 05 69 3f b9 23 c0 bf aa 81 68 b7 47 bf ce bf
       -0.12609019848063835 -0.2402124066875449
0000f0 1b fa c2 4f 8d 1a b8 bf 20 fe 5b 64 40 35 cc bf
       -0.0941551513414897 -0.22037510776861868
000100 85 bb df 16 57 39 d3 bf 6a 12 32 54 3d aa b8 bf
       -0.30037476762566256 -0.09634764962727052
000110 b3 a1 c2 e7 2c 51 c8 3f 95 9d 8a 1e ff 99 a0 3f
       0.1899772769586555 0.03242490051098482
000120 74 e3 15 b8 83 56 b9 bf c2 7c c3 04 aa 8d af bf
       -0.09897635692858647 -0.06162768657827079
000130 a9 56 ce 8b e8 09 be 3f 85 52 c7 42 3b 28 cf 3f
       0.11733868993027365 0.2434152675692937
000140 75 99 fa 5d 77 0b c3 bf 8a db 68 a6 fc 94 dd bf
       -0.148787423027169 -0.4622184395879506
000150 a6 15 14 c3 c6 73 aa 3f 23 aa 9b a8 a0 58 c4 3f
       0.05166455394104767 0.15895469887557664
000160 8c 2d ff d0 ae b2 d7 3f 84 57 c1 a4 4f 12 de 3f
       0.37028093728869105 0.46986762132052484
000170 56 7a fb 40 7e 4a b6 bf 94 9e 75 c6 b7 d5 ad bf
       -0.08707417570574569 -0.05827116296387405
000180 7f 1e f9 4d ef a3 d3 bf e7 61 e5 29 00 19 dc 3f
       -0.3068807851272836 0.439025917924964
000190 fa 91 3f 43 a2 d6 d4 3f 03 98 05 67 75 d1 86 bf
       0.32560020987719407 -0.01114169808051813
0001a0 73 d5 12 fa 2e c5 c6 3f d2 1b fe f4 bf e8 db bf
       0.17789256296752462 -0.43608092236575857
0001b0 8c b6 4e 23 3d 70 d1 3f cc 2e 66 2e 5e e6 df 3f
       0.2724755139159718 0.49843554049651284
0001c0 2a 45 76 ca 1a fd d1 3f 63 bb 65 c4 cd fa c1 3f
       0.2810732819717311 0.14046642389026961
0001d0 af de a1 79 ed 06 a5 3f 09 b0 83 67 50 cf d8 bf
       0.041068478677457214 -0.38765344723538014
0001e0 c4 78 a1 5c 62 85 c1 bf 54 18 82 6f 28 04 dd 3f
       -0.1368830635355548 0.4533787812182528
0001f0 c3 ba 77 a8 86 20 d2 3f d9 37 a8 44 de 56 bc 3f
       0.28323522998736567 0.11070050407599243
000200 8f 4e f9 c2 bd 87 86 3f 7c 80 07 51 c5 7a b1 3f
       0.011001093399648524 0.06827958324675082
000210 da 35 fc c6 8e 77 da bf 0d 11 ca 32 aa 8c d1 3f
       -0.41354722435138813 0.27421050033469
000220 bd d7 99 95 17 c1 bd bf 84 b8 2c 9a 6c 7e c4 3f
       -0.11622760202757738 0.16010816124020633
000230 51 c2 06 4a d0 c2 da 3f 17 01 2e 7d ee e2 a5 3f
       0.4181404803194129 0.042746975689626314
000240 52 6a d1 a0 88 15 a0 3f a3 22 1c 06 a6 70 d5 3f
       0.03141428912268353 0.33500052067442193
000250 de 34 98 c5 a8 14 de 3f bd f4 24 50 a9 ff d7 3f
       0.47001094147056033 0.3749793322238693
000260 02 eb da fa 49 d3 cd bf cc e6 10 31 75 0b d1 bf
       -0.23301052807604355 -0.2663243273887985
000270 0f 11 b9 81 56 3d c1 3f 93 6a ab b8 83 84 c8 bf
       0.13468438467146668 -0.19154402272291246
000280 73 85 6f 3b 98 38 d6 bf 87 f9 65 74 22 cc ad bf
       -0.3472042637277674 -0.058198048313886246
000290 45 35 88 ea 4e 38 d7 bf 50 d0 e6 7b f2 a4 b4 bf
       -0.3628117838241745 -0.08064189457837867
0002a0 b6 7b 5a 65 40 ba ca 3f 70 c6 71 68 36 4d d6 3f
       0.20880894612215933 0.3484626789059808
0002b0 8c 49 c7 5d 4e 80 d0 3f a6 c8 75 d1 e2 6a ad 3f
       0.2578311839871723 0.057456100529536244
0002c0 d1 b3 22 85 15 17 cf 3f fd 6b b5 e1 e4 76 ce bf
       0.2428919696880301 -0.2380033590405616
0002d0 74 da 64 c6 ef 7a d4 3f 22 bb 9e 09 66 22 b1 3f
       0.32000345587167733 0.06693113074173287
0002e0 ce 4b 97 de f9 50 d8 3f 03 b4 10 4d 32 3a b6 bf
       0.3799423860302199 -0.08682550794101478
0002f0 2f 0b e3 75 d0 88 be 3f 7c 89 40 be 93 89 cf 3f
       0.11927512052629362 0.24638602056172576
000300 27 ca c2 c0 ad d6 b6 3f af cf 1e de 98 5e cd bf
       0.08921323734356489 -0.22944937558861286
000310 e8 4e f8 0c 6e e2 b4 3f 83 ce 71 a0 d4 e2 d8 bf
       0.08158004585885303 -0.3888446394769078
000320 ce ce f3 56 fa 2e bc bf 1e f5 5a e1 66 99 d3 3f
       -0.11009182570324613 0.30623790747979907
000330 c7 95 76 44 27 10 be bf 38 4b 23 62 9d 82 b3 3f
       -0.1174339811464825 0.07621177335685736
000340 af 98 fd 45 9f 73 d5 3f ef 4f df b4 0e 45 d4 3f
       0.3351820167066632 0.31671493209182605
000350 16 65 1a 57 2a 55 cc 3f eb 1d d7 d6 99 54 da bf
       0.2213490414913301 -0.4114136312532241
000360 6b f4 47 67 33 1c de 3f a7 86 59 86 0e 4e c6 3f
       0.47047123991052925 0.17425710258526303
000370 0b e8 14 df 9f 1a d9 3f 99 cb 11 8d eb 18 d1 bf
       0.3922500303775684 -0.2671460034973108
000380 58 e4 e1 42 a0 5e cf 3f 94 0c 96 cd 14 34 d5 bf
       0.24507525697461818 -0.3313037879635854
000390 52 0e fb ce 6e 83 d2 bf 8a fe f6 fe 08 06 bf 3f
       -0.2892720242782377 0.12118583893515669
0003a0 21 21 ca 06 bf 69 d6 bf 79 14 01 b7 39 f4 cb 3f
       -0.35020423567813636 0.21839066920998443
0003b0 d7 ca 01 b2 0a 2e da bf 22 81 98 44 14 65 db bf
       -0.4090601671552298 -0.42804438303757497
0003c0 f2 13 f2 d6 e0 25 d7 3f ae e8 17 40 8a 7a c1 bf
       0.36168690672667403 -0.13655212525902044
0003d0 54 19 50 98 f3 ce c5 3f e0 53 cd 78 ed ad d0 3f
       0.17037815987732563 0.2606156997401836
0003e0 84 0e 50 5f 6b de b2 bf b1 49 e7 86 c6 4e cf bf
       -0.07370635106058826 -0.24459153735240372
0003f0 18 ec 69 2f 97 19 c5 bf e4 13 be 0e 7b c5 c2 3f
       -0.1648434621345991 0.1466516324982471
000400 e3 50 99 45 4e 98 d0 bf fb 1a 2b 8a 04 01 d0 3f
       -0.2592960052181878 0.2500621175098982
000410 51 ef 4c 3c c2 a9 b5 3f 19 08 aa 8b 1c 34 dc bf
       0.08462156269245937 -0.4406806339176242
000420 df 82 e8 af 21 4b d6 3f 49 13 e1 e7 f1 f7 ad bf
       0.3483356683591818 -0.05853229480320594
000430 2c 67 57 b5 f1 e9 98 3f f1 d8 9e ee 3a 09 b5 3f
       0.024329926198198112 0.08217209172912356
000440 e7 e4 70 7d 97 25 c4 3f 91 a9 fa af 31 d3 d2 3f
       0.15739720940636134 0.2941402643724809
000450 68 2c 99 17 01 65 d8 bf e0 a1 f7 35 af f1 d1 3f
       -0.3811648111774901 0.2803762461685704
000460 35 5d dc d1 93 37 ac bf 91 98 b5 94 39 7b b7 3f
       -0.05511152207162199 0.09172401314353552
000470 1d 76 2e 64 c7 2b be 3f 00 f9 3a 96 98 6c d1 3f
       0.11785551257931855 0.2722531764119509

lstm.bias_ih_l0 f8 [24]
000000 fc ad 2e 8e 5b c0 d4 3f 81 87 a6 ba 52 5e dc 3f
       0.32424057850832333 0.4432570288428153
000010 7a 8b ab 1f 31 c3 ce 3f 04 dd 34 f9 5b d5 c6 bf
       0.24033178373710112 -0.17838620823179252
000020 3f 19 04 55 29 06 d1 3f aa 09 63 72 93 bf bc bf
       0.2660010652765727 -0.11229821722648717
000030 7f 60 0b 28 7d 20 c0 bf 7d 81 05 2c ab 84 d1 3f
       -0.12599148230833987 0.2737224512002497
000040 69 10 68 62 c5 23 64 3f 00 02 20 f0 f2 5b db 3f
       0.0024584632076330337 0.42748712014875423
000050 94 49 e1 2f 71 72 c7 bf 8e 9a 89 20 a1 48 cf bf
       -0.18317999685184516 -0.2444039734720786
000060 8c 5a 8c be 32 a2 ab bf 96 eb 92 43 72 60 de 3f
       -0.053971849212918505 0.47463661765112286
000070 fa cd 2b 14 90 aa d2 3f a6 aa ac 9a 2a dc ae 3f
       0.2916603276237023 0.06027348650089452
000080 86 12 e9 6e 48 74 d7 bf ba 9f a6 8b 8f 4c d6 bf
       -0.3664723475560908 -0.34842289579182373
000090 0e 23 db 06 74 90 c1 bf d4 b8 e8 a3 f1 ee b2 bf
       -0.13722086272016337 -0.0739584946793202
0000a0 37 2f 8d e2 03 14 d2 3f 95 f4 97 30 7b fe bc 3f
       0.28247162937326514 0.1132580751072559
0000b0 a8 d5 f0 0d 74 c5 d2 bf d3 55 cd 42 4c 5c c9 bf
       -0.2933015953197704 -0.19812920820065347

lstm.bias_hh_l0 f8 [24]
000000 fb da 56 be 3d d9 c7 3f a0 10 77 f0 94 42 d5 3f
       0.18631717485342122 0.3321888302127807
000010 a8 8e 7d d9 8d 90 bd bf 98 ff 3e 30 00 46 cc 3f
       -0.11548697051835666 0.22088625293508524
000020 b7 51 49 a1 e6 8b c8 bf c4 17 cf a4 c8 82 cb bf
       -0.19176943660080578 -0.21492870375931095
000030 80 6b 54 7f 27 da c8 3f 1b 4b 32 8b 9f af c3 bf
       0.1941575404860849 -0.15379709526731564
000040 b9 b7 e5 92 f8 08 d4 3f f3 6a d4 d8 6d 2c d2 bf
       0.3130475458664211 -0.28396173643856953
000050 12 47 ec 7e be af a7 3f d5 3f 91 01 1b e9 da bf
       0.04626269625999958 -0.42047763016762235
000060 db 3d c0 3f 00 d9 d2 3f de 55 66 10 85 dd d1 3f
       0.29449468827894315 0.2791454944757258
000070 7b 12 92 2f 9e ce c3 3f ba 75 b9 3c ab 1e d5 3f
       0.1547429783132833 0.3299968808185799
000080 e2 90 66 72 ec bb c5 3f c3 8a 23 e0 fd 6b d3 bf
       0.1697974737736621 -0.3034662903648206
000090 ca 63 3f 6d 70 a4 d6 3f 49 a8 b4 e0 d3 86 c6 3f
       0.35378657025063076 0.1759896132655874
0000a0 87 d5 6c 78 2d a7 d6 3f 66 6d e3 09 87 11 be bf
       0.35395371208445464 -0.11745494834342693
0000b0 65 4e 74 50 44 01 bd 3f c5 c8 65 09 c3 6a d7 3f
       0.11330058063713862 0.36589122693761694

linear.weight f8 [2, 6]
000000 54 84 98 99 e8 73 90 bf 04 38 66 0e 09 d0 d1 3f
       -0.016067156195394297 0.2783224716775978
000010 04 f9 e2 83 0a 18 9e 3f ce dd 89 b2 58 80 e0 3f
       0.02938858442279814 0.5156672942238687
000020 d5 90 5f 35 b5 4d 8a 3f 96 c5 4d aa 59 07 ca 3f
       0.012843528453182188 0.20334931197752998
000030 dd f9 c5 24 69 73 cc 3f 83 d6 54 14 f0 b1 b5 bf
       0.22227205558370047 -0.08474636551258112
000040 0e d1 09 1e a4 e6 d5 3f bc cc cc 2c 14 9f 86 3f
       0.34220221455986255 0.011045606248080701
000050 71 07 ca 3e d3 b0 cc bf fc 82 f0 d0 a2 bb bf bf
       -0.22414627614858376 -0.12395684815465907

linear.bias f8 [2]
000000 5c 44 3e 1e ea 89 c9 3f 35 e4 f4 e2 12 8a c2 3f
       0.19952131725998157 0.14483867723336777
