Ventil_trained_NNs/my_example_model.pth (torch, 4258 bytes, 6 tensors)

lstm.weight_ih_l0 f8 [20, 3]
00000000: 52f9 6441 0d52 c33f 169a 6ac4 e3b6 cd3f
00000010: e713 ca24 9056 9e3f 7343 9350 dfa2 cfbf
00000020: 2ea2 26ac af15 d73f 3635 0974 59a5 b53f
00000030: 219a 6578 a459 c4bf 4952 2d69 d753 bcbf
00000040: 63ea ba3a 6c4f c1bf fce4 552d f43d c13f
00000050: e92c f198 a89e 50bf de2a c034 e125 e03f
00000060: 5933 64b9 b212 bebf 680a 67f6 f97c da3f
00000070: 0dbb 45cf cf4d c03f a17a 9109 2cce a33f
00000080: 7cba a1d6 ce25 9f3f 18a5 ff0d 500b d4bf
00000090: 9806 2654 4a20 b3bf e946 2ef2 354a 9dbf
000000a0: fb29 6bdd 04a0 be3f 5b40 adad d0f9 d8bf
000000b0: 5503 db68 7a28 ae3f 56e8 3fbe 8f14 a33f
000000c0: b475 ff9f 2377 d9bf 9d81 1eae 6d01 d03f
000000d0: 1669 1db3 8b30 90bf 6e71 3426 60fa c03f
000000e0: c1d8 129b 7adf c7bf 0961 1cfa 8b2e d03f
000000f0: 4ac2 5e64 1966 b73f 4206 7509 5238 cbbf
00000100: 2feb ff4d 14b3 b2bf 4309 46f5 2d85 91bf
00000110: eb69 7c1a cc8f 82bf 4e04 6d5c 5189 d6bf
00000120: 2a2e 220d 770c a6bf 3768 93e1 03a3 393f
00000130: 4c4e 2439 3db3 a93f 09a2 fcb3 d836 d03f
00000140: 9724 2b98 bf77 a03f 553e 92f6 3895 c4bf
00000150: d777 e47c 778e a4bf 4f03 f54b a250 cc3f
00000160: d2cb f660 f82e b2bf b1df 68f3 c3f6 d1bf
00000170: 130f ff80 62cd c4bf 027e 738e 445a a13f
00000180: ba7d 6cfa 8dce ae3f 49c2 db50 4d83 d23f
00000190: 1c8e 62ca 3523 cbbf a70f 6765 fbf7 a2bf
000001a0: 1f9b a109 3c09 db3f 5104 0961 f845 c8bf
000001b0: 430b 8358 faec c3bf f98a 05f4 46f1 d23f
000001c0: d553 1a3d 6942 bfbf 6c51 df8e a129 c73f
000001d0: 181f 2857 a78f c4bf ea9b ded5 8ecc c0bf
0.1509415215786683 0.23214385119099806 0.029627086873478616 -0.2471579688485935 0.3606986218606235 0.08455428202542667 -0.1589856708407789 -0.11065431897925139
-0.1352362906234986 0.13470318044327445 -0.00101438965409067 0.5046239881788457 -0.11747281099469599 0.41387795508140934 0.12737462635728783 0.038682342689516654
0.030417663431246286 -0.3131904732423023 -0.07471146158607167 -0.028603403955975635 0.11962919622161643 -0.3902475067197934 0.05890257387137036 0.03726624677069938
-0.3978966772536652 0.25008718494248133 -0.01581018715601442 0.1326408564135692 -0.18650753566698167 0.25284099030388113 0.0914016599697415 -0.21265626394056097
-0.07304503349579926 -0.017109602065383155 -0.009063334043777757 -0.35213121438943495 -0.04306385073968173 0.0003911861873128227 0.05019561121494273 0.2533475644764001
0.03216360790754285 -0.16080390967953187 -0.04014943503919682 0.2212107535251797 -0.0710292088249809 -0.2806863667533391 -0.16251784609459516 0.03389181364923034
0.06016963655406067 0.2892640390046251 -0.21201202756957194 -0.03704820263695235 0.42243863049081826 -0.18963532197998004 -0.1556694919764486 0.29597638921966013
-0.12210710279244037 0.18095797992885865 -0.1606339622087425 -0.1312426132473939

lstm.weight_hh_l0 f8 [20, 5]
00000000: 1f95 19bf 489d adbf aeda 8d96 ed95 d53f
00000010: be1d 393f 472f bf3f 7801 1117 7f6a aabf
00000020: f177 bd85 57aa b13f f0f0 b5c8 25e2 a8bf
00000030: eb19 ae82 8182 adbf 1f5d 2aa5 87ef 81bf
00000040: 2afc 493d d02e a8bf dabe 1b84 0297 6e3f
00000050: 089c 9d69 4676 ad3f 2c63 22c4 29ca d3bf
00000060: b0ee 80aa 3499 00bf 3144 ab6a b2ee b23f
00000070: 68d4 976a 9ad5 a6bf 026e 9eac 8299 84bf
00000080: b2e8 a553 176a d0bf 0fb0 78da 60e7 c0bf
00000090: c547 a6dd ef73 bfbf ebc1 fa69 daa5 b5bf
000000a0: bb11 b425 3f12 a6bf bcd7 4690 65c7 b53f
000000b0: 5a63 833f 65e7 90bf 6edc b005 e292 9bbf
000000c0: c62a 207e 2ae2 b03f 037d 952c b101 b53f
000000d0: 0dad 77ea f070 c23f 2d8c d271 66aa bc3f
000000e0: 3675 e84d 54ca 89bf f609 4b75 e8b6 ac3f
000000f0: 1d18 72c9 ece7 b4bf 570a 94e8 91fd b5bf
00000100: 78b8 2113 f16d acbf 7cbf eb43 5eb0 933f
00000110: 95d8 801d c770 73bf 1af1 64ff d1c7 a1bf
00000120: d68b b879 4061 c1bf ffcb 92bc d384 a0bf
00000130: 61af 6f28 1010 99bf 92e9 923c c012 82bf
00000140: 82b4 e5e5 5a4a a8bf b96f 4049 05da bfbf
00000150: 6061 f94b 5002 a43f 6ec1 2452 81d5 cbbf
00000160: 8842 4067 dca0 97bf 4481 8aa1 d9d6 b6bf
00000170: 9914 4e2c c44e a5bf 96c4 b9fe b743 aebf
00000180: 068f 72af f7d2 9d3f 6dc6 1c2e a7ca 973f
00000190: 256e 6278 421e cf3f 5f9d e5f7 b09a e03f
000001a0: 54dd 96bb 36d8 d23f 26fd d0bd c9c3 d1bf
000001b0: 7783 edf5 b7cc 7bbf 6ef5 46b1 973e bd3f
000001c0: f854 b992 e6e7 d2bf a132 36fb fef5 b7bf
000001d0: 664c fb35 6d3d b33f 2f8d 6ca2 b294 b3bf
000001e0: 45d4 c76f 5379 713f 6930 d5bc cd51 a93f
000001f0: ba0c e2e7 7371 c7bf 6a46 ece3 4356 6b3f
00000200: 96da 10eb 7fc1 b0bf 9306 f8ca 14e4 c63f
00000210: 3568 6628 e1df c43f 1d8d c3fa fe47 d63f
00000220: bf8d f9f0 69c8 b6bf ae5a 3556 e718 be3f
00000230: db7e 7352 f2ec cbbf e714 e2e1 43d5 d2bf
00000240: 5dfe da93 c02d d1bf b71a 1a14 b796 dbbf
00000250: 1868 af23 4315 d4bf 3e00 2cdb daf3 c0bf
00000260: 7855 a4c2 eaa9 b63f 8fce 81fa 625b a03f
00000270: 2365 8aeb c2dc ab3f 760b e0e6 4024 ad3f
00000280: 83ad 5d23 071d b0bf 2495 c909 8abc b1bf
00000290: 41cc eb79 7cd3 11bf bcc2 79c3 d197 a3bf
000002a0: 3c31 ce5b 8b7b 903f 9973 0d42 c2ad 9e3f
000002b0: 1719 647b 9aec cbbf 41fb 3063 ea26 c2bf
000002c0: d75f 0582 496c b43f 7481 8ef9 1b3f 4e3f
000002d0: e359 3d03 b72f b4bf fa3a fbac 79b7 c5bf
000002e0: 06c2 4418 9fe8 c53f dd8a 3c87 b9f2 cfbf
000002f0: 9d3b d14c 3482 a33f ea44 7228 07f5 b5bf
00000300: 1b74 0025 9394 b8bf fe7e c529 514b 993f
00000310: 19fc 6612 c3ec b03f a71d 0a16 f11f b43f
-0.05784060795557821 0.3372758836989459 0.12181515973599397 -0.05159375340054145 0.06900546088351668 -0.04860036921579247 -0.05763630600181443 -0.008757648208570999
-0.04723215816647326 0.0037341164723939503 0.05754299201253593 -0.3092140593885684 -3.1659049739532984e-05 0.0739547262594591 -0.04459841300187223 -0.010058422940168125
-0.25647528809316633 -0.1320611063723622 -0.12286280785909216 -0.08456196868315373 -0.04310796103712585 0.08507380268460357 -0.016507703782596785 -0.026927501294462912
0.06595101908912246 0.0820570691916949 0.14407168816192276 0.11197510031574671 -0.01259294379002061 0.056082977598197845 -0.08166389387233193 -0.08590042045765621
-0.055526288590827144 0.01922747888141839 -0.004746225160536484 -0.03472763292890786 -0.13578039115335966 -0.03226339032098479 -0.024475338428529784 -0.008824827049797066
-0.04744228416789388 -0.12442048109409044 0.039080151819407716 -0.21745316039006063 -0.023074573327962727 -0.0892158526789944 -0.04161656418640653 -0.05911040291255991
0.02912508972498442 0.023233997525670725 0.24311095121525841 0.5188832132088627 0.294446643059435 -0.27757495438341306 -0.006787031742391806 0.11423633649879658
-0.2954040940142728 -0.09359735138986959 0.07515604560767172 -0.0764876982253113 0.004266096043001493 0.04945223741614841 -0.18314980337536274 0.0033370328886881866
-0.06545257080947872 0.17883548651302714 0.16308226082475277 0.34814428795489666 -0.08899557240652366 0.11756749968240385 -0.218168535479882 -0.29426667269610934
-0.26841749609955007 -0.43107392275889417 -0.31379774556046547 -0.13244186116935625 0.08853022815704559 0.03194722469279753 0.05441865086795363 0.0569172174291656
-0.0629429303495979 -0.06928313006354309 -6.800124399912543e-05 -0.03826766501595588 0.01609628436885767 0.02995971229698888 -0.21815806412650637 -0.14181260913206908
0.07977733063069024 0.0009230505557873817 -0.07885307149022185 -0.16966172167163746 0.17116154370297937 -0.24959487059921673 0.03810275495253921 -0.0857700799699789
-0.09601707127917829 0.02470137422039808 0.06611270140909688 0.07861239231180282

lstm.bias_ih_l0 f8 [20]
00000000: 8c95 cb33 a8c9 ac3f 3f36 48ef ae69 c23f
00000010: 15de 9c0c a4f3 cabf 3ab5 4a04 8873 d1bf
00000020: ac08 6efe b2f8 ae3f 4042 12c9 c5e3 ba3f
00000030: c594 dc2e fa06 afbf a07f 2569 2312 d8bf
00000040: 8692 2953 d232 cc3f b149 30d8 9fde 8e3f
00000050: 45c5 2ef8 4115 acbf e44d 7df6 d0c1 85bf
00000060: 386b 55e5 1651 d43f 43ed 7061 8777 c1bf
00000070: 6bc3 9459 b24f adbf 6ce0 9bc7 41e4 d7bf
00000080: 4fd0 e071 1716 c3bf 8655 59eb 66f9 cebf
00000090: 4f66 8d05 0e2a c6bf 0544 48d4 a6fe c33f
0.05622602112070316 0.14385019954390718 -0.2105603276811371 -0.2726764718925839 0.06049117427666437 0.1050380340477739 -0.06060010740319791 -0.37610707538805777
0.2203009515825622 0.015073059830716358 -0.05484968332838006 -0.01062358143068471 0.3174493064486117 -0.13646023042552188 -0.05724866240996714 -0.3733066987329099
-0.14911168156106888 -0.24198614589355943 -0.1731584097968146 0.15620885243745888

lstm.bias_hh_l0 f8 [20]
00000000: 76d4 86af d2b9 d13f f0f7 e1c9 6d7e c43f
00000010: ea80 6773 4bd4 d9bf 1d0f 4908 7162 88bf
00000020: 3a59 0f1f 8206 dabf 5837 394d 50b7 cbbf
00000030: 804b 9041 c84a d2bf 98f0 bc80 bbbf c1bf
00000040: 2d32 b6a8 f757 d63f cd33 e3c5 2fb3 c5bf
00000050: 7329 bd54 0bb4 da3f 4aea 76d7 54c3 da3f
00000060: 30ad b9f9 534d dc3f fa80 4472 fac9 cfbf
00000070: 2cdf 5c52 9dc2 b43f 013d 3561 24e0 d63f
00000080: 4e27 62b8 7398 bb3f 4904 7261 0602 70bf
00000090: e86d dc24 b073 bebf 18b3 67aa 99b2 d5bf
0.2769667352798203 0.1601083026652641 -0.4035824419970725 -0.011906512322759572 -0.4066472342796207 -0.21653178950003382 -0.28581434633922953 -0.1386637095073453
0.3491191051078058 -0.16953084146953615 0.4172390296486334 0.418172083296359 0.44221972834812373 -0.24835138873550716 0.0810945821839339 0.3574305486008172
0.10779498340175772 -0.003908181118391482 -0.11895275974205044 -0.3390258945571971

linear.weight f8 [2, 5]
00000000: 094f 5e1b 211b c8bf 383e 6638 b543 63bf
00000010: 79a3 b5d8 557b a63f 1911 9044 de00 80bf
00000020: 74dd 69cf b399 ccbf 192d 8add ff50 cd3f
00000030: fb3a 267e 7a7a c0bf 68fa 6854 d446 d0bf
00000040: 01fe 5e4c 0648 d53f 52b9 6f7f 5de5 d6bf
-0.18832792126033152 -0.0023516215762311686 0.043909723953055875 -0.007814156024331486 -0.22344062450040847 0.22903440778132092 -0.12873774680743807 -0.2543230842892741
0.3325210328875699 -0.35774934239352263

linear.bias f8 [2]
00000000: ba90 d4ee e610 a33f de4b f419 d2ff 993f
0.03723832765015929 0.025389941057323166
