Ventil_trained_NNs/my_example_model.pth (torch, 144531 bytes, 6 tensors)

lstm.weight_ih_l0 f8 [256, 3]
0	0xbfa9f5a2ed694319	-0.05070218227468199
1	0x3fbef5ac8b6baeb6	0.12093618778060997
2	0x3fc04096df6281bf	0.12697111041508255
3	0xbf43ea7ea4c2f47b	-0.0006077879311515844
4	0xbf5609765bd9386a	-0.0013450294349186772
5	0x3f2a74137823b190	0.00020182359373367405
6	0xbf91fffb7ad25aa7	-0.01757805764335765
7	0xbf92a941e464168b	-0.018223790707472303
8	0x3fc35f4979dcba9c	0.15134542894653158
9	0x3f8f4510fc519f09	0.015268452358398148
10	0xbf7049fb907924ff	-0.0039768053753246315
11	0xbfc11e7190a4cfe2	-0.13374156534848597
12	0x3fb78692f0b85845	0.0918971860595273
13	0xbfa74850ad53f187	-0.04547359577006476
14	0xbfd2df43a46e777a	-0.2948769670273276
15	0xbf5dee95f49edd22	-0.001826902810064209
16	0xbf7324b904541bb4	-0.0046736933920845
17	0xbf491c4d6501db93	-0.0007663133528826742
18	0x3f73aa5768909331	0.004801122130662348
19	0xbf8550ac9bc708e3	-0.010407780174209019
20	0xbfb5a7f2c6a66906	-0.08459393834928983
21	0x3f7b42f1f06cbc3f	0.006655640673485285
22	0xbf776d6901aedab4	-0.005719576055460852
23	0xbfa7b3bdfc926851	-0.04629319866326454
24	0xbf60e7e53a0bb97d	-0.0020637013516228695
25	0xbf74f92270f15f26	-0.005120405708190201
26	0xbf4d4e06ab031147	-0.0008943111952466686
27	0x3fa5056bdd64cc70	0.041056986594775746
28	0xbfb5250ba47f6a0d	-0.08259651914651318
29	0xbfc93f413cc8d89d	-0.19724288433071005
30	0xbf600bc8541bf87b	-0.001958743349745493
31	0xbf74bd5f9f7de624	-0.005063413169290185
32	0xbf30d0b1ec47f9fc	-0.0002565798170336695
33	0xbf4cdb3fc7b5cf2b	-0.0008806287218434452
34	0xbf654322bad74ccb	-0.0025954893414819927
35	0xbf5863678560fefd	-0.0014885436007858182
36	0xbf261d0c50deaab1	-0.00016871238079592879
37	0xbf4f2f85b77582dc	-0.0009517100251451266
38	0x3f30141c7733992e	0.0002453393455667138
39	0xbf5b78446d9820e7	-0.0016766231768788277
40	0xbf632c8ab2e89f65	-0.0023405751192235196
41	0x3f6602ffcd896a0c	0.002686977019306319
42	0xbf837f7c5b314c86	-0.009520503552414416
43	0xbf7c337d42dd9757	-0.006885041524446431
44	0xbf8def8b073ff11b	-0.014617048414941316
45	0xbfa00844d2c3f6b4	-0.03131308625050391
46	0xbf900e00372d191f	-0.015678408973394228
47	0x3f8ad479b2a059c1	0.013100577129120052
48	0xbf85cc020738ab40	-0.01064302048242427
49	0x3f909bb65cc29d6e	0.016218995486864278
50	0x3fbc5bae041f4d06	0.11077392197266897
51	0xbf5e0ce44c5d030d	-0.0018341283298043993
52	0xbf7392b14aed7ea6	-0.004778568791919879
53	0xbf3a087462281d1a	-0.00039723245041086016
54	0x3fa0d9154d78f8a9	0.032906213481042564
55	0xbfa14cfbc2d12aee	-0.0337904620469852
56	0xbfc47d72be55297e	-0.1600783757551873
57	0xbf4c2300f60f49a0	-0.0008586649602142955
58	0xbf3e30d0d9084323	-0.00046067332098780246
59	0xbf70d73f4fbed7fb	-0.004111525831765657
60	0xbf4fd989907169ed	-0.0009719773960442081
61	0xbf62444b54b26b4d	-0.0022298308663954215
62	0x3f250c9b4691291e	0.00016059298948995713
63	0x3f9294e91da2f661	0.018146173890946197
64	0xbfa703ddec097855	-0.04495137697516386
65	0xbfc596405bae57c2	-0.1686478088055861
66	0xbf8fcc8fbc65b34c	-0.01552688878720123
67	0xbf823815fd858a0c	-0.008896037864080795
68	0xbf847050de6dd33c	-0.009979850566858788
69	0xbfa6155b8f636f55	-0.043131695989102305
70	0x3f9b501650535bf4	0.026672695782362824
71	0x3fbeecc4d3ce8d6b	0.12080030604425011
72	0xbf58ce2ae3d6302f	-0.0015139979217080426
73	0xbf6f2723f156f5df	-0.003802843285227494
74	0xbf59968a3b62fb2d	-0.0015617704316778877
75	0xbf341e46f62c9c75	-0.0003069804426325048
76	0xbf72e4fb57983df9	-0.004612905316676124
77	0xbfc780d1605574d2	-0.18361870960044385
78	0xbf7ea08a7e49698b	-0.007477322568400511
79	0xbf98a7d311005f77	-0.024077699577986302
80	0x3f65bdc93c24b87f	0.0026539736146765076
81	0xbf8422b4f96e50e6	-0.009831823217418333
82	0xbf6a82c59e04ec99	-0.0032361850464020622
83	0xbfa7dc9d52c35943	-0.04660503039638055
84	0xbf955f53a02fb2be	-0.020871454860684528
85	0x3fa053604b729090	0.0318861095522901
86	0x3fc226cf7b279054	0.14180940163999145
87	0xbf6b63401c2ce753	-0.0033432247304547107
88	0x3f7ff332fdc8d2b6	0.007800292191451666
89	0x3fac273f9bc33cd6	0.05498694206618786
90	0x3f592cefddefba1d	0.0015365927172258439
91	0xbf89dec49226a9a0	-0.012631927213836047
92	0xbfb334ccafaf6e89	-0.07502440728370109
93	0xbf5ed59dc9447ff1	-0.001881984794700028
94	0x3f9fb5288221b162	0.030964501326182677
95	0x3fb1f3cbb3045f61	0.07012627716573895
96	0xbf9dfc589851c53a	-0.029282936379279458
97	0x3fa3a17efc35823d	0.03834149197314616
98	0x3fa78a7fd88b702b	0.045978541549374384
99	0xbf57201aaa00c952	-0.0014114628211357627
100	0xbf6c1b8b05eaacc1	-0.003431102303996875
101	0xbf5749025ace97c6	-0.0014212153430235171
102	0xbf6bc88bfedc5368	-0.003391526631171638
103	0x3f8a28d27fbb7b2c	0.01277317478473846
104	0x3fb66132f853eae3	0.08742064058962344
105	0x3f94553e5ad2879d	0.019856428426130546
106	0xbf7e6585e370789d	-0.007421038629244728
107	0xbfce9190d88f1946	-0.23881731580895343
108	0xbf993295115772d9	-0.024607018645712884
109	0x3fa7ab14e68f1ace	0.04622712435189201
110	0x3fbf0155b76553ca	0.12111411788403284
111	0x3f93fb72f934acf9	0.019513889751732603
112	0xbf50c8b17c3842c0	-0.0010244115118249048
113	0x3fcefe39f95dc1c6	0.2421333758934578
114	0x3f991f60380db64c	0.024533751889455765
115	0xbfa52059ec3cd1ab	-0.04126244553336574
116	0xbfa71cf241102c5d	-0.045142717783243504
117	0xbf496b77aef56b5e	-0.0007757505790480892
118	0xbf68a5a4dc1a4d8e	-0.0030086727063662394
119	0xbf91a0a5c27ab28a	-0.017214384074281365
120	0xbf5ab853bdf33f83	-0.0016308610718631384
121	0xbf70a89690f5e5fc	-0.004067028188154517
122	0xbf5c12ec4da63297	-0.0017134959840376157
123	0xbf525af280915327	-0.0011203163324086747
124	0xbf63c2088f8c356b	-0.002411858291799509
125	0x3f2d207a133af9fb	0.0002222203271368821
126	0xbf42491c96fda56f	-0.000558031997553927
127	0xbf646471a547ebc5	-0.002489301647299299
128	0xbf4dfabcf648b801	-0.0009149000803228003
129	0x3f8a065e20437641	0.012707457885365094
130	0xbfa28a8bc349764f	-0.03621327170251886
131	0xbfc98c372c8fc0a6	-0.19959153819900627
132	0xbf72df9f310ca6ac	-0.004607793657479025
133	0x3f94644c1ceddea5	0.019913853898713047
134	0x3fc66558d7044f5d	0.1749678659331221
135	0x3f900411396daabb	0.015640515451574837
136	0xbf90c930dd14c60b	-0.016392482274744363
137	0x3fc228a9ffc2052f	0.14186596859148312
138	0xbfa67b334e8623aa	-0.04390869458718012
139	0x3f92492b2391494d	0.01785724072062438
140	0x3fd061dd6877f3a3	0.25597319795616097
141	0xbf847289a299b05e	-0.009984088205975346
142	0xbf785f900141dbf0	-0.005950510520157146
143	0xbfce011957327c0b	-0.2344085384147266
144	0xbf3d87d2a1bbdf0d	-0.00045060055138844494
145	0xbf1e75f031cded34	-0.00011619833499125904
146	0x3f8805d41fa7715c	0.011729867187505398
147	0xbf3f1a3290c08210	-0.0004745839548850059
148	0xbf40a0049314d343	-0.0005073568665126888
149	0xbf520b219675bb02	-0.0011012866978849516
150	0xbf5c90e11a722524	-0.0017435262941794616
151	0xbf71c7f88c65b8e1	-0.004341097729009231
152	0xbf5380cf782d160e	-0.001190378767846115
153	0xbf609495492a0ca1	-0.0020239749658813176
154	0xbf7512b4a0f76118	-0.005144792157317356
155	0xbf55850fd4e557f5	-0.0013134626966198025
156	0xbf5cf35ae51db1f8	-0.001767004742272536
157	0xbf725811ce857d73	-0.004478520925061391
158	0xbf364ebb979b2d48	-0.00034038619888284273
159	0xbf56f47cd7425e44	-0.0014010638379086263
160	0xbf6976f88aa7139f	-0.0031084875419957326
161	0xbf58a074ecd12a5b	-0.0015030996176103237
162	0xbf542104b511c9f9	-0.0012285753221276104
163	0xbf6788431207a217	-0.002872591969424808
164	0xbf63d09266d184cf	-0.0024187907607005964
165	0xbf5b082470c788e5	-0.0016498905052846843
166	0xbf72dbd0aeec92ce	-0.004604163331155943
167	0xbf335347dc990193	-0.0002948809093119783
168	0xbf5a0230fa88ea08	-0.001587436514582154
169	0xbf71cf7bef6cdda6	-0.004348262903298849
170	0xbf193f8ae6048531	-9.631428975300363e-05
171	0xbf62342d4eab5aea	-0.0022221455486531776
172	0xbf759932d5cb5165	-0.00527305467104031
173	0xbf52dfa4f1367e4d	-0.0011519537700691751
174	0xbf5151eb747d9a5d	-0.0010571288457527285
175	0xbf627d2fc411af25	-0.002256959240687711
176	0xbf671c804a488116	-0.002821207586990347
177	0xbf9013afb8f7e753	-0.01570009771783216
178	0x3fa418227ac615e5	0.03924663304045931
179	0x3fc3e3b0dd328b03	0.15538607407241764
180	0x3f67213406ec74d5	0.002823449721644703
181	0xbf9d198aa892b8da	-0.028417746104133147
182	0xbfbb3989ede3ac50	-0.10634672220082675
183	0x3f97c9b25a2948eb	0.023230349305159697
184	0xbfa406109fcfb43a	-0.03910877180883472
185	0xbfc6d38961ce3899	-0.1783305862013023
186	0xbf536df240ae2da6	-0.0011858812092409936
187	0xbf66f3905781529b	-0.0028016871620287326
188	0xbf309933e1f22324	-0.0002532722155100134
189	0xbf60bf6bd59d74e9	-0.0020444017545019244
190	0xbf76da48e9a845ce	-0.005579266372039494
191	0xbf6349fc0e5f0a69	-0.002354614541191059
192	0xbf989cfed85a69e2	-0.024036390261793168
193	0x3f943de626ad662a	0.01976737605159521
194	0xbf974aec5eb5e96a	-0.022746747284580073
195	0xbf35cb27b0c598e9	-0.00033254355437008096
196	0xbf4e2252d3dbe332	-0.0009196190291894445
197	0x3f04a94e75491361	3.9408404209717895e-05
198	0xbf7e122693f3186d	-0.007341528601676567
199	0x3f9a6bf2357c8b0b	0.025802406801754645
200	0x3f825e9d42be34b7	0.008969524955114811
201	0xbf262961d1266d14	-0.0001690799623020675
202	0x3fa0038c062255ae	0.031277061222833566
203	0x3f8f4da84be82c4c	0.015284838501449148
204	0xbf9e9dd2b775f882	-0.02989892239337922
205	0x3f69f3516f76e159	0.0031677809272105226
206	0xbf77b852abb14d37	-0.005791018421479158
207	0xbf511f00768d4735	-0.001044989063491331
208	0xbf6bcda7f68f1a23	-0.0033939629106243415
209	0xbee14d6707309dcc	-8.25040499392764e-06
210	0x3f6dec8c8ad9f363	0.003652834412433513
211	0x3f670d346dc88c77	0.002813913726883717
212	0x3f782a05ffdd6400	0.005899451671063538
213	0xbf81dfde45c98940	-0.008727776055086012
214	0x3f8709fa91003c2e	0.011249501752926685
215	0x3f61458955a80f5c	0.00210835288203441
216	0xbf5398d631b1e88b	-0.0011961070765935968
217	0xbf6ef755ff07584b	-0.0037800483334918026
218	0xbf12746b7aee6509	-7.039934165077947e-05
219	0xbf8d41716b80c398	-0.0142849789554889
220	0xbf88b3d1bcd5753d	-0.012061728072405681
221	0xbf9f411d30e72242	-0.030521827802461717
222	0xbf516e827e59054f	-0.0010639452315362623
223	0xbf6d7800d63df696	-0.0035972610803004052
224	0x3f083354b776b149	4.615881237710285e-05
225	0xbf383c9f0a92cf55	-0.00036982424587538493
226	0xbf5fad0a8553877f	-0.0019333460561985203
227	0xbf359fe1bacccb2d	-0.000329964265620197
228	0xbf151bdb94435e34	-8.052375511923769e-05
229	0xbf45281a77b397c9	-0.0006456498371363247
230	0x3f210df93a8f0c94	0.0001301161512668776
231	0xbf48bc1157833dec	-0.0007548412968620389
232	0xbf54e3cf5440f380	-0.0012750172327422316
233	0x3f4723aad5fb694a	0.0007061561736592472
234	0xbf710e5c508a1b66	-0.00416408596414084
235	0x3f95b0b13ff283bb	0.021181840446505378
236	0xbf684453ba5b3383	-0.0029622683822254094
237	0xbf91aa17e097eb6f	-0.017250416834922285
238	0x3f52cce52b0fe3eb	0.0011474836321652092
239	0xbf853ee3df2d52b8	-0.01037385964233671
240	0x3f575d07de84b25a	0.0014259888503814961
241	0xbf50d85206b0f133	-0.0010281373058794285
242	0xbf94da7a2be59214	-0.020364674500699634
243	0xbf500170ef8f64a6	-0.0009769060982221327
244	0xbf6ae0a8ee66ca4e	-0.0032809543074219577
245	0x3f1b912a6ba5cbb7	0.00010515996374298077
246	0xbf615d60cd939e9f	-0.0021197214779141295
247	0x3fa296efce3aab65	0.03630780594297426
248	0x3f9bdbb2d153ddfc	0.027205270792334688
249	0xbf4319f85fef3341	-0.0005829298751166349
250	0xbf309bca256bf377	-0.0002534264107650267
251	0xbf5444a4ecd44c75	-0.001237069186861087
252	0xbf425e49fb4382a5	-0.0005605565297877769
253	0xbf5b30d08a0ce183	-0.001659587527866519
254	0x3f0b2bfa5b06c1fb	5.182607435772268e-05
255	0xbf8d3be7b58221e3	-0.014274416186041477

lstm.weight_hh_l0 f8 [256, 64]
0	0xbf44d92a400f5b77	-0.0006362396526310284
1	0x3f586562f59416b6	0.001489016189510845
2	0xbf90f1ea803b50fb	-0.016547836376802554
3	0x3f5032adbeea64b4	0.00098864524230739
4	0x3f89eca0e2247af2	0.012658364201852266
5	0xbf47e7f7fd9c94fe	-0.0007295571224160966
6	0xbf56fce189ef2aef	-0.0014030649688147564
7	0xbf61885deab4f9b2	-0.0021402200997322146
8	0x3f482e9db6f1cf32	0.0007379789439156735
9	0xbf8278042baf1957	-0.009017975409631047
10	0xbf511309d9b32eca	-0.0010421367831438427
11	0x3f3616378145c3cf	0.0003370175848181307
12	0x3f0ae7adfb67afcf	5.1317212115125855e-05
13	0x3f214347e0ef312d	0.0001317048304073724
14	0xbf6165e33ad10a66	-0.0021237791138742244
15	0xbf57f29b1ad7ff49	-0.0014616503425485974
16	0x3f5d259c4bf91023	0.001778986581386207
17	0x3f52fb3339657c83	0.0011585235821127977
18	0xbf5f1ce90bc1e461	-0.0018989826048978686
19	0x3f2a95996f9e0cf7	0.0002028226661502164
20	0x3f367fe1fb50902b	0.0003433157647256847
21	0x3f5ebb37494fdea1	0.0018756904512410649
22	0x3f76ac2c53410745	0.005535290856700408
23	0x3f93819c7df515d7	0.019049115360095428
24	0xbf12dfa54f58b283	-7.199713203282815e-05
25	0xbf7df3d0320f6c15	-0.0073125965727412106
26	0x3f83b3d0ad960e16	0.009620313928059548
27	0xbf47e2899d6c5243	-0.0007289096782608435
28	0x3f562ed2de933ae0	0.0013539370796029002
29	0xbf4d5733d8ae47b9	-0.0008954051166816169
30	0x3f39cdfc8b6fbc7f	0.0003937474788803865
31	0x3f83d3631120745b	0.009680532417457302
32	0x3f78c02433a60a55	0.006042615330786723
33	0xbf0e0ffda92645c9	-5.7339600192506434e-05
34	0x3f7640dedf7cdaf8	0.005432959172870559
35	0xbf8e90c8f3cd415a	-0.01492459291481001
36	0x3f50e5e2e2581674	0.001031371656951133
37	0x3f9a56178c35591d	0.02571903985275369
38	0xbf525641b08bc43a	-0.001119197988540556
39	0xbf63614cb498486b	-0.002365732016877555
40	0xbf1f65344f3982eb	-0.00011976367732692186
41	0x3f26e7af73850943	0.0001747514413726424
42	0x3f2921e4da8da525	0.00019174498199995521
43	0xbf707dd7eb07a0e0	-0.004026263647098655
44	0xbf86bc647ffffc08	-0.011101517826316978
45	0x3f8856de0bfeb0e8	0.011884436360411546
46	0xbf93f744b3a1eef4	-0.019497941459561255
47	0x3f94c30fa7b4bd75	0.02027534924598969
48	0xbf2a1cbabcdf6e10	-0.00019922046197860853
49	0x3ed284744432d9e9	4.414891978379921e-06
50	0xbf39bf22ea1be785	-0.0003928623428773803
51	0x3f46371625a0f05e	0.0006779535426697616
52	0xbf5143163edf4710	-0.0010535924188740976
53	0xbf14b46ff80ef722	-7.89826717797174e-05
54	0xbf469bf8c0b1be15	-0.0006899799931385254
55	0xbf5b8144137dde46	-0.0016787686162994682
56	0x3f4f08a29e7432e9	0.0009470743215459185
57	0xbf4fe56641200796	-0.0009733914650953298
58	0x3f02f043eee3788f	3.6122391849012084e-05
59	0x3f84ff479eecd9b8	0.010252532517921562
60	0xbf57e6f0fc531177	-0.001458869302312397
61	0x3f200b73fd99b33a	0.00012241164113238075
62	0xbf38f433c8eecb81	-0.00038076652793533205
63	0x3f3296dd9399987f	0.00028365048965495876
64	0xbf212ff2c3a6f871	-0.00013112867766368636
65	0xbf06c1edb7084e8b	-4.340655039327981e-05
66	0xbf33fa5978d22866	-0.0003048389851946276
67	0x3f050e71ae52b71a	4.0161937968503754e-05
68	0xbf42450cf24bd1f3	-0.0005575478758986216
69	0x3f14fc9923c40e35	8.005795183768027e-05
70	0x3eeafade069dc403	1.2865042851225103e-05
71	0xbf34308b34ccabff	-0.00030806921567955165
72	0xbf15c15de81c8499	-8.299003277702429e-05
73	0x3f3c18b8f94a03ba	0.00042871967279017496
74	0x3f15808ef27c69b5	8.202431183371754e-05
75	0xbf10be24aefe33d6	-6.386851214142063e-05
76	0xbf04ebc656891a44	-3.990363149291136e-05
77	0xbf092004239d8c76	-4.7922254863740877e-05
78	0xbf21cc91de54d7b5	-0.0001357963621246274
79	0xbf40fdf7b66b0d8d	-0.000518556550411041
80	0x3f205ff9d2091bf4	0.00012493061605509082
81	0xbf14c0419b3eebae	-7.915878705848256e-05
82	0x3ed28f557beb37cd	4.425024541189092e-06
83	0x3ec9391db530526b	3.0068289702623303e-06
84	0xbf0c0a55a6ed6e77	-5.348276032776389e-05
85	0xbf1b1053c51a0294	-0.00010324012080254803
86	0x3f38b5c3c23590ad	0.00037704495681213196
87	0x3f2f0fab377bbd8e	0.00023697819755550933
88	0x3f1449da7e9a4664	7.739444813583681e-05
89	0x3f40339f69381296	0.0004944351553040789
90	0xbf3445660a2ffaaa	-0.00030931225973055787
91	0xbf1a174c9ebc1784	-9.952931548803777e-05
92	0x3f1d3e5817191306	0.00011155522022316894
93	0x3f153b648d829804	8.09936640303322e-05
94	0xbed2ebd42049bccd	-4.5111669392104705e-06
95	0x3f312ea1f2f8a833	0.0002621789344369213
96	0x3f3137cbd5a146a3	0.0002627251284411469
97	0x3f12f9a652e361e0	7.238462123682716e-05
98	0x3f216b0e0c9e6464	0.00013289019107956817
99	0x3f455d3c7e2cac49	0.0006519837737405466
100	0x3f0a3b78a0cbb25d	5.003415944835187e-05
101	0x3f1bfaae81f9f934	0.00010673227415656101
102	0xbf350007f1ade6e2	-0.0003204364199330523
103	0x3f0a23da8b4f3878	4.985819524670835e-05
104	0x3f15001b54312e74	8.011023332804031e-05
105	0xbf0cdc756ce90f9b	-5.504830697991501e-05
106	0xbf10b95dd20bc6ba	-6.379733214225805e-05
107	0x3f2a017f115db6e4	0.00019840885277793493
108	0xbf23f91a4605edab	-0.00015238233300949913
109	0x3f25ff0a317fbe1c	0.00016781806402786723
110	0xbf13791c6a429053	-7.428394252656624e-05
111	0xbf47491afa98df5d	-0.0007106191380392525
112	0x3f1669afbf65899d	8.549819162831933e-05
113	0x3ef965c8922652a0	2.422103092099509e-05
114	0x3f150c103780f650	8.028840045511934e-05
115	0xbf14fbb4346119fa	-8.004462606079474e-05
116	0x3f147e71a866f131	7.81781073788165e-05
117	0x3f10f2c63868bb21	6.465277520171761e-05
118	0xbf1334f3c0c75690	-7.326829672335057e-05
119	0x3f1455b00eb5189f	7.757079190637499e-05
120	0xbf14369af2e4bd69	-7.710762722433973e-05
121	0x3f15e0866edc1467	8.345432771868362e-05
122	0xbf13c110dcfe4e51	-7.535615372793984e-05
123	0x3f296444d5ad1503	0.00019372310893054503
124	0x3f1dcf9ee75f5c36	0.00011372001048869169
125	0xbf0a0adf5e60a086	-4.9672071142759864e-05
126	0x3f101c490c7bff4b	6.14566407612902e-05
127	0xbf1698b148f0f203	-8.619863568610363e-05
128	0xbf5a3bb322a128de	-0.001601147591389344
129	0x3f5ba398671cb26e	0.0016869533832945221
130	0xbfa17a841a57cc2f	-0.034137848106091766
131	0x3f737ffc12114f49	0.004760727549257223
132	0x3fa090de1ffa4de5	0.03235525265077025
133	0xbf4ab1bc9eb19783	-0.0008146449084846938
134	0xbf5f40343227509f	-0.001907397244044019
135	0x3f4a683351e31839	0.00080587869504068
136	0x3f49da9dd48c8dcf	0.000789000573693627
137	0xbf9d92f4ec91cb93	-0.028880907954270518
138	0xbf511edc53415398	-0.0010449554074700492
139	0x3f3f0b9c3dd7b687	0.0004737144898559826
140	0xbf3ba31669fc0503	-0.00042170808045234614
141	0x3f1b115d680eb2f3	0.00010325558288455296
142	0xbf659b347dbb53f1	-0.002637484094388125
143	0xbf7dd738cc27857c	-0.007285329690121297
144	0x3f795c7c398f713f	0.006191716435719307
145	0x3f526cef37020d0e	0.0011246048052562826
146	0xbf8059a6b1224410	-0.007983495979972971
147	0x3f448e8a80be8442	0.0006273437770582051
148	0x3f2825823f4384f9	0.00018422331743920393
149	0x3f75cccaf40db94a	0.005322258745634587
150	0x3f82be64527b5460	0.009152206198829116
151	0x3fa534d73855f6bb	0.04141876757328818
152	0xbf1fb243e5444c21	-0.00012091197396939302
153	0xbf936bac2abb92e6	-0.018965425594518324
154	0xbf78e512f9fcc00b	-0.006077837111476479
155	0xbf50b0688f208ce3	-0.0010186215481631726
156	0x3f747eec91df61c6	0.005003856755103125
157	0xbf5126ad82b95e65	-0.0010468191566327608
158	0x3f51cf21e50ed512	0.0010869818690769123
159	0x3f9381a545e62a34	0.019049246207524642
160	0x3f8a332bb804922b	0.012792913010863568
161	0xbf1be59dcfd71aa9	-0.0001064183779454312
162	0x3f86f6cc76b688a3	0.011212918637117325
163	0xbfa118fc11968ce1	-0.033393742701514524
164	0x3f63e32ba578e32b	0.0024276592701223585
165	0x3fa8d3f54e68908b	0.04849211294302432
166	0x3f66e5c76d69fa41	0.002795114046704656
167	0xbf61ad72737594b2	-0.002157901322493127
168	0xbf24754fdbbaaa63	-0.0001560840590760392
169	0x3f204ec92c410afd	0.00012441831325035033
170	0x3f2aef92b386e52d	0.00020550409113954376
171	0xbf7154a95f530a31	-0.0042311302287907785
172	0xbf93cf28ce80f366	-0.01934493790053029
173	0x3f97780002223b47	0.022918701296073676
174	0xbfa3a546f4f1f0a4	-0.03837033977558349
175	0x3fa6e9b9282559fb	0.044751917029021336
176	0xbf40c1a59a109446	-0.000511365757237877
177	0x3f24cb3907dca6aa	0.0001586444013182327
178	0xbf3eb12359246ff9	-0.0004683219241472521
179	0x3f46692bb54831ba	0.0006839240473382393
180	0xbf524d1b797aa6ca	-0.0011170166307387535
181	0xbf162c117f93d84c	-8.458000947428427e-05
182	0xbf4a35b82f8f75c9	-0.0007998608917849033
183	0xbf58ad16da8cb78a	-0.0015061114483603
184	0x3f4d665fab5e9bf3	0.0008972136627009006
185	0xbf50b58816d3075e	-0.0010198430057219636
186	0x3f2bd056bdc439e3	0.00021220263341388467
187	0x3f96df073c833f8f	0.02233516032066479
188	0xbf676a0af204c988	-0.0028581823136388275
189	0xbf0de70bd2dbffc9	-5.70345385835221e-05
190	0xbf3a326fe5d3ebcb	-0.0003997348010923967
191	0x3f338ddbf25e0b07	0.0002983724574436162
192	0xbf7902433ee394a0	-0.006105673483238011
193	0x3f5c0d7acec54b85	0.0017121981901097882
194	0xbf9b70dd66af0d9e	-0.02679773272735774
195	0xbf570af94f3724dd	-0.001406424967046064
196	0x3f97f41b7289a8d7	0.02339213263113823
197	0xbf54f0d58a371f71	-0.0012781224585171858
198	0xbf751aecb90230f5	-0.005152630517965874
199	0x3f7353f6ac647f08	0.004718745773317108
200	0x3f5450a1bf17c4f2	0.0012399272494543726
201	0xbf8999f67175fd4e	-0.012500691735793847
202	0xbf580732513daeae	-0.001466559541735284
203	0x3f4a07b79b9d72b9	0.0007943769953545266
204	0x3f2013bc1d9f31db	0.00012265845617632953
205	0x3f3cef15bc5e0882	0.0004414966646139122
206	0xbf321e03adb778bf	-0.0002764471989545984
207	0xbf7987ad36334aaf	-0.0062329069216554974
208	0x3f21e91053d37531	0.00013664554891238683
209	0x3f59864ded2a104c	0.0015578995704865926
210	0x3f38dec55002b9ac	0.0003794891090461948
211	0x3f541c0391091314	0.0012273821668184514
212	0x3f43bca10641f92e	0.0006023203136605087
213	0xbf6bcbfd10afd1d6	-0.0033931677512504073
214	0x3f68fb70a990cf03	0.003049583476718244
215	0x3f9541a110ca3288	0.020758167886514772
216	0xbf41e69928a399ff	-0.0005462882848206728
217	0xbf8da6d5a1eb7c01	-0.014478367809202199
218	0xbf71b910e8649cf6	-0.004326883359943459
219	0x3f61fac68d1189a1	0.0021947744321988015
220	0xbf4f4a4e8cea5997	-0.0009549029872058409
221	0xbf3cd0894edb4d0f	-0.00043967582938116227
222	0x3f73694f29bc3ac0	0.004739102583484367
223	0x3f7542d40cd552ff	0.005190685578175146
224	0x3f665239400a232c	0.0027247541586955717
225	0xbf400fc216b57135	-0.0004901597689399908
226	0x3f626ff46e914492	0.0022506498394610575
227	0xbf9a8561243cabe5	-0.025899427258234815
228	0x3f66952ac0bed0d4	0.0027566752450757046
229	0x3fa082b912957d6a	0.03224733688216015
230	0x3f57ba422bccce5e	0.001448216076096374
231	0xbf6fbc340c890f90	-0.003873922021996941
232	0xbf43e12d30e9a31a	-0.0006066771182534376
233	0x3f405f7276d9fec6	0.000499659434083776
234	0x3f478c559b43c97a	0.0007186334610465438
235	0xbf7c4f34b6ce3df1	-0.006911474146263683
236	0xbf705ce67d550b14	-0.003994846677701575
237	0x3f8a793c2cc46af1	0.01292655002230478
238	0xbf961f1509a5b48c	-0.02160294410116541
239	0x3fa032755d0ab4c2	0.031634967429775354
240	0xbf428ad93e839c61	-0.000565868450419848
241	0x3f0e48b69196a9a4	5.776221423599577e-05
242	0xbf4db14d66e281da	-0.0009061458529409608
243	0x3f52c1ed275e2b8d	0.0011448684649361968
244	0xbf58c134f31a4afb	-0.0015109078489429762
245	0xbf3cbbf8bd439ac4	-0.00043845007645730246
246	0xbf353fd4914a284b	-0.000324239155169996
247	0xbf5d0060405faf11	-0.001770109172407556
248	0x3f566b3f0deec2b9	0.0013683429494727852
249	0xbf5834713fc87bb9	-0.0014773469876059166
250	0x3f422a16d9b94cd4	0.0005543338369967906
251	0x3f77a2b56c67b411	0.005770405469303534
252	0x3f6b44d6b9a9c1a5	0.0033287233211966743
253	0xbf77e7ff3a060e42	-0.005836483935471261
254	0xbf486b3793a494da	-0.0007452031489135994
255	0x3f4ee93671d3dbf1	0.000943328460975999

lstm.bias_ih_l0 f8 [256]
0	0x3fabf18fa49ebafe	0.054577339978427716
1	0xbf6b59f6d460c161	-0.0033387967005397566
2	0x3fd2164c9c3c3411	0.282611038754852
3	0x3fc51b29fe3ba157	0.16489148057668032
4	0x3fb62c3a397fdd1b	0.08661235717578501
5	0xbf80a95154e80b93	-0.008135447887075908
6	0xbf98b86e03d885be	-0.024141043648460807
7	0x3fd55fa97e88c9bc	0.3339637504278945
8	0xbf80fd03e4764a02	-0.00829508820496461
9	0x3fc83a88b78b90e1	0.18928631746451344
10	0xbf7e9605eb5b0d4a	-0.00746729194878821
11	0xbf797bf723b34086	-0.006221738232128021
12	0xbf62681d8957ad3a	-0.0022469117054605666
13	0xbf76f754b8aa6ac1	-0.005606966917776902
14	0x3fcaac22f76a4ed6	0.20837819176505573
15	0x3fda2927e62a259d	0.40876195408835675
16	0x3fb414daa3f1a4b1	0.07844320776497928
17	0xbf7ff3cdd1c4d66a	-0.007800868970937106
18	0x3fc57bd60283ba82	0.16784167406827427
19	0xbf6d769134737835	-0.0035965763123462454
20	0xbf74cdb95fc2736e	-0.005079006307053697
21	0x3fb528e2cf9053c1	0.08265512053942727
22	0x3fd007a7822e2f69	0.2504671832364154
23	0x3fd0d32c009d091b	0.26288890895752254
24	0xbf7fa7bb3fd3d83c	-0.007728320543938291
25	0x3fb66519c34802c8	0.0874801732789009
26	0x3fb8ae040ea82202	0.09640527112799904
27	0x3fb5d7f92e12085c	0.08532674193159678
28	0x3fa679b92f596183	0.04389742568008883
29	0xbf86f662ca932c16	-0.011212131316275669
30	0xbf85f7da5438accf	-0.01072664804003978
31	0x3fcb1ffdc462a83e	0.21191379632120005
32	0x3fc6f736e3d738ec	0.17941938519511014
33	0xbf7de9c4c602fde9	-0.007303017279070436
34	0x3fc8018e3ecf643b	0.187547474545484
35	0x3fc764ed5b8681de	0.18276755303396802
36	0x3fa959b13a19812e	0.04951242288803069
37	0x3fc09cf7f143efbb	0.12979029922996496
38	0x3fc8b23b0d33ebbe	0.19293916840237374
39	0xbf8feb820e913618	-0.015585914678150778
40	0xbf80846b0da39a67	-0.00806506762860444
41	0xbf7631bd748868bc	-0.005418529567146443
42	0xbf76e841abba7247	-0.005592590834251405
43	0x3f922ad177ba7b6a	0.01774146359695853
44	0x3fc88fa7f762859c	0.19188403682077826
45	0x3fb7469ee7424133	0.09092133661238648
46	0x3fa6577b28dddb42	0.043636177767373954
47	0x3fcd73ea66ccf373	0.23009996432838484
48	0xbf88b7517485be10	-0.012068401688082125
49	0xbf5861beb8ae2cdd	-0.0014881479753253081
50	0xbf809150a662f135	-0.00808966644068985
51	0xbf81184e5ff2ee3c	-0.008347141554955965
52	0xbf8043da4bf75350	-0.007941918795873498
53	0xbf7ca0cbabdffa27	-0.006989284125664719
54	0xbf80ea90c8c8c37c	-0.008259898307274353
55	0xbf7a6bfa77c4fddb	-0.006450632467305674
56	0xbf7aab6534e1ad84	-0.006511111581953503
57	0xbf83a0a45fa0a6c7	-0.009583744209595747
58	0xbf78eefb3775968b	-0.006087285342209046
59	0x3fc1bdf5902fec9c	0.13860959568396403
60	0x3fb4b3936627d64e	0.08086510890992679
61	0x3f8af585754bb2e8	0.01316360725601258
62	0xbf794bdfb70ca3a4	-0.006175874602185969
63	0xbf842110996d26e7	-0.009828691179467565
64	0xbfaebe7a475e79d4	-0.06004697915271931
65	0xbf59c44050cbfcad	-0.001572668846335816
66	0xbfc2af4868175007	-0.14597420771190192
67	0xbfb01d983c554178	-0.06295157883619662
68	0xbfb01bf94f084ceb	-0.06292684726240665
69	0xbf73c1ab0103bea0	-0.004823368057472216
70	0xbf6bd9bcdfcf50dc	-0.0033997239065489526
71	0xbf9cb4acb21e6117	-0.028032968875408928
72	0xbf7494eaf76e4de5	-0.005024831617351099
73	0xbfa5f8a1f910988f	-0.04291254201261651
74	0xbf7291b1d3c9ae0a	-0.004533476484180019
75	0xbf6a4fd60c647f3a	-0.0032118969567277696
76	0xbf4a67dfd37e8469	-0.0008058398152465232
77	0xbf61e3e835ccce95	-0.0021838698725334484
78	0xbfade4c9c4e05cfe	-0.0583861401393566
79	0xbfc337f9e7c9b115	-0.15014575784460563
80	0xbf9bbb94004d3d0f	-0.02708274127809057
81	0xbf7308a9ae1ea06f	-0.004646933377365866
82	0xbfad1ea33159c254	-0.056874370359655174
83	0xbf50365d1490abb9	-0.0009895237910863954
84	0xbf65d9cf87432ced	-0.002667336777539489
85	0xbf9e357227bea9ce	-0.029500755000904814
86	0xbf99b217f6bc6bf8	-0.02509343570191544
87	0xbfafe194a42c538e	-0.062267918625514715
88	0xbf7223104fc3db91	-0.004427970616453517
89	0xbfa199e2ec60d989	-0.034377185206198986
90	0xbfb2305bf22e7cec	-0.07105040228497089
91	0xbfa21b7212a17f41	-0.03536564328601211
92	0xbf94754420f8d72e	-0.019978584778264245
93	0xbf682cb6609c43db	-0.0029510080393113486
94	0xbf728e1a2bfc364c	-0.0045300505005464
95	0xbfa3f5e3d18f622b	-0.03898536618334377
96	0xbfa2f536c90b31d4	-0.037027084390135606
97	0xbf70d98de36348a6	-0.004113725901520626
98	0xbfab3b1b4d0a9d84	-0.053185322908855276
99	0xbfb47bf2e49b2b09	-0.08001630860523447
100	0xbf9bc580617d12a8	-0.027120595884542326
101	0xbfb6e8ef32e4ee6e	-0.08949179642234537
102	0xbf9b82f621c31950	-0.026866765795398095
103	0xbf632f90758a9f49	-0.002342016360063957
104	0xbf73702220cff58e	-0.004745610535790047
105	0xbf685694c68e6c85	-0.0029709726117750934
106	0xbf67550c15b62c55	-0.0028481708556618393
107	0xbf95607014fb783f	-0.02087569358888452
108	0xbfb29633533b4e51	-0.07260437757514039
109	0xbfa0e30fe78c9d5d	-0.03298234654931307
110	0xbfa4ad374d65fb4a	-0.040384033391993215
111	0xbfb26f392c883ad1	-0.07200963341913826
112	0xbf698b5449afca99	-0.0031181951758239676
113	0xbf462efca30a4173	-0.0006769879892818811
114	0xbf737523133f0744	-0.0047503824352491154
115	0xbf74979d428743f6	-0.005027403160469559
116	0xbf734d6a67840a36	-0.004712501184487785
117	0xbf709d0425ebde31	-0.004055992320665378
118	0xbf72f5421b655d0e	-0.0046284277253427885
119	0xbf6fc2a1a89b47cd	-0.003876987208834648
120	0xbf6fc7af38393b36	-0.003879396653963775
121	0xbf76b06f23602006	-0.005539354451691741
122	0xbf681d8b6de62c88	-0.002943775484884951
123	0xbfa2dcec49973106	-0.03684175871203092
124	0xbf99df6636f423cf	-0.025266263107400818
125	0xbf91364d2bb96f96	-0.016808706086848334
126	0xbf6c7fbd3ab69418	-0.003478879536219736
127	0xbf76a6e05e9cf2cf	-0.005530239528351812
128	0x3f7f14cc2da89eea	0.007588193484970177
129	0xbf512d87287884ac	-0.001048452368088963
130	0x3fa2f55926c6bfda	0.03702810858101176
131	0xbf629ad627c054e7	-0.002271097442653958
132	0xbf0e4fa66609fe40	-5.7813897687883104e-05
133	0x3f71a64de33be073	0.004308990715564775
134	0xbf68d4cddd1173ca	-0.003031160428277312
135	0x3f7665dd0eb14453	0.005468238358916261
136	0xbf719581a3ef32b1	-0.004292971046152048
137	0xbf7896c80d0c66b7	-0.006003171395400456
138	0x3f7093054eeeb536	0.0040464598995815695
139	0xbf677ed95e058d98	-0.002868103547528821
140	0xbf6994c82aded2ad	-0.0031227025528671377
141	0xbf629d1b4a9f0f8f	-0.0022721798931985625
142	0x3f20d30a8e8e761c	0.00012835983150420803
143	0x3fa622befee02a7f	0.0432338415267468
144	0xbf2d5aeeb529d7a4	-0.00022396243965133484
145	0xbf714bf49d7eaef1	-0.0042228274614151
146	0x3f6f8f4c9f15f67f	0.0038525101196558715
147	0x3f7e86eebed04adb	0.007452900504193417
148	0xbf70d4e963b5f5cb	-0.00410929839870051
149	0xbf6b77afc643e060	-0.00335296946479606
150	0xbf772b3f075c3745	-0.005656477170999545
151	0x3f76d0bb51904025	0.005570155824003141
152	0x3f7158c89b3c185f	0.004235061281866319
153	0xbf822a69042b7a7a	-0.008869953574899048
154	0xbf6d22536f046ede	-0.003556406933183583
155	0x3f675094f883fb29	0.002846041639826953
156	0xbf4870ad29abef09	-0.0007458539506326199
157	0x3f1f557d701738ef	0.00011952951537994352
158	0x3f672357efdc35c3	0.002824470283377707
159	0xbf4d0aed88e6bb78	-0.0008863124692676102
160	0xbf41cb3bb836a3f6	-0.0005430261230020539
161	0x3f71087397136605	0.0041584506263574504
162	0x3f1ce29b0913f94a	0.00011018821011885452
163	0xbf95d2bdd4d9abe8	-0.021311727634763772
164	0x3f3ac082e8b39cad	0.0004082030870464309
165	0x3f75286cc2baf482	0.005165505262707206
166	0x3f6043d6fb2c4ba3	0.0019854735231858585
167	0xbf685e67fcbf066d	-0.0029747038842920432
168	0x3f71c3f094fea8c7	0.004337253354530008
169	0xbf70d19033f7b4c3	-0.004106105130160023
170	0xbf66a59883f8bac4	-0.0027645090883859653
171	0xbf7bc12f029b2dc7	-0.006776031144635159
172	0x3f7fd715d02603ea	0.007773480613082898
173	0x3f4affa9c887d1ed	0.0008239344616059442
174	0xbf957bc2b92b5537	-0.020979921867213504
175	0x3f9c1db3ebbfeb02	0.02745705725099424
176	0x3f64dccaa53a2b03	0.002546687881311073
177	0x3f72eba8bf9ceb3c	0.004619273351461225
178	0x3f717eced8546259	0.004271324146679045
179	0xbf663fd31bc42cc0	-0.0027159808361197635
180	0x3f7145b3a8292ed1	0.00421686342685819
181	0x3f72c67c8331d562	0.00458382260977905
182	0xbf6dafca6844593e	-0.0036238625781478675
183	0x3f70052c24e2ff2e	0.003911182821127386
184	0xbf707303da30d9c4	-0.004015936897351972
185	0x3f70d08586fecd8c	0.004105111685862705
186	0xbf707f678c00d4f4	-0.004027752380399752
187	0x3f6097dbd405910a	0.0020255368728375788
188	0x3f64cb0016545dae	0.002538204355584126
189	0xbf72ad99e3f0a862	-0.004560090193118512
190	0x3f7222fe2be7e830	0.004427903039408362
191	0xbf70e0dcd68e88ac	-0.004120695732952633
192	0x3faa97e396e20b5c	0.05194007126649211
193	0xbf6b5afee81b5bca	-0.003339288582405929
194	0x3fd15ddeb17fc7ed	0.2713543637647707
195	0x3fc74a02729f1189	0.18194609257455976
196	0x3fb81a5df10eabc5	0.0941523278731174
197	0xbf80a8e4a8e4f093	-0.00813463821815955
198	0xbf97be322a208205	-0.02318647749064164
199	0x3fd83a606e7e5651	0.3785630301511889
200	0xbf80fc9a5deb2e1f	-0.008294301978273797
201	0x3fcb32646fc4911a	0.2124753518811609
202	0xbf7e9556ad21c217	-0.007466639117510463
203	0xbf797bf34d43295f	-0.006221723935775663
204	0xbf62694fb270a4e7	-0.002247481973900112
205	0xbf76fac34a3f1d4c	-0.00561023984113913
206	0x3fcca62db5eb9812	0.22382136710001582
207	0x3fd9d426965cea99	0.40357365306741994
208	0x3fb57843089b76c9	0.08386630020273879
209	0xbf7ff3249313bab7	-0.007800238484590486
210	0x3fc6fa2a9e29bc3e	0.17950947497181063
211	0xbf6d74f34ed2217c	-0.003595805369119796
212	0xbf74cded2c342f48	-0.005079199271914643
213	0x3fb64634efa7f891	0.08700877047519585
214	0x3fd2bfccd7f86a2c	0.2929565533719678
215	0x3fd2684a3a7e8641	0.28761535370185604
216	0xbf7fa72a4264ad8a	-0.0077277804141816595
217	0x3fb6dfb953874632	0.08935125626819554
218	0x3fc2d59dc2685e11	0.1471440505272175
219	0x3fb4dc2e8b3577b7	0.08148470781949767
220	0x3fa8105402a6dd48	0.046999574016292345
221	0xbf874e94d55689f9	-0.011380350838241947
222	0xbf87131728d3691a	-0.011266880925564982
223	0x3fcfde2972374dc7	0.2489673431106054
224	0x3fc9fd3ef186cd8b	0.20304095071115244
225	0xbf7de9571c3ff48e	-0.007302608752067686
226	0x3fc86c2d9fd99b58	0.19080133729149895
227	0x3fc74efb58937a2c	0.18209783387188005
228	0x3fa1a2c6b0a3ad1c	0.03444500833742323
229	0x3fc01876c4724a89	0.1257465800486737
230	0x3fca96239e45cc0d	0.2077068827453278
231	0xbf8fd5a83b2c21f3	-0.01554423742847264
232	0xbf8084123c7a65f1	-0.008064405890126887
233	0xbf7631da176b54ec	-0.0054186362455841235
234	0xbf76e83c334bf266	-0.005592570455288914
235	0x3f9869d8fbdfec14	0.023841276524745394
236	0x3fcd4065781812c3	0.22852772106138816
237	0x3fb72df90f4bfa68	0.09054524062592295
238	0x3fad23859bca99a5	0.05691163565397809
239	0x3fcf4acc33d998b2	0.24447014362084968
240	0xbf88ac66c0471b40	-0.01204757952008395
241	0xbf5867ac08d397aa	-0.0014895610832410346
242	0xbf8090ee491b6186	-0.008088933568999545
243	0xbf8117ef23cb2d17	-0.00834643199904987
244	0xbf80435a9c64bc64	-0.007940967462302058
245	0xbf7ca029355b033f	-0.006988678903952216
246	0xbf80ea901a34c275	-0.008259893226381746
247	0xbf7a6b9c79d0dcc5	-0.006450282319796223
248	0xbf7aaaf1289bdabf	-0.006510679269686902
249	0xbf83a00f926ca702	-0.009582635551470545
250	0xbf78f0ac85d95fac	-0.006088899533629826
251	0x3fc2e67a67321754	0.14765863455630301
252	0x3fb702fc2e233cd0	0.08988929869086637
253	0x3f90b2ee37270232	0.01630756579993626
254	0xbf794bb1cd632e7f	-0.006175703563893741
255	0xbf8420ac4f107998	-0.009827943957188265

lstm.bias_hh_l0 f8 [256]
0	0x3fabd2fdbe848c11	0.05434411001831319
1	0xbf6b59f6d460c161	-0.0033387967005397566
2	0x3fd0f1c31805d405	0.26475598665211947
3	0x3fc62fe6e83d10ad	0.17333685245296718
4	0x3fb39093f6e72ed4	0.07642483499437996
5	0xbf80a95154e80b93	-0.008135447887075908
6	0xbf99010665df24b4	-0.02441797253394347
7	0x3fd59e89c0421c08	0.3378013970872762
8	0xbf80fd03e4764a02	-0.00829508820496461
9	0x3fc6910c775e6253	0.17630153492497644
10	0xbf7e9605eb5b0d4a	-0.00746729194878821
11	0xbf797bf723b34086	-0.006221738232128021
12	0xbf62681d8957ad3a	-0.0022469117054605666
13	0xbf76f754b8aa6ac1	-0.005606966917776902
14	0x3fcbef9444a26d4f	0.21824887610714902
15	0x3fd7503bc1344a5b	0.36427205913165545
16	0x3fb47557aecca522	0.07991550462306354
17	0xbf7ff3cdd1c4d66a	-0.007800868970937106
18	0x3fc388363be17064	0.1525943558107229
19	0xbf6d765e42939afb	-0.0035964814202203966
20	0xbf74cdb95fc2736e	-0.005079006307053697
21	0x3fb4792f4a8dc5f6	0.07997413225327663
22	0x3fd0ab9ad0ca25b9	0.26047392263043495
23	0x3fd0a64e6d5e7bbf	0.2601505344445591
24	0xbf7fa7bb3fd3d83c	-0.007728320543938291
25	0x3fb65d4ac0623ada	0.08736102291934902
26	0x3fb8cec85d223f26	0.0969052531602271
27	0x3fbb337135c933ac	0.10625369609006324
28	0x3fa4d06c537a2375	0.040652642431331744
29	0xbf86ce4f2ee48b9d	-0.011135691278985333
30	0xbf8824562ae5e6ba	-0.011788056549210214
31	0x3fcb285314e9abbb	0.2121681072343032
32	0x3fc90c255ce7ed0b	0.19568316494392266
33	0xbf7de9c4c602fde9	-0.007303017279070436
34	0x3fc61c7ad2387f6f	0.1727441336124644
35	0x3fc471a887dd6a14	0.1597185767557937
36	0x3fa2f29337c53940	0.037006950910483116
37	0x3fc2ae556eefc2ee	0.14594524304222695
38	0x3fc96cfe1f32603f	0.19863869212417914
39	0xbf8fe9b673177f68	-0.015582490336725832
40	0xbf80846b0da39a67	-0.00806506762860444
41	0xbf7631bd748868bc	-0.005418529567146443
42	0xbf76e841abba7247	-0.005592590834251405
43	0x3fa3cd4f106c91ff	0.03867575717439208
44	0x3fc987f15ff25e55	0.19946114716434474
45	0x3fb233827463ad38	0.07109847394501834
46	0x3fab895e9271804f	0.05378242051733705
47	0x3fcedb546b70dbf9	0.24106841322074482
48	0xbf88b6cb43471eff	-0.012067401877075222
49	0xbf5861beb8ae2cdd	-0.0014881479753253081
50	0xbf809150a662f135	-0.00808966644068985
51	0xbf81184e5ff2ee3c	-0.008347141554955965
52	0xbf8043da4bf75350	-0.007941918795873498
53	0xbf7ca0cbabdffa27	-0.006989284125664719
54	0xbf80ea90c8c8c37c	-0.008259898307274353
55	0xbf7a6bfa77c4fddb	-0.006450632467305674
56	0xbf7aab6534e1ad84	-0.006511111581953503
57	0xbf83a0a45fa0a6c7	-0.009583744209595747
58	0xbf78eefb3775968b	-0.006087285342209046
59	0x3fbec5eb3436588a	0.12020750069345545
60	0x3fb5533cd837864e	0.08330135611279241
61	0x3f844266bda6f4c3	0.009892275488591179
62	0xbf794bdfb70ca3a4	-0.006175874602185969
63	0xbf842110996d26e7	-0.009828691179467565
64	0xbfaebe718f5ec4f4	-0.06004671931385444
65	0xbf59c44050cbfcad	-0.001572668846335816
66	0xbfc2af1fe3c9ca31	-0.14596937773201682
67	0xbfb01d983c6d8471	-0.06295157885826243
68	0xbfb01bf94a7a4a6b	-0.06292684620192694
69	0xbf73c1ab0103bea0	-0.004823368057472216
70	0xbf6bd9bcdfcf50dc	-0.0033997239065489526
71	0xbf9cb20761cb50df	-0.0280228761137814
72	0xbf7494eaf76e4de5	-0.005024831617351099
73	0xbfa5f5dba88a29d7	-0.04289137298936268
74	0xbf7291b1d3c9ae0a	-0.004533476484180019
75	0xbf6a4fd60c647f3a	-0.0032118969567277696
76	0xbf4a67dfd37e8469	-0.0008058398152465232
77	0xbf61e3e835ccce95	-0.0021838698725334484
78	0xbfade4c9c512589f	-0.0583861401620862
79	0xbfc3411d18ad1f00	-0.1504246111382983
80	0xbf9bbb94004d3d0f	-0.02708274127809057
81	0xbf7308a9ae1ea06f	-0.004646933377365866
82	0xbfad1ea3315ed44b	-0.05687437036196082
83	0xbf50365d1490abb9	-0.0009895237910863954
84	0xbf65d9cf87432ced	-0.002667336777539489
85	0xbf9e357227bea9ce	-0.029500755000904814
86	0xbf999ac122fb6cd1	-0.025004403839244575
87	0xbfafc851a3753b05	-0.06207518692337114
88	0xbf7223104fc3db91	-0.004427970616453517
89	0xbfa199e2ddc7413f	-0.034377183506537616
90	0xbfb14df08cb051cd	-0.06759551462921039
91	0xbfa21b7212a17b66	-0.03536564328600526
92	0xbf94754420f8d72e	-0.019978584778264245
93	0xbf682cb6609c43db	-0.0029510080393113486
94	0xbf728e1a2bfc364c	-0.0045300505005464
95	0xbfa3f6a11867791c	-0.03899100706961375
96	0xbfa2f5353fe64b34	-0.03702703862213355
97	0xbf70d98de36348a6	-0.004113725901520626
98	0xbfab3b1b4b08df8f	-0.05318532267523245
99	0xbfb47bf5293d4739	-0.08001644379444607
100	0xbf9bc580617d12a8	-0.027120595884542326
101	0xbfb6e7ec756913ec	-0.08947637430635752
102	0xbf9b81e62699ebfa	-0.026862712961229086
103	0xbf632f90758a9f49	-0.002342016360063957
104	0xbf73702220cff58e	-0.004745610535790047
105	0xbf685694c68e6c85	-0.0029709726117750934
106	0xbf67550c15b62c55	-0.0028481708556618393
107	0xbf95607014fb7801	-0.020875693588884307
108	0xbfb2963350a4074c	-0.07260437697189309
109	0xbfa0e30fe4c84adc	-0.03298234622720539
110	0xbfa4ad373bc81195	-0.04038403134112226
111	0xbfb26bfae1e25bc4	-0.07196014418364799
112	0xbf698b5449afca99	-0.0031181951758239676
113	0xbf462efca30a4173	-0.0006769879892818811
114	0xbf737523133f0744	-0.0047503824352491154
115	0xbf74979d428743f6	-0.005027403160469559
116	0xbf734d6a67840a36	-0.004712501184487785
117	0xbf709d0425ebde31	-0.004055992320665378
118	0xbf72f5421b655d0e	-0.0046284277253427885
119	0xbf6fc2a1a89b47cd	-0.003876987208834648
120	0xbf6fc7af38393b36	-0.003879396653963775
121	0xbf76b06f23602006	-0.005539354451691741
122	0xbf681d8b6de62c88	-0.002943775484884951
123	0xbfa2dcef55440592	-0.03684184947816073
124	0xbf99df6636f423cf	-0.025266263107400818
125	0xbf91364d2bb96f96	-0.016808706086848334
126	0xbf6c7fbd3ab69418	-0.003478879536219736
127	0xbf76a6e05e9cf2cf	-0.005530239528351812
128	0xbf87d4256907fd0f	-0.011635105388448723
129	0xbf546a4202e83411	-0.0012460369722504564
130	0xbfa21ecf62f238cf	-0.03539131243552306
131	0xbf6525c180586c0a	-0.002581479961702997
132	0x3f7d20fbdb276dc1	0.0071115339401006126
133	0x3f70f2fb6e2ab6ec	0.004137975835573942
134	0xbf71bc6b67572fb1	-0.004330081506349546
135	0xbf70cd6f58fdf175	-0.00410216803708995
136	0xbf7141ddc07c4111	-0.004213205545753122
137	0x3f7b25e154fad2bd	0.006627922251642712
138	0x3f71123ece538a1f	0.004167790733137027
139	0xbf6697da9ffea92f	-0.0027579565066463622
140	0xbf66a0025d17aa55	-0.0027618452229394666
141	0xbf6234fa8cb093e7	-0.0022225278421665775
142	0xbf345470618a9f7d	-0.00031020873715669595
143	0xbfa231ba9a8517ed	-0.03553565155247882
144	0xbf40580e0eafa964	-0.000498778213452494
145	0xbf70fd15cb36baa9	-0.004147610790296832
146	0x3f5de7f930c55a4c	0.0018253262997710738
147	0x3f7afe269e1552b1	0.006590033387813208
148	0xbf7094534fb34a32	-0.004047704157715647
149	0xbf741b365c093027	-0.0049087642115175694
150	0x3f6c6521369d838b	0.003466191167646964
151	0xbf6d11efe6b7c809	-0.0035485921450737518
152	0x3f7242463d27d160	0.004457735415133918
153	0x3f7515dc8fe57439	0.00514780194347702
154	0x3f55c9ffec861920	0.0013298987633745887
155	0x3f3b5818e394d3d8	0.0004172383083472209
156	0xbf593faff0fb4567	-0.001541063134869647
157	0x3f426bc4c17594a9	0.0005621634217446619
158	0x3f6e11832388b69d	0.0036704598717481455
159	0x3f27c9c62993a4e7	0.00018148941015930857
160	0x3f4f54aa6d5f81ab	0.0009561378635645675
161	0x3f736bd505b389a2	0.00474150859665415
162	0x3f2f9fddc4a354e2	0.00024127561693513324
163	0x3f89732521077694	0.012426652975530396
164	0x3f587661dce0a29c	0.0014930682841713177
165	0x3f511aa02e11eccb	0.0010439457185203334
166	0x3f3533022534820d	0.0003234749066951821
167	0xbf683af031ce3817	-0.002957791452394619
168	0x3f718f4d31cf1bb3	0.00428705362441566
169	0xbf7193720fd64f48	-0.0042910056630665674
170	0xbf669c6f170a01ec	-0.0027601403929227077
171	0xbf01b64b1e6f8571	-3.378311867386741e-05
172	0xbf60b97056043eba	-0.0020415491163772977
173	0xbf31393fa4e0c22d	-0.00026281169710088114
174	0x3f915ef4f570ddca	0.016963794212839813
175	0xbf8d5212f9c80f21	-0.01431670021793924
176	0x3f607e0fcffed2d1	0.002013235934976578
177	0x3f6d86ec748aeedb	0.0036043756739142347
178	0x3f718742deb48570	0.004279385767661167
179	0xbf7766f48ccf9aed	-0.005713420175175382
180	0x3f7134251ca42cff	0.004200119941980106
181	0x3f731c8eca28a1d5	0.004665906688878303
182	0xbf6befb754a747c1	-0.0034102039983076875
183	0x3f6f4b1a522190c1	0.003819991500721626
184	0xbf6f10ab5f361099	-0.003792128287104357
185	0x3f722c79a0f7bf06	0.004436946022437166
186	0xbf71dd0455e3d5ac	-0.00436116879995067
187	0xbf6510d5080465e1	-0.0025715027587806948
188	0x3f6723afcb2ea594	0.002824633929283402
189	0xbf777870b6b2c787	-0.005730095184093182
190	0x3f72c1b8b1c864f6	0.00457927843356142
191	0xbf70972332236ccc	-0.004050385936547229
192	0x3fb2cd3d74790146	0.07344421475955185
193	0xbf6b5afee81b5bca	-0.003339288582405929
194	0x3fd1d8a8d0644c67	0.2788488421512682
195	0x3fc918165f5f1b73	0.19604758889019144
196	0x3fbe48a876bed106	0.11829617404038481
197	0xbf80a8e4a8e4f093	-0.00813463821815955
198	0xbf967af39d11c2a7	-0.021953398191217357
199	0x3fd83ef647fc11d4	0.3788428976988858
200	0xbf80fc9a5deb2e1f	-0.008294301978273797
201	0x3fc956acaaacb627	0.19795759519313202
202	0xbf7e9556ad21c217	-0.007466639117510463
203	0xbf797bf34d43295f	-0.006221723935775663
204	0xbf62694fb270a4e7	-0.002247481973900112
205	0xbf76fac34a3f1d4c	-0.00561023984113913
206	0x3fce1b495f23471a	0.23520772118950434
207	0x3fdb75c5c91a0590	0.429063269031837
208	0x3fb5340b1683e06c	0.0828253679245578
209	0xbf7ff3249313bab7	-0.007800238484590486
210	0x3fc727bb6c1ed1fd	0.18090002803150176
211	0xbf6d751fcdf81dd9	-0.0035958882506326004
212	0xbf74cded2c342f48	-0.005079199271914643
213	0x3fb5f65bd14dfa27	0.0857903848645739
214	0x3fd08b87643d76fa	0.25851616658279364
215	0x3fd1eb1b7e91cecd	0.2799748168974759
216	0xbf7fa72a4264ad8a	-0.0077277804141816595
217	0x3fba9e2ad2dad11d	0.1039759411604035
218	0x3fc140898d54c479	0.1347820224851011
219	0x3fb443f60a47a083	0.07916200400325306
220	0x3fa95b427e7a239d	0.04952438157949433
221	0xbf86d1651d30124e	-0.011141576722374282
222	0xbf8aaae8a125bf69	-0.013021294992284731
223	0x3fce789c82639da0	0.23805576674133722
224	0x3fcab523692b4804	0.2086529029389227
225	0xbf7de9571c3ff48e	-0.007302608752067686
226	0x3fc8bab699a880e4	0.19319803717463124
227	0x3fc9757aa9dc2cb7	0.19889767927120314
228	0x3fa0f3408d9943d0	0.033105866703983744
229	0x3fc2ec80eb5ca9b4	0.14784251682551786
230	0x3fcd04f3d55daf9d	0.22671363752612886
231	0xbf8fd572bb1da62e	-0.015543838820764124
232	0xbf8084123c7a65f1	-0.008064405890126887
233	0xbf7631da176b54ec	-0.0054186362455841235
234	0xbf76e83c334bf266	-0.005592570455288914
235	0x3fa1e72233a730b4	0.03496653442889067
236	0x3fccefe2cb439f71	0.22607073712356
237	0x3fb2659403abcef4	0.07186246003749003
238	0x3fad69186fa3000f	0.0574424396777432
239	0x3fcdafc2c117d7ec	0.23192629269004728
240	0xbf88af3f72453d09	-0.012053008723027963
241	0xbf5867ac08d397aa	-0.0014895610832410346
242	0xbf8090ee491b6186	-0.008088933568999545
243	0xbf8117ef23cb2d17	-0.00834643199904987
244	0xbf80435a9c64bc64	-0.007940967462302058
245	0xbf7ca029355b033f	-0.006988678903952216
246	0xbf80ea901a34c275	-0.008259893226381746
247	0xbf7a6b9c79d0dcc5	-0.006450282319796223
248	0xbf7aaaf1289bdabf	-0.006510679269686902
249	0xbf83a00f926ca702	-0.009582635551470545
250	0xbf78f0ac85d95fac	-0.006088899533629826
251	0x3fc29b8eba788186	0.1453722391606897
252	0x3fb6d2a877d1f61b	0.0891518871812526
253	0x3f8fc7ce1b5b7c16	0.015517816743736684
254	0xbf794bb1cd632e7f	-0.006175703563893741
255	0xbf8420ac4f107998	-0.009827943957188265
