Ventil_trained_NNs/my_example_model.pth (torch, 4371 bytes, 6 tensors)

lstm.weight_ih_l0 f8 [24, 3]
00000000: 305d 45ca bc66 ca3f 08c8 745b 14cf d1bf
00000010: 4109 59a4 18be d2bf beb1 3362 cf09 d13f
00000020: 696e be17 1bbf 94bf f077 92bc aa7a abbf
00000030: 9a9d a770 57a3 ce3f 1a52 c057 85fc b03f
00000040: de8a 9afb 9915 dfbf 6fc3 3e50 385e 653f
00000050: e345 fc8d f807 bbbf 9f93 29c6 f189 b93f
00000060: 928c 2aef f96a 7dbf 091b d3ca 6b4a c1bf
00000070: fb84 a500 5496 41bf 2c71 9a85 486c 943f
00000080: b5cc ef11 b0f1 a1bf 262a 6b4f 9472 a5bf
00000090: cee3 f667 484e b53f 75af 465b a0e9 ad3f
000000a0: 3206 28cd 08aa c2bf 08d5 5f3f 0bf7 9c3f
000000b0: f073 4c50 9681 c03f 56b3 ffc0 3b26 dcbf
000000c0: c842 a19e 8a4e d6bf 612c 8c72 2f63 cf3f
000000d0: ca3a 9ec5 ad18 b6bf c23b 439c cdfd b9bf
000000e0: d515 8153 f1bf cdbf a421 6228 2933 c3bf
000000f0: 1cdb b365 5f43 b8bf b54e c168 2f62 c6bf
00000100: 6e8a 55a0 3e7e c9bf f85f aa67 80bf 603f
00000110: 2449 22c7 6c4a c73f 594e 21de d7cf d73f
00000120: e8c4 f1b5 3f88 a53f 703d f9b5 fe5c c2bf
00000130: 29b0 213d 952d a8bf 7157 dd36 9854 b43f
00000140: 44b1 2f54 fa0e cd3f cae3 4816 2128 babf
00000150: 75f0 e68b e6aa cdbf e68c 3168 2841 b93f
00000160: 847e f125 25e1 a2bf affa e146 760d b0bf
00000170: 43fd 63e3 1477 d0bf a9b6 95a4 1273 ce3f
00000180: 3c54 5827 aa55 d73f 9003 4cea 13bd c9bf
00000190: ad16 3ba4 e945 cabf e645 7c2d 39b9 ce3f
000001a0: 1782 bbf3 bcbf c4bf 1bdf 966a 4c01 9ebf
000001b0: 57f5 ef33 4c20 cbbf 58df 0ef4 41d2 d33f
000001c0: c131 122d d6be cabf a873 ae2a 417a d13f
000001d0: 7b7d 0926 6895 dbbf b2b8 531f fb72 d3bf
000001e0: 6b3f f595 4444 c53f 1cde 2d3b d4e9 d73f
000001f0: 49d1 60c0 cb89 c33f 88e5 45ad ed1c afbf
00000200: 300d 7235 c417 893f e3ea d9db df7c c0bf
00000210: f8e3 b09f c445 c13f de90 997a 9932 c8bf
00000220: 7288 bd2b a963 d6bf ef14 c3e1 5d02 ce3f
00000230: 1399 9025 9e11 d73f 5e3b 35e7 9b18 9abf
0.206260298504938 -0.2782641308905345 -0.2928525547942123 0.2662237605097991 -0.020260260891161872 -0.05367024948030508 0.23935978890152115 0.06635316269268579
-0.4856934506480409 0.0026084041473599033 -0.1055903765339035 0.09976111495923455 -0.007182098680149756 -0.13508365062281083 -0.0005367193382818375 0.01994431796502842
-0.035047056378880205 -0.04188979596581914 0.08322575128740015 0.058423052923301556 -0.1458140374889339 0.028286147826254854 0.12895468636352758 -0.43983358237783443
-0.3485437916870464 0.2452143964113445 -0.08631406855259197 -0.10152897896772031 -0.23242012574534834 -0.14999880287019807 -0.09477802498791416 -0.17487137427325697
-0.19916518048110582 0.002044440070061878 0.181958768113483 0.3720607442130351 0.04205512138367756 -0.1434629810851038 -0.047222770416596234 0.0794158109614196
0.22701958761843788 -0.10217482370434464 -0.23177797156484173 0.09865047973430627 -0.03687397087264535 -0.06270541410956797 -0.25726816373931544 0.23788674389236533
0.36460355608261685 -0.2010826963451362 -0.20525856513102295 0.24002756806343867 -0.16210138226507873 -0.029301828389832623 -0.21192314659121322 0.3097081073169554
-0.20894887161956713 0.2730868260203416 -0.4309940692382594 -0.3038928800514312 0.16614587137382428 0.37364679125991684 0.15264269727198101 -0.060767581368916856
0.012252362137820855 -0.12881086573528142 0.13494165227328359 -0.18904417501756304 -0.34983281394500587 0.23444722674881954 0.36045030277672757 -0.02548450087243325

lstm.weight_hh_l0 f8 [24, 6]
00000000: 5f63 0fc2 c8ad b73f 208d 9910 d14e a9bf
00000010: 113f bf39 c826 af3f efac f610 1c17 9dbf
00000020: a725 2f65 6ac8 bc3f fcb7 ddf2 dd0c b03f
00000030: 4c9e 8f9d ac71 c53f c86c 5a8c 95e4 d4bf
00000040: 6b03 0362 8bd5 95bf c6a5 e341 89f2 c7bf
00000050: a1f1 8ea8 e94d bebf cfa4 51f3 0c85 81bf
00000060: de3d feb2 e285 ae3f 340a 3681 2706 8a3f
00000070: b552 f56c b649 c0bf 9dcf 9771 16a0 b53f
00000080: 5492 510a 3257 c1bf a6d4 e965 b10d bfbf
00000090: b7d8 391d 3cc7 5c3f 2ddb 1160 8c85 7cbf
000000a0: 9b67 5f66 e543 a6bf a2a7 4dae e6f7 943f
000000b0: 2a0c 1e25 ede7 a53f d8d4 045c 73b0 943f
000000c0: 68b3 d9a6 fc6a 943f 6ce1 bbb3 d4ba 9a3f
000000d0: f9ff a021 118f b4bf de06 62eb d0bb bd3f
000000e0: 40b8 5b86 85e6 bcbf 40e0 af0d 614e 943f
000000f0: 925a e530 49f5 b7bf ee0f 9eb4 72a4 b13f
00000100: b324 dbca 250b a7bf 5a2a 360f 9067 8ebf
00000110: 7d74 fc49 ab53 c63f 6b6c 0958 14cc b33f
00000120: 4203 0619 5bb1 a7bf 58d5 c9f2 cfc5 1c3f
00000130: 19df 09bd 4f65 5bbf 88bc 980f f5b6 68bf
00000140: 7f42 989b 8e74 90bf 6261 5bbe 16ad 6d3f
00000150: 2a0e 78be 79e8 b43f b8a9 9473 4b05 c43f
00000160: be16 e77e f413 b93f 4fe3 b1f8 602b bcbf
00000170: 822e 4221 800f 90bf d993 43f4 b1c2 a03f
00000180: d9cc baeb 8a87 a9bf cc3c 680c 8ebd b2bf
00000190: d5b2 5210 11c1 cbbf f167 e562 7619 bb3f
000001a0: 005b 6f43 0078 d03f 601e 3dd9 0437 c3bf
000001b0: 3d85 04f3 b00c 29bf 3989 a84f ac1b 963f
000001c0: 0509 e191 2d73 a3bf 1ccf bc35 4c6a 8f3f
000001d0: f765 f5cf e587 5e3f eb97 d750 9186 733f
000001e0: c00c 2532 c17b 8a3f 3e32 5a99 42fa a03f
000001f0: 0eae 4574 a6ca 97bf 2277 db68 870c acbf
00000200: 7b0a fd17 c858 77bf 2485 535c beaf 8b3f
00000210: 0d1d 4b82 a440 96bf f5ed 98b9 b74b a33f
00000220: 8021 11b9 baf1 983f 9e50 656f a86a 893f
00000230: 3ea2 94c4 99f4 b8bf f222 2c8e b3e8 ab3f
00000240: 47e8 1cf2 e58f 8abf 2aa9 0e40 e213 a73f
00000250: 6301 3966 1a46 cc3f 1e4a 92fc b40b c33f
00000260: 8f25 a1ca dab1 ccbf eebf 7d82 24e2 c2bf
00000270: b474 554d 9bd6 ba3f 8075 2b67 1185 4d3f
00000280: e846 a00e a2da d3bf 8492 a316 ca28 b43f
00000290: 715a 0a33 c156 993f 501c 0c66 28f5 a6bf
000002a0: acca 7302 c6c7 82bf d5b0 158c ce65 d13f
000002b0: 59f1 d89e 1210 b03f 7e5f 1dd4 5abf a23f
000002c0: 439c 95d0 7c28 b33f 6aac 155d effe b43f
000002d0: f2d0 0773 5049 93bf 135e b95b 5641 a43f
000002e0: b4c4 2e92 430a 943f d5b5 9ae6 75f9 b9bf
000002f0: 46a1 8d87 15ba d73f bb76 0b86 4f9e c83f
00000300: 3d64 b71d e9f0 c03f d081 2fbe 8be8 ca3f
00000310: d861 c2d9 2545 cbbf 0450 ccb8 c53b b8bf
00000320: cb1f 6a46 ebdc bebf b8f5 e960 7c68 a9bf
00000330: 712f c7d0 8ff2 b2bf e490 3602 6524 b53f
00000340: 591b 8dfe 4874 c63f 91e0 aff6 8857 dfbf
00000350: 2648 cdc1 d002 a63f 597b 6082 db12 cd3f
00000360: 83d5 fe0c 03bc bb3f 7864 a4ca 0083 ba3f
00000370: 5439 27e9 1711 88bf a24a a7b0 6c13 bd3f
00000380: 667c ec27 4c47 b43f db4d 7fd2 7a0e 7a3f
00000390: 8261 08dd d554 babf f397 3465 d69e b93f
000003a0: 4a91 30a4 591a 92bf 69a1 34f5 25fc b23f
000003b0: a8ad 3782 7ded d33f bf0a 2c36 e002 a83f
000003c0: 45f2 ba3d 7296 cebf 7b35 ec51 2b2c 983f
000003d0: 6f13 4b0b e440 d4bf 93d1 ca5e 45b8 b9bf
000003e0: 2ded 315b cc2d b6bf 2976 3cb5 bc48 c8bf
000003f0: 7340 1f28 e82c 6b3f 6905 2f1b fc22 783f
00000400: ff73 b4b1 4d45 a3bf 3bb3 75de 5845 b73f
00000410: 6830 da88 7257 afbf 72a5 ed65 c788 8bbf
00000420: 6e46 5b0e 7e94 a03f 97fa 16d5 28e8 a73f
00000430: cf27 e34e 6dc7 743f 5f4e 6ae5 2cbb 9c3f
00000440: ded3 8633 c023 c3bf 61fb 01e1 5db8 b5bf
00000450: 9688 a849 d508 643f b4c5 528f 178f b23f
00000460: 30cc 7d6f 8c9b c7bf a51d 3da1 25ad 92bf
00000470: 5c89 e5a8 7d6d c13f e058 24a3 6609 c43f
0.0924954866199079 -0.04942944839128871 0.060842759179307156 -0.028408468757032897 0.11243309946362122 0.0626963346419131 0.1675315636959901 -0.32645167070741055
-0.021322419984019996 -0.18708911626099062 -0.11837635388559999 -0.00855455510664385 0.05961521563505888 0.012707050924977904 -0.12724953003148234 0.08447399400011908
-0.13547349456634328 -0.1213026880085005 0.001756485657919122 -0.006963299122722683 -0.0434867560831684 0.02047691763747362 0.04278508260815557 0.020204355708490634
0.019939372714748244 0.02610332819946974 -0.08030802794473847 0.11614709612515692 -0.11289248018485498 0.019830242596043712 -0.09358651584384806 0.06891552838902701
-0.045006924641321965 -0.014845967735500998 0.17442837822537519 0.07733275555931278 -0.04627499275648585 0.00010975915638219058 -0.001672103757440929 -0.0030169283243349256
-0.016069629904509327 0.0036225742540915576 0.0816722955715298 0.1564115824088057 0.09796074007234787 -0.11003690787937369 -0.015684129743517967 0.03273540598619435
-0.04986223342475577 -0.07320487788114177 -0.21682942673705577 0.10585727610069263 0.25732428155372133 -0.15011654479370673 -0.0001911130907581801 0.021589939462623085
-0.03798811345815704 0.015339465513171606 0.0018634552250972305 0.0047670055769 0.012931355803294742 0.03315933343865084 -0.02323398670834647 -0.0547830882548921
-0.005699903121981205 0.013518798058103139 -0.021730966999510538 0.03768705502121953 0.024359624429310056 0.01241046514466176 -0.0974823098118884 0.054509745698004056
-0.012969776583862237 0.045073576278200925 0.22088937751142187 0.14879476864423763 -0.22417769330995127 -0.1475263249553786 0.10483713758499641 0.0009008727050418414
-0.31021930149391475 0.07874739697178695 0.024745005359898934 -0.044839155632921845 -0.00917010016425953 0.27183879547261586 0.06274525049315595 0.03661617125788917
0.07483654110329589 0.0820149996049381 -0.018834359188944334 0.03956098432234625 0.019570403859408628 -0.10146271591175744 0.37073267209645555 0.19233125729708953
0.13235200835222996 0.21022173677830702 -0.2130477250364169 -0.09466205369636788 -0.12055845707993666 -0.04962528880148959 -0.07401369902725975 0.08258658699066107
0.17542374066598646 -0.48971771326569874 0.04299023023362762 0.2271379839521284 0.10833758418342225 0.10356144854849159 -0.011751353075763284 0.11357764542416729
0.07921291327191823 0.006361465238984699 -0.10285698553378178 0.1000799176295855 -0.01767864288935187 0.07415997730698155 0.31137025562812903 0.046896940815732695
-0.23896625532315077 0.023605992198147057 -0.31646061995370806 -0.10046800197853249 -0.08663632608834311 -0.1897197613661075 0.003317311698062092 0.005892739095487578
-0.03763811868905264 0.09090190344950326 -0.061214045720675625 -0.013444478796105417 0.03238290715456747 0.046693111431058636 0.005073000893569059 0.02805776739348997
-0.1495285274119444 -0.0848444628081615 0.0024456182266173283 0.07249591111283032 -0.18443446582713952 -0.01823862835524683 0.13615389582543969 0.15653689351956412

lstm.bias_ih_l0 f8 [24]
00000000: eae3 03a1 27f7 c93f f15b 44d9 cbe9 d9bf
00000010: 93f7 9b22 d393 a63f e241 eb5b 2226 bcbf
00000020: a40f e9ee f783 d13f 622c d54d 249b c23f
00000030: 5614 c130 58d9 b83f 041a d3eb 64c8 d1bf
00000040: 63f5 17fc e8d8 c23f 3f3c c63c ca9c d1bf
00000050: 514e d2fc bc11 a53f 1345 665a 28f6 cf3f
00000060: b4bf e7b5 244a b33f ee35 a089 f310 d1bf
00000070: 513d 6bd9 c85f c73f dd44 d7cb 0534 d3bf
00000080: c13f da46 f76b a9bf c92d 4e77 2187 b33f
00000090: 085c 1c7e b447 cb3f 8c43 3e01 ddfa b1bf
000000a0: bdb4 b179 f40c dabf 7625 79cf 272e c23f
000000b0: 1ca2 3344 5ec3 90bf 5cd4 4ff0 c879 d5bf
0.20285506593771113 -0.40489479272349543 0.044096563315164115 -0.10995688194385125 0.2736797173604322 0.14535955238747805 0.09706641378677835 -0.2778560927366984
0.14724457082040052 -0.27519470152850894 0.0411509569759373 0.2496996346858756 0.07535008851095776 -0.2666596263887574 0.18261061302335205 -0.3000502100595222
-0.04965183963679421 0.07628068125466493 0.21312576444390197 -0.07023412018157965 -0.407040709344823 0.14203355436829285 -0.01637027064581008 -0.33555816142990635

lstm.bias_hh_l0 f8 [24]
00000000: 6237 4018 8d39 b1bf 8352 cfc1 aa88 6c3f
00000010: 1075 15db 9db1 d03f 9fc4 eb67 6ab1 cd3f
00000020: c56d a6c2 c2a1 adbf 0d4c c539 827d cf3f
00000030: 01d6 f1b1 fe08 b53f d3ba f661 0eec c83f
00000040: 708d dbe6 baef d5bf 4ee0 3c8a 744d 9fbf
00000050: add2 f309 5c43 b4bf b675 1f89 9558 b7bf
00000060: a4ce 4a6a 7c76 c8bf 0b5f 56f6 b71d b4bf
00000070: 85cd fc81 21ef d33f e55d c59a 5901 b93f
00000080: 808d c45d 9ae2 d5bf 2d09 eaeb 9403 ccbf
00000090: f5c9 3966 1387 cbbf 89eb 0c6e 003b a93f
000000a0: c283 1047 22a1 72bf 6987 5739 1b25 c2bf
000000b0: ceed 82c8 18f3 c5bf 8073 473b a6f3 c53f
-0.0672844108778157 0.0034831366633432683 0.2608408584108739 0.23197679590478956 -0.05787476183032995 0.24601772137484126 0.0821685013232454 0.19470386298549744
-0.34275696320238236 -0.03056890577065046 -0.07915282481173831 -0.09119543645598224 -0.19111590566682424 -0.07857846988769894 0.31147039121716374 0.09767684963787067
-0.34195574910173576 -0.21885930556533975 -0.21505968562594516 0.049278272088904514 -0.004548200508936286 -0.14175739574335047 -0.17148122587774 0.1714980878304253

linear.weight f8 [2, 6]
00000000: 5e83 e463 9207 d0bf 0e55 1249 3633 a5bf
00000010: b301 fa70 f759 d0bf 48d5 01cb bdf8 9a3f
00000020: 8cb7 e0a8 e68a 75bf de5a 1fa3 592d b7bf
00000030: e359 e94a ddc5 c53f a0aa 9baf c29a d2bf
00000040: 2875 d806 0043 d43f 28d7 d2c4 abc2 bb3f
00000050: 8efb 8837 1a29 c13f 9bee 2ffc 3528 d63f
-0.2504621482385597 -0.04140634195315772 -0.2554911235129353 0.026339498057912608 -0.0052594194549281485 -0.09053573830110959 0.1701008430270142 -0.2906958308146077
0.31658936184415376 0.10843919329894602 0.13406684600519408 0.346204277302357

linear.bias f8 [2]
00000000: 567f da80 e69b 963f fad3 7e91 29b7 9fbf
0.022079087843507615 -0.03097214651616651
