Ventil_trained_NNs/OR_GRU_ws0.pth (torch, 8361 bytes, 14 tensors)

GRU.weight_ih_l0 f8 [18, 3]
00000000: 1ef5 9edd b208 d03f 007a e38d f4cb bebf
00000010: 7988 a2f7 9e53 e4bf a524 ccdb d5ed b43f
00000020: decb 2534 ccaf 833f 6c0f 65f1 19e0 d7bf
00000030: c7d7 5f7d f499 db3f 9b73 47b8 e182 d03f
00000040: d0dc 7cd1 18f4 ccbf 3d89 8435 f1b0 e2bf
00000050: b10c 6d7f 241f de3f ed1e 090b 920a e1bf
00000060: f9eb 2a16 b926 d03f a4d8 c7ed 2ae4 ca3f
00000070: 6a7a d3bb dd89 da3f 203b d99c 3cff c73f
00000080: 64a1 3112 90c1 d3bf db8d 2079 ec0a cabf
00000090: 6601 fa74 04f6 c8bf 1d5a 95fa 68cf c1bf
000000a0: cb05 b01e 56ba c6bf 0df9 d479 70b0 df3f
000000b0: 16ff a0e2 e518 e73f ab83 665d 8652 e73f
000000c0: 70f5 cd15 6a65 f03f 3fe5 715f 3044 cb3f
000000d0: 1d21 7e7f f8a3 d03f 0972 cc6a cef7 d1bf
000000e0: c451 3dd6 f464 c0bf bffb 4462 8adc c13f
000000f0: 30b8 5826 de21 e6bf 6dff 4dcd ba2a d7bf
00000100: 2cff 5992 e5b2 c7bf 0cbe 5fd4 a22b e3bf
00000110: a0aa 1fd4 6311 c63f 9f91 7bcf 02c0 dcbf
00000120: bfe6 7103 075a d0bf a4f6 81fb ecd5 e23f
00000130: 2c30 9127 1192 cd3f 0f5c 5419 3370 d63f
00000140: f7a0 19f6 85d3 ba3f 0fa1 ae9f a497 e13f
00000150: 6b38 b02b 5c0e dcbf 5c7c dcc6 2315 e5bf
00000160: c03e 1e01 ad0e 9b3f 7906 5758 fa98 e53f
00000170: f030 d5b9 4e9e c73f 0a2c 8a24 0c13 d33f
00000180: 4d26 9798 f5b8 d33f b178 e569 d17d d23f
00000190: 97a3 529c 6fdc d9bf 454c c013 5e09 d2bf
000001a0: 7bf5 a7a2 377e aa3f 5bcd e69d 7b48 d63f
0.25053092615765304 -0.12029961074902218 -0.6352076374644319 0.08175407997272773 0.009612651196880092 -0.37305306028087304 0.431271669803547 0.25798838611609093
-0.22619924763578192 -0.5840993924396468 0.4706507915872847 -0.5325403419055569 0.2523634640198789 0.21008812532790444 0.41466468183890604 0.18747670801754968
-0.30868913437600143 -0.20345836557781535 -0.19500785552737482 -0.13914215312497982 -0.17756153582017328 0.49514400384568164 0.7217893053384354 0.728823835776088
1.0247593738307295 0.21301846180339543 0.26000797701319006 -0.28074989728500604 -0.1280809446422052 0.1395428638297442 -0.691634249587656 -0.3619830136230949
-0.18514699598380824 -0.599076666634518 0.17240569932558447 -0.44921942007047194 -0.25549483620089214 0.5886139786013769 0.2310201113890583 0.350598120437497
0.1047900892095902 0.5497611159126182 -0.43837646738473407 -0.6588305362710218 0.02642317122768989 0.6749240613355162 0.18451866220346558 0.2980375630219788
0.3081640234127903 0.28892932263796484 -0.4040793444242409 -0.28182174614739025 0.05174421177432983 0.3481740037925271

GRU.weight_hh_l0 f8 [18, 6]
00000000: 99d0 8616 3e4f cbbf 71b2 9fd2 65f8 e6bf
00000010: 6890 65ce bbf9 ae3f ac5b 127b e4dd cfbf
00000020: 3cc5 9906 c3a0 dc3f b36d b071 ff91 cc3f
00000030: 575c d3bb 0bde b63f 7e5d 90e6 c9b7 f6bf
00000040: 7f96 8322 69ff f5bf 093d 3eec c867 00c0
00000050: 5d78 537e 4378 ee3f e8d4 beca 9408 ebbf
00000060: 7894 4a70 3d30 db3f 7635 e68d d2d9 d3bf
00000070: 5132 8b8a 2caa e5bf 03d2 7287 d01c d13f
00000080: 7264 96f8 a528 bfbf a100 b56b 568c c3bf
00000090: 2384 4cf7 25a2 e03f 4afd 5d75 31f4 f2bf
000000a0: 9524 c8ab 9029 f3bf ab5e 7cc9 9156 04c0
000000b0: 45cb f37b 2335 c13f 2921 1bb6 cee1 dcbf
000000c0: a8cb ad6a f04a d9bf 3752 ca0c 39d1 dfbf
000000d0: f91a 89ab 1513 eabf 1ffa 4a0a 87c3 d13f
000000e0: 3ecf c3b8 d94b c83f c6bb a0d2 f21f dbbf
000000f0: f801 aaed 1538 ab3f 0bdc 62de 306c c0bf
00000100: 2df2 3eb1 0c16 a0bf 85b5 3b06 8531 d8bf
00000110: cd11 d01e bb55 e03f 5e41 7c23 031c ca3f
00000120: f689 94b6 0a73 a03f c58e 46a6 18be ecbf
00000130: 3f22 0a68 2e8c b03f ccb2 c5c7 b564 e6bf
00000140: 6a8f 88d5 c276 ac3f ae5e 1def 6f01 d43f
00000150: 214f 5bca 0ee5 d53f 13e3 8726 d4fc ec3f
00000160: 1ebd 0406 8486 f03f a561 7d5d b4a1 ee3f
00000170: 1304 b755 9a03 e53f a22f 2d27 3fc6 dabf
00000180: d88f fd38 5709 dabf 75f0 13bd d900 e33f
00000190: 8a32 30fa c5fe f03f 33a2 ec50 5f9c e33f
000001a0: 261e 9376 4cf2 fd3f 3d80 1c70 ca1c dc3f
000001b0: 1b23 4ab0 753a dbbf 32f7 ffbd 7f9c cfbf
000001c0: 1324 104f c976 e33f 1700 6075 46f7 d33f
000001d0: 21e0 9fd6 8b0a e83f c9d6 47c9 5aaa 9c3f
000001e0: 43e1 8b49 9635 c6bf 6c04 62ea ef97 f23f
000001f0: 8729 a500 be85 f53f b109 4913 5303 a6bf
00000200: 7b5a 8eee aac1 a03f bd64 a2f1 357d d43f
00000210: 416f 4545 cb3b 8c3f d6eb 424d d6d1 d2bf
00000220: 1190 a230 2c85 babf 2362 4394 3257 ecbf
00000230: 347b 5c6c 4d33 c23f 01b3 8141 3ec0 cebf
00000240: 827f f1ca 9adb 9ebf 2848 f925 5bd1 c73f
00000250: 2a45 bce2 f4c9 d1bf 4bf5 72b6 fff1 c1bf
00000260: 2db0 26ab 291c debf 030e c209 fd5a d93f
00000270: 699c b740 7c10 c53f 8672 7a3f 9e60 ec3f
00000280: 6eeb cd0e 45ad f63f 4796 32d5 4811 eb3f
00000290: eb3d 4a7a 20a7 ccbf dbf5 8efd 7a6f df3f
000002a0: 7d41 6a4d 8031 e3bf b286 a240 ba7f 803f
000002b0: db3e 1113 57cb 9c3f 250c 45bf 8ff6 dabf
000002c0: 7f88 42ca 717f d3bf 9dfa 70e8 f726 d33f
000002d0: 7b04 e661 dbc9 c43f c98a 20d2 2ddc ee3f
000002e0: c0a2 9428 1df4 b03f 90b7 9ccf ad90 e93f
000002f0: 5301 7685 c32e d13f 8b4b 5231 8951 bbbf
00000300: e2be 0819 a46c bf3f 7a16 3597 9ed4 bc3f
00000310: e139 d5f6 32a5 c43f 4fa5 a1f6 9b04 d63f
00000320: 0e1e cada 556e e13f 67c3 f33f 11a0 aa3f
00000330: 8044 538d dcc8 c43f 9b1c 0b97 138d d63f
00000340: 529e f533 6793 d83f 6bb5 f05d 216c ccbf
00000350: 6454 3f13 5932 d3bf d0b4 9018 4841 b4bf
-0.21335579013760222 -0.7178219903704087 0.060499066300310045 -0.2489591217933741 0.4473121227702739 0.2232055001376075 0.08932565055452933 -1.4198702818301565
-1.3748561237529484 -2.0506761986249598 0.9521806208902138 -0.8447975120422173 0.42481933561277385 -0.3101698289618392 -0.6770231920177797 0.26738370158571473
-0.12171399420766862 -0.15272026309140066 0.5197934942299337 -1.1846174797681948 -1.197647734663666 -2.5422702542380953 0.13443416168555636 -0.45128219398295016
-0.39519892137394175 -0.49714494942716975 -0.8148296690277156 0.2775590515629193 0.18981477281305986 -0.4238249833023783 0.05316227461026196 -0.12830172404002868
-0.03141822494169264 -0.37802243813242625 0.5104652025043436 0.20397986633953286 0.032127699649453875 -0.8982051131792664 0.06463899650601322 -0.6997937108804648
0.055593575063794656 0.31258772231147247 0.34210557710069806 0.9058628799967628 1.0328407511804651 0.9572393251392454 0.656689803516317 -0.41835001779394976
-0.4068201118991488 0.5938538258483407 1.0622005246142714 0.6128384190133772 1.8716549522231474 0.43925724933979265 -0.4254430982187373 -0.24696347024285498
0.6082502884102062 0.3119674822082756 0.7512873832592996 0.02799360135573784 -0.1735103472817717 1.16209403568089 1.3451519036485438 -0.042994114021456815
0.0327275673109186 0.320142255755467 0.013785923053255213 -0.294057441187474 -0.10359455287340348 -0.8856442352071706 0.14219062605931188 -0.24024179647985736
-0.030134600292853538 0.18607653955638281 -0.27795145170337554 -0.14019771965642244 -0.4704689189336502 0.3961784930508829 0.1645655933382131 0.8867942085085623
1.4173021868034215 0.8458599246993764 -0.22385030718986285 0.4911792255550986 -0.5997926246655393 0.008056120965480449 0.028119431055812476 -0.4212989204281164
-0.3046535945123949 0.29925344180439045 0.1624101856250809 0.9643773178143756 0.06622488251435765 0.7989110045361816 0.26847923310562755 -0.10671288923394522
0.12275148020921337 0.11261931602083478 0.16129147579563521 0.34403132519817786 0.5447186730606874 0.052002467209496576 0.16237980747840552 0.35236062765438597
0.38399677347340344 -0.2220498760884014 -0.2999479949915609 -0.07912111854303139

GRU.bias_ih_l0 f8 [18]
00000000: 3e3c e416 7ad7 aebf 6b44 a5eb e8ca c93f
00000010: 9770 76e8 6534 b93f 8d03 14bc 651d d13f
00000020: 8b12 9a0e 54fc cc3f 348b 6773 572c d13f
00000030: 7b53 11db 1cb9 e1bf e2c4 7ed0 a760 d6bf
00000040: 4ac7 068d c9c3 dc3f aea0 e830 a0fe d63f
00000050: 392f b143 910e b0bf 8f7f bb74 6413 cf3f
00000060: 38cf d6e3 15b5 c23f 9c28 bcf8 5197 babf
00000070: 1a4f 7921 3b72 dfbf afc3 d19c 3da9 d13f
00000080: 1ae1 43a7 a591 c3bf 72df d102 d04f d1bf
-0.06023770837247654 0.2015048170674477 0.09845578122480202 0.2674192749691933 0.2264504500673364 0.26833139677016793 -0.5538467672982813 -0.3496493850789887
0.4494499089442924 0.3592911222099343 -0.06272228148116889 0.24277930927109678 0.1461512911315539 -0.10387146303779321 -0.4913471056836315 0.27595463098901524
-0.1528822962498076 -0.2704963710343612

GRU.bias_hh_l0 f8 [18]
00000000: 8871 f6d8 8255 c03f d7b1 39f9 0038 c13f
00000010: b7fb 08c6 a997 e53f 464e 34ce af9e c8bf
00000020: 075b 6d43 d66d a53f 7d50 5742 9658 cc3f
00000030: 3596 2145 e4ce acbf e0b6 09b7 0e3a a5bf
00000040: 081f abbe 767c dd3f 3805 4577 6e32 a33f
00000050: f96e d0e7 1722 d63f 9693 9e2e c39c d73f
00000060: f7c6 62b2 8f7f 94bf 44a4 418d a8eb e4bf
00000070: 2211 d224 156e e3bf b209 0d8e 90d6 d1bf
00000080: d2f8 045e 4ba2 c7bf d33c 1875 45d4 cebf
0.12760959237938274 0.13452160042960656 0.6747635715363377 -0.1923427349907902 0.04185361455045294 0.22145345916090156 -0.056265958250872584 -0.0414585684237474
0.4607216703411585 0.03749413686683528 0.3458308948336107 0.3689430194156612 -0.020017857802208074 -0.6537668951906501 -0.6071878165389857 -0.2787209880081277
-0.18464033213417125 -0.24085300652993755

GRU.weight_ih_l1 f8 [18, 6]
00000000: 9dd7 fc2e a3c6 debf cf81 a659 a5a9 ddbf
00000010: a470 d27b f149 c6bf 0164 7a10 4e13 e2bf
00000020: fcc8 3faa 251e d0bf 9fd0 b6b7 6c6b c33f
00000030: b876 66cf 324e c6bf 027e 27d9 14fb e2bf
00000040: f469 d000 f821 e23f f297 6a71 83d3 b0bf
00000050: 6233 d150 7937 dcbf 5af1 03fc 293f a23f
00000060: 5b2a f3d8 519e e4bf 32fd ded2 efde ae3f
00000070: 1248 5980 ca6c e5bf ae99 c932 4608 cabf
00000080: 78a7 1841 3a67 bebf b673 0896 ec5b bd3f
00000090: c540 c480 cb90 9ebf 2c35 8655 87bf cfbf
000000a0: 2bc8 661f 092b ca3f f6a0 c18b 8807 cd3f
000000b0: 9ff6 fcdd cbfe dbbf 464a 2f23 eb2b c53f
000000c0: 2354 1bc5 7e1d e03f 164c a6a9 bdb4 d73f
000000d0: 941f cd9e 34cf 9e3f 8d97 7c25 cba9 d83f
000000e0: a868 bc71 0acd 883f 541d bcc1 ec6f df3f
000000f0: 6e2e 3030 fa7f d5bf 6c1b 4777 303f ccbf
00000100: 2d86 46be c89b d83f 82e3 d9e2 6051 c9bf
00000110: dd5c d9eb 5f47 da3f 01d3 c740 6176 cb3f
00000120: cd8c 9e73 7a79 c3bf 5156 a9cf 197c e43f
00000130: ba7d 01c7 d346 cabf fce7 3775 f3b5 bb3f
00000140: f53e 4943 c526 bcbf 40f6 7dc6 07f9 c13f
00000150: 1d78 6512 6496 e0bf c4e8 e2e0 1dce ef3f
00000160: 970d 08e9 3722 ee3f 785f 6531 479c d93f
00000170: d140 1ad7 b5ee e0bf 305f 13b6 fdb7 e43f
00000180: 268b 0b90 e176 c73f 40b6 2d1d a690 cf3f
00000190: f696 77d8 69be afbf 979f 24ed 4bd8 d63f
000001a0: 0589 2e4d 84db e73f 1e8c c33a ac0c dbbf
000001b0: 3a9a a917 eb28 d0bf 4373 ddd7 fa8f e13f
000001c0: d1ba 7254 c5aa e03f 632c e6b2 9a85 d83f
000001d0: 1aa2 5a49 57ec eabf 0740 6cbf de2a cb3f
000001e0: 84ac 3d2d bfdd e03f 169a 912f 60b9 e5bf
000001f0: fe85 abb6 803d debf 21e6 6837 b543 f0bf
00000200: 585a a7a4 4a13 d6bf 0755 9490 a15c d3bf
00000210: 4e31 2518 d011 c23f 323b 5f28 95ad adbf
00000220: cc06 effe 1f27 d0bf 3881 213e 467d bcbf
00000230: 3c53 d3a0 7d60 dc3f 7c1f 2d24 5101 ac3f
00000240: d54f 3e04 b09d db3f 079f 0c27 fb29 c7bf
00000250: 1133 02dd 3789 9c3f dab6 d490 f839 cfbf
00000260: 9298 fd7f fb7a cebf 12ef 6364 eac9 d13f
00000270: 0537 574c ff98 dbbf 9ea2 9837 73ec 813f
00000280: dc5b 05b1 95d7 b03f cd1f d689 ffed bbbf
00000290: 6b9a 4a04 5588 dfbf 424b 0741 61c4 b93f
000002a0: a102 41a2 d184 de3f dd7d 48e0 2a93 cabf
000002b0: c2dc af1a da17 d93f 5b0d f873 7577 c1bf
000002c0: 1a6a 4a3d 90d8 d6bf b343 9693 4be6 d3bf
000002d0: cea6 e286 8b6d 973f cb13 78f9 cc53 b9bf
000002e0: 73fc 968b e61d d6bf e3bf 76f5 0b1c d3bf
000002f0: f429 6fb4 5df1 f03f f044 d870 cc00 d0bf
00000300: 0033 cd02 0b66 de3f 83da 97ec a6fd dd3f
00000310: 0f81 6b72 e5e2 cd3f ba3b 53dc 0db5 813f
00000320: 6d94 4af4 86cb 933f 99dc 556f ee25 d83f
00000330: baf8 f6a9 1b77 d5bf b483 cb4b 368f d7bf
00000340: af30 55ba b8d8 cd3f 3e88 e959 2fab 9e3f
00000350: 1126 123b 154e cabf 3d17 b9ac 37cb c03f
-0.4808738669265667 -0.46347936396526007 -0.1741315703010332 -0.5648565599286713 -0.25184003473181327 0.15171584101120048 -0.17426142813649448 -0.5931495896620052
0.5666465774441449 -0.06572743910746207 -0.440885857508695 0.035638153089140714 -0.6443261372854282 0.06029462288960942 -0.6695301539241447 -0.20337750892504175
-0.11876262749924915 0.11468390143313809 -0.029849223837175715 -0.24803249050129617 0.20443834336544006 0.2267924005893815 -0.43742653540162196 0.16540278642658474
0.5036004876843702 0.37040654723495103 0.03008730143781653 0.3853633752900059 0.012109834285684976 0.49120634955803166 -0.33593611436729176 -0.22067838501080972
0.38450831014242476 -0.19779597355571005 0.41060636551033075 0.21455016768563698 -0.152144724325899 0.6401490264785911 -0.20528647629815372 0.10824510204102461
-0.10996659176566566 0.14041230384821013 -0.5183582648567185 0.9939107315360833 0.9416770507236149 0.4001634580977149 -0.5291394425603589 0.6474598461308911
0.1833154633851219 0.24660183357939225 -0.06199961440488082 0.35695169600011795 0.7455464847046477 -0.42264848459871185 -0.2524974566535182 0.5488256660570204
0.5208460473421274 0.3831545588552158 -0.841350215215303 0.21224579188174195 0.5270686992274851 -0.6788788727834028 -0.4725038322340821 -1.0165302433437164
-0.3449274642893321 -0.30252875441631527 0.1411686056038754 -0.05796495549986104 -0.2523879994952096 -0.11128653542391909 0.443389327102796 0.0546975475941158
0.43149948515315134 -0.18096866041855028 0.027867195953649452 -0.24395663329908396 -0.23812812566319913 0.2779489498495745 -0.4312132115854726 0.008751773962175687
0.06578956195640678 -0.10910031428477325 -0.4926960508259188 0.10065276944741888 0.4768566212187953 -0.20761619521452604 0.39208080869816453 -0.13645809328600475
-0.3569679831067859 -0.31093110478200997 0.022878818614720235 -0.09893494692376163 -0.34557498580756557 -0.29858683558540927 1.0589272545063269 -0.25004874248504816
0.4749782111510257 0.4686066923599485 0.23348682486449276 0.008646114622392054 0.019331082020148594 0.37731514809224503 -0.33539477918737826 -0.3681159725365959
0.2331763181522368 0.02994989382057888 -0.2055079019958588 0.13120170530071987

GRU.weight_hh_l1 f8 [18, 6]
00000000: 7d45 0251 0969 e63f 3698 0224 9964 d03f
00000010: a9fb 7f41 442b b03f 1054 f753 6179 e2bf
00000020: 6a8b 9ec3 fb1a b93f 7e43 5e81 0db4 cbbf
00000030: ba0b 5c12 4155 db3f 8df2 4466 3000 d63f
00000040: 758d d726 fbc7 da3f f919 5d21 f44c b83f
00000050: 3f27 bbc8 fcd1 b83f 6efa b300 2c3e d23f
00000060: 2990 9691 e995 b63f 1d90 75c6 f389 c5bf
00000070: f88a e877 d809 ab3f c894 8b1e c708 c13f
00000080: ab5c e573 6e02 dabf c36a 199f ddea d2bf
00000090: b91c 5746 1638 d43f 83d7 00e6 a0d1 c73f
000000a0: acdc 8b03 be88 af3f df17 1787 94fa c6bf
000000b0: 4fdb d117 5f3e e7bf 794d b5d5 a09a d73f
000000c0: 6cca d67f 05fc 9f3f 39f6 fbf5 9fa2 d2bf
000000d0: 5f34 6b7a bc24 8dbf 89a7 5107 9d60 b1bf
000000e0: 3090 f4d6 317d d03f 4893 f017 cefc cdbf
000000f0: 56d7 c52d 26bb d73f 6e9a a326 86a4 af3f
00000100: f5ff bf64 8844 b63f 7de9 ce8b b028 babf
00000110: 48cc 299c 3d5a b8bf f007 5185 da77 e1bf
00000120: c530 63cb ddd5 d1bf 0e33 2575 8a7c b5bf
00000130: 0ed9 1fcf de42 713f 67b6 8ac6 bb6f e1bf
00000140: c63e 1384 eabf ec3f 1ebf 063a b0bd a1bf
00000150: 9470 1c03 f2d4 d33f ad77 5207 f3d8 d43f
00000160: 31b6 c11b 6fc0 cf3f 9977 8c5a bee5 f2bf
00000170: b1e6 36dd 7755 0340 4d09 1a1f a678 ae3f
00000180: ac5b a42f d57f d1bf da93 0e7a eab3 c2bf
00000190: 6341 7e32 6ab4 e7bf 7c41 e294 2b6a c0bf
000001a0: 59ef 7c77 de5e fe3f d76d 726b 8971 d3bf
000001b0: 2755 268d e472 d0bf a3ab e12e f348 de3f
000001c0: 35e3 8938 43f8 c7bf 6e9c c198 0ed5 eebf
000001d0: aef5 e2dd b940 0040 b29f 9a50 3320 c53f
000001e0: 13fb 05f3 4e58 cd3f 561e 5739 449c d6bf
000001f0: 67a8 5809 5951 ce3f eaba b9a7 37f5 e73f
00000200: 3f8f fc8e c972 e5bf 6b3b c315 a75d cb3f
00000210: 68d0 fc66 8872 d8bf 59be 73c1 aef3 c7bf
00000220: 4cfc 99d0 70cb dfbf 1c91 6586 d40f dc3f
00000230: 1fe2 c898 e52b b1bf 6ebf b69f 4975 d4bf
00000240: 5e93 a129 4c91 b83f 3858 f762 bc01 bcbf
00000250: 498f bf3f 1b1d d13f daa1 f833 6b68 b23f
00000260: 3260 e3cb 7c6f e13f 6b71 aa54 5839 d13f
00000270: 04b0 94e1 2e93 c4bf 43df 38e8 584f d83f
00000280: 68b3 8fa1 3dfa d23f 6a41 5cd0 a766 d6bf
00000290: 7603 9f5e ed1e 7bbf 5021 016b d6e9 d23f
000002a0: f0a1 ad85 ebac d6bf 919f 8293 7b4f d73f
000002b0: 1aab bcc8 af75 c93f 2842 43e5 56a4 e5bf
000002c0: f404 94bf 423a b7bf 0a1d 2009 5e1c d93f
000002d0: 9aef 0203 ba61 b53f 4e94 3a91 f213 d8bf
000002e0: fc30 9b10 a693 d63f 0d9f 8a81 2fcf dabf
000002f0: 400e c7ed 2984 db3f f5bb e138 af15 c03f
00000300: 64a5 f6a3 c2ea c63f 02a5 7a11 71fc d53f
00000310: 194f a008 6350 c13f 3342 6072 0b12 d3bf
00000320: fb54 e574 a061 cb3f 0366 291c ca6c bfbf
00000330: e824 d81a 195c d2bf 969c 2460 0394 d1bf
00000340: 6cd7 05ef fc16 cb3f 92f3 1a85 b17f c53f
00000350: 8a99 4640 9201 c3bf 2ba4 4304 b1b8 b7bf
0.7003218252377078 0.25614002720465423 0.06316019629592397 -0.5773169174159438 0.0980679848276346 -0.2164322740250348 0.42707850258755864 0.3437615393375289
0.418455875331538 0.09492421927016172 0.09695415402088957 0.2850446707597375 0.08822498134992486 -0.16827246847526647 0.05280949081158853 0.1330803774973559
-0.4063984042927113 -0.29558506524123745 0.3159232794682328 0.1860848544180805 0.0615901355103515 -0.17952210041238367 -0.726363703272776 0.36881276006643976
0.03123482315795416 -0.29117583295723964 -0.014230225072788536 -0.06788045338330852 0.2576412772343728 -0.23427749794896102 0.37079767675401365 0.06180209371250532
0.08698322734562665 -0.10218337453162536 -0.09512696325855174 -0.5458805660093713 -0.27867836820656705 -0.083931592559747 0.004214163158385865 -0.5448893430490899
0.8984272555917066 -0.03465033253030313 0.30987215331857354 0.32574153628399466 0.2480601201563544 -1.1810897385653105 2.41673252891345 0.05951422814998129
-0.2734272923711909 -0.14611559829532333 -0.740773295039656 -0.1282400586101281 1.8981613795758305 -0.3038047360693929 -0.25701249870447146 0.47320251062654445
-0.18726387272524794 -0.9635079368134833 2.0316045126807785 0.16504517970792915 0.2292574583661567 -0.3532877502407009 0.23685753780711424 0.7486837650193057
-0.6702621262270226 0.21379555285099214 -0.3819905286538927 -0.18712410398392157 -0.496792033874901 0.4384661972492425 -0.06707606296630118 -0.3196586665826463
0.09596706406007402 -0.10940148750464196 0.2674015162030981 0.07190580385998349 0.5448593122664589 0.26912506359237537 -0.16074167265594508 0.3798429744524478
0.2965234830615402 -0.3500155958909291 -0.0066212913752118265 0.2955223126378046 -0.3543041997386629 0.3642262402086028 0.1989040117417396 -0.6763109662807141
-0.09073273827745593 0.3923564042201667 0.08352243970415288 -0.3762175005197762 0.3527617609186249 -0.4188956036618812 0.42994163723435364 0.1256617572539366
0.17903931623485925 0.34353281695310056 0.13526571198655615 -0.29797636193783034 0.21391683299831485 -0.12275374591390435 -0.28687121984019237 -0.2746590079208969
0.21163903876339007 0.1679593944481011 -0.14848545206514202 -0.0926619182024672

GRU.bias_ih_l1 f8 [18]
00000000: cc14 404f c953 bf3f c8c0 7c27 8732 ddbf
00000010: 2284 cba9 8e3a dcbf e158 3049 d07b d73f
00000020: 7214 2f4d 1a96 babf 8f84 1bf6 8472 c6bf
00000030: 3916 d564 aa2a d2bf c016 23a1 bbfe d8bf
00000040: 68d7 f450 ddbe c73f 2e08 89f2 1a1f dabf
00000050: e673 369b 71e1 b4bf bdda 0bba 87bb a63f
00000060: 06d0 f292 f3f2 b3bf 01f4 66ba b746 b83f
00000070: cc9d 8489 b46e bc3f 964a bc2a 9f35 cd3f
00000080: 9328 8173 1a6e c2bf 6a50 743e d999 cd3f
0.12237222847768975 -0.4562089810961081 -0.44107405263463495 0.3669319834456371 -0.10385288605091761 -0.17536985413520198 -0.28385410162841 -0.39054766403237906
0.18551222279500768 -0.40814851460538903 -0.08156499900219635 0.04439949174950673 -0.07792589509591616 0.09482906628450395 0.11106422765134666 0.22819890581793761
-0.1439850868212643 0.23125758695153148

GRU.bias_hh_l1 f8 [18]
00000000: 3b0c de68 bfab b1bf edcb f735 1ec6 a7bf
00000010: 8fb7 5db6 444a d1bf 1fe2 95b0 b829 d43f
00000020: c590 1f66 a0dd d13f 9843 3604 32b0 d5bf
00000030: 059d 9214 7139 d2bf 3d75 170d 3723 abbf
00000040: 6193 21a3 f97c de3f 9ae2 554f 9f37 d7bf
00000050: 9e00 522b 0f55 da3f 9474 671d dd5c c1bf
00000060: ca45 d30b f150 97bf 74d6 78ff 51d7 c53f
00000070: 7f67 4977 01e3 c8bf 8984 2805 0044 d5bf
00000080: 009f 97c0 124d d43f 2069 adf7 96d1 ce3f
-0.06902691183317781 -0.04643339546955603 -0.27015798386752804 0.31504647488285004 0.2791520116136435 -0.3388791123516568 -0.28475596436551626 -0.0530030444603917
0.47637787752892363 -0.36276991603475894 0.41144160490513026 -0.1356464761328523 -0.022769705149419818 0.1706335542127594 -0.19442766499087935 -0.33227539542901546
0.3172041779312025 0.2407711705553277

GRU.weight_ih_l2 f8 [18, 6]
00000000: bd96 fa3e 2c9a d43f e738 5878 23f8 c1bf
00000010: f23f 6175 3b3a a3bf a433 df74 5348 e0bf
00000020: b1e3 646f 4a56 dabf c967 80ab fdb1 dfbf
00000030: 968e aae6 cb76 b9bf 981d 82fb bbe5 a2bf
00000040: 808f e316 187d d9bf ebad bd55 f1cf dcbf
00000050: d614 e12a 6bd5 d13f a23c d96f deba db3f
00000060: 2be6 5daa 18fd b53f 388b e3cd ff0c b6bf
00000070: d26a 4d11 3e43 c6bf 63a4 65bc edf9 933f
00000080: 18c8 2eb0 47bb ddbf b627 ffd8 7bf2 90bf
00000090: d21d ed7c c683 d73f be5d b956 099d babf
000000a0: e275 5046 1774 c73f 8d7b 0ba5 f3c2 debf
000000b0: e742 35fd 22b4 dc3f 300c 7073 6e16 dfbf
000000c0: 5114 d688 dd84 d83f e849 3d3b a0c5 cfbf
000000d0: a283 4903 178e d43f f76d f692 fb8b c13f
000000e0: 559a 4c46 a5e2 e0bf 5444 e012 0571 b6bf
000000f0: dfd7 ed19 c4ca d1bf c912 82a7 ffd9 70bf
00000100: 1d3e ac0c b28b d83f 4833 a21c 2ff9 c8bf
00000110: f704 db27 1e7c ccbf d1ba 4871 ddba c03f
00000120: c706 8fae 3546 ccbf 3918 d0e9 43e1 7abf
00000130: 5db4 064d 79d8 dfbf de8a 8478 686b bebf
00000140: 5e35 0bed e187 e23f f198 8956 4fa5 bb3f
00000150: 8c04 eae4 7553 ea3f 0493 8c2b 9787 acbf
00000160: 2c03 565b 878d cbbf 4911 9370 f368 e3bf
00000170: 6174 3a87 296f f93f ae67 69f8 476e d8bf
00000180: acd4 943b 975f c0bf 0e05 889f 66ca debf
00000190: 562e 7391 c454 c93f b36e 6c39 b7df a63f
000001a0: bcb6 df35 ebe0 d03f 7669 ee40 75d2 803f
000001b0: fa24 7d75 6cab e8bf 5fea 5e40 61c6 eabf
000001c0: 2c49 b76a e522 e2bf 5f9b 82cc 4f5c e63f
000001d0: e2b1 8324 8ad7 e8bf 75f3 91c6 d072 c2bf
000001e0: f866 b60d df4d cbbf 8ad0 284a 6bb8 bfbf
000001f0: 5fe3 852f d919 d4bf da96 6341 3ecf df3f
00000200: 511f 63db 6060 e03f 754a 1bbe 7469 d63f
00000210: df56 aa6a c8b0 c73f d70d 60ce 9992 a63f
00000220: 1211 a5a2 da2e c83f 591c 8dbe 5d6d efbf
00000230: e889 35a7 cac2 f9bf 7d73 110f 0444 d13f
00000240: 6f66 2392 96fb b4bf 3bd6 ddea bb88 d5bf
00000250: a0b5 5de2 7ceb a6bf 6c6b 8326 130d ca3f
00000260: 0c8b 22d2 c68c b5bf 922e 736f cfb1 b7bf
00000270: 5f5b 6b2c 4d0b e3bf 00b4 3abf b4e6 9a3f
00000280: 2b47 b431 4742 e5bf c138 6347 88cd e83f
00000290: 9148 fe54 2a9c d6bf 57dd 8c5c 2df4 d93f
000002a0: 6319 eb74 9137 9bbf 44cd 066c 32a0 c73f
000002b0: 74ef f959 34e7 dbbf 5544 e81a a618 b5bf
000002c0: 47f7 10f5 87d5 a7bf 6f22 579f 155a c13f
000002d0: 0ea4 099b 92f3 d33f afa1 b4d5 38b8 e0bf
000002e0: fae8 a28e 3aaa c43f a894 ff07 8c06 a43f
000002f0: 0a45 6556 763d e63f 9dff b2b4 408b e6bf
00000300: cb91 9167 8ef7 d5bf f858 531d 7957 d03f
00000310: a21a f125 26b8 ccbf df1a a9f3 baae ae3f
00000320: 9840 75cd bc82 d3bf be47 8bf6 897a babf
00000330: 97cc 27b9 b852 d53f 85a2 a7a9 717c d23f
00000340: fb51 e83b 0a9b d03f 2c0e 02b5 3d92 d23f
00000350: 7fc6 5b27 9431 78bf ee1a 99c0 387a bf3f
0.3219099631336169 -0.14038508773996414 -0.03755365188465011 -0.5088288576749744 -0.41151677015619287 -0.4952387022800591 -0.09946894055843311 -0.03690898366135825
-0.3982601378941055 -0.45019181607378184 0.27865103900360333 0.4332805721541694 0.08589319381089726 -0.08613585259039958 -0.17392707676739022 0.019508089660494565
-0.46455566602082987 -0.016550002211978408 0.3674179286940361 -0.10395868651664039 0.18323031361880654 -0.48064890973722 0.44849467017506445 -0.4857441069909241
0.38310945856966777 -0.24821856396245257 0.3211724788762301 0.13708443332585293 -0.5276666996986231 -0.08766204558220753 -0.27800085575233696 -0.004114149713249923
0.383526337028316 -0.1951044931232906 -0.22253777452537069 0.13070266753626084 -0.22089262984632382 -0.006562485968066461 -0.4975875141343005 -0.11882641737296804
0.5790872220765484 0.10799117911082924 0.8226880522708071 -0.05572197348218391 -0.21525661430134713 -0.6065613936157571 1.5896392137867894 -0.38173102625807587
-0.12791719826933468 -0.4811035688326947 0.19789940931365163 0.0446755654904484 0.2637279535400514 0.008213916820569916 -0.770925740690614 -0.8367162949792365
-0.5667597851081942 0.6987685198153989 -0.7763109887287636 -0.14412889190489478 -0.21331394357257927 -0.12390776215107926 -0.31407765999715836 0.4970241201939253
0.511764935007685 0.3501865250119985 0.18508248527785207 0.044087225382124444 0.18892987195625516 -0.982100364847507 -1.6100565463644845 0.26977635833264185
-0.08196393077687401 -0.33647058426081217 -0.04476537955529669 0.20352401142630627 -0.08417933111426751 -0.0925569197744898 -0.5951295726361926 0.026270698711119422
-0.6643405886445398 0.7750893968857541 -0.3532815771114964 0.4055283931551989 -0.02657916332352651 0.184576323268269 -0.435986602656832 -0.08240736157337498
-0.04655098787814765 0.135561659624972 0.31174149647137106 -0.5224880384385439 0.16144496884027842 0.03911244962345367 0.6950027167714847 -0.7044986275941373
-0.3432346354877864 0.2553389345533925 -0.22436978199603624 0.05992683624622485 -0.30485458435306034 -0.10343229550497221 0.33317392427051956 0.2888454586778056
0.259462889197749 0.29017584492268855 -0.005906656957209599 0.12295870496846437

GRU.weight_hh_l2 f8 [18, 6]
00000000: 48f4 d665 f75e cdbf f274 7bb3 273d d0bf
00000010: bf2d 046e 6d83 da3f 4be7 b58c 8939 dbbf
00000020: a4cb c94b 3386 d03f 9896 5a4e aaf3 b1bf
00000030: 3b5c 9024 bb5a c9bf f898 4854 38d0 e73f
00000040: 43ab 1c14 1fc5 dbbf 8d76 9565 a74b c33f
00000050: 49f3 4144 76f7 bebf 06a4 669d 2bc0 c43f
00000060: d6ec a9af e25c d03f 0203 b7b5 14a5 c13f
00000070: 381b 9817 0c80 b7bf f434 d872 dd22 e0bf
00000080: 3804 9362 439f dabf 204f 2071 4894 cb3f
00000090: 3d65 2bb4 12f2 c63f e911 c88b 5871 cfbf
000000a0: 0c6d f10f c24a cdbf ab52 ee11 8cad e0bf
000000b0: 382c fe32 e43f 9fbf faae e11a 1367 cebf
000000c0: a500 4350 829f d13f 939c a39e 82f2 a9bf
000000d0: 45fa dcfc 73e8 dd3f e907 049a d164 e23f
000000e0: a8f7 6088 9d7f 933f 3ba9 e7a0 b7fe babf
000000f0: 97ba dead ca0f ddbf b1f3 054b e5cf c43f
00000100: a699 6763 ce01 d93f 30c8 51e3 ac29 d2bf
00000110: c804 0c05 a9d3 cc3f a64a 4220 1e97 e0bf
00000120: e3d4 00ab 969e d7bf c3d4 6084 8766 e9bf
00000130: 958a 74eb dc02 d6bf 9c3e ab96 2047 fc3f
00000140: f095 4a50 3207 92bf 8059 b896 ddcb d6bf
00000150: db99 a39f e972 d93f 276a 02f2 e145 cb3f
00000160: 203b ffb2 a82e d73f 7a05 a92f 8133 f33f
00000170: 571f dc68 5411 c4bf deee 5ca6 cced e73f
00000180: 8cb6 2de6 919c d63f 1a1d 6d8b 2871 e43f
00000190: f411 fa58 072e b8bf 82de b3ae 36db cebf
000001a0: d5b5 0d71 fe08 d0bf 2d3a ca3e d6c4 cdbf
000001b0: 43ee 5bfb 372d a03f 71e1 3bfb 33b9 cb3f
000001c0: 223b d784 1da5 b9bf b9c8 04e5 eaac c3bf
000001d0: 4d9d f468 cbe6 e03f 1769 7c5f a83f e2bf
000001e0: be46 8f32 6e3c debf 67f3 d678 238a c43f
000001f0: c997 0250 b6b9 c0bf 32fa 8145 0377 d2bf
00000200: 98e7 9239 0470 ce3f c1f5 8066 d38a dabf
00000210: b71b 5a38 3339 d6bf 729a 122f 78c6 bfbf
00000220: 0a63 d2a2 7ce2 de3f 2bd0 dc6a a2af 0dc0
00000230: ca19 5de0 b0a9 e43f ca44 77e5 4579 e53f
00000240: 825c 5b64 28df c03f e9ec 4e12 e403 a23f
00000250: f289 bcfb 559f d13f 1e63 8d51 3bc6 ae3f
00000260: 9689 5127 8621 ad3f 20bf 9afa 527e d5bf
00000270: a98a 5e93 d147 cfbf c0ff 4c16 d5fc e23f
00000280: 255e 3979 7fc1 e3bf a27e 8ff4 51c7 dbbf
00000290: 3217 db48 a94e eb3f d632 3278 c98e d8bf
000002a0: 880d 515f 3ed0 c23f 0443 806f 3928 c4bf
000002b0: e398 7d6e b975 c73f 4729 e097 3d1c d23f
000002c0: 4476 9301 b20f d73f 73a6 3a2c 058e d6bf
000002d0: 745b 35b1 a191 d53f 71c8 0af7 0b1c b93f
000002e0: 94ea 5272 f0e3 94bf 002c 606a 4aa7 773f
000002f0: ea69 cb1c aa32 d6bf 5543 e237 5668 b43f
00000300: 00cb fda3 4610 adbf 885a 9e88 17b9 b93f
00000310: d46d 883a ffec d2bf d270 4a1d 606f b0bf
00000320: 0f8c a592 68a5 dcbf 099a 2a72 d37d dc3f
00000330: 98c3 49b1 0702 d33f e964 20b8 1ebb d0bf
00000340: a29b 5c0a 715d b3bf a860 9834 3577 d7bf
00000350: c6e9 4419 87cd db3f 7a42 56a6 b025 d9bf
-0.22946064446105852 -0.2537326100117091 0.4142716955545573 -0.4253867982985084 0.2581909408683549 -0.07012428677497906 -0.19808139119479215 0.7441674848712685
-0.4339063354879508 0.15074627361439177 -0.12096347013898624 0.16211457429497517 0.25566928057351157 0.13785036919400545 -0.091797595749182 -0.5042559855516218
-0.41597065569300495 0.215462737309843 0.17926248357142952 -0.24564654183644954 -0.22884393480749343 -0.5211849546636435 -0.030517163860661806 -0.23752058804108583
0.2753606590085929 -0.0506783312464957 0.46731280988379736 0.5748069770927461 0.01904150147333153 -0.10544917753546638 -0.4540888498258168 0.16259447253460516
0.3907352419613751 -0.283793661109601 0.22520935770447736 -0.5184469823892257 -0.3690544767335508 -0.7937657914650561 -0.3439247416846823 1.7673650632386062
-0.017605577612490764 -0.3561929675937776 0.397638708016897 0.2130701476751977 0.36222283821273216 1.2000743734100454 -0.1567788612376215 0.7477782487180453
0.3533062694394651 0.6388132785004104 -0.09445234224592253 -0.24106486826325485 -0.25054894485842044 -0.2325694853393129 0.0315949911436886 0.21658944861679744
-0.10017570965940739 -0.15371452505639185 0.5281731653130152 -0.5702707161865729 -0.4724383825060662 0.16046565437673196 -0.1306674853014427 -0.2885139635835997
0.2377934723970696 -0.4147232533467467 -0.3472412157356603 -0.1241221537517079 0.48257366085594866 -3.7107590054165676 0.6457142240622542 0.6710538369899492
0.1318102350257711 0.03518593524446507 0.2753500898708402 0.060106137948144886 0.05689639310800769 -0.33583521340459477 -0.2443792314125706 0.5933633266031322
-0.6173703544290602 -0.43404053576339596 0.853352205559281 -0.38371502626322973 0.14698009161120873 -0.1574775499762141 0.1832801618103935 0.2829736693535278
0.3603329673186162 -0.35241822547195695 0.33701364808569356 0.09808420926381857 -0.02040076921250973 0.005774775205291682 -0.3468423157879942 0.0797170530734211
-0.05676480056617628 0.10048052869238167 -0.2957151481257061 -0.06419945445162803 -0.4475957328888293 0.445179807177198 0.2969989043550014 -0.2614208982573261
-0.07564455512020499 -0.3666508687615626 0.43441941707319776 -0.3929254173645301

GRU.bias_ih_l2 f8 [18]
00000000: b65a 6b56 9c61 493f c0f0 2e3f adea d43f
00000010: c067 a6c9 3879 c03f 023a 4f17 1fd7 7f3f
00000020: 7141 ad53 ca15 dbbf 0faa 6343 8492 ca3f
00000030: b6d0 4fa3 9179 c33f 35ab ac2b 298d d2bf
00000040: 909f 8fce 779c d7bf 1505 7cd2 3e10 b83f
00000050: 25ec 6163 07fb ab3f bba8 c24b 91bd b23f
00000060: f8cf 5e25 aed3 d2bf 445e f83a ec70 e13f
00000070: 0db7 5253 3462 d4bf edec 319b 6ec8 b1bf
00000080: 1698 2a05 dbc7 bbbf 9743 4b82 ce99 d4bf
0.000774575554568133 0.32682353182077506 0.12869939657394802 0.007773515176224157 -0.4232049767643025 0.20759633341306524 0.15214748834808284 -0.2898657728680292
-0.36892504856086195 0.09399788512020664 0.054649573213247295 0.07320507144564463 -0.29416993760537435 0.5450345184098713 -0.31849392067930254 -0.06946460045758203
-0.10851830364353562 -0.32188761447928854

GRU.bias_hh_l2 f8 [18]
00000000: ce6b 4bee fd26 c1bf 35a7 311f 021e d0bf
00000010: d6d3 7fe1 ec94 a1bf c9ca f1d8 b140 c1bf
00000020: c2ff 4622 902d a73f db08 98e1 eb47 c83f
00000030: 3b9d 478f 30dc ce3f 76b9 31b6 0408 b3bf
00000040: 5a4a 5a7a 3a24 8fbf 1f33 9daa e98a cfbf
00000050: 400b 1972 16fc d83f 807f d972 2fe6 dbbf
00000060: f26f c91e b013 d23f d260 23c0 921e c73f
00000070: 3e62 e647 9c04 d1bf 943a d1bc fb8c bcbf
00000080: c494 e48d 0bee d03f 3aea 9b5f 6770 cf3f
-0.13400243888358293 -0.25183156057629513 -0.03433933499028512 -0.13478682606690587 0.04526949327873765 0.1896948672802584 0.24109465595322796 -0.07434110115148038
-0.015205818995388021 -0.24642678099407875 0.3903862108456231 -0.43592439857274456 0.2824516583111737 0.18062052137134416 -0.2659064008853739 -0.11152623519704213
0.2645291219399264 0.24561779182825366

linear.weight f8 [2, 6]
00000000: 69bd 068a 5564 b73f 993a 93dc 0e0f 9dbf
00000010: cb7c 3f5a e136 c33f 4de4 37ff 5e9e 973f
00000020: bd64 577c a4d1 c2bf 0efc b214 53e9 c13f
00000030: 00e6 379a 3266 cfbf 8089 f610 1f5c c0bf
00000040: 2e2e 4b94 dfa9 c63f a6d3 828b a7ae 91bf
00000050: ec88 961e 4a3c 76bf f1e8 6ec7 e156 babf
0.09137472743781462 -0.028377754414402465 0.15011231333389782 0.02306507523278283 -0.14702278205257882 0.13993299971295453 -0.24530632524674445 -0.12781132057450506
0.17705912342931768 -0.01726781643874955 -0.005428590325580834 -0.10288821333861954

linear.bias f8 [2]
00000000: 951c 2ec7 03b4 c43f 0bbe 01af 0563 c13f
0.16174361444084143 0.13583441777471736
