Ventil_trained_NNs/OR_lstm_PINN_0.pth (torch, 5573 bytes, 6 tensors)

lstm.weight_ih_l0 f8 [32, 3]
-0.11496428977015112 0.03773271492809879 -0.175692977760253 0.0895268999548565 -0.14856156506393073 0.10874676078649408 -0.20655680504270657 0.21331948610704152
-0.08057588876556458 -0.1573168720692594 -0.23268008698119186 -0.2653544922913331 -0.37081342900475833 0.09010887307146319 -0.5196820240795297 0.3671432598510461
-0.24453735333722718 -0.15775915185761924 0.1845280654302265 -0.11920778489914377 -0.29985117798205496 0.2377329978187368 -0.22879193257930897 0.2950782754943265
0.47866109880699503 0.05166776614569313 0.10869337253424262 0.44916775426759736 0.4596736699458887 0.09054967514155084 0.017869287284971603 0.43389017219707116
0.5250974639020516 0.2730469025940755 -0.3880329355090018 -0.4390730219520455 -0.15099477199844502 0.07184731603991933 -0.2552537931328951 -0.17767570775917357
0.39155885489245235 0.0365706255587591 0.010201513088960883 0.14716542672800625 0.008720238973240564 0.1735052200043484 0.09380694818260567 0.11899831671403852
0.011685655850918422 0.27825624375240904 -0.1108375638567636 -0.1837057881054584 -0.20380209674999997 -0.22248164371952583 0.3744609100331513 0.008310895305439313
0.11699643007392682 0.11017596916634706 0.33381106057684673 0.18893599584145085 0.06637457390709478 0.3329872783679315 0.06400633531771967 0.12196239555470487
-0.01471189083505251 0.1989461914563262 -0.32282144245476074 0.03672774302483198 0.3067342808740735 -0.10231228511557401 -0.319247623009878 -0.1309608152696131
0.1618238275342432 -0.3245514238882676 0.32750128799223394 -0.10059539737406893 0.11868481394152582 -0.0359622330191389 -0.07359035596543145 -0.21535988441831708
0.09197641611166284 0.10249577774928872 -0.3225470230648925 -0.0015080126803158989 0.17812391710665143 0.10378464156538024 -0.36497494301497235 0.03281810726354457
0.17635018884433454 0.056762296243360724 0.028382074112229094 -0.12419200043207272 0.0698993108131117 -0.07252661190651853 0.3108280464200532 -0.12389417056088385
00000000: 654a c5b8 4c6e bdbf dc00 36d1 b351 a33f
00000010: 82fe ce84 1b7d c6bf 771a 6b23 3ceb b63f
00000020: 4132 b2bb 1004 c3bf b3b9 1fe5 d3d6 bb3f
00000030: ac5b 3611 7470 cabf 4ff2 368c 0d4e cb3f
00000040: b31f 1817 9fa0 b4bf 05c0 5292 f522 c4bf
00000050: 32e0 010a 76c8 cdbf bc3a 8f68 91fb d0bf
00000060: 368e 9f3f 68bb d7bf 8fdd eb06 6011 b73f
00000070: 86b3 3732 3ca1 e0bf e273 8071 467f d73f
00000080: bdec 9dff ff4c cfbf 1cc4 efae 7331 c4bf
00000090: b5c5 1b9b 9d9e c73f 6207 92c1 6684 bebf
000000a0: 6c66 c6fe c230 d3bf b0df 67ed 086e ce3f
000000b0: 7c25 02d6 0d49 cdbf 8686 c0fd 8fe2 d23f
000000c0: fc94 4f29 62a2 de3f 30cd b48b 3274 aa3f
000000d0: 9996 5330 54d3 bb3f 68d0 bf1b 2abf dc3f
000000e0: 33fe cf1c 4b6b dd3f 7d79 6575 432e b73f
000000f0: 9d95 f791 534c 923f 481a e948 dbc4 db3f
00000100: d07f 5532 99cd e03f 0a9a 3ab7 9979 d13f
00000110: f10c f217 88d5 d8bf 57c1 75bb c519 dcbf
00000120: 90d6 ccf3 cb53 c3bf 6f63 b2f0 9564 b23f
00000130: 10e3 6b01 1456 d0bf 5a45 0fdd 13be c6bf
00000140: 0a3a 0edf 4c0f d93f adcb 8991 62b9 a23f
00000150: bcc5 b1e8 87e4 843f a807 7313 51d6 c23f
00000160: f181 a0a9 eadb 813f 9b4e cd46 6b35 c63f
00000170: a5f4 946e bb03 b83f 42db 9076 ac76 be3f
00000180: 0830 b22d a6ee 873f fdc2 b446 f3ce d13f
00000190: 62e0 eebf d95f bcbf 4eda ffd7 ab83 c7bf
000001a0: 8de0 32e6 2f16 cabf 002b de4b 477a ccbf
000001b0: 1442 8ee4 2af7 d73f d979 4c7c 4d05 813f
000001c0: 7290 ea60 7af3 bd3f 7ee3 5f08 7e34 bc3f
000001d0: d41e 0e11 295d d53f 7d8e 9601 0e2f c83f
000001e0: 3887 3790 ecfd b03f 90c1 a4df a94f d53f
000001f0: 9529 ed1c b862 b03f 5ed0 3f74 ed38 bf3f
00000200: f3b0 fd8f 4421 8ebf 90fd fb9c 1177 c93f
00000210: 8a9b 7244 1ba9 d4bf 148b 4b8e facd a23f
00000220: 6aa3 3ad2 88a1 d33f 31e8 8c4e 2331 babf
00000230: 6dcd 0995 8d6e d4bf 6ffb 51f1 52c3 c0bf
00000240: 298f 7ca7 a4b6 c43f 171a de55 73c5 d4bf
00000250: f9c4 54f6 c7f5 d43f 3d89 d9b5 9ec0 b9bf
00000260: 8523 69c2 2062 be3f 9daa 6a4d a469 a2bf
00000270: b42a 2c4c d1d6 b2bf af37 39a6 e990 cbbf
00000280: e7ef 3333 c48b b73f 9e49 69cd 293d ba3f
00000290: 8318 df44 9ca4 d4bf a9d2 3549 10b5 58bf
000002a0: c4e2 4db7 c3cc c63f 2fb3 5959 a191 ba3f
000002b0: 16f6 06dd bf5b d7bf 09bc d3f2 88cd a03f
000002c0: 6d6b dd9a a492 c63f a2ae 059c f20f ad3f
000002d0: 302f 6bc0 3010 9d3f 73d3 4704 0ccb bfbf
000002e0: 858b f4d5 ebe4 b13f 176a 3aa2 1a91 b2bf
000002f0: cb6f 8351 9be4 d33f d35a b942 87b7 bfbf

lstm.weight_hh_l0 f8 [32, 8]
-0.3381710887647252 -0.18255420648116363 0.34615690527732873 -0.22891167706322507 0.2269594610824782 0.42468669976995516 0.24258199986149095 -0.2165002130734021
0.052889158369401224 0.13150930652838733 -0.2168771303280925 -0.046929185954932076 0.1895603985404314 -0.3018952215672129 -0.07624593095526376 -0.18930737602057474
-0.13303034723891838 0.1194306327904031 0.16137859981166747 0.13199492515821434 0.31384077674896493 0.2592696789004141 0.34528352076342045 -0.42544004938479807
0.30809646398012863 -0.035151935945277095 0.004075513593036276 -0.5379662280301356 -0.04417643680634196 0.26768639766845187 -0.34434931757978626 -0.5348283698924007
-0.03785537647515625 0.2196474531360923 -0.16372902141525325 -0.2622338895406079 -0.004235377025556753 0.05063371542897245 0.1023201928278271 -0.15213819436608947
0.21657948556702739 0.16016348088340873 -0.06538546273937444 0.04577008626869774 -0.0012218875566790486 0.17650324777967397 0.10066585424146494 -0.19751503308171867
0.24816334847952795 0.29721574383289473 0.30398776443445835 -0.025871603736163568 0.10326503269613856 -0.17658561588376911 -0.08758955016541452 -0.028696026098911455
-0.10714986907977106 -0.4972176615393453 0.4481315186683657 -0.8259817954228753 0.014856559727210105 -0.15148999249553244 -0.34507606321915646 -0.24988758717279333
-0.06555183490064843 -0.3789525485232737 -0.18634062524255623 -0.03951647933474443 0.1063490716996688 0.13371297600452345 -0.3302291027487431 -0.1960464073071714
-0.09111706309639729 2.356882683287016e-05 -0.18433022797706552 -0.14047802827336378 0.16670574044178982 0.20350909937234202 -0.3989687538137911 0.08385899926918526
0.09712690060735374 -0.20794713516397345 0.07925486492556842 0.23990168088151287 0.382688627364297 -0.10531418407531463 -0.27737815014659256 0.1473130960384189
0.2366999062961483 0.3844460607628515 -0.061314987344445675 0.1447113322437063 0.18532492093075192 0.07509183999962796 0.21980678846861088 -0.5233055086505229
-0.210877779932149 0.06494586846967328 -0.3135142296849679 -0.17717507452249193 -0.44814108384180257 -0.006204767623696833 0.08113933281231885 0.54554317312245
0.16743339882529437 -0.1056384165953384 0.5008045083899173 0.378262325436967 0.4398592517747723 0.1441315326933925 -0.05372151570897542 -0.5483702431320032
-0.26895447206121803 0.30663017623929956 -0.04522954823656001 -0.06792015506210665 0.25847460702885516 -0.19506522792747993 -0.2789922537139219 -0.29015721134988787
-0.12913758328032027 -0.03659856707899617 0.1880097101123126 -0.2111266363678841 0.15359165530030908 0.204577428088549 -0.30172925658872435 -0.3569181368629516
0.26379754667046484 0.43787533941123513 0.08667537901091008 -0.23018132567585725 0.2559106877059233 -0.06063363956686045 0.1004639276145402 0.4085771953754131
0.030690315539128238 -0.1323085024602028 0.06949471712427986 -0.08072021995481175 -0.11650427723129893 -0.10758127246442171 -0.21680418704179263 0.4084763674030329
-0.09261492902200014 -0.1887910418822998 -0.3852947944038842 0.2664901914958846 -0.28026630590980944 -0.3013797063010011 -0.22027765568109425 -0.1630339954421236
-0.0776809372071855 -0.21636380621029488 0.03126923306992437 0.2837345277017518 0.19511611066555215 -0.2710570497454275 0.11341050997061927 0.2493466291349464
0.054007508892670905 0.15489727551179228 -0.055011258148611936 0.2872002582396471 0.320948164497259 0.06003002919102873 0.31381120306119203 0.1071932978048629
-0.034138209280160994 -0.29561686202322623 -0.07271487283985004 0.054154126404471634 -0.07331447758364623 -0.09291240648966445 -0.24523530344953454 0.07701043139607862
-0.236779563334824 0.0007740440957916297 -0.20654175533221278 -0.20573863407283063 -0.034311532743323284 0.22671847566766093 0.3566500517339466 -0.07063364804280091
0.10535852156188096 0.17841526118052292 0.25968361100707693 -0.19079901178610115 -0.22513079546221354 -0.13998000200618907 -0.446814813663544 -0.3365907365853317
-0.11982503383383708 0.16862666903038603 0.31247816779443105 -0.08611255307930475 0.00788966230415496 -0.04090210102915213 -0.29043451982073026 0.2260259499247268
-0.32991743636847604 -0.1762853234868483 0.15843993066447826 -0.0026382581489716793 -0.23194759084426525 0.0023489200966848147 -0.2122321523324723 0.2460764276540946
0.046798555645755587 0.03843540279162254 0.028793682265926598 -0.013411475744598953 0.28222672715456293 0.13304679546577633 -0.12535714830908304 -0.0769759221214291
-0.04648776333537214 -0.0473971784918492 0.15262811813724417 -0.34424689503352235 -0.05762343584263156 0.27722643408473974 0.016272987023688356 -0.1810672440295453
-0.3854389706845161 0.25288266988318636 0.10061557884356898 -0.19068204710722092 -0.25796905821352606 -0.1837643253207838 -0.09992386935625334 -0.2545243048041023
0.014212655710698541 0.09269952304256748 -0.0125050556950402 -0.062175099526421196 -0.07101231534080754 0.1824051093796212 -0.3447718820055155 0.06990893692729847
-0.4673421177362377 -0.34244266043696353 0.1840854352800614 0.04842052658467059 -0.20029287558674017 0.1849212931057294 -0.20372750783714455 0.23449104375904734
0.013241307175180047 -0.0863210684142965 0.10750114157721206 -0.42974689058887033 0.06238538118867866 0.2966553392852347 -0.5174748184589942 -0.06594538676331009
00000000: 0d9f ac59 98a4 d5bf e9ba 4aad ef5d c7bf
00000010: 37d8 dc4a 6f27 d63f 3e5c 5453 fa4c cdbf
00000020: cbfa 6ef3 010d cd3f 5fb8 a31f 112e db3f
00000030: c36e 004e ed0c cf3f f517 5d6b 47b6 cbbf
00000040: d0e2 04ab 4914 ab3f 2c5c 5405 4cd5 c03f
00000050: df36 013b a1c2 cbbf 1a05 cf2d 1a07 a8bf
00000060: 4d87 2ce0 8343 c83f 65ca dc55 4052 d3bf
00000070: 27eb e773 da84 b3bf 5631 735e 393b c8bf
00000080: 8422 626f 2307 c1bf 9fb1 f985 0193 be3f
00000090: b091 3bd0 0da8 c43f 9570 65af 35e5 c03f
000000a0: 466f 12a0 f715 d43f 5430 eed9 df97 d03f
000000b0: 45b4 610d 2019 d63f 980b a1e6 683a dbbf
000000c0: 8bb4 333b dab7 d33f af56 8d3e 6fff a1bf
000000d0: 903d 8b59 7cb1 703f bcbd 77f3 0437 e1bf
000000e0: bd91 ac3e 4b9e a6bf b97b e420 c621 d13f
000000f0: 28ed 59b8 d109 d6bf b325 b562 501d e1bf
00000100: 718b e0a7 c761 a3bf 3e42 ef61 681d cc3f
00000110: 743a 3194 12f5 c4bf d6b4 dea6 70c8 d0bf
00000120: f4d6 f95c 1d59 71bf 0250 af8f a9ec a93f
00000130: 777a eaf9 a731 ba3f 252e a3ac 4379 c3bf
00000140: 7258 bf67 e0b8 cb3f 8931 34a8 3c80 c43f
00000150: e374 1908 1abd b0bf d37c 513f 2d6f a73f
00000160: a3d1 19c6 f704 54bf 70fd 6c8e a897 c63f
00000170: a37e cac7 3cc5 b93f 9bf4 c62f 2c48 c9bf
00000180: c588 e40c d1c3 cf3f 1697 e72e 9505 d33f
00000190: 6354 a818 8974 d33f d87f c4ef 157e 9abf
000001a0: bb12 40c2 936f ba3f 6118 9582 5b9a c6bf
000001b0: e38a 6ecd 446c b6bf eadd 7ab6 7d62 9dbf
000001c0: 66e2 777f 2c6e bbbf 8486 d306 6ad2 dfbf
000001d0: 4932 3fd2 2fae dc3f f5d7 cd5f 716e eabf
000001e0: 7987 46b1 1d6d 8e3f b944 b829 0664 c3bf
000001f0: 3b28 8ae9 b915 d6bf 03b0 4a03 51fc cfbf
00000200: c950 174b 01c8 b0bf 0d2c a930 c240 d8bf
00000210: cc9e aa75 02da c7bf 9da4 ca04 813b a4bf
00000220: 29f8 e858 b139 bb3f dfc0 7ebd 811d c13f
00000230: d391 1f3f 7922 d5bf edf8 f075 0c18 c9bf
00000240: cd49 1ba6 7253 b7bf e512 7e72 b5b6 f83e
00000250: 37b1 6906 2298 c7bf f9cd 9e1c 2ffb c1bf
00000260: ba60 a01b 9d56 c53f 460e 1f0f 960c ca3f
00000270: 1364 703d b488 d9bf d720 568b c877 b53f
00000280: 18a1 abfd 4edd b83f 88bf 6900 039e cabf
00000290: 8f7a e7fc 0b4a b43f 881d d228 19b5 ce3f
000002a0: 9a2b c570 f87d d83f ed8c 68d0 def5 babf
000002b0: 3f4b e048 90c0 d1bf 4cf6 e0d0 27db c23f
000002c0: 660d 41ba 2e4c ce3f c45b 83a6 c39a d83f
000002d0: 0750 cc92 ad64 afbf 9e74 aca3 e685 c23f
000002e0: c803 441d bab8 c73f 96af fe04 3839 b33f
000002f0: 2bab f4fb a022 cc3f 7e0f af31 ebbe e0bf
00000300: 3e7e 2108 0bfe cabf 9d6a 16dd 4aa0 b03f
00000310: e6f6 d4fc 9d10 d4bf 94c7 5e3f acad c6bf
00000320: e10c c6f0 57ae dcbf 9371 5ea0 2b6a 79bf
00000330: 9d21 d91c 8cc5 b43f 60be e3f4 1675 e13f
00000340: db3b 1b26 756e c53f 746b 7a88 1e0b bbbf
00000350: 702b 272d 9706 e03f 37e2 432f 7335 d83f
00000360: a7cd 4d6b a726 dc3f e7c7 9eed e672 c23f
00000370: fe89 1ff2 6281 abbf ac3f 8bc0 3f8c e1bf
00000380: 886a 67d1 8c36 d1bf 4c87 ba2c d49f d33f
00000390: 714e facc 5328 a7bf 9d22 bb1c 3763 b1bf
000003a0: be43 0214 d98a d03f 1c85 44bb e5f7 c8bf
000003b0: e678 6253 02db d1bf a590 5c8d ef91 d2bf
000003c0: 46cd 6f90 9487 c0bf a897 5e21 0cbd a2bf
000003d0: 30a4 21c2 b310 c83f a8dc 4197 3206 cbbf
000003e0: cd06 3a30 e4a8 c33f 1eef 91d9 972f ca3f
000003f0: afe0 523a 884f d3bf 823d 4b2b bfd7 d6bf
00000400: 52bd ed1a 0fe2 d03f 00c1 9f49 2606 dc3f
00000410: 3263 388e 5b30 b63f ecbf f6e8 9476 cdbf
00000420: 2e34 9938 d760 d03f b648 f455 5f0b afbf
00000430: bc3b 8803 01b8 b93f e3d7 01f7 2026 da3f
00000440: 388b 2d36 486d 9f3f ad4f 8629 7cef c0bf
00000450: 4d26 4be1 67ca b13f abf3 d490 14aa b4bf
00000460: ad73 8d6c 39d3 bdbf d791 e53e 728a bbbf
00000470: a57c 7d56 3dc0 cbbf 83d5 cb0f 7a24 da3f
00000480: 8c56 45ab 9cb5 b7bf 69c4 540b 4e2a c8bf
00000490: 9328 527f aba8 d8bf 987e 4be0 2c0e d13f
000004a0: 4d6a 8316 e2ef d1bf a86a 8f1b ce49 d3bf
000004b0: f44c 98e7 0e32 ccbf 78b2 4747 4cde c4bf
000004c0: 78d6 d3dc e5e2 b3bf d20b db27 cfb1 cbbf
000004d0: 130a d05a 8502 a03f e466 4edd b428 d23f
000004e0: 099a 1d91 90f9 c83f 5570 00ab ff58 d1bf
000004f0: aeb3 589f 7808 bd3f cf4f c020 97ea cf3f
00000500: 2e6a dd48 dfa6 ab3f e604 4886 acd3 c33f
00000510: dcf8 5185 6f2a acbf c4b0 2231 7d61 d23f
00000520: 7186 8e2b 6a8a d43f a089 4e88 41bc ae3f
00000530: fe09 9195 7b15 d43f 331a 6c1c 0571 bb3f
00000540: a2f9 cd38 907a a1bf 344c a2fc 62eb d2bf
00000550: 1aab c720 719d b2bf 2689 b3f3 16ba ab3f
00000560: bc8a 8bd3 bcc4 b2bf 4e09 4483 1bc9 b7bf
00000570: 32f8 11d4 de63 cfbf cd08 4ca4 f4b6 b33f
00000580: 712e 71f0 ca4e cebf 21fc dd09 275d 493f
00000590: 4d84 34d2 f56f cabf 17ea 6ec0 a455 cabf
000005a0: aa33 04fe 4791 a1bf 251f 326b 1c05 cd3f
000005b0: b818 14bd 5ad3 d63f 0f4c 57f8 0b15 b2bf
000005c0: 9793 76ac c6f8 ba3f a656 f0af 4fd6 c63f
000005d0: 0249 2502 a89e d03f 807e dd1d 1a6c c8bf
000005e0: 0295 eafd 15d1 ccbf d3f4 5a5d ddea c1bf
000005f0: 8968 0329 9d98 dcbf b250 71df b38a d5bf
00000600: dcf4 8e79 daac bebf b405 5c06 8f95 c53f
00000610: 7c07 d96d a4ff d33f 6f2c 40e7 780b b6bf
00000620: aa27 958c 7428 803f fd0a 84c4 1ef1 a4bf
00000630: a79b 10ab 7a96 d2bf 30ad 7c17 6bee cc3f
00000640: 084c e505 5e1d d5bf 8b05 9279 8490 c6bf
00000650: fcce 4a78 c247 c43f 0fd0 fb0e d49c 65bf
00000660: 2af3 876a 75b0 cdbf 9ab1 e0df 0a3e 633f
00000670: 85bd b654 6c2a cbbf daa0 8bb0 6e7f cf3f
00000680: c942 fff3 faf5 a73f 4649 ff1b cead a33f
00000690: df7e a74e 177c 9d3f 2594 b6cd 7977 8bbf
000006a0: d1e6 cbb0 0010 d23f 677a ae69 ad07 c13f
000006b0: b356 27fa b30b c0bf 874a 17ac b1b4 b3bf
000006c0: b914 617e 3ecd a7bf 1e20 1767 7144 a8bf
000006d0: 07bc ec73 5189 c33f 16c9 fa20 2408 d6bf
000006e0: 66c1 daa8 d180 adbf 15c3 fef0 13be d13f
000006f0: f3c5 4cac dda9 903f 77eb bd21 362d c7bf
00000700: d968 6c37 08ab d8bf 99e6 37cb 3a2f d03f
00000710: c0ea 994c f1c1 b93f 9c42 21f2 4468 c8bf
00000720: 870c 1aa7 9082 d0bf 844e b6e3 9685 c7bf
00000730: 0b92 f956 9c94 b9bf a7ed 4a4f 204a d0bf
00000740: 8deb bb5b 861b 8d3f 9a97 d2eb 27bb b73f
00000750: 2c77 f529 409c 89bf 40dc 2e26 6ad5 afbf
00000760: 9083 00f4 dc2d b2bf c552 b4f5 0c59 c73f
00000770: e1d1 7215 be10 d6bf 0e06 cd55 8de5 b13f
00000780: 0a1d eee9 eee8 ddbf 593f d59e 94ea d5bf
00000790: 2151 198e 1c90 c73f b5c3 4544 93ca a83f
000007a0: 0128 226b 32a3 c9bf ca8f 1c3d 80ab c73f
000007b0: 2062 ba33 be13 cabf a233 1372 cd03 ce3f
000007c0: 9183 302a 421e 8b3f 0d91 cb35 2319 b6bf
000007d0: b356 5bdf 3185 bb3f c7c2 281a f980 dbbf
000007e0: 7261 e807 faf0 af3f cc7c 1aad 66fc d23f
000007f0: 0b1e b959 278f e0bf e971 78ff cbe1 b0bf

lstm.bias_ih_l0 f8 [32]
0.23143149585900077 0.05717984857112911 -0.16557969160458733 -0.12068995671745929 0.0855211173582162 0.09291939566749467 0.46414318985445796 0.29787571461388135
0.26054433109947833 0.17737082642521212 0.14876644350879173 -0.21849537842631214 0.08081434434108047 0.2962809437750683 0.5208689517727404 -0.06777355816869443
0.13700797090418798 -0.011130304019611416 0.11900523992070428 -0.21734166253037862 0.21051180326086114 0.40068401022257966 0.013802247937840623 0.05578810908774385
0.0423693913434821 0.24474253113226502 -0.16255869611882395 0.12932465688202463 0.3611648977408761 -0.34485760503021745 -0.11488440982931004 0.06903968016789387
00000000: 4348 fd18 8c9f cd3f ceda 3457 ad46 ad3f
00000010: 6967 2920 b731 c5bf efa0 0e79 89e5 bebf
00000020: 2fc1 2b42 b6e4 b53f 4b54 8ec5 90c9 b73f
00000030: 4981 45a3 85b4 dd3f 1183 224d 6510 d33f
00000040: c7bf 4e21 c2ac d03f 3261 6155 16b4 c63f
00000050: 2366 ce60 c70a c33f 1786 5514 a8f7 cbbf
00000060: 8f1c feb5 3fb0 b43f a248 fc58 44f6 d23f
00000070: fdb3 2b5d f5aa e03f 8e3b de9f 9b59 b1bf
00000080: 4693 2929 7a89 c13f 27f5 111e 7ccb 86bf
00000090: 4416 839d 2077 be3f ca28 5002 dad1 cbbf
000000a0: 8bb4 36ff 0cf2 ca3f 37e9 fb8b cea4 d93f
000000b0: 1dd3 085c 5a44 8c3f 7938 1350 4290 ac3f
000000c0: 97e6 57dc 70b1 a53f a6a0 9327 b953 cf3f
000000d0: 4a60 c12d b9ce c4bf bbf6 efd9 b58d c03f
000000e0: e4a7 1060 531d d73f 446d d8a1 2512 d6bf
000000f0: 8182 098f 1069 bdbf 1189 72a0 95ac b13f

lstm.bias_hh_l0 f8 [32]
-0.09013961796759154 -0.21067120448840776 -0.0012892603593978296 0.30532788679521194 0.03445402279816297 0.16746504452896807 -0.11262408917345096 -0.26260387285779474
-0.20248340046751437 0.225417418305978 0.2716935517104845 -0.0018915902935792309 0.381672763129725 -0.17022314737848898 0.2666027521037264 -0.2501352977941587
-0.3567068916467584 0.12324926845581285 0.07061327893207604 -0.17585202889336546 -0.007014651511908129 0.056041330455121 -0.1306159776384981 0.28750771226921557
-0.2261660278475429 0.41261546275751404 0.03358849189038029 0.24009894885564742 0.18481318485012369 -0.3463950208856138 -0.09391173244837808 0.09395740303020682
00000000: 42a7 3ed7 6313 b7bf 364a be26 46f7 cabf
00000010: 78de 18c5 8c1f 55bf 06e7 15fa 7d8a d33f
00000020: aa7a 442a f5a3 a13f 21d0 bc9c 7e6f c53f
00000030: f4e3 bdab eed4 bcbf f689 6e79 80ce d0bf
00000040: 05d4 7edf f9ea c9bf ae55 c95b 7ada cc3f
00000050: 025c c859 6d63 d13f 49d4 b19c e7fd 5ebf
00000060: c4a1 da98 536d d83f 60a3 8141 dfc9 c5bf
00000070: 4cc8 53fd 0410 d13f f578 e67a 3702 d0bf
00000080: 745c 7824 49d4 d6bf 500d 4699 438d bf3f
00000090: 2935 ad3b b613 b23f d320 84bc 5182 c6bf
000000a0: 563b 622d 65bb 7cbf b8e2 0e03 73b1 ac3f
000000b0: e96d 253c 06b8 c0bf dcd1 62bf 8666 d23f
000000c0: 5b24 8926 02f3 ccbf f483 97af 4a68 da3f
000000d0: b3dd 61c4 8232 a13f 2cca 91f6 8fbb ce3f
000000e0: 5d83 665c f5a7 c73f 56dc 8c05 562b d6bf
000000f0: 9494 936b 990a b8bf 2f59 3ba5 970d b83f

linear.weight f8 [2, 8]
-0.5067074026303667 0.07311993217934092 0.20356258567764732 -0.227045200585472 -0.3301723270203689 0.2718998573339002 -0.007013305894987211 0.31819486250572404
0.11783320174723227 0.021036550695530787 0.09617376557008547 0.08678339555120507 -0.2634872520240214 0.14791225558479204 -0.35717748367747265 -0.17214479953869377
00000000: 6f08 5e71 f236 e0bf bb60 65e5 fcb7 b23f
00000010: 595c 16bc 560e ca3f fa3a 9d2f d10f cdbf
00000020: 5c30 a61c 8b21 d5bf 9050 c2a8 ce66 d13f
00000030: b503 4bf7 fbb9 7cbf 44e8 0dfc 4d5d d43f
00000040: 3c28 e313 512a be3f 4024 0805 9b8a 953f
00000050: e64f db09 d89e b83f 186f bac5 6f37 b63f
00000060: 0bca 96a2 f9dc d0bf f806 35ee c9ee c23f
00000070: d5c9 d0f2 fedb d6bf 30fb 183e d708 c6bf

linear.bias f8 [2]
-0.1318397635133834 -0.028174006901335324
00000000: fe19 4d18 20e0 c0bf e33c f498 a5d9 9cbf
