Ventil_trained_NNs/OR_MLP0.pth (torch, 20488 bytes, 6 tensors)

network.0.weight f8 [25, 60]
0.058799801495260665 -0.021428888484585035 0.00048603431047908985 -0.03419712416998819 0.10986287568790294 -0.03059592602189362 0.06821543822943553 -0.026062513867500837
0.09202242301246702 -0.014055509045994691 0.09243474851351217 -0.026211111363674915 0.006102098859731847 0.14949737310254116 0.11149698944019525 0.030794602424276667
-0.07357028300448641 0.08964939405511514 -0.11968924512659201 0.04643471642716837 -0.30311102964886383 -0.0925219699807483 -0.2219822439645847 -0.17530709456400542
-0.006847474549953611 -0.0348653660681869 -0.16447996925209607 -0.02269661384697345 -0.006979355513406406 -0.05669751764373304 -0.04073920634581332 0.1035355975683852
0.10696651837250781 0.13639356908208233 0.14930306424233877 0.056233549941303446 0.08430443851570814 0.0010626646493841578 0.17636397210044735 0.06611495526557547
0.005992343503187193 -0.010654337260236643 0.20066656373988453 0.014819602314474233 0.027321638644340635 0.04075574186695431 0.2094764004032879 0.10282325190142073
0.17008671453905844 0.10397030407256613 0.07037668078155813 0.08307400890399547 0.1459919292155408 -0.10139343054065858 0.09814210971562909 -0.005884380592421416
-0.0036289426246276114 0.026861061812238234 -0.0698035860260785 0.12858369614994317 0.026046027648963705 0.10486559542200428 -0.12223224037966753 -0.005958867882515604
-0.11492180780757298 0.08047045466220311 -0.10723752789165696 0.09103470673155323 0.07245940929225612 -0.10903963004600396 -0.08034350904221271 -0.024542321073494407
0.09090240696240386 0.14876623965673802 0.09241824778680895 0.2008079628324047 0.19072725845821834 0.27844858036576214 0.14296758569305396 0.31093077614128034
-0.05966721464287464 -0.10456267239870853 0.02496786958135291 -0.31274718071788116 0.10554947196442901 0.4936047511999062 -0.4348813557873916 0.09175460054549675
-0.17874613965606478 0.1963703069053951 -0.13722041948406014 -0.15685287954366392 0.10302465845049134 -0.4353127800941616 0.20500438603875604 -0.31813134703174134
-0.6405052011836193 -0.6497784697449078 0.24389636107961538 -1.6383298071634587 0.09149978091056699 0.0022674148145674805 -0.11867564606101791 -0.06980304879566647
0.0017056615070079751 -0.048833025158574433 -0.029486635058036975 -0.0974975967625695 -0.02587834325692873 -0.07647251136621294 -0.21276946633595278 -0.010105752413201115
-0.009146737011305767 -0.20848262761973793 0.027625681009299578 -0.15706425516559613 -0.13691189335516774 0.025455754122832314 -0.05115548102168475 -0.3261524962128224
-0.09212697429029182 -0.012325670788390352 -0.141699544576989 0.06335773031590086 -0.14401938220104676 -0.04198261611149758 -0.06368754444247515 -0.025622981941712246
-0.10685692968116692 -0.0778275409830768 0.057522829330079656 -0.10728529898262594 -0.04351111844031897 -0.12467744371465196 0.027794781910061097 0.09670907693745676
-0.0018458164156208137 0.046453258759605896 0.05868146920684546 0.09388454519808957 0.10019304360770485 -0.0532450105572151 -0.02244101012257973 0.10487927133340916
0.10302461092546421 0.04474599372542218 -0.08168897521547955 0.10219748511095451 -0.009215827471055779 0.1580996123145657 0.14217993258661396 -0.03271713208399469
0.033137351465041105 -0.12032228404959842 0.055219866087936005 0.027810156457967618 0.09678136618542697 0.14038621098500087 0.022310646297958786 0.07290221548514082
0.03067735634556109 -0.12220745864990436 0.041434185849572334 -0.042217934856316995 -0.07211481740574043 -0.059198763938647335 0.04816642266158247 -0.016800972094199004
-0.16920644043494518 -0.013635622128273319 -0.1446038057894474 -0.16483572381386608 -0.1620419152540545 -0.05943156387179483 -0.16570160834358375 0.03384174563225866
0.06893934304501866 -0.06940823445663234 -0.06397574336904749 0.11456164524585533 0.08388158579703293 0.003405984400947141 0.21966647558789465 0.04897347631702053
0.13527455752206133 0.20358684255411028 0.039084684991053595 -0.018320501022118966 0.18257986565000947 0.14447270294622802 0.05412883466221114 0.12586162821049093
0.05965908526574642 0.035541070366707665 -0.06962505202912184 -0.11960791984158191 0.04337431826285713 0.052250794312897406 0.04416624677705116 -0.14356649921955633
0.041745007605867565 -0.07638084268447577 0.16319428425440818 0.17275555709351392 -0.06411123341137466 0.17518041413324 -0.041653669916229284 -0.01620187799194877
0.16278011413597876 0.025100748282617963 0.14822866027837384 -0.036329583146423025 0.08592196384475694 0.10822494764142511 0.027262558643571962 0.01825580743590061
-0.13247113058163515 -0.17984689783490357 -0.30625193559114544 -0.39457158038054363 0.09984454522445073 0.15246675356370248 0.14137094481182966 0.058599736925170044
0.19472548463152567 0.01113446121339316 0.17437552054996708 -0.0841032611568605 -0.07986496967747928 0.13389764880169105 0.022885479015470483 -0.0062911255858179305
-0.0706188537549904 0.0011315891411206253 -0.09390523096073626 -0.16599332464401406 -0.23920050068093116 -0.24072322191830575 -0.4029336152772621 -0.273522555601135
0.20816573523055612 0.04898204539010351 0.06873799122214609 0.10013444274908474 -0.0007697568981599679 0.18005641486588986 0.013544969467018069 0.022264164160875524
0.1676488783235778 0.07037732732634777 0.09494411500775198 0.0265854399038565 0.01841347048740315 0.18764727949600585 0.1669801989970817 0.1395303227302024
00000000: 62eb ddf0 011b ae3f 4577 ec5c 74f1 95bf
00000010: 7bae de77 4dda 3f3f adcd da13 4982 a1bf
00000020: 2dc2 1f32 f91f bc3f d895 9ed6 8954 9fbf
00000030: 8f19 4724 9176 b13f ca8f d9b2 21b0 9abf
00000040: 4a54 5611 c88e b73f 2a0e 737d 22c9 8cbf
00000050: 2f28 e1bd cda9 b73f 3b2b 65e8 15d7 9abf
00000060: 46d2 a1b0 83fe 783f 031b 28dc ba22 c33f
00000070: 3783 3f13 118b bc3f beec 38c9 9e88 9f3f
00000080: 2f34 7687 80d5 b2bf f5ab 923f 43f3 b63f
00000090: 7c6b 8051 f4a3 bebf 444e e888 4ac6 a73f
000000a0: 3a85 d9cd 2b66 d3bf 2493 3a13 85af b7bf
000000b0: 526f 0f07 ea69 ccbf 1960 f47e 7670 c6bf
000000c0: 0a30 09f4 180c 7cbf cf46 0d8e dfd9 a1bf
000000d0: 9475 64fc ad0d c5bf 6b8e cff8 c73d 97bf
000000e0: 4ff7 d57a 6296 7cbf 88a3 1600 7507 adbf
000000f0: d42c d7ed c4db a4bf 132d 8715 4f81 ba3f
00000100: 9849 2d62 2862 bb3f 30cf 4b2f 5875 c13f
00000110: f184 0ee1 5c1c c33f cc2b dfd3 a4ca ac3f
00000120: e125 55c6 f994 b53f 2b29 9b7a 2369 513f
00000130: 1a9a 2e3a 1893 c63f eb63 a4e2 e8ec b03f
00000140: db1d f675 6d8b 783f ab04 bff0 f0d1 85bf
00000150: afed 5424 71af c93f 8c3e 3e5a bd59 8e3f
00000160: f562 cd21 34fa 9b3f f2b4 e2c4 efdd a43f
00000170: c209 8268 1fd0 ca3f 515a 2fe8 9f52 ba3f
00000180: bcf4 36c6 66c5 c53f 6031 bf3f cc9d ba3f
00000190: 599a 5bc6 3404 b23f f4e8 6397 5644 b53f
000001a0: 0bf8 ba10 ddaf c23f 648d 337c ebf4 b9bf
000001b0: 58cd 965f d71f b93f 4507 3a63 381a 78bf
000001c0: a4eb 89bc 71ba 6dbf fedc 1358 7781 9b3f
000001d0: b822 20d7 a5de b1bf a9a3 e138 6e75 c03f
000001e0: a5a4 c553 cfab 9a3f bb25 d0be 78d8 ba3f
000001f0: 398e f2b2 9c4a bfbf 4a4f d36a 5368 78bf
00000200: 1777 21fe 836b bdbf 8583 1133 b699 b43f
00000210: 77d4 322b eb73 bbbf 5885 36f0 0c4e b73f
00000220: af9d 3229 b38c b23f 83f9 036d 05ea bbbf
00000230: 343d c867 6491 b4bf 1fad 8349 9f21 99bf
00000240: 33fd 0751 6145 b73f 1a8c 09ab c50a c33f
00000250: af47 cce7 b8a8 b73f b21e 9248 13b4 c93f
00000260: 2353 c434 c069 c83f 0878 92fe 19d2 d13f
00000270: 8a49 7808 c34c c23f 4530 b632 4ae6 d33f
00000280: b4b1 117f b38c aebf 70b6 558a 9ec4 babf
00000290: 07f8 355d 2d91 993f 3b5e 46c0 0c04 d4bf
000002a0: b281 324a 4a05 bb3f b071 e361 3897 df3f
000002b0: a4ce 2f9c 18d5 dbbf 3eb7 99c0 3a7d b73f
000002c0: 40f5 0d4c 27e1 c6bf 3a36 0887 a922 c93f
000002d0: 2383 034f 7090 c1bf 1134 f651 c113 c4bf
000002e0: 57f7 b9f2 d25f ba3f c341 8222 2adc dbbf
000002f0: 9858 c96e 953d ca3f 415c d594 435c d4bf
00000300: a90c 80c3 047f e4bf b460 a637 fcca e4bf
00000310: 3ea5 39f7 fe37 cf3f c143 dd50 9936 fabf
00000320: f81f 9a96 876c b73f e578 330f 1d93 623f
00000330: 12eb a9f2 8661 bebf 010d bdd3 9cde b1bf
00000340: 4355 0019 10f2 5b3f 3ca9 0a6c a400 a9bf
00000350: 4832 f994 be31 9ebf 2ea9 883d 9af5 b8bf
00000360: 8149 da37 da7f 9abf 2a62 5cd7 b393 b3bf
00000370: 8209 c0a5 073c cbbf 84eb ed20 53b2 84bf
00000380: 4a1e a142 86bb 82bf 0d99 b409 8faf cabf
00000390: 71d2 db11 e849 9c3f 5a46 a777 ae1a c4bf
000003a0: d46a 3234 5486 c1bf a571 cfbd 1211 9a3f
000003b0: 3da2 ff1b 0d31 aabf a08a 2fb8 aedf d4bf
000003c0: 18ff a725 a295 b7bf 19cb 7f87 333e 89bf
000003d0: 457b e8ee 3523 c2bf 38d4 a753 3638 b03f
000003e0: 5a95 4524 3a6f c2bf 6318 66d6 be7e a5bf
000003f0: 9000 8bb0 d34d b0bf 0ed4 dc35 e93c 9abf
00000400: aae2 54ca f95a bbbf 2b1b 4077 81ec b3bf
00000410: 6cfe 7ddd a173 ad3f 67d2 78a2 0c77 bbbf
00000420: c156 6ddd 1647 a6bf c9a5 4d67 dcea bfbf
00000430: d770 363d 3c76 9c3f ae37 ac12 edc1 b83f
00000440: f7c0 ed48 ea3d 5ebf 4b8c 54b6 b8c8 a73f
00000450: cecf 3f5e 7f0b ae3f cbc2 394b d108 b83f
00000460: 77f0 9455 40a6 b93f 826d 0916 ee42 abbf
00000470: e642 43b2 c6fa 96bf eac1 6730 5ed9 ba3f
00000480: 6fa5 9b26 d25f ba3f bcfc 5a67 f2e8 a63f
00000490: 7686 fe94 91e9 b4bf 89f5 4848 9d29 ba3f
000004a0: cb06 c06c bfdf 82bf 105f 33ac 9b3c c43f
000004b0: e7b1 4db8 f332 c23f b9ab a3c8 4cc0 a0bf
000004c0: 8906 a301 61f7 a03f a719 f9f2 70cd bebf
000004d0: a9d6 df3d c745 ac3f 8a38 ef01 447a 9c3f
000004e0: 87ec a0e2 a9c6 b83f 2eb6 7ee4 2cf8 c13f
000004f0: 8836 cf20 9ad8 963f 3d8b 5037 b8a9 b23f
00000500: 367d ed88 e269 9f3f 4986 3aee fc48 bfbf
00000510: bb12 5292 dc36 a53f a36b 06d3 969d a5bf
00000520: ff8d 50de 1d76 b2bf c304 29e6 4c4f aebf
00000530: 1491 31f4 44a9 a83f 2f0c be26 4634 91bf
00000540: 9967 f87f 8ea8 c5bf 4ef8 cf38 feec 8bbf
00000550: 7714 5fa4 6082 c2bf 0a1c 7f45 5619 c5bf
00000560: 8b76 4c1b cabd c4bf a1e6 5b5e d06d aebf
00000570: 3d7a 5dd6 b535 c5bf e7cf 758d b453 a13f
00000580: 8d3c c93f 02a6 b13f 5778 10f1 bcc4 b1bf
00000590: 8ce1 81dd b660 b0bf 90f7 b477 e953 bd3f
000005a0: bd20 bc7b 4379 b53f 88ae 9bf3 dde6 6b3f
000005b0: 44bb 56f4 071e cc3f 6f5a 4e2e 0d13 a93f
000005c0: 41e1 443c ad50 c13f 1739 5537 220f ca3f
000005d0: 4640 9f67 e802 a43f f101 f202 9cc2 92bf
000005e0: 8ffb efeb c65e c73f 87cd 28df 147e c23f
000005f0: a921 4a4d c6b6 ab3f 9720 7edc 3b1c c03f
00000600: 0756 40b8 a28b ae3f a799 c76d 7032 a23f
00000610: 4887 7289 f2d2 b1bf 47eb 0fe8 9f9e bebf
00000620: 95bc d99c 2835 a63f 2620 87b9 9dc0 aa3f
00000630: 1f2f fd52 f59c a63f 847f 7915 6360 c2bf
00000640: 767f e004 9a5f a53f 19e9 5ee5 b18d b3bf
00000650: dc26 e2e0 8ce3 c43f 9e9e f5a5 da1c c63f
00000660: 1dde ce02 9869 b0bf 670e cdd2 4f6c c63f
00000670: fbdf 183c a153 a5bf aed2 6fa0 3997 90bf
00000680: 469b 5391 fad5 c43f b877 eab3 02b4 993f
00000690: 82dd 1c20 28f9 c23f 867e fb86 ca99 a2bf
000006a0: c9a8 b858 fbfe b53f 1932 bb52 a1b4 bb3f
000006b0: 3f21 1e57 b7ea 9b3f 61d9 987f a6b1 923f
000006c0: 0392 c162 d0f4 c0bf 9b75 3e20 3905 c7bf
000006d0: bfd7 ecb7 a199 d3bf 1097 6a28 a940 d9bf
000006e0: 4f4a 6c80 698f b93f 3e46 24d4 0784 c33f
000006f0: 9824 4970 7118 c23f 9dad 4be3 c800 ae3f
00000700: f256 18c2 c3ec c83f 572c 2916 aacd 863f
00000710: 4017 fee2 ef51 c63f 87d9 2794 ca87 b5bf
00000720: ba5d dcd8 0772 b4bf cba9 4ee3 8e23 c13f
00000730: 0bef b27f 4a6f 973f a07e 562a b9c4 79bf
00000740: 25d3 5bc3 1314 b2bf 64bd a196 3a8a 523f
00000750: 0352 e657 2c0a b8bf 1ca5 59ee 443f c5bf
00000760: 2d43 ce3b 1f9e cebf 9870 c3be 04d0 cebf
00000770: f2ca 0413 aac9 d9bf 259d c1bf 6481 d1bf
00000780: af44 7bc0 2ca5 ca3f 5c57 15b6 2c14 a93f
00000790: d9b6 4a20 d098 b13f 257d cf2c 69a2 b93f
000007a0: cd38 0b5a 3039 49bf 485a a4ae 160c c73f
000007b0: a9db 1607 77bd 8b3f a462 c6c3 6acc 963f
000007c0: 5530 ceb8 8475 c53f f41d 3f9f 3f04 b23f
000007d0: d5ec e7ec 414e b83f 3652 bfab 3639 9b3f
000007e0: 9d70 3216 fbda 923f 1a32 4f78 d304 c83f
000007f0: 23d2 e26e 9b5f c53f 0599 762e 21dc c13f

network.0.bias f8 [25]
-0.7830111810777999 0.5045615344454172 -0.21607932414593303 -0.26252926309249347 -0.07452269779167046 0.6001070188351555 -0.07695202438186585 -0.12038185210690373
0.13081368694905043 -0.0015510448225626548 -0.16068144708244697 0.4453606827937763 0.012607894051134489 -0.07295282129915139 0.2730850421280838 0.10384677594514856
-0.6466802967314569 -0.1335759854584815 -0.08557484651799338 -0.12098993501482538 -0.06088017488784761 -0.3026853098147753 0.4985469907022186 -0.10932923658532877
0.5951358235451536
00000000: 1f35 e476 6d0e e9bf 9567 283b 5e25 e03f
00000010: 6537 46bf 7ca8 cbbf 526a ce89 47cd d0bf
00000020: b32d d365 eb13 b3bf d3e7 7fa2 1334 e33f
00000030: 86c3 14bc 20b3 b3bf 5dc0 d455 58d1 bebf
00000040: 825d a8bd 80be c03f 7000 67b2 8d69 59bf
00000050: 2283 25ac 3591 c4bf 0281 e117 ca80 dc3f
00000060: fdeb f7e4 2ad2 893f 497b a13d 09ad b2bf
00000070: bae1 3daf 397a d13f 67bd 7aca b395 ba3f
00000080: debb ade0 9ab1 e4bf 819e 8994 0419 c1bf
00000090: 26ae 27af 3be8 b5bf c2a9 0846 32f9 bebf
000000a0: 2473 3cb0 af2b afbf e594 a834 325f d3bf
000000b0: a774 25a3 31e8 df3f 3771 a137 00fd bbbf
000000c0: 26be 5948 5a0b e33f

network.2.weight f8 [25, 25]
0.27707294388337417 0.16463191104909744 0.07914351840159575 -0.000603394082556352 0.06320432700864063 -0.19625397634959893 0.027299060063706835 -0.06620504993863591
-0.07715081150374535 0.07177975153646038 0.03858226959421404 -0.06858907843003316 0.0041666785051549205 0.6443974347431581 0.10369085398773809 -0.07577150658107089
0.1306142881242282 -0.02764910132854033 -0.08331377910251006 -0.14627215423014325 -0.18020966188546866 -0.1614373659364693 -0.09734455863489751 -0.07970187691525527
-0.03660135709822133 -0.3126711534987447 0.5853807620759676 -0.1537353473215048 -0.6522434347222081 -0.01009339637580962 0.036686946604167624 -0.3119470861655675
0.048361678192304886 -0.3524844462931818 -0.11023782154507551 -0.3100707879576625 0.8310922794035253 0.027761702471298937 1.3746074804677963 0.4223087499191319
0.16544839391093213 0.6359223196137395 0.24434219814367766 0.06255467203552967 0.1419122702229172 -0.2131079119939212 -0.15172034345375007 0.4636209646044583
0.104633360132532 0.24774604980876105 -0.17337694550020538 -0.07825810572342069 0.15272440466801504 0.03916189475590426 0.09290319629263316 0.006151163279172623
-0.14110051666432671 -0.18720012585038046 0.10348286311425489 0.1710261402208375 0.05098095700256781 -0.1993385003804142 0.19259082091390323 -0.19431917669120607
0.1584410013439321 0.11448995880257215 -0.19708147089309588 -0.16687157976744937 0.11001257887822584 -0.01483676217740872 -0.021048500088239528 -0.18966166984216815
0.01639480575028485 -0.14876707049399762 -0.17033444217512153 0.16041689336171375 0.07528429924634863 0.02781891303624414 0.20170215583524304 -0.035782595603122344
-0.009869827874564545 -0.06790604868122553 -0.05191609722093733 0.0573943551943241 -0.08231131562300659 0.07500519164960404 0.6490136071929057 -0.06824578896073569
0.10399757757493434 0.10229410273542378 0.18458509471114387 -0.007263524553923161 -0.01232177480100396 -0.039277303772072114 -0.06365900945984973 0.15066749680953406
-0.29224051976584303 0.04073597856531236 0.04997454457834435 0.016045727305642334 0.590785337180619 -0.18453031033932216 -0.0334367931895627 0.04575389829031258
0.2428282206644884 -0.13093528784225 0.05369467769905751 -0.07234045604142338 -0.029810101153235857 -0.16115740842404983 -0.0720593936443034 0.9903916768573121
-0.022446206781177445 -0.9349142156095597 0.1010646288749213 0.2423273802572307 0.15157449080236834 -0.16167391473458106 -0.005244304740302162 0.028848319630130587
0.10307863221914153 -0.04994207445085661 0.2788538502759998 -0.029395131613906333 -0.16198323540105206 0.005048686133884911 -0.018043669615318714 0.11091194410562441
-0.06662495033624379 -0.2092463920865432 0.07238334421486406 -0.13601229071012258 0.15321861253100863 0.20045071626710617 0.09093221457407899 -0.20263324198431854
0.09433110008959411 -0.06582788228135637 -0.06150455131220618 0.06876207910668916 0.06154193082323135 -0.24832346075661954 -0.11234898539484298 0.03202405104720281
-0.12150334004080227 0.11909130950389725 0.04383114319919765 0.14365457405000007 -0.009858200421988256 0.22121922866819027 0.09941197933627981 -1.4687893837456496
0.06988043501972582 -0.027897866545097984 0.02207106734268434 -0.1927807092262203 -0.30783262701462816 0.1359536501753377 0.20009254258907241 -0.09218328547060628
0.03821641806237321 -1.3728843046176071 0.08221368646348909 0.9170058822663426 0.2814858685408378 -0.11191995448997408 0.28395182378234807 -0.20346752005115015
0.04296697996573166 -0.008223292115647096 0.03527275078619722 -0.015450538716412294 -3.406924388510643 -0.06498655866984004 -0.5002658875214472 -0.6058231492044075
-0.5248613915229631 -0.02219880999614487 0.014364312995371234 -0.09794621354085155 0.08929976062432983 0.16671598105791172 -0.038214193547447935 -0.22649527060894648
-0.14301247988269683 0.2245161368940551 0.3076487426058561 -0.0388403892895792 0.8939792112573971 0.39166215560820233 0.3975033208109892 -0.1373599734911212
0.2670580596699256 -0.0653013615868097 0.08928967773697566 -0.18217199830439257 -1.442351078613157 0.3092062153151921 0.1653041779222567 -1.0793638509684427
-0.1356975865186753 -0.04088224604521138 -0.07346785797649984 -0.17397228359745048 -0.04286737442880942 -0.03542580962265292 0.14967275636360622 -0.171661938890762
-0.2021915335748473 0.1489623780920242 -0.16656423290768604 -0.1714877915865214 -0.17029838723188018 -0.12332045005833818 -0.15905686784456421 -0.27385913497384995
-0.6651315991998961 0.34302053573595714 -0.06937529596857892 0.06256988811782059 -0.01264067895739157 0.09122564745758834 0.16557737820233792 -0.17565393416302716
0.09667991410320388 0.06769244660583533 -0.38813926632777584 0.11058331176302134 -0.12220864115152683 -0.011243578003945097 -0.2166302091901553 -0.0073694091658986945
-0.3693643519233872 -0.0056473106636402365 -0.16595775255263706 -0.5733477901434183 -0.11244273614340165 -0.19570592942166726 -0.12652547125405278 0.2629581951278107
-0.1356435123173925 0.12103778847605552 -0.3403681614554513 0.17090516106694112 0.03950156632251684 0.062374184587648124 -0.08110353878337229 -0.054062451511377736
-0.03552022084952033 0.18894678628351297 -0.2174206957198018 0.04992886997780203 0.010338020627301443 -0.26220804070062814 0.06498935514318936 -0.04634588455850595
00000000: 6979 2528 90bb d13f bfbb ea90 a812 c53f
00000010: 8aa8 39e7 bf42 b43f cb72 f3ec a2c5 43bf
00000020: cfc1 77a5 282e b03f 7fd4 10ad d91e c9bf
00000030: b99a bde8 48f4 9b3f 5c05 516c d0f2 b0bf
00000040: efb8 44d4 27c0 b3bf dc35 5d65 2860 b23f
00000050: 4ca7 3924 0ec1 a33f f142 b8c8 0d8f b1bf
00000060: 5bf4 993e 1411 713f 1d24 7b5e e79e e43f
00000070: 9c8a c5da 7b8b ba3f 3ffe bbee c265 b3bf
00000080: 0623 f10f f8b7 c03f d425 e1c7 0b50 9cbf
00000090: c22b 8d44 0d54 b5bf 87f1 5dc3 0bb9 c2bf
000000a0: be53 1c36 1c11 c7bf ac56 86c7 faa9 c4bf
000000b0: ddca c7af 92eb b8bf 0ce5 c79a 5767 b4bf
000000c0: 81c0 73bf 69bd a2bf 4780 abde cd02 d4bf
000000d0: e15c 9a6f 70bb e23f 9616 7e90 99ad c3bf
000000e0: fa33 a59f 2ddf e4bf 76a3 b7ba d8ab 84bf
000000f0: 53c2 b5a7 a1c8 a23f 8778 4ae9 f0f6 d3bf
00000100: 8466 6ea4 dcc2 a83f 7562 4bec 1a8f d6bf
00000110: 9581 51be 8b38 bcbf 7447 6e25 33d8 d3bf
00000120: 29e1 ffd5 4e98 ea3f 1e34 c850 906d 9c3f
00000130: 6823 d769 64fe f53f 7ae8 6d47 1b07 db3f
00000140: 88f7 82b8 692d c53f f532 b1c3 7959 e43f
00000150: 15a9 07eb 9a46 cf3f 70c7 9a3e 9503 b03f
00000160: f817 c167 2e2a c23f c030 44bc 1e47 cbbf
00000170: 84c8 a27c 926b c3bf f1d4 2d44 f7ab dd3f
00000180: 20fe d67b 40c9 ba3f 0527 d27e 24b6 cf3f
00000190: 7ee1 663b 3731 c6bf e59f ba24 b908 b4bf
000001a0: 2bd3 ac29 798c c33f a0b6 7322 070d a43f
000001b0: 6c4e c5fd 80c8 b73f e7c8 dc51 f631 793f
000001c0: 72d0 42ec 940f c2bf dbcf 2a79 2cf6 c7bf
000001d0: e6ac c558 da7d ba3f d03a 813f 2fe4 c53f
000001e0: 75f1 160e 2d1a aa3f 17d9 fb89 ec83 c9bf
000001f0: 84e1 aae6 d0a6 c83f 8aeb 6f66 73df c8bf
00000200: 2710 8f73 cb47 c43f f605 c7c4 364f bd3f
00000210: ff13 1134 f739 c9bf 98d4 dd44 0c5c c5bf
00000220: d33b 6ecc c829 bc3f 4add a482 bc62 8ebf
00000230: d90d 09ee bc8d 95bf 3470 a366 d546 c8bf
00000240: a144 16ca ccc9 903f 4029 3fa3 cc0a c3bf
00000250: 7524 43dd 84cd c5bf 1574 5b6f 8a88 c43f
00000260: 0a54 2af3 d445 b33f 56c2 cda6 8f7c 9c3f
00000270: 122b 6c51 60d1 c93f 5e47 c3ab 1852 a2bf
00000280: e9d9 81df a136 84bf a154 4972 4a62 b1bf
00000290: fa56 6627 bf94 aabf fdba 11fd ca62 ad3f
000002a0: 3c09 b1b8 5a12 b5bf 964e 2a4d 8a33 b33f
000002b0: 3fae 312f b8c4 e43f 6c13 ad57 8e78 b1bf
000002c0: 492d 8cd2 959f ba3f dc82 d241 f22f ba3f
000002d0: ba84 8e00 7ca0 c73f cccc 9a86 5bc0 7dbf
000002e0: 4d54 649e 283c 89bf b82a 5a9e 271c a4bf
000002f0: a2ce b9f3 f44b b0bf 38fe ae91 1249 c33f
00000300: 2b76 bd94 11b4 d2bf 28ca 6a9f 58db a43f
00000310: 3b66 3175 4396 a93f dab4 1288 4a6e 903f
00000320: f9b4 c4a6 b6e7 e23f 6a99 0370 b09e c7bf
00000330: 5dee 769a a01e a1bf ea8e a411 0e6d a73f
00000340: 7461 26c1 fe14 cf3f 2e60 96cd 7cc2 c0bf
00000350: c998 5f69 de7d ab3f e129 e074 e784 b2bf
00000360: 73a5 2c06 8a86 9ebf 8d3e 5853 cea0 c4bf
00000370: 4b66 1203 7c72 b2bf efa5 cae2 49b1 ef3f
00000380: f679 2d70 23fc 96bf 4179 9337 d1ea edbf
00000390: 91d7 cc1b 5fdf b93f 25a9 9066 9504 cf3f
000003a0: 16b7 73fc ca66 c33f 655e 3318 bbb1 c4bf
000003b0: 2502 9955 0d7b 75bf 4582 6cf5 698a 9d3f
000003c0: 2331 4c7a 5c63 ba3f 6df1 ebf0 0192 a9bf
000003d0: 7324 d3d1 bdd8 d13f d0fb c5e3 c119 9ebf
000003e0: eb1d 46dd ddbb c4bf ad2a 535d eead 743f
000003f0: 6d2a 972b 0a7a 92bf 3660 aba4 b964 bc3f
00000400: d5b2 ca2e 550e b1bf 45aa 68f5 95c8 cabf
00000410: 428e 2d00 b787 b23f 5d1d 3aca d968 c1bf
00000420: 57c6 fae0 aa9c c33f 03db 697b 5ea8 c93f
00000430: 429f bf67 5547 b73f 64da b3d5 e2ef c9bf
00000440: 1069 e13d 1526 b83f 9738 9099 18da b0bf
00000450: 2ad5 e148 867d afbf 9edb f740 649a b13f
00000460: b2db 6f88 6c82 af3f 7ebd 632b 10c9 cfbf
00000470: 4277 0232 e7c2 bcbf 8ac8 ddd7 7465 a03f
00000480: bc7b d4c7 d71a bfbf 019b 8e9f c47c be3f
00000490: 2c77 2c1d 0971 a63f 7d97 bbe8 4563 c23f
000004a0: fd60 4743 8930 84bf 1228 3064 e950 cc3f
000004b0: 9377 1440 1073 b93f 9864 fe4b 2980 f7bf
000004c0: d63b 0a27 afe3 b13f c7e9 c121 4291 9cbf
000004d0: 94d5 b241 cc99 963f 0d91 b6cc 09ad c8bf
000004e0: a1da 6a9e 87b3 d3bf ed2f a3e0 ed66 c13f
000004f0: 8df9 4be7 a19c c93f a886 55e4 5299 b7bf
00000500: 630e 7f33 1a91 a33f a263 5888 55f7 f5bf
00000510: c4ef a4c6 f40b b53f ab5a 52b8 1c58 ed3f
00000520: c6d1 ea4d dd03 d23f 22e3 4d40 c9a6 bcbf
00000530: 2e39 3245 442c d23f 367e 3544 390b cabf
00000540: 157b 859b c4ff a53f 8005 9e95 5fd7 80bf
00000550: 4523 221e 450f a23f eac9 f033 88a4 8fbf
00000560: b9c8 e492 6141 0bc0 e8a2 2a88 f5a2 b0bf
00000570: 60b0 469b 2d02 e0bf dcc3 9f3a e762 e3bf
00000580: 11c6 f01d aacb e0bf 9f34 c6eb 48bb 96bf
00000590: 8865 5b74 096b 8d3f 21cc ecc7 0013 b9bf
000005a0: 6510 6c5f 59dc b63f efa0 2e03 f356 c53f
000005b0: d100 0f8f cf90 a3bf 7867 fb09 ccfd ccbf
000005c0: a00d 02a2 3b4e c2bf 4f2e b1dc f1bc cc3f
000005d0: 7d73 095a 84b0 d33f 3c7a 8633 e3e2 a3bf
000005e0: cff0 744a 7a9b ec3f 05c2 5a25 fe10 d93f
000005f0: 67d0 bbc4 b170 d93f d53e f6f8 0295 c1bf
00000600: 5298 1ab0 7a17 d13f 634d 660c 97b7 b0bf
00000610: 342d c035 b0db b63f 486f 7b7b 6951 c7bf
00000620: bfe6 7fb9 de13 f7bf 72ea 9fdd 08ca d33f
00000630: acbc 08f3 af28 c53f 264e 8607 1345 f1bf
00000640: 2e36 1fdc 895e c1bf 5d9e 808b 84ee a4bf
00000650: 13f5 501f cace b2bf 0212 3b4a b944 c6bf
00000660: 3468 7966 b6f2 a5bf baf8 86eb 5423 a2bf
00000670: e088 d714 7a28 c33f a57b c0b6 04f9 c5bf
00000680: fbb3 1d84 69e1 c9bf 39ac 1eff 3211 c33f
00000690: 9bcb 820e fa51 c5bf f880 43dc 4ff3 c5bf
000006a0: e079 dc69 56cc c5bf 5bb6 edd3 ed91 bfbf
000006b0: 4d5d ccb6 f95b c4bf 341b 1b77 e886 d1bf
000006c0: 0431 4310 c248 e5bf d2e8 b567 0cf4 d53f
000006d0: 9eda 5553 94c2 b1bf e72f 2e87 9404 b03f
000006e0: 5f15 c535 5be3 89bf 3103 6364 905a b73f
000006f0: 4611 2bb8 a331 c53f 966c 52ff d37b c6bf
00000700: 89db 40cd 03c0 b83f d3b8 5bcc 4a54 b13f
00000710: 74f5 ca13 46d7 d8bf a56b 811b 304f bc3f
00000720: eece 08c5 1049 bfbf 1f27 897e df06 87bf
00000730: c00f e6e7 89ba cbbf 14ea bbb5 622f 7ebf
00000740: 7d6d f460 aaa3 d7bf 995f c569 a221 77bf
00000750: 2a99 dd87 1a3e c5bf 98cb fc76 dd58 e2bf
00000760: 6b9e 6812 0cc9 bcbf 8aea 3f53 e40c c9bf
00000770: a4d5 9294 fc31 c0bf 2a81 129c 4ed4 d03f
00000780: d1ac a840 c45c c1bf 09b7 151f 55fc be3f
00000790: 7d40 838a 97c8 d5bf 1504 c066 38e0 c53f
000007a0: b9f1 fd9e 8c39 a43f d454 d655 82ef af3f
000007b0: 8019 aa96 33c3 b4bf 09ac 5dda 12ae abbf
000007c0: 2f70 cad5 b42f a2bf 8ed0 e285 682f c83f
000007d0: eb88 cbfc 70d4 cbbf 659e 5cdf 4690 a93f
000007e0: a43f ffa3 192c 853f 03ad e33b 04c8 d0bf
000007f0: c799 ed72 24a3 b03f 6d48 f7d4 a5ba a7bf

network.2.bias f8 [25]
0.28881740809900375 -0.017438614063875573 -0.16550982398673889 -0.25677395874950903 -0.22031214989687473 0.2074406848828595 -0.31716124539449736 0.09087184888169553
0.014940874437864456 -0.22529070428547823 0.015062060679059346 -0.013252666962180052 0.18974815068075854 0.18233649307874067 -0.15301985645717023 -0.13155909692058726
-0.10385927996951487 -0.46910105524985524 0.06381136905347519 0.13891900904824064 0.05673259979284306 -0.2833724083100139 -0.12866492442596153 0.24680447682586193
-0.012464909012432681
00000000: c73e 9302 fc7b d23f fb1d 5e94 6ddb 91bf
00000010: 0d4a 9808 6d2f c5bf 40ca d20a fc6e d0bf
00000020: aff8 5b43 3033 ccbf b442 b796 6a8d ca3f
00000030: b3ca 21ae 5e4c d4bf 80ed 12a3 6043 b73f
00000040: de95 ac38 5299 8e3f 23dd 7f67 53d6 ccbf
00000050: bc25 3790 dbd8 8e3f afad 7fd9 3624 8bbf
00000060: 473e d3da aa49 c83f 9cfc 515d cd56 c73f
00000070: f5a2 8f97 2796 c3bf 9ef2 61b1 edd6 c0bf
00000080: b3ec da92 8596 babf 4a4d b46e c005 debf
00000090: 019a 321f f155 b03f 79d4 531c 19c8 c13f
000000a0: ef62 7429 0e0c ad3f ebef 9106 c622 d2bf
000000b0: eba1 469d 1778 c0bf 909a 3c02 4a97 cf3f
000000c0: 7bb7 72c4 3387 89bf

network.4.weight f8 [2, 25]
-0.56216549724466 0.03364253125764539 -0.11780269165816644 0.2963773332502318 0.5639745270351064 -0.34332713226983386 0.4217936091222459 -0.10646089803265407
-0.23286848439213195 -0.31422603375201863 0.18928140025477963 -0.12963918114028625 -0.5149892717405075 -0.2081847318685926 -0.008349286203016688 0.07773942618747656
0.465596464849886 -1.1308018763877714 0.24546765264550102 -0.2402723020423237 -0.21666526613284082 0.36130982168058484 -0.21966699424628686 -0.4084722492811615
0.26710079782132773 -0.02335533595686581 0.05304486657526638 0.1754116624671018 -0.0522332572917872 0.16287171693190344 0.08986738483612226 -0.012665194350347528
-0.03302852677255949 -0.020808779411399105 -0.022040603181250878 -0.06326372940468827 0.03780419141983605 0.1320881784014982 -0.02462531815875071 0.0292629676318534
0.10263422085698114 0.16128968839274846 -1.2532075149179376 0.12423325976787172 -0.08953263322245998 -0.10667755154079611 -0.08144143856366845 -0.11844286916551665
0.07532399716243508 -0.016480071111221056
00000000: 615f 337f 42fd e1bf 8132 0307 9839 a13f
00000010: fd76 0d34 5128 bebf d577 65a2 d8f7 d23f
00000020: 3a92 ac4e 140c e23f f36a 3b5d 12f9 d5bf
00000030: ede0 359f aafe da3f d460 5a7b 0541 bbbf
00000040: 8ddc 5d6e a2ce cdbf d011 a182 471c d4bf
00000050: 3aed ea77 5f3a c83f 4b8d a345 0498 c0bf
00000060: a152 fdc7 ca7a e0bf 2279 731b cca5 cabf
00000070: cac5 7e39 6e19 81bf bac3 1525 bbe6 b33f
00000080: 5b76 6a1d 55cc dd3f 6174 55b5 c317 f2bf
00000090: e64d 2bea 7b6b cf3f 6205 b427 3ec1 cebf
000000a0: ba1e 1cfc afbb cbbf 79de f53a b31f d73f
000000b0: b332 264e 0c1e ccbf 0d1d ffc9 6824 dabf
000000c0: f732 d8f1 2d18 d13f 67c1 7c10 76ea 97bf
000000d0: eba9 525e b228 ab3f 770c d1ac e373 c63f
000000e0: 02df a947 51be aabf 0a3c d5fc fad8 c43f
000000f0: 1323 d986 8c01 b73f 0500 429c 35f0 89bf
00000100: ec7a a574 1de9 a0bf f7a2 2a8c e54e 95bf
00000110: 9bed 63d7 cf91 96bf e0ed d040 0d32 b0bf
00000120: 118f 992b 125b a33f 5719 36f3 43e8 c03f
00000130: 67eb 9420 6137 99bf 77d2 d983 1cf7 9d3f
00000140: 17fb 077e 3c46 ba3f eb18 6af8 23a5 c43f
00000150: 99c8 ba52 230d f4bf 924a c73b c0cd bf3f
00000160: a17f 9d53 9ceb b6bf 64c7 1553 384f bbbf
00000170: e68e 2b9b 58d9 b4bf 13a3 8299 4552 bebf
00000180: efa9 6af8 6e48 b33f 9b73 d5d9 26e0 90bf

network.4.bias f8 [2]
-0.11187153810683739 -0.13727372280877725
00000000: 52a7 85f5 9ca3 bcbf d02c 0873 2f92 c1bf
