Ventil_trained_NNs/tcn_3.pth (torch, 25602 bytes, 52 tensors)

tcn.network.0.conv1.bias f8 [5]
00000000: 895e f117 a54d aabf 8bcf 5591 feac d93f
00000010: 4b14 aa47 a8a3 d53f 268a 69f3 4b68 b8bf
00000020: df87 0343 d39b c4bf
-0.05137363354941466 0.4011837405480427 0.33811385153268664 -0.09534144108469231 -0.16100540897519885

tcn.network.0.conv1.weight_g f8 [5, 1, 1]
00000000: affb cf1a 43c3 a13f 8f42 624a 1a09 f53f
00000010: 6423 e47a 3863 e13f 4d0f ba32 6bfb ef3f
00000020: d2e7 1d19 4d5d 1640
0.034692856810571875 1.3147223382585798 0.5433618927209918 0.9994407644994482 5.591114418459215

tcn.network.0.conv1.weight_v f8 [5, 3, 7]
00000000: f371 901c 1ec6 b6bf 71c8 9b48 c1b3 b7bf
00000010: e974 dbd2 4cca c33f 406e 9983 deac be3f
00000020: ca06 41e3 81d0 ad3f d129 4f35 a868 c03f
00000030: 0d3c 4b22 8b25 c03f 30f8 6511 ae06 d3bf
00000040: 8443 1bf7 bc3f e0bf 23bc a243 045e 853f
00000050: a682 59a8 b4b6 c13f 38eb 243b 9187 a63f
00000060: 68f9 a3b5 6efa 83bf f6ff eebc 9991 df3f
00000070: ccf8 3978 f3d6 dbbf c1fa 6a54 fae5 bb3f
00000080: f666 3e96 56bd d6bf 66e1 f375 5795 993f
00000090: 41e9 da95 040e c73f d149 7eba 3b34 ef3f
000000a0: d34b 4c6f 0132 d4bf ad80 69b3 a7b1 a2bf
000000b0: 9396 41bc f664 b0bf 27cc c54c a297 ccbf
000000c0: d9ae f9cf 3d47 a73f 7577 231a ef4e b63f
000000d0: d6a9 deb1 b9d9 a23f 95fb ed8f fcaf bbbf
000000e0: 7019 fdbd c03d a8bf 6a9d b533 1451 a7bf
000000f0: 7a3c f43b c940 b6bf 05ae 4208 bc44 d23f
00000100: ff61 b82c 97d8 c43f fb35 7717 a0d6 c03f
00000110: 0ca9 f0a4 91fc e9bf 8fc4 609b dfca a4bf
00000120: c336 668f 5325 aabf fa3d 9cb1 b980 c3bf
00000130: 5f8c 9bdf db2c 9abf 9bea 0c45 8fa4 943f
00000140: c1ab d0ea 5e37 d3bf e4b8 fef2 7453 e7bf
00000150: a24e 6258 6b0b cfbf 6bdc 04c1 efa4 e13f
00000160: 34cd 4fcd 4a4b c5bf 58d7 8bbc ae34 d1bf
00000170: eb43 bdf3 984d c23f aa39 4bf9 0852 c0bf
00000180: 1518 64a8 8506 b9bf 4c72 5894 1d63 acbf
00000190: 50d2 3f5b 0a7e f4bf d17b 1054 0c2b fbbf
000001a0: 88cf 7bf1 a416 f2bf ca22 f561 1058 a73f
000001b0: 5bce 8b40 a727 d2bf ed74 45fc 169b e43f
000001c0: 49b3 8163 5819 abbf 7c9e cfa6 2c1b e23f
000001d0: 6d06 5a38 b256 fabf cb7e 1c0d 7d29 dfbf
000001e0: f291 1af0 63f1 b1bf 6b67 60b0 ef3a e2bf
000001f0: af06 8bf3 4628 f0bf dc5f 6b33 31ef cbbf
00000200: 1cf0 8349 56a2 bf3f 73c5 a46e 1e96 c23f
00000210: 9a99 2d3a 4811 c0bf 4c30 2c16 12f7 d3bf
00000220: 1ecd e9cb b29c c9bf 8492 2666 5d79 d73f
00000230: dcfb a072 2ae2 c2bf ca5c 1f5c b83f 65bf
00000240: e0da f8ea ef10 a3bf 0700 2305 76c8 a43f
00000250: cd11 a6e3 a49b b53f 8620 bd02 373b e83f
00000260: 903f 53c0 6e2e f23f 341e 1f5d 27d0 dfbf
00000270: 2d92 82e4 5257 e43f 9531 42b6 107a aabf
00000280: 5227 f5c3 bc98 e4bf 88ef d60d f06a e3bf
00000290: 0b5f a44d 7618 d2bf 4e7a 054d c769 0840
000002a0: 672e aa8c b334 a6bf 8cb1 0ed6 1e17 a23f
000002b0: 8318 1d62 8919 8ebf 037c d040 99d7 84bf
000002c0: 54fa 3206 7361 86bf c31e 6246 88ec be3f
000002d0: b3ee 3b94 1ec2 bcbf f9f0 1827 abce d43f
000002e0: 3587 cc00 9b5c 92bf b996 e1ba 1902 b4bf
000002f0: 1203 9d0a cd18 69bf 6f07 bcf5 8e55 cd3f
00000300: 86f0 5a51 0181 c43f 7774 b7bb c80e e9bf
00000310: 0c9b 6517 bb78 d03f 365a 3b39 7412 ba3f
00000320: 0404 e811 1abc cebf 1848 d068 dbc7 9fbf
00000330: 5e39 6a7a b473 db3f 2050 7b8f a910 f33f
00000340: 203d 655a 782a fabf
-0.08896053502434835 -0.09258659384411928 0.15461120887531557 0.11982527459024883 0.058231410017936705 0.12819388010969004 0.12614573645120722 -0.29728271197371026
-0.5077805353449638 0.01043322879226422 0.13838823528478378 0.04400304648375769 -0.009755005758503812 0.49326175165697295 -0.43499457112183104 0.10897793351157771
-0.3553062884544568 0.024983755659350314 0.18011529271263707 0.9751261370132004 -0.3155520998854488 -0.03651165070618965 -0.06404058548067786 -0.22337750195183156
0.0454654041648987 0.08714193714282976 0.03681736274969054 -0.10815409196764698 -0.04734613722989678 -0.04554045802324931 -0.08692605699273939 0.28544522101103126
0.16285981830220916 0.13154984613213103 -0.8120811673627784 -0.04061030170158474 -0.051066027884286956 -0.15236588642481746 -0.02556174804966493 0.02015899523687868
-0.30025456362880837 -0.7289376016613258 -0.2425359899103699 0.5513838548566928 -0.16636023545252387 -0.268840488555147 0.14299308682760112 -0.12750351116706088
-0.09775576935871329 -0.05544369159563142 -1.2807715954233068 -1.6980098041310507 -1.130528395934535 0.04559374995966932 -0.2836702471097163 0.6439318587469224
-0.05292774405174911 0.5658171899821833 -1.6461660577046147 -0.4869072559394964 -0.0700895749274151 -0.5696943707327881 -1.009833289470787 -0.21823706637110163
0.12357081694420952 0.14520626451989535 -0.12552740898827325 -0.3119549957780279 -0.20009455639556334 0.36678252196933436 -0.14752703282462576 -0.0025938607004537305
-0.03723859542190211 0.04059189617828456 0.08440619047002614 0.7572283795825718 1.136336089391964 -0.49707969755079096 0.6356596434675957 -0.051712534187660676
-0.6436446978852735 -0.6068039198212185 -0.2827430494521514 3.0516496674820592 -0.04337082950686693 0.0353326450634511 -0.01469714480084528 -0.0101768467812331
-0.010928057314569951 0.12079669683782428 -0.11233702773091174 0.3251140481768427 -0.017931386874926864 -0.07815705120591589 -0.0030635838237745927 0.22917353628877943
0.1601869246713969 -0.7830547014560939 0.2573688248143504 0.10184408566724631 -0.24011541246730428 -0.03103583171111532 0.4289370723207834 1.1915679554704255
-1.6353686839173136

tcn.network.0.conv2.bias f8 [5]
00000000: 7c5f 1299 f8fd ba3f 48f4 7ff6 5f6b c83f
00000010: bace d35c 5a50 b5bf 9e04 50eb e447 c7bf
00000020: d12c 3a49 4e44 bfbf
0.10543779122451541 0.19077682052730638 -0.08325733915608682 -0.18188153734084705 -0.12213601386808938

tcn.network.0.conv2.weight_g f8 [5, 1, 1]
00000000: 41fc bc98 f630 e13f e668 2597 c39b fc3f
00000010: e1fc 5c48 3892 e13f 2f6a b0e1 215c de3f
00000020: 135b 07fd 3732 e23f
0.5372269614380302 1.788028326429918 0.5490991032928855 0.47437331237748287 0.5686302129714441

tcn.network.0.conv2.weight_v f8 [5, 5, 7]
00000000: d073 4325 8ff0 843f fa2d bfeb ecab b6bf
00000010: 257a af2b ed27 bcbf 6001 f844 6273 b9bf
00000020: 9398 c70a 6efe b4bf 1813 c6fa d097 b33f
00000030: b8ba 155e cfa7 ba3f 2f76 9bf4 f4ee b2bf
00000040: 588d 31ce 79fc a3bf 718b 437b 4b92 b0bf
00000050: 18d4 765b e223 ba3f 008e 3dff 545b a5bf
00000060: f265 14f5 60f8 c4bf f8f7 0d26 4b34 c0bf
00000070: a252 9d1f 02df a7bf e0dc 3d7e e9d2 9e3f
00000080: 40ad 1c97 da42 7b3f dca6 15e1 70ad c13f
00000090: bc64 930f f21f ba3f 1289 e6a9 cdfb c03f
000000a0: 18dc a4ff c9a1 a93f 3c2c 5d55 05f0 b3bf
000000b0: eeb0 cb64 f58b acbf 945e 87d5 2b76 b4bf
000000c0: f14c b498 d138 b7bf 80a1 2a15 4f57 b2bf
000000d0: 4a07 cfde 18c9 b6bf d80b c4c6 70b3 94bf
000000e0: 807d f673 a478 aabf e302 9f30 bfab c3bf
000000f0: 2707 672a e448 b3bf b83f 3665 0bf0 af3f
00000100: bac8 cf40 87fe c23f 458f 63c4 d17b b5bf
00000110: b49f 6765 db72 be3f ab46 a075 dfb3 a7b4
00000120: 07cc d2bb 6d0a f82b 0d89 9a53 d307 8139
00000130: c893 6ddd d536 9cac a8a4 85fd 9af1 e0b4
00000140: b5d8 4c74 77ec 43aa c1e6 1f4c f601 952b
00000150: 49e3 e025 9368 a1bf 12b7 1bc1 b71b b53f
00000160: 39c3 2113 8965 a73f be3f 9526 e4eb 98bf
00000170: 97bd 014b 0224 8a3f 8c78 2776 86bb b1bf
00000180: 66e3 c568 257e b43f 424f 266b 3119 c73f
00000190: f8a8 9008 ecbd d7bf b7ea f06c 63d4 b93f
000001a0: 767a 56bc ba66 a4bf 1434 456c 4827 bdbf
000001b0: c7b2 6fbe e2dc e73f edc1 3e13 f1f9 ddbf
000001c0: 065b 2696 8894 bc3f d85e 9cff 62d7 92bf
000001d0: 328c 6f1b f996 ccbf dd23 cb56 eb9f cabf
000001e0: d80d ed86 b355 ddbf c669 be10 d503 c03f
000001f0: 234c 8171 dcb6 e93f 8630 6f05 2d59 d43a
00000200: f96b f951 216e 5ebb 8bea 0cf7 060f 213b
00000210: b8e2 9eef a9c2 1c3c 76b4 765c d8f6 863c
00000220: 3792 87d5 3979 793e 8e07 bd4f a682 e7bf
00000230: 9938 66d6 1ce8 c5bf cd9f 0e89 41b8 c0bf
00000240: 394c 9f4a a94e a33f 45ad 70e2 7d7c 99bf
00000250: a1c0 568d a2ac b43f a8b2 5729 ba81 90bf
00000260: 219d c5d2 5ec5 c3bf 8136 1464 2831 853f
00000270: 7392 03a3 966e bfbf 69fc 934d 1bb2 aa3f
00000280: aa24 804a 6e2a 9abf 8180 4560 1965 923f
00000290: 6808 c541 22a6 bf3f eba0 62ae f848 b0bf
000002a0: a24e 4c70 153d bd3f 1923 c4d4 47ba b43f
000002b0: ffc9 5468 38cc a6bf bbde 1240 b248 a53f
000002c0: 050a d2f0 7ab3 c4bf d829 6410 33a1 c13f
000002d0: 9f9d 5bfc b2d6 acbf 58c4 3b0d 2824 9bbf
000002e0: 17b3 ba89 13d6 bc3f d41a 5082 8abd a2bf
000002f0: 65a8 4e9c f88c c2bf 515e f7a1 beda a93f
00000300: a987 f41f 2b71 b63f 0476 827f 3096 b6bf
00000310: 3ccc c472 b066 303f 6a15 7846 30b9 b5bf
00000320: 61bd dd74 cd36 ab3f 561e ed61 a0ec 61bf
00000330: b443 85db 5d02 c3bf 4355 7940 5a68 c53f
00000340: 19dd 9d84 40ec c1bf c847 9152 4659 c6bf
00000350: 5724 c101 79ba bdbf 47e8 b842 f9d7 77bf
00000360: 7ad4 5cf5 d0ac bcbf 4441 3407 c617 b53f
00000370: 1241 25ba ae6c b73f 7481 c9d3 99ab a7bf
00000380: b230 f667 64c3 c4bf 2368 337a aee1 c9bf
00000390: 7078 c117 4610 b4bf b1bf 4510 93ba a3bf
000003a0: fcaa 457c f996 b73f 0a4c 1f7b bb55 c73f
000003b0: 1983 052f f119 b03f ed7b 9a75 2f3b 913f
000003c0: 1d07 1d75 f043 b6bf e8b1 3d05 80d7 bc3f
000003d0: d42f 30e7 d834 c23f f080 7d1d b61b 713f
000003e0: 4e9f 7fe9 928c c1bf ce8f 9b87 2c7c ab3f
000003f0: dd47 0c93 9cb6 aebf e8c0 b5f6 02e9 bebf
00000400: 44b0 b784 64d3 a93f 2635 8fca 7ccf 82bf
00000410: cd71 be12 1061 c6bf 20ae 01f3 7629 b33f
00000420: 0aa8 1513 10fc cabf 90c5 9649 93b3 a3bf
00000430: bf4f 8476 bb8c a63f 7e3c fc32 4b0c 8abf
00000440: 4744 d4f3 a7dd aabf 494c 1e6a 938c b53f
00000450: 024b e831 7ad2 5cbf 9372 9fc7 efb4 a53f
00000460: e2ea 7477 b8ea bbbf de11 5758 fbad c03f
00000470: c1c3 cd5b 2924 c6bf 3a43 e37a 387f 563f
00000480: e53f d8c7 f9e9 c2bf 0c56 27cf 4a63 98bf
00000490: 09ad 1bbf 4b7d 8f3f 2f83 597b 627b b03f
000004a0: cadf 8a70 bd4d 7ebf 2824 72b4 c362 a43f
000004b0: 14b6 990a b77c 833f 8c7e 1b5a b3bc c2bf
000004c0: 1ac8 d46f aeb0 be3f df5f 4d81 7de7 8f3f
000004d0: bb3f 8570 6bb7 c33f f06e 9c99 61d2 c4bf
000004e0: f96d fab1 b01e c63f 652f df01 089e b73f
000004f0: 5469 480c 4a44 c6bf ca00 72a7 1da7 bd3f
00000500: 20f8 d222 bb72 adbf af3e 2490 0949 b83f
00000510: 9ad8 8808 59cb adbf 0b13 31dc d239 b7bf
00000520: 0d2f fd69 fc83 adbf 9af3 961b d6ec a0bf
00000530: e499 3f35 7139 b23f 06fd 11b8 678a babf
00000540: 88ff 0f86 5898 b73f e0c3 c3fd eec9 b5bf
00000550: 6d7d 5eee 7c69 b5bf c65d 900e 7bd4 b03f
00000560: a754 3cb4 9906 8f3f 5282 5091 c9d2 c23f
00000570: 925f c561 5979 943f
0.010224455189410536 -0.08856087451493258 -0.10998422924556246 -0.09941686805541883 -0.08200729144263823 0.07653528330235948 0.10412307784074926 -0.0739586922822688
-0.039035612506973905 -0.06473228225108386 0.1021100495625692 -0.04171243301132321 -0.16382991759091642 -0.126595872479754 -0.04662329326553062 0.030101440744570662
0.006655553692137162 0.13810549726922872 0.1020499504114864 0.13268442912983197 0.05006247754720777 -0.07788117727356875 -0.05575529914298892 -0.07992814982514523
-0.09071073511249829 -0.07164472834359081 -0.0890059989897313 -0.020215761310293207 -0.05170167842447437 -0.15367879747466082 -0.07533098254409919 0.06237826929566331
0.1483925882781188 -0.08392058415080068 0.11894007898047115 -4.8333396082895614e-55 7.034434344305211e-97 1.0495898090057348e-31 -8.453744438176847e-94 -5.528163300570987e-54
-4.343516405247245e-105 9.604598234422385e-99 -0.034000967382275045 0.08245418991620238 0.04569652899306793 -0.02433735356800048 0.01276399413492761 -0.06926765808700192
0.08004983718809697 0.1804563306037555 -0.3709669192927687 0.10089703950590488 -0.03984626339955792 -0.113880659516511 0.7457135886630447 -0.46838023070725293
0.11164144197242018 -0.018399760104414437 -0.22335733260760687 -0.20800534952129981 -0.4583557908665319 0.12511695210998947 0.803571912469469 2.629961720106025e-25
-1.0068507242500154e-22 7.05531296929647e-24 3.8977617680028243e-19 3.983660434460177e-17 9.489632669214539e-08 -0.7346984441175992 -0.17114601582256198 -0.13062304680101847
0.03770951305309506 -0.024888960786637843 0.08075920057922527 -0.016119869969701967 -0.1544607667121705 0.010347667268912676 -0.122781195448235 0.05214009592054298
-0.025552485749390876 0.017963787556596337 0.12362875085548952 -0.06361345536663847 0.11421331397678583 0.08096741623388616 -0.044526827560179776 0.04157025367879671
-0.16172730215846812 0.13773191738466894 -0.05632552462139561 -0.02650511341829928 0.11264154541522618 -0.036602333457315034 -0.1449270976275471 0.05049701430442311
0.08766431360393646 -0.08822920907046955 0.00025026138134193513 -0.08485700340687222 0.05315248538578988 -0.002188027617567016 -0.1485097238424068 0.1672470869840855
-0.1400223395864735 -0.17459944755188261 -0.11612659733613505 -0.005821202921248831 -0.11201196661279936 0.08239400554544313 0.09150211376732312 -0.046231085875436145
-0.16221289707426007 -0.20219975439869228 -0.07837331848119944 -0.03853282521856672 0.09214743885028648 0.1823038436110383 0.06289584539400685 0.016827336838669927
-0.08697417124951952 0.1126632702632332 0.14223777092445167 0.004176818263516888 -0.13710247422499794 0.05368174701086979 -0.05998696608561691 -0.12074297450249427
0.05044092292868688 -0.009184813434240779 -0.17483712115507757 0.07485145027902051 -0.21081734592309004 -0.03847942612936628 0.04404245206583778 -0.01271876096100599
-0.05247235156469592 0.08417626705913607 -0.0017591660795274748 0.042396062009833056 -0.10905030170844612 0.13030950368387456 -0.17297856314283247 0.0013731051981730872
-0.14776537187617503 -0.023816269773155027 0.015375701684624337 0.06438270102945574 -0.007398357389938279 0.039816013123591454 0.009515218745231237 -0.14638368510985733
0.11988344412091614 0.015578251369944894 0.15403502458729953 -0.162670326238064 0.17281159105628754 0.09225511594484954 -0.17395902251957784 0.11583123529453868
-0.05751595306490764 0.09486446160394267 -0.05819204549008923 -0.09072606921933983 -0.0576475982075789 -0.03305691801822448 0.07118899869929113 -0.10367439502623563
0.09216836236009673 -0.08511251159121924 -0.08364086932714594 0.06574219804348677 0.01514930802617649 0.1470577201407815 0.019994160263507484

tcn.network.0.net.0.bias f8 [5]
00000000: 895e f117 a54d aabf 8bcf 5591 feac d93f
00000010: 4b14 aa47 a8a3 d53f 268a 69f3 4b68 b8bf
00000020: df87 0343 d39b c4bf
-0.05137363354941466 0.4011837405480427 0.33811385153268664 -0.09534144108469231 -0.16100540897519885

tcn.network.0.net.0.weight_g f8 [5, 1, 1]
00000000: affb cf1a 43c3 a13f 8f42 624a 1a09 f53f
00000010: 6423 e47a 3863 e13f 4d0f ba32 6bfb ef3f
00000020: d2e7 1d19 4d5d 1640
0.034692856810571875 1.3147223382585798 0.5433618927209918 0.9994407644994482 5.591114418459215

tcn.network.0.net.0.weight_v f8 [5, 3, 7]
00000000: f371 901c 1ec6 b6bf 71c8 9b48 c1b3 b7bf
00000010: e974 dbd2 4cca c33f 406e 9983 deac be3f
00000020: ca06 41e3 81d0 ad3f d129 4f35 a868 c03f
00000030: 0d3c 4b22 8b25 c03f 30f8 6511 ae06 d3bf
00000040: 8443 1bf7 bc3f e0bf 23bc a243 045e 853f
00000050: a682 59a8 b4b6 c13f 38eb 243b 9187 a63f
00000060: 68f9 a3b5 6efa 83bf f6ff eebc 9991 df3f
00000070: ccf8 3978 f3d6 dbbf c1fa 6a54 fae5 bb3f
00000080: f666 3e96 56bd d6bf 66e1 f375 5795 993f
00000090: 41e9 da95 040e c73f d149 7eba 3b34 ef3f
000000a0: d34b 4c6f 0132 d4bf ad80 69b3 a7b1 a2bf
000000b0: 9396 41bc f664 b0bf 27cc c54c a297 ccbf
000000c0: d9ae f9cf 3d47 a73f 7577 231a ef4e b63f
000000d0: d6a9 deb1 b9d9 a23f 95fb ed8f fcaf bbbf
000000e0: 7019 fdbd c03d a8bf 6a9d b533 1451 a7bf
000000f0: 7a3c f43b c940 b6bf 05ae 4208 bc44 d23f
00000100: ff61 b82c 97d8 c43f fb35 7717 a0d6 c03f
00000110: 0ca9 f0a4 91fc e9bf 8fc4 609b dfca a4bf
00000120: c336 668f 5325 aabf fa3d 9cb1 b980 c3bf
00000130: 5f8c 9bdf db2c 9abf 9bea 0c45 8fa4 943f
00000140: c1ab d0ea 5e37 d3bf e4b8 fef2 7453 e7bf
00000150: a24e 6258 6b0b cfbf 6bdc 04c1 efa4 e13f
00000160: 34cd 4fcd 4a4b c5bf 58d7 8bbc ae34 d1bf
00000170: eb43 bdf3 984d c23f aa39 4bf9 0852 c0bf
00000180: 1518 64a8 8506 b9bf 4c72 5894 1d63 acbf
00000190: 50d2 3f5b 0a7e f4bf d17b 1054 0c2b fbbf
000001a0: 88cf 7bf1 a416 f2bf ca22 f561 1058 a73f
000001b0: 5bce 8b40 a727 d2bf ed74 45fc 169b e43f
000001c0: 49b3 8163 5819 abbf 7c9e cfa6 2c1b e23f
000001d0: 6d06 5a38 b256 fabf cb7e 1c0d 7d29 dfbf
000001e0: f291 1af0 63f1 b1bf 6b67 60b0 ef3a e2bf
000001f0: af06 8bf3 4628 f0bf dc5f 6b33 31ef cbbf
00000200: 1cf0 8349 56a2 bf3f 73c5 a46e 1e96 c23f
00000210: 9a99 2d3a 4811 c0bf 4c30 2c16 12f7 d3bf
00000220: 1ecd e9cb b29c c9bf 8492 2666 5d79 d73f
00000230: dcfb a072 2ae2 c2bf ca5c 1f5c b83f 65bf
00000240: e0da f8ea ef10 a3bf 0700 2305 76c8 a43f
00000250: cd11 a6e3 a49b b53f 8620 bd02 373b e83f
00000260: 903f 53c0 6e2e f23f 341e 1f5d 27d0 dfbf
00000270: 2d92 82e4 5257 e43f 9531 42b6 107a aabf
00000280: 5227 f5c3 bc98 e4bf 88ef d60d f06a e3bf
00000290: 0b5f a44d 7618 d2bf 4e7a 054d c769 0840
000002a0: 672e aa8c b334 a6bf 8cb1 0ed6 1e17 a23f
000002b0: 8318 1d62 8919 8ebf 037c d040 99d7 84bf
000002c0: 54fa 3206 7361 86bf c31e 6246 88ec be3f
000002d0: b3ee 3b94 1ec2 bcbf f9f0 1827 abce d43f
000002e0: 3587 cc00 9b5c 92bf b996 e1ba 1902 b4bf
000002f0: 1203 9d0a cd18 69bf 6f07 bcf5 8e55 cd3f
00000300: 86f0 5a51 0181 c43f 7774 b7bb c80e e9bf
00000310: 0c9b 6517 bb78 d03f 365a 3b39 7412 ba3f
00000320: 0404 e811 1abc cebf 1848 d068 dbc7 9fbf
00000330: 5e39 6a7a b473 db3f 2050 7b8f a910 f33f
00000340: 203d 655a 782a fabf
-0.08896053502434835 -0.09258659384411928 0.15461120887531557 0.11982527459024883 0.058231410017936705 0.12819388010969004 0.12614573645120722 -0.29728271197371026
-0.5077805353449638 0.01043322879226422 0.13838823528478378 0.04400304648375769 -0.009755005758503812 0.49326175165697295 -0.43499457112183104 0.10897793351157771
-0.3553062884544568 0.024983755659350314 0.18011529271263707 0.9751261370132004 -0.3155520998854488 -0.03651165070618965 -0.06404058548067786 -0.22337750195183156
0.0454654041648987 0.08714193714282976 0.03681736274969054 -0.10815409196764698 -0.04734613722989678 -0.04554045802324931 -0.08692605699273939 0.28544522101103126
0.16285981830220916 0.13154984613213103 -0.8120811673627784 -0.04061030170158474 -0.051066027884286956 -0.15236588642481746 -0.02556174804966493 0.02015899523687868
-0.30025456362880837 -0.7289376016613258 -0.2425359899103699 0.5513838548566928 -0.16636023545252387 -0.268840488555147 0.14299308682760112 -0.12750351116706088
-0.09775576935871329 -0.05544369159563142 -1.2807715954233068 -1.6980098041310507 -1.130528395934535 0.04559374995966932 -0.2836702471097163 0.6439318587469224
-0.05292774405174911 0.5658171899821833 -1.6461660577046147 -0.4869072559394964 -0.0700895749274151 -0.5696943707327881 -1.009833289470787 -0.21823706637110163
0.12357081694420952 0.14520626451989535 -0.12552740898827325 -0.3119549957780279 -0.20009455639556334 0.36678252196933436 -0.14752703282462576 -0.0025938607004537305
-0.03723859542190211 0.04059189617828456 0.08440619047002614 0.7572283795825718 1.136336089391964 -0.49707969755079096 0.6356596434675957 -0.051712534187660676
-0.6436446978852735 -0.6068039198212185 -0.2827430494521514 3.0516496674820592 -0.04337082950686693 0.0353326450634511 -0.01469714480084528 -0.0101768467812331
-0.010928057314569951 0.12079669683782428 -0.11233702773091174 0.3251140481768427 -0.017931386874926864 -0.07815705120591589 -0.0030635838237745927 0.22917353628877943
0.1601869246713969 -0.7830547014560939 0.2573688248143504 0.10184408566724631 -0.24011541246730428 -0.03103583171111532 0.4289370723207834 1.1915679554704255
-1.6353686839173136

tcn.network.0.net.4.bias f8 [5]
00000000: 7c5f 1299 f8fd ba3f 48f4 7ff6 5f6b c83f
00000010: bace d35c 5a50 b5bf 9e04 50eb e447 c7bf
00000020: d12c 3a49 4e44 bfbf
0.10543779122451541 0.19077682052730638 -0.08325733915608682 -0.18188153734084705 -0.12213601386808938

tcn.network.0.net.4.weight_g f8 [5, 1, 1]
00000000: 41fc bc98 f630 e13f e668 2597 c39b fc3f
00000010: e1fc 5c48 3892 e13f 2f6a b0e1 215c de3f
00000020: 135b 07fd 3732 e23f
0.5372269614380302 1.788028326429918 0.5490991032928855 0.47437331237748287 0.5686302129714441

tcn.network.0.net.4.weight_v f8 [5, 5, 7]
00000000: d073 4325 8ff0 843f fa2d bfeb ecab b6bf
00000010: 257a af2b ed27 bcbf 6001 f844 6273 b9bf
00000020: 9398 c70a 6efe b4bf 1813 c6fa d097 b33f
00000030: b8ba 155e cfa7 ba3f 2f76 9bf4 f4ee b2bf
00000040: 588d 31ce 79fc a3bf 718b 437b 4b92 b0bf
00000050: 18d4 765b e223 ba3f 008e 3dff 545b a5bf
00000060: f265 14f5 60f8 c4bf f8f7 0d26 4b34 c0bf
00000070: a252 9d1f 02df a7bf e0dc 3d7e e9d2 9e3f
00000080: 40ad 1c97 da42 7b3f dca6 15e1 70ad c13f
00000090: bc64 930f f21f ba3f 1289 e6a9 cdfb c03f
000000a0: 18dc a4ff c9a1 a93f 3c2c 5d55 05f0 b3bf
000000b0: eeb0 cb64 f58b acbf 945e 87d5 2b76 b4bf
000000c0: f14c b498 d138 b7bf 80a1 2a15 4f57 b2bf
000000d0: 4a07 cfde 18c9 b6bf d80b c4c6 70b3 94bf
000000e0: 807d f673 a478 aabf e302 9f30 bfab c3bf
000000f0: 2707 672a e448 b3bf b83f 3665 0bf0 af3f
00000100: bac8 cf40 87fe c23f 458f 63c4 d17b b5bf
00000110: b49f 6765 db72 be3f ab46 a075 dfb3 a7b4
00000120: 07cc d2bb 6d0a f82b 0d89 9a53 d307 8139
00000130: c893 6ddd d536 9cac a8a4 85fd 9af1 e0b4
00000140: b5d8 4c74 77ec 43aa c1e6 1f4c f601 952b
00000150: 49e3 e025 9368 a1bf 12b7 1bc1 b71b b53f
00000160: 39c3 2113 8965 a73f be3f 9526 e4eb 98bf
00000170: 97bd 014b 0224 8a3f 8c78 2776 86bb b1bf
00000180: 66e3 c568 257e b43f 424f 266b 3119 c73f
00000190: f8a8 9008 ecbd d7bf b7ea f06c 63d4 b93f
000001a0: 767a 56bc ba66 a4bf 1434 456c 4827 bdbf
000001b0: c7b2 6fbe e2dc e73f edc1 3e13 f1f9 ddbf
000001c0: 065b 2696 8894 bc3f d85e 9cff 62d7 92bf
000001d0: 328c 6f1b f996 ccbf dd23 cb56 eb9f cabf
000001e0: d80d ed86 b355 ddbf c669 be10 d503 c03f
000001f0: 234c 8171 dcb6 e93f 8630 6f05 2d59 d43a
00000200: f96b f951 216e 5ebb 8bea 0cf7 060f 213b
00000210: b8e2 9eef a9c2 1c3c 76b4 765c d8f6 863c
00000220: 3792 87d5 3979 793e 8e07 bd4f a682 e7bf
00000230: 9938 66d6 1ce8 c5bf cd9f 0e89 41b8 c0bf
00000240: 394c 9f4a a94e a33f 45ad 70e2 7d7c 99bf
00000250: a1c0 568d a2ac b43f a8b2 5729 ba81 90bf
00000260: 219d c5d2 5ec5 c3bf 8136 1464 2831 853f
00000270: 7392 03a3 966e bfbf 69fc 934d 1bb2 aa3f
00000280: aa24 804a 6e2a 9abf 8180 4560 1965 923f
00000290: 6808 c541 22a6 bf3f eba0 62ae f848 b0bf
000002a0: a24e 4c70 153d bd3f 1923 c4d4 47ba b43f
000002b0: ffc9 5468 38cc a6bf bbde 1240 b248 a53f
000002c0: 050a d2f0 7ab3 c4bf d829 6410 33a1 c13f
000002d0: 9f9d 5bfc b2d6 acbf 58c4 3b0d 2824 9bbf
000002e0: 17b3 ba89 13d6 bc3f d41a 5082 8abd a2bf
000002f0: 65a8 4e9c f88c c2bf 515e f7a1 beda a93f
00000300: a987 f41f 2b71 b63f 0476 827f 3096 b6bf
00000310: 3ccc c472 b066 303f 6a15 7846 30b9 b5bf
00000320: 61bd dd74 cd36 ab3f 561e ed61 a0ec 61bf
00000330: b443 85db 5d02 c3bf 4355 7940 5a68 c53f
00000340: 19dd 9d84 40ec c1bf c847 9152 4659 c6bf
00000350: 5724 c101 79ba bdbf 47e8 b842 f9d7 77bf
00000360: 7ad4 5cf5 d0ac bcbf 4441 3407 c617 b53f
00000370: 1241 25ba ae6c b73f 7481 c9d3 99ab a7bf
00000380: b230 f667 64c3 c4bf 2368 337a aee1 c9bf
00000390: 7078 c117 4610 b4bf b1bf 4510 93ba a3bf
000003a0: fcaa 457c f996 b73f 0a4c 1f7b bb55 c73f
000003b0: 1983 052f f119 b03f ed7b 9a75 2f3b 913f
000003c0: 1d07 1d75 f043 b6bf e8b1 3d05 80d7 bc3f
000003d0: d42f 30e7 d834 c23f f080 7d1d b61b 713f
000003e0: 4e9f 7fe9 928c c1bf ce8f 9b87 2c7c ab3f
000003f0: dd47 0c93 9cb6 aebf e8c0 b5f6 02e9 bebf
00000400: 44b0 b784 64d3 a93f 2635 8fca 7ccf 82bf
00000410: cd71 be12 1061 c6bf 20ae 01f3 7629 b33f
00000420: 0aa8 1513 10fc cabf 90c5 9649 93b3 a3bf
00000430: bf4f 8476 bb8c a63f 7e3c fc32 4b0c 8abf
00000440: 4744 d4f3 a7dd aabf 494c 1e6a 938c b53f
00000450: 024b e831 7ad2 5cbf 9372 9fc7 efb4 a53f
00000460: e2ea 7477 b8ea bbbf de11 5758 fbad c03f
00000470: c1c3 cd5b 2924 c6bf 3a43 e37a 387f 563f
00000480: e53f d8c7 f9e9 c2bf 0c56 27cf 4a63 98bf
00000490: 09ad 1bbf 4b7d 8f3f 2f83 597b 627b b03f
000004a0: cadf 8a70 bd4d 7ebf 2824 72b4 c362 a43f
000004b0: 14b6 990a b77c 833f 8c7e 1b5a b3bc c2bf
000004c0: 1ac8 d46f aeb0 be3f df5f 4d81 7de7 8f3f
000004d0: bb3f 8570 6bb7 c33f f06e 9c99 61d2 c4bf
000004e0: f96d fab1 b01e c63f 652f df01 089e b73f
000004f0: 5469 480c 4a44 c6bf ca00 72a7 1da7 bd3f
00000500: 20f8 d222 bb72 adbf af3e 2490 0949 b83f
00000510: 9ad8 8808 59cb adbf 0b13 31dc d239 b7bf
00000520: 0d2f fd69 fc83 adbf 9af3 961b d6ec a0bf
00000530: e499 3f35 7139 b23f 06fd 11b8 678a babf
00000540: 88ff 0f86 5898 b73f e0c3 c3fd eec9 b5bf
00000550: 6d7d 5eee 7c69 b5bf c65d 900e 7bd4 b03f
00000560: a754 3cb4 9906 8f3f 5282 5091 c9d2 c23f
00000570: 925f c561 5979 943f
0.010224455189410536 -0.08856087451493258 -0.10998422924556246 -0.09941686805541883 -0.08200729144263823 0.07653528330235948 0.10412307784074926 -0.0739586922822688
-0.039035612506973905 -0.06473228225108386 0.1021100495625692 -0.04171243301132321 -0.16382991759091642 -0.126595872479754 -0.04662329326553062 0.030101440744570662
0.006655553692137162 0.13810549726922872 0.1020499504114864 0.13268442912983197 0.05006247754720777 -0.07788117727356875 -0.05575529914298892 -0.07992814982514523
-0.09071073511249829 -0.07164472834359081 -0.0890059989897313 -0.020215761310293207 -0.05170167842447437 -0.15367879747466082 -0.07533098254409919 0.06237826929566331
0.1483925882781188 -0.08392058415080068 0.11894007898047115 -4.8333396082895614e-55 7.034434344305211e-97 1.0495898090057348e-31 -8.453744438176847e-94 -5.528163300570987e-54
-4.343516405247245e-105 9.604598234422385e-99 -0.034000967382275045 0.08245418991620238 0.04569652899306793 -0.02433735356800048 0.01276399413492761 -0.06926765808700192
0.08004983718809697 0.1804563306037555 -0.3709669192927687 0.10089703950590488 -0.03984626339955792 -0.113880659516511 0.7457135886630447 -0.46838023070725293
0.11164144197242018 -0.018399760104414437 -0.22335733260760687 -0.20800534952129981 -0.4583557908665319 0.12511695210998947 0.803571912469469 2.629961720106025e-25
-1.0068507242500154e-22 7.05531296929647e-24 3.8977617680028243e-19 3.983660434460177e-17 9.489632669214539e-08 -0.7346984441175992 -0.17114601582256198 -0.13062304680101847
0.03770951305309506 -0.024888960786637843 0.08075920057922527 -0.016119869969701967 -0.1544607667121705 0.010347667268912676 -0.122781195448235 0.05214009592054298
-0.025552485749390876 0.017963787556596337 0.12362875085548952 -0.06361345536663847 0.11421331397678583 0.08096741623388616 -0.044526827560179776 0.04157025367879671
-0.16172730215846812 0.13773191738466894 -0.05632552462139561 -0.02650511341829928 0.11264154541522618 -0.036602333457315034 -0.1449270976275471 0.05049701430442311
0.08766431360393646 -0.08822920907046955 0.00025026138134193513 -0.08485700340687222 0.05315248538578988 -0.002188027617567016 -0.1485097238424068 0.1672470869840855
-0.1400223395864735 -0.17459944755188261 -0.11612659733613505 -0.005821202921248831 -0.11201196661279936 0.08239400554544313 0.09150211376732312 -0.046231085875436145
-0.16221289707426007 -0.20219975439869228 -0.07837331848119944 -0.03853282521856672 0.09214743885028648 0.1823038436110383 0.06289584539400685 0.016827336838669927
-0.08697417124951952 0.1126632702632332 0.14223777092445167 0.004176818263516888 -0.13710247422499794 0.05368174701086979 -0.05998696608561691 -0.12074297450249427
0.05044092292868688 -0.009184813434240779 -0.17483712115507757 0.07485145027902051 -0.21081734592309004 -0.03847942612936628 0.04404245206583778 -0.01271876096100599
-0.05247235156469592 0.08417626705913607 -0.0017591660795274748 0.042396062009833056 -0.10905030170844612 0.13030950368387456 -0.17297856314283247 0.0013731051981730872
-0.14776537187617503 -0.023816269773155027 0.015375701684624337 0.06438270102945574 -0.007398357389938279 0.039816013123591454 0.009515218745231237 -0.14638368510985733
0.11988344412091614 0.015578251369944894 0.15403502458729953 -0.162670326238064 0.17281159105628754 0.09225511594484954 -0.17395902251957784 0.11583123529453868
-0.05751595306490764 0.09486446160394267 -0.05819204549008923 -0.09072606921933983 -0.0576475982075789 -0.03305691801822448 0.07118899869929113 -0.10367439502623563
0.09216836236009673 -0.08511251159121924 -0.08364086932714594 0.06574219804348677 0.01514930802617649 0.1470577201407815 0.019994160263507484

tcn.network.0.downsample.weight f8 [5, 3, 1]
00000000: c526 e08f 43c3 7fbf 57d4 4ba4 aad4 6fbf
00000010: f8cd 9ef1 82cf 823f 8a14 df67 ca9b a83f
00000020: 9080 56f5 cf23 ae3f 0c60 6630 7725 d13f
00000030: f6cf d490 4a95 93bf c1c7 05cc 942c 7b3f
00000040: 6a02 8034 5895 84bf ba74 4942 d2c0 a4bf
00000050: 382c 1800 387a c93f 0771 819d f8a2 c6bf
00000060: 8bc9 adb8 2acc 99bf 6f71 16c3 d8c3 86bf
00000070: 5def dd85 a378 9abf
-0.007754577554814628 -0.003885587010126683 0.009184859274546917 0.04806358831368936 0.058866976450418496 0.2679117176680854 -0.019124188508797567 0.006634312856805325
-0.010050477125333763 -0.04053360995451656 0.19904232029543478 -0.17684848490433344 -0.0251928973406819 -0.011115735486605797 -0.025850825353230678

tcn.network.0.downsample.bias f8 [5]
00000000: e625 3fa3 8a44 dfbf 9493 69db 4c49 d0bf
00000010: 8a6c 4f19 fda3 7fbf ca69 b049 8e9b c13f
00000020: a3fc c931 75dc b8bf
-0.4885584444242269 -0.25447389056199055 -0.007724751155332341 0.137559686642659 -0.09711391892959624

tcn.network.1.conv1.bias f8 [5]
00000000: b423 2c82 4c34 c3bf a842 0639 8834 c73f
00000010: b1f0 da1a 2c83 6b3f d7a7 67b8 4372 babf
00000020: efd4 ce81 d1ec c9bf
-0.15003353458476243 0.18129065307995984 0.0033584462570087283 -0.10330603839943762 -0.20253962362554698

tcn.network.1.conv1.weight_g f8 [5, 1, 1]
00000000: 1229 5cdd d893 d83f a7aa 1bcc b1d4 ef3f
00000010: be26 b7dd 0131 e63f 36da 18ad e680 e23f
00000020: 4968 5eb5 2773 de3f
0.3840238725394026 0.9947136866079135 0.6934823351268375 0.5782349949648224 0.47577851020617296

tcn.network.1.conv1.weight_v f8 [5, 5, 7]
00000000: d500 8b66 fa28 a8bf ab82 18a1 0481 c5bf
00000010: 0b14 153a fad9 5d9f 800b bc1a 37ca c03f
00000020: 3543 8133 0443 411f 9c97 86d4 985f c73f
00000030: bbf4 dcc8 e161 d13f 314f c15a d805 b9bf
00000040: 2ae9 3d94 cf5a a63f 3ae3 1e38 08a4 b03f
00000050: d831 157a 6e82 c0bf b613 f4f2 db94 b9bf
00000060: f433 b3f5 a077 b0bf 4525 093e 73f8 a53f
00000070: 226b dfca 8e9d cc3f 090c a4e7 d46f c0bf
00000080: 4ee9 5908 aad4 c2bf c1e3 01c5 29bd cd3f
00000090: 04df 87a8 4a15 041f 909e e342 214d 039f
000000a0: 2947 09c2 011f d03f 2528 4803 372b c7bf
000000b0: b3ad 2019 6332 e33f 1b45 3399 c04d c8bf
000000c0: 7475 906d 7043 933f 3525 6237 dcaa e23f
000000d0: 8873 a798 b184 c3bf 2028 ed0e eef1 9a3f
000000e0: c6e8 0891 b7f4 619d 7c5f 9baf d827 611f
000000f0: 19b7 abc8 ee09 bb9e 114b 4e4f a563 429f
00000100: 2097 f92f bbd2 b59e 4f0a f2da d606 3f1f
00000110: e26f 34dd a4b5 cfbf 6537 038d d564 6112
00000120: bc01 90b3 9c41 c282 9a5c a40f c1f8 f68c
00000130: d7f1 5e30 7239 3a94 6be1 fdb9 f3c0 0394
00000140: 4cfc afbb f316 f813 b117 6d08 bc63 8383
00000150: 7943 c814 b879 fcbf b000 a360 1f36 d6bf
00000160: df15 edf2 d087 c5bf c772 3945 23ab b2bf
00000170: c8ef 5b49 b39b cbbf a9a5 0a5e 3185 cdbf
00000180: 5725 741b 6878 9e3f 66e0 e9d7 2801 8e10
00000190: b9bd be83 57f5 8a8c fe5b 7ee2 1246 0000
000001a0: af14 df00 9028 d60c 07b7 7ab4 b0aa 740a
000001b0: 4d91 484e 2d25 5792 7285 6e2f c413 9393
000001c0: 6814 da06 c716 8e3f 6e27 f918 1b20 b9bf
000001d0: 026c 7ef0 4ef3 b23f 4048 e445 8438 ddbf
000001e0: 7984 cd58 72ce c9bf 0157 e1da c2c5 d9bf
000001f0: 928b c5dd 0f5c d7bf fa94 40ba 63a8 96be
00000200: 2b23 b0bf 0f03 73be fc08 b594 4623 f78c
00000210: 534b 71a0 38cc 2414 c14d af04 a85a f491
00000220: a2f4 179b e584 fa90 c12d 41f1 9c14 f30c
00000230: 03cf 43d1 6dc5 a03f ea20 324b faa4 bebf
00000240: 3b6a fcaa 7323 b63f 6ed1 47d9 8b01 21bf
00000250: 53d6 6bb9 f584 ab3f 20af 9261 3e99 b4bf
00000260: 97e8 b3da 0ec1 903f ebe6 b40a 2c5b 9abf
00000270: 9620 d8ed e3e6 a33f 575f 521c 52b0 b9bf
00000280: 42a8 1e0e 1cfb 98bf d525 cef2 f5ca 693f
00000290: d21a 6bfc 54ba d6bf ae01 9b61 15e8 d3bf
000002a0: ebf2 422f db5e af3f 846e 46cc adf6 8a3f
000002b0: 4ee4 13a5 60eb dbbe c247 5486 ce97 b73f
000002c0: c8b5 f9cb 9812 b8bf 4fa9 e0d0 935c bdbf
000002d0: 0bac 11e3 4ddb ad3f 2c66 eda5 bdba 9cbf
000002e0: 7c1e ebaf c360 a3bf 5440 c639 8ea5 c13f
000002f0: 94cb cdeb f272 bdbf 367b 3503 8981 c7bf
00000300: 8058 83d2 8877 b7bf 2383 6a82 4de9 bfbf
00000310: 37c1 64db 969a abbf c588 90ff be3d c0bf
00000320: 345e 25e1 80df 4e3f e6f9 16e3 49b2 34bf
00000330: e753 f76f 7777 ac3f feed 7641 e677 34bf
00000340: 4a03 612c 0a24 c1bf 70bc f26a 81ee 883f
00000350: ce57 d0ae 236f c2bf c443 c0fa 0600 ab3f
00000360: 1af5 d017 0c88 c53f d067 c18b ff57 a83f
00000370: 40ca c204 0090 99bf 8ccd ebaf e95f be3f
00000380: 6053 3420 589b b03f 3ef3 224c 9273 b33f
00000390: 18ac 47ec fc18 973f 185a 2201 92bb 97bf
000003a0: 2cfa 3ef5 2b29 c3bf fce7 c615 8946 acbf
000003b0: 8c9c 3cb2 87d8 ad3f 507a 0b68 f490 b63f
000003c0: f063 c389 7379 a3bf e40a c62c 5917 c23f
000003d0: b679 c7d8 026e b7bf 6c75 a7c5 b82d c0bf
000003e0: 3b6e 5cc3 5be3 c2bf 6446 490c 515f c13f
000003f0: 0916 ada9 1c3c bdbf 3c2f 2ba7 a0e8 c13f
00000400: a36b eca1 5d96 b3bf 5866 1fd6 b185 c4bf
00000410: b8dd 4f6a aad7 a63f 74a9 b558 6ab4 a23f
00000420: 9820 a4ca 2aa2 95bf 50d3 2083 4dbf 963f
00000430: 5c86 fb2e e6ea c3bf 7615 c517 8f76 bdbf
00000440: 5c5a dc04 967d af3f 38ad 5e7b 7283 91bf
00000450: f4de 398d 62c6 bd3f 7415 2988 a252 b73f
00000460: 4ae7 9e37 94cd c03f 1d6b 128d 0ab2 c53f
00000470: 3459 417f b27a 9fbf 1a1b 5f2c fd62 c6bf
00000480: cfaf e6e5 5ab8 bbbf ff6b 36d3 622f 86bf
00000490: b9eb 0cc1 9275 b03f 98c1 e4fa 8ea8 b8bf
000004a0: 8167 90ea 7fad acbf 28d1 abb7 6520 bb3f
000004b0: c095 5bae ae26 5d3f 9141 df43 3c96 afbf
000004c0: 7087 5a0d 5107 a43f 6df7 ab53 2d8d b13f
000004d0: 95a8 8038 9ba2 a7bf f674 5dd3 81c1 ab3f
000004e0: b855 7d13 ac6f 1a3f f5a5 8b1e 2649 bf3f
000004f0: d9a8 7fe9 7523 c1bf 754c 9c9d e9e4 be3f
00000500: 736d ad41 7df7 c53f 1ca1 d363 30bd 97bf
00000510: 6f38 1f8a 9d00 743f 3490 9e7b e504 b03f
00000520: 8392 25b8 0077 91bf 6f68 c2e6 9055 c6bf
00000530: ee41 8b3e a092 a7bf 6424 95bf eaed 973f
00000540: 797d 5a5f 6296 b6bf 7a35 8031 cb6a c53f
00000550: 132f 7104 886e 8ebf 113e 9302 a963 b03f
00000560: a30f 2151 d983 b13f 9020 43c8 fa8c ab3f
00000570: 1ada 6958 ebb0 bb3f
-0.04718763829942111 -0.16799981943133466 -1.3589017790090052e-157 0.13117111974142048 3.9289629565810165e-158 0.18260488869890146 0.27159924140489594 -0.09774543967915574
0.043661581846168154 0.06500293131001636 -0.12898045502733058 -0.09992766076545831 -0.06432538984809338 0.04291114933273347 0.2235582819547171 -0.1284128314074169
-0.14711499603056172 0.23233530158520746 2.856962740823723e-159 -2.7457349443383563e-159 0.25189250897266163 -0.18100631389853664 0.5999007693075583 -0.1898728130386552
0.018811947524331754 0.5833569604593892 -0.1524869914418583 0.026313514386210213 -3.806275523052217e-167 1.5619224124279874e-157 -1.2020145767408206e-160 -4.185584304434509e-158
-9.701527857481926e-161 3.5310031003380127e-158 -0.24773083497063825 3.849547970858505e-220 -2.233196622765221e-295 -3.2854632491070346e-246 -3.115936442269806e-211 -2.9338772296943435e-212
1.7889313650574e-212 -9.714999647993477e-292 -1.7797165691192431 -0.3470533794134196 -0.16820728170038898 -0.07292385520981802 -0.21568909723271035 -0.23062722293734098
0.029756189990654516 6.184436418706164e-229 -3.0122232827355023e-248 3.80662379141444e-310 7.922876559025404e-247 2.68828989731626e-258 -2.561206196657015e-220 -2.2135942023673056e-214
0.014691882034876438 -0.09814614638994865 0.07402509089881451 -0.45657450509418496 -0.20161275230478617 -0.4026953828336986 -0.36499401719464075 -3.376271087172295e-07
-7.082506663103874e-08 -3.30921922065332e-246 1.2355751973767334e-211 -3.519295002133991e-222 -6.996527184019671e-227 2.72893854885392e-246 0.03275626353743457 -0.11970486007533379
0.08647845196211616 -0.00012974578989112133 0.053748778232983206 -0.0804633129325194 0.016361457918698887 -0.02573841872547337 0.03887092855808409 -0.10034669105004689
-0.02439540706806321 0.003148537033159408 -0.3551228013060782 -0.31104025394236146 0.061270570296505365 0.013165815159303713 -6.656514032637551e-06 0.09216013698121997
-0.09403376560086152 -0.11469386910963418 0.05831378361548197 -0.028056109669114246 -0.0378476288074667 0.13786485501305157 -0.11503523117953157 -0.18364060074505922
-0.09166770114402034 -0.12465366777406621 -0.05391379764694409 -0.1268843410371742 0.0009421710295027309 -0.0003158026111939313 0.055598957460155245 -0.0003123223445659905
-0.1339123455709575 0.012173663212108304 -0.14401670490104695 0.05273458300519665 0.16821433222677556 0.04754637318610799 -0.02496337918337077 0.11865101380299431
0.06487036501159826 0.07598223074724061 0.022556259080300206 -0.023176461524224562 -0.149693960904146 -0.055225643070528435 0.05829261828176255 0.08814933338315112
-0.03803597504310818 0.14133753477297895 -0.09152238647900543 -0.1263953175647815 -0.1475634292518054 0.13572133159555044 -0.11419848577960336 0.13991172945531527
-0.07651314929209589 -0.16033003764350684 0.044614148595367664 0.036532710388956696 -0.021126431101067128 0.022214137199813522 -0.15560605329578692 -0.11509031610792939
0.06150502023063062 -0.01710299375524224 0.11630836437131703 0.09110465835791165 0.13127377239089305 0.1694958866908899 -0.030741490380330208 -0.17489590326859955
-0.10828178513355556 -0.010832569189735962 0.06429402554651532 -0.0963219988377716 -0.05601119745570227 0.10596309408339677 0.0017792421216936555 -0.06169308022038245
0.039118321304399184 0.06856044094817344 -0.04616246285179774 0.054210717250251436 0.00010084617394786374 0.12220991368999264 -0.13389467145254377 0.12068042848504652
0.17161527354151537 -0.0231826363496178 0.004883399380515837 0.06257471340228521 -0.017055522193361938 -0.17448626773404238 -0.04604054225422148 0.02336851877524672
-0.08823218181577443 0.1673215858176425 -0.014859259257853396 0.06402069390173205 0.06841810446445477 0.053809964128562204 0.10816832455189065

tcn.network.1.conv2.bias f8 [5]
00000000: 6959 cb0c c7d4 81bf 6b80 393e b9c6 a5bf
00000010: 9039 43e5 e0a8 a1bf 0fa1 6805 fe45 97bf
00000020: bbb1 6da7 ba33 73bf
-0.008706622198059137 -0.04253176579072789 -0.034491565691143866 -0.022727936821099578 -0.0046880046055374726

tcn.network.1.conv2.weight_g f8 [5, 1, 1]
00000000: 694d 0776 75e9 c73f 6afd e491 45ea df3f
00000010: 374f b09b 47dc e33f ffa5 83d0 f6ea cc3f
00000020: 6d80 ce29 226d b03f
0.1868120981513173 0.4986738133192917 0.6206396141810505 0.22592053586349434 0.06416524429960342

tcn.network.1.conv2.weight_v f8 [5, 5, 7]
00000000: 4d9b ed1d fe1e d33f 315c c5fe 5ffe d83f
00000010: c7b9 4a09 0d2e 9abf efce c321 bc66 d73f
00000020: 7cd5 56ff 36a8 b93f fbf5 544f 8b8c c83f
00000030: 70dd f571 e77a e0bf 7843 cbbf 919f c73f
00000040: ffe1 0c06 0426 d83f 551c 3374 c0fb cfbf
00000050: c849 67f9 5c37 cb3f cd37 b69e 3ca6 d1bf
00000060: 8fe2 0a07 1f66 e0bf 480f d7f4 bce9 cabf
00000070: b9d2 ca9d 45f9 cbbf 238b 60b2 3f78 e3bf
00000080: 6f3c d60c dafd c93f de95 1221 a645 b53f
00000090: d7ea d08b f04f e5bf fcfb 11ef b4e7 dfbf
000000a0: f992 565b 7378 bc3f 42e4 a148 48fc e2bf
000000b0: 9d2c 5642 f750 e23f 506b 3b60 0deb 7928
000000c0: 315c a0b2 5076 41a8 06d8 9dfd 8fe1 ddbf
000000d0: 4977 539a 0025 8128 260c 1cc1 3fa1 e2bf
000000e0: 0786 4bfa 8dae e23f 5d7e d65e 9849 d127
000000f0: dd1b 44fc e72a 50a8 1027 7f72 82f4 ddbf
00000100: 1b56 8828 6759 41a7 2060 c2c5 5a41 c427
00000110: 89c9 1a63 4255 93a8 84ff d1f4 a08b c63f
00000120: feeb b7dd 7ade a13f c4e6 c0ca 210c c13f
00000130: a269 6527 4d92 393f 2820 685b b164 c5bf
00000140: b038 a64c cd95 b5bf 9b83 8619 ffa2 c0bf
00000150: c6e2 942e f790 c9bf ed72 48f1 b198 b3bf
00000160: 3d9f 3c4f efb0 b4bf 5580 e822 804f a8bf
00000170: b862 672f f9bd b7bf f57e c08b e93e 80bf
00000180: 8aa7 973e cbb7 b73f 7a19 11c0 ef14 ba3f
00000190: 0605 11b2 c8b5 b03f 2cad 4482 ea92 bcbf
000001a0: 49be bd80 1830 b4bf 22e8 23d5 8a8f c0bf
000001b0: 63ac 9a94 7ca3 c8bf 4949 166d 79f4 c63f
000001c0: 7dbf 319a a4b8 c9bf 62e1 93c0 55d3 a73f
000001d0: 5c3d 09c8 0de3 c5bf fc1a 8988 29ee 883f
000001e0: 8c93 91ff 7e7d 7b3f c441 2ea3 6a05 bebf
000001f0: 2ac5 3891 1609 a9bf 80f9 3f32 83d0 c63f
00000200: cc70 c6ab 4121 bebf f443 90b3 47f3 a03f
00000210: 3874 1d4c c3c9 b93f a994 43ab 57ed c33f
00000220: ab68 66f5 ac17 c8bf 8fa5 4c78 1aec a4bf
00000230: fe07 e19b 85d0 bdbf 98d4 1cd7 d5ee c23f
00000240: 9503 29a3 8197 b3bf 6390 7e2f 6ca1 abbf
00000250: e29b fa42 891b ab3f 7923 de72 9fd9 b53f
00000260: 64fd bfc2 ef5e c4bf b9b0 b12d 831d a23f
00000270: d4da 0b72 0805 b0bf d406 cfb0 c2bc b83f
00000280: 7f44 d96a e240 c2bf ca1c 259e 5eba a8bf
00000290: 3fe0 1309 6186 a83f d31c ee1f d31a b7bf
000002a0: 8033 9be5 e976 9dbf f0f7 77ce 0127 98bf
000002b0: 5f3c 9012 5e68 c43f 124b c060 7117 b9bf
000002c0: a4a1 fc97 7d19 c33f baf8 c664 0ff7 aabf
000002d0: 0bb5 0b0d f82f 973f 5741 5d50 98fb c4bf
000002e0: e05c 542e 3215 823f 8b5a 39cd 8222 b1bf
000002f0: 3716 dd7d 64cc c43f 46fe 5a41 def3 b33f
00000300: a8ee 8fd3 6f4c bbbf 773d 6d16 4406 c1bf
00000310: 0aaa 6829 a0b7 c43f cc5e 7405 618c b0bf
00000320: 50e0 874e 6c51 c13f 2ae9 911c 5cc8 8c3f
00000330: 31ce 38cb d7b4 b9bf 4b43 7737 877a c1bf
00000340: 9984 3be4 2622 c5bf 622b a4db c2ef b03f
00000350: d0d1 683c 53bc ccbf e6f8 7599 26d3 d13f
00000360: f2be 9c42 3602 d3bf 7608 faee 5ded d3bf
00000370: 98c9 d8c2 06bf ba3f 26c5 a701 f420 d0bf
00000380: b5a9 5d95 0ee5 e83f add6 66de 0e2e dd3f
00000390: 2b6a fed3 fc11 bb3f d813 eb4e 3a66 c83f
000003a0: a25a bd7a eed3 c5bf b0d4 1ab1 95d3 cfbf
000003b0: 92dc 580c 16f1 ccbf 1c77 c29a 5417 e9bf
000003c0: 791c ab30 00c3 e23f 3071 a8f9 5cb3 e33f
000003d0: 5576 e075 0a13 e2bf 8c3b 60e9 2f55 d2bf
000003e0: efa2 64ef 9d06 a6bf ab4a a2a5 8452 e73f
000003f0: 2a5e ae32 8e49 e3bf c2fb ed23 5f1e e53f
00000400: e9db 7978 d9ed e43f ed38 1791 8cb7 debf
00000410: c788 a483 ca22 dfbf fe3e 4fba b98d e03f
00000420: 1771 c2bc af52 e13f f309 1587 26a1 e3bf
00000430: 27ff 7dd2 3f31 e2bf c349 e888 d787 e1bf
00000440: d623 c329 5a37 e03f e8b4 3ccb 9ac9 e4bf
00000450: 7909 f79a b29e 4531 394c fff9 7d71 e2bf
00000460: 4c70 4933 805b c0bf b4cb 65f3 3d97 b7bf
00000470: b04b 3c19 2bef b33f cbc2 6788 8746 cebf
00000480: 1c0c 5049 d3e7 9a3f e47a 77dd 88ad 92bf
00000490: 1c50 5103 87ec c5bf 3adb b3f2 1315 b83f
000004a0: e252 1ee8 f5db b0bf 15b2 74b1 fc2e ad3f
000004b0: 1a14 aba7 d1a9 c43f c621 6b9e 5590 95bf
000004c0: 5e12 e203 52af aabf b375 decf 1d09 b9bf
000004d0: e8ea 920d 2b08 ddbf 584a 9f41 3e90 e1bf
000004e0: 7784 357d 4cb4 dfbf 82f7 84ad f0db e03f
000004f0: 66d7 a8ac 498c e03f 2cac 5c13 1a25 dfbf
00000500: 56a8 b186 65bb d83f 6ba3 abf5 9b42 f3b9
00000510: 7605 dd30 d0e5 e1bf e5d3 9616 d757 df3f
00000520: 8590 6d20 2094 85ba 42f3 fb91 b75e dcbf
00000530: 9b7c 68ba 79fd d8bf 278c 1389 b4b8 e0bf
00000540: 8e07 5be3 cdfd dbbf 6ebb 5a36 cfa0 e03f
00000550: d77f 74fe 9ffa e13f 005b 1ba5 72cd dabf
00000560: 68ec bbc7 877f e0bf 3d91 7cdc 1f33 dbbf
00000570: 2620 402f 2cc7 d83f
0.2987666408793544 0.39052581672644054 -0.025566295330173874 0.3656454400763626 0.100223004664107 0.19178906797053216 -0.51500293977635 0.18455716957989998
0.3773202952466192 -0.24987035440264785 0.21262705018905437 -0.275771288864118 -0.5124659669446191 -0.21025812106210595 -0.21854467587185925 -0.6084288104942498
0.20305944086837566 0.0830940085166598 -0.6660082560332182 -0.49851725908951017 0.11121293048797644 -0.593296186313758 0.5723835273396564 1.052461043570314e-113
-8.863593778981952e-115 -0.46689224021190545 1.3923790875495112e-113 -0.5821837207480527 0.5838079346251001 6.855409671491193e-117 -1.6412973731252475e-114 -0.46804867917363513
-1.3437297814149495e-119 4.016152444478968e-117 -3.140233075980817e-113 0.17613613084904156 0.034900512280692894 0.13318273925852087 0.0003901899684898518 -0.16713540042133102
-0.08431704636879789 -0.12997425791129733 -0.19973649763576 -0.07654869213770228 -0.08082481083385758 -0.047481540929084666 -0.0927425137264305 -0.007932495667830145
0.09264822271475573 0.10188196601038682 0.0652738032086014 -0.11161676102044699 -0.07885888236136752 -0.12938056380500124 -0.19248921638549907 0.17933576418415445
-0.20094735650081566 0.046534232862486716 -0.1709916331042035 0.012173008422121871 0.006711479270141828 -0.11727015003112401 -0.04889746210791153 0.17823829606636465
-0.11769495433549365 0.03310607973993021 0.10073490722921086 0.15568061697482463 -0.18822252256797375 -0.04086382597445059 -0.1164630418361696 0.14791367534204336
-0.07653055413631045 -0.053965931699423896 0.052944459367885846 0.08535191110980901 -0.1591472340514698 0.035381411865132724 -0.06257679733594596 0.09663025681131937
-0.14260511605474233 -0.048296887211614584 0.047900230749235544 -0.0902530625299847 -0.028773932112744927 -0.023586300112576397 0.15943504244248438 -0.0980139599999286
0.1492154113887071 -0.05266616921606855 0.02264392451882195 -0.16392806934391999 0.008829490698686049 -0.06693284521439062 0.1624875654762705 0.07793988319007736
-0.1066350833424915 -0.13300372214369435 0.161853809565699 -0.0646420133892846 0.1352973350001343 0.014054031011472807 -0.10041569434616161 -0.13655176361364804
-0.16510473388828897 0.06615846502624614 -0.22449722718887566 0.27851262079629036 -0.2970100069532996 -0.31136272752349414 0.10447733170511808 -0.25201130067496746
0.7779610554983295 0.45593616217534355 0.10574321914320055 0.19061974385672786 -0.17053013795039812 -0.24864455363937088 -0.22610736468206888 -0.7840979597710631
0.5863038015894652 0.6156449199802747 -0.5648243238717422 -0.28644941130271984 -0.04301923320082845 0.7288230166471598 -0.6027289380899152 0.6599574758291669
0.6540343621298891 -0.47995294732108 -0.48649847846730804 0.5173004759653563 0.5413435637197236 -0.6134216917346847 -0.5685118781256947 -0.5478322671863726
0.5067568603200197 -0.6496099442935277 2.447287400485677e-71 -0.5763540156134531 -0.1277923822807473 -0.09215151970219787 0.07786816946126751 -0.23652738724151443
0.026274968480731173 -0.018240107075935166 -0.17128074323648057 0.0940716235671574 -0.0658563319869461 0.05699910799225819 0.1614324635212661 -0.02105840472612088
-0.052118838285456034 -0.0977953560345302 -0.45362354589057796 -0.5488578111347335 -0.49537956454702886 0.5268481625605406 0.5171249744659974 -0.4866395176965763
0.3864377799387787 -1.5193612697329766e-29 -0.5593033747065153 0.4897363396260615 -8.71553327678342e-27 -0.4432810712458385 -0.3904709167854407 -0.5225470235130886
-0.4373659820813537 0.5196300565347494 0.5618438691926667 -0.418789540517011 -0.5155676747375653 -0.4249953892888419 0.387156530516679

tcn.network.1.net.0.bias f8 [5]
00000000: b423 2c82 4c34 c3bf a842 0639 8834 c73f
00000010: b1f0 da1a 2c83 6b3f d7a7 67b8 4372 babf
00000020: efd4 ce81 d1ec c9bf
-0.15003353458476243 0.18129065307995984 0.0033584462570087283 -0.10330603839943762 -0.20253962362554698

tcn.network.1.net.0.weight_g f8 [5, 1, 1]
00000000: 1229 5cdd d893 d83f a7aa 1bcc b1d4 ef3f
00000010: be26 b7dd 0131 e63f 36da 18ad e680 e23f
00000020: 4968 5eb5 2773 de3f
0.3840238725394026 0.9947136866079135 0.6934823351268375 0.5782349949648224 0.47577851020617296
