Ventil_trained_NNs/tcn_4.pth (torch, 37668 bytes, 64 tensors)

tcn.network.0.conv1.bias f8 [6]
00000000: 9008 d3e3 d646 d73f d968 36ee 82eb bb3f
00000010: ce2e f2f1 f3b7 cf3f 1476 7f4d dbb7 c9bf
00000020: dc45 d98c a7a0 c5bf 2334 d39d 4d37 d43f
0.3636986946913874 0.1090623694966867 0.24780129731913408 -0.2009233597190564 -0.16896528603915228 0.31587543881033947

tcn.network.0.conv1.weight_g f8 [6, 1, 1]
00000000: 2c53 9980 6bce 1840 bcaf fa3e 1329 db3f
00000010: aa62 72eb 428a f33f a9bf 2e85 ebfd df3f
00000020: 9041 0c3a ab92 e83f 7987 f5e0 4848 eb3f
6.201581963880738 0.4243820300132446 1.2212552258626297 0.49987304693331197 0.7679039129016463 0.852573813794364

tcn.network.0.conv1.weight_v f8 [6, 3, 7]
00000000: ecdd a1e3 9deb a8bf 108b 00ba ed6b b43f
00000010: 461e f4a3 0fa6 6bbf 583c 5f2a 975c a13f
00000020: 2405 c877 3c2c 8d3f f6b9 a140 dd53 c33f
00000030: 812c 5012 d75d c1bf 04f5 36d8 d241 b73f
00000040: 757b 2891 f00b 93bf 78f9 0be6 8763 c33f
00000050: 67d1 c402 ec81 8c3f 4658 da1f 970b 9f3f
00000060: 3817 a405 52e0 89bf 99df 86c4 8f49 d5bf
00000070: 5c77 0d30 0681 9e3f 5171 d88f 32e8 e23f
00000080: 76ec b023 4cbc c0bf e31f acb2 db26 bb3f
00000090: 3a3e 4122 8e78 d43f af5a bdc8 3978 0040
000000a0: 96a9 7894 8fa1 09c0 ef04 ecd8 bbd9 cd3f
000000b0: 2842 d15a 6dd4 bdbf 5a20 666d aa40 d2bf
000000c0: a206 8e5d ede7 dc3f 6f33 61c8 01fa c73f
000000d0: b9a8 b29e 2902 c7bf 6107 4949 eaee d4bf
000000e0: ad1e bb70 fc1c e13f 6d6c 890d fe81 aabf
000000f0: f171 ab8d 417c 7abf 9b4f 3fe5 8cd9 c53f
00000100: 67b8 fe93 8bff efbf da81 d8e4 7e13 01c0
00000110: fd03 8dc2 e545 0ac0 448b c24d f258 aebf
00000120: 4de1 8913 8a20 dc3f 3449 8d89 2b7b e23f
00000130: e8ed cc1f 9df5 e23f 2639 d60a d01b d3bf
00000140: 9af9 1c0c a02b e6bf fe1f 10d9 5843 fbbf
00000150: b4c9 535c b840 cf3f 450e 442d 12b7 cb3f
00000160: 0c45 997b 501e da3f d75a 2fbf b038 d23f
00000170: 2033 5217 c586 bcbf ed0e 0dad 2f5e b43f
00000180: dc46 d056 190f ebbf c7ae 72e4 629d d6bf
00000190: 359e 48d6 eb1b cc3f 193b c5c9 e1b7 d53f
000001a0: 943b f9f5 9ca1 bbbf 4229 4ce8 d7eb dcbf
000001b0: 44dc 4023 a41f e9bf ba3d 80f5 6368 f7bf
000001c0: b148 e9a3 760f efbf a649 ae72 e780 c1bf
000001d0: bd0e f9b4 e75d d8bf 0f29 7744 dc50 e1bf
000001e0: 933d e7f6 6676 eabf 4bf7 e4bd 1486 f0bf
000001f0: 1d6f 632a 75f8 f8bf e081 c6b0 f0f4 a5bf
00000200: 2c27 618e ede6 a83f 5258 85c1 a13b c2bf
00000210: 2af5 b448 7dad bc3f 4c1c e722 7d5b b1bf
00000220: 46a7 cfb4 d0c9 b7bf cf51 931c fe5e bcbf
00000230: 00f4 06ca 59ba 573f 5bbe 0ce3 dc51 c4bf
00000240: 5fa7 bd2b 92ba c23f d03b bf72 879e 9e3f
00000250: 64dc 8940 e3f8 ab3f d048 4bfb eefd bbbf
00000260: db0c 985d facc c13f b4d9 f719 e56f a63f
00000270: 36ff 832e ef9d b53f e434 278b 0925 a63f
00000280: 2a5a 94cb d700 b23f f17d 448c 9a19 c63f
00000290: 5e7e 4f5d 4718 c5bf bc1a a821 a024 c7bf
000002a0: 63e4 8539 5fb8 dcbf 6667 e444 4131 da3f
000002b0: 195b 629b 5f2e d7bf 9987 266f fa1b 85bf
000002c0: 3871 b9c9 5379 e33f d5ac 2f10 fd54 de3f
000002d0: 6f79 4b95 ef9b a7bf 8fc6 6fac ba0b e5bf
000002e0: 9a6e 568f 0934 c4bf 165c 419c 81ef d03f
000002f0: e1c5 3229 c6ab d33f a1c2 f69f 0751 d13f
00000300: 46ac 726c 7b78 e0bf 210a 729e 0334 f0bf
00000310: 5bb4 ccde ce92 cf3f 3f3b 0ddf b20e dabf
00000320: 1c31 7ebb 2150 e6bf 3d6d af8e 397c e23f
00000330: af04 e93a 059f 1940 e58e 95ff 31e7 e43f
00000340: e566 9a12 ab51 0040 66f8 c4f1 1761 d23f
00000350: 2d5d 3400 61ef d7bf a8c5 f544 b50a d2bf
00000360: 6ce0 dc65 8f49 c9bf d010 a64e 6ce0 e8bf
00000370: c151 c3d0 b297 d03f 4416 9343 6254 f0bf
00000380: 253a 2a52 01b8 a53f 76eb bb83 cfc6 c4bf
00000390: 356d e083 84cf bf3f 6a9a 77ce 77f6 97bf
000003a0: e81f d4a7 fd28 e3bf 60d2 a7d2 b298 dbbf
000003b0: b968 a831 6230 cc3f 0137 2123 3225 d4bf
000003c0: c837 55a3 8425 ab3f 92c0 c871 bc21 dabf
000003d0: cdec 4e0d 2904 dabf e116 5356 2cb7 f2bf
000003e0: 87f2 77c1 9039 e63f 68ce daf5 a534 d7bf
-0.04867261317934521 0.07977186003749304 -0.0033750825383583065 0.03390953438030725 0.01424453011077504 0.15099683433386674 -0.13567627329061696 0.09084813860586755
-0.01860023389792383 0.1514749406123419 0.013919681391236961 0.030317651099345498 -0.012634888455533053 -0.3326148432929528 0.029789063151262382 0.590844422290994
-0.1307463812134732 0.10606167900198175 0.3198581060905529 2.058703964499123 -3.20388713830216 0.2332072076024256 -0.11652263133260787 -0.2851968830441415
0.45165571342668376 0.18731710704960444 -0.17975349663658394 -0.327082225387235 0.5347883416915998 -0.0517730132603099 -0.006466156070669347 0.17070161050525887
-0.9999444857146614 -2.1345193747113003 -3.2841296386036434 -0.059272357933215974 0.43948604496064975 0.5775354086456788 0.5924821492293946 -0.29857255037576846
-0.6928253399453752 -1.7039421538374877 0.24416260250252508 0.2165243836426375 0.4081002432840968 0.28471010847480954 -0.11143142527926075 0.07956216788175725
-0.845593137319351 -0.3533560973107623 0.21960208857602628 0.339348265687407 -0.107934770633831 -0.45189473805716684 -0.7851124466459471 -1.4629859533196012
-0.9706376267806914 -0.13674634074830044 -0.38073151276715206 -0.5411206567016807 -0.8269533941583397 -1.0327346246480882 -1.5606586128041677 -0.04288437040236537
0.04863684046774916 -0.14244481992017427 0.11202223801679581 -0.06780225851172011 -0.09292320646605132 -0.11082447240489234 0.0014482380721425603 -0.15874825560011882
0.146318694455938 0.02990161550388476 0.05463323748420448 -0.10934346804723138 0.13906793184296515 0.04382244054788789 0.08444113622317392 0.04325132201811657
0.07032536239817291 0.1726563630008822 -0.16480342918565588 -0.18080522197143079 -0.44875317208749815 0.4092562840247552 -0.3622054116653302 -0.010307270543140666
0.6085604610375759 0.473937288100115 -0.04611157128759912 -0.6576817863371661 -0.157838053692889 0.264618303864553 0.30735925696634864 0.2705706655643017
-0.5147072904704906 -1.0126987637783105 0.24666772726905858 -0.4071471384276499 -0.69728170985903 0.5776641642400261 6.405293388817127 0.653222083270944
2.0398770764703493 0.2871761189488836 -0.37398552913642186 -0.28190356954936613 -0.19755737756509306 -0.7773953949076944 0.25925894152649326 -1.020601524317855
0.04241947296133145 -0.16231721813513972 0.12426021785397696 -0.02340113828349858 -0.5987537649061752 -0.4311949784453528 0.22022654938411337 -0.31477025442733014
0.053020615518661496 -0.4083090888189044 -0.4065039281810641 -1.169720017628997 0.694527032726527 -0.36258839616059513

tcn.network.0.conv2.bias f8 [6]
00000000: 77f9 ace9 1dfd c03f 08b7 578a acca 94bf
00000010: 9b46 97ed 9639 bbbf 0c8f 8d25 833b bfbf
00000020: e670 f398 8638 d33f edd2 5db1 f62f abbf
0.13272451314874065 -0.020304389899982872 -0.1063474969917259 -0.12200183550663385 0.3003250592862642 -0.05310030856245427

tcn.network.0.conv2.weight_g f8 [6, 1, 1]
00000000: dbd7 1187 ca4c f53f 6674 b45c b2c8 e03f
00000010: c011 e268 2824 e13f 09ad 7d7b cad2 e33f
00000020: de87 e71f f566 f13f 3770 be2a eb86 e23f
1.3312478328857569 0.5244991121904945 0.5356638000962946 0.619481316750723 1.0876361128107344 0.5789695582238953

tcn.network.0.conv2.weight_v f8 [6, 6, 7]
00000000: 0522 dd6e ff81 b5bf 6d2a 2d25 3b90 723f
00000010: 4394 9552 f575 a83f f897 d86c 50bc 9abf
00000020: f7f2 8241 f0a6 d6bf f4d8 8e15 77d1 f4bf
00000030: 3e1c 0d11 47fc fb3f 0bc7 0030 3880 c9bf
00000040: 9892 9305 ae19 b8bf 1aac 9a05 7068 d33f
00000050: 8dc5 1b51 f271 bc3f e610 283b e0bc c33f
00000060: 7e9b f8f6 419f a1bf a3df c04c 4893 dbbf
00000070: 4169 f966 6e4c 4f3f 759a 5527 a0e4 c5bf
00000080: 3719 dd66 543d ae3f 8176 a2e4 96ec b9bf
00000090: 8345 3812 cdb5 d73f 3931 4c8b 0c57 afbf
000000a0: ce38 74bf 891c b2bf 653a 0800 0000 0000
000000b0: fd79 1800 0000 0080 b15b 0100 0000 0000
000000c0: 0899 0c00 0000 0000 70fe 0200 0000 0080
000000d0: 494a 0300 0000 0000 f285 0700 0000 0000
000000e0: 0231 0b3c fd93 e13f 4311 9bdb 0521 c93f
000000f0: f7fc 18f0 6eae c2bf 0b19 a8f0 d1ff d4bf
00000100: ade6 8839 a4e5 e13f fd09 ac52 9eaa d23f
00000110: 4592 db23 69df edbf 3ac1 2094 5f0a 83bf
00000120: f3dd 3a11 350b babf 6f2d 889e 9a7f e2bf
00000130: 3b05 30af e183 c53f 4d1b 176c 7ba7 c83f
00000140: 9159 dbae 8921 be3f 5511 8c7f 4876 dc3f
00000150: e5c6 6549 9019 bc3f f450 9b30 6351 b7bf
00000160: de62 3fb7 daae bc3f d9a8 83af ba54 75bf
00000170: 94cf 6ddc 7a01 b53f da30 9aae 926f c3bf
00000180: 047e b185 c232 92bf 93ff 9465 1b0b b8bf
00000190: da69 b328 a1e9 b7bf ed59 ef58 91ac a73f
000001a0: 8a70 aea8 3f06 c63f 2ab9 61d3 a671 c53f
000001b0: ad73 f703 4c8c c1bf 3310 ea84 4769 b03f
000001c0: eb8d 4458 a98c b93f 7a84 367e d1a7 c3bf
000001d0: e321 9813 c901 acbf 0a66 2f31 18ad b3bf
000001e0: d02e 14c5 2119 c03f cc86 8e10 80fd b93f
000001f0: 588d c9d2 568e 90bf 8206 222c 963d c23f
00000200: 0141 f3e6 fb8d bbbf a2bd f21d 5004 b53f
00000210: 3e2b 2fc9 7863 783f 1184 8fbc 814a a53f
00000220: 1f27 46db 245e bbbf 8d3e 049b c8c4 c33f
00000230: 060c 817a 116e a63f 98c8 50ed d234 bdbf
00000240: 2288 179a 4fcc a83f 6f0d 6c42 7575 9b3f
00000250: 4a2b ea2e 0463 bbbf 21d5 e464 a5fb c0bf
00000260: bfe6 9c3f 2f71 66bf b438 475a 8565 87bf
00000270: 5146 fef1 3742 a0bf 79fe bd4f 38d6 bf3f
00000280: e2d0 a2fb ea9d a5bf 3b3d f271 2fdd c2bf
00000290: c4df bf68 d6fd aabf efa2 dec3 03fb b13f
000002a0: 6f2d 8bd0 6f30 bb3f 7f81 b109 e181 88bf
000002b0: 8ff9 bcdc 357c ab3f 9677 44de 5897 b43f
000002c0: 850a 86ef 8914 c9bf 2440 96fb fc11 b73f
000002d0: 5e0b d725 988c 923f 12b9 0ed8 58ae b13f
000002e0: 88c7 7da5 da5b c5bf 0826 bfec f104 c53f
000002f0: a4a1 001e 0343 b93f 6c09 53e9 dacf c2bf
00000300: 2f59 5c4b fd3f c03f 05ae dc4e 36e4 c0bf
00000310: fa3e f820 d905 c03f 47e5 6d08 6920 c03f
00000320: 0b39 6b83 9423 7abf afd0 f885 fa2e c1bf
00000330: 8f1a bd63 951b a5bf d2fa 41b8 dd5a c3bf
00000340: 703d d30a ec93 b43f 5ce8 0131 89b7 b83f
00000350: 1d0c dce0 9ffd b4bf 9e9c b7aa 4a01 c13f
00000360: 2de6 9715 fa46 c23f 2f3a 2d27 3a5f a5bf
00000370: 7d2c d581 9538 bcbf c705 06eb 15a2 b63f
00000380: d81a 7c73 388e b53f 6bb0 b76d d8e5 a03f
00000390: ac42 6a9e 4be5 a53f 9928 8936 3f69 b1bf
000003a0: 2dcc d6bd 7636 c8bf 4709 87bf bfa1 c3bf
000003b0: 38d2 99c4 2ad7 b9bf c53a d61b 9d14 c4bf
000003c0: ae82 377c d0c3 b13f 0a12 b319 09c7 9bbf
000003d0: 21e1 f661 4805 afbf 4d3a 4c32 6768 a0bf
000003e0: ffeb 06b0 ba9f 963f 2bfd 17c9 15bd b3bf
000003f0: ae99 3c5d 9ca3 b23f e645 6675 b913 be3f
00000400: dd0d 8b8a 8e36 b3bf d034 a39c de14 bcbf
00000410: e962 4217 0403 b6bf 4a36 d120 9379 aabf
00000420: 60ba 6c1d fcfa 93bf b069 cb3a 1ec1 9c3f
00000430: 6070 00bb eb98 b33f 396e 1e0a 49c8 b7bf
00000440: 30de a93a 0f0a 88bf e22a 2912 ace4 be3f
00000450: d89f 93ab e188 c2bf c734 2fd4 648a c03f
00000460: 9c05 ba06 657d a23f 06ce fcf1 8682 b83f
00000470: 4c0b e144 0be0 ae3f 95c3 b7a9 c231 c3bf
00000480: cd5c b858 60b8 b6bf 1dd5 c5ce be90 b8bf
00000490: a6c5 6a02 a923 bb3f 2441 5965 3d39 b63f
000004a0: bd80 246c 86e8 b6bf 2ca2 642d 540f ab3f
000004b0: 5cf3 fdcb 6751 b03f f392 ca4e 12b3 c03f
000004c0: 00e8 0660 ea27 c2bf 34d2 fa6d ee7d babf
000004d0: b496 df61 c2e7 b7bf dda8 185d 5a71 c23f
000004e0: 0486 c3bb d832 b0bf 0073 4748 9b6d 883f
000004f0: 274e 7090 892e c2bf cbc2 454d 47a7 c23f
00000500: 30f0 3987 4fdc 86bf b262 c4c2 de61 c2bf
00000510: b090 79b8 ae51 973f f6d0 aaf8 3bfc b8bf
00000520: 8a0a 2c97 ab75 b0bf d87d 1b52 74ad b2bf
00000530: 8075 4e74 9ec6 b23f 200c dd98 8540 bdbf
00000540: 5172 a033 7b72 c1bf 3797 fe3f 0570 c1bf
00000550: 92d4 652f d5a3 8d3f 5cfb 763b fd56 c6bf
00000560: eddb c54a 6d66 e5bf 3294 7f96 de57 e4bf
00000570: b855 a4a0 2484 d73f e8fc af6e 1def b1bf
00000580: 5728 c615 ccfe b5bf 302b b005 bb74 b33f
00000590: 2032 af79 a28f b0bf 0eec bcc1 0acc cabf
000005a0: db19 03d1 5e0c d8bf f888 4630 681b dcbf
000005b0: bd11 6f3a d171 b83f d03c 115a 7be9 c9bf
000005c0: be9e a8a5 ff1c c0bf 02c5 04e1 b3fe a7bf
000005d0: 0602 3dbd d64c c9bf 66d5 ff7a a015 cdbf
000005e0: 4a38 a2e2 ced1 ddbf 36af 3805 5a81 0597
000005f0: c48a 8e62 aa43 530d 8283 1bd8 bab6 a08c
00000600: 5c17 06de 7c91 f317 0bba 5d4f 3043 5a0d
00000610: 4d1e 5136 2cb0 700d 03f6 5669 feb2 dcba
00000620: 2572 d1ad d47c c0bf 266a 634c f632 ca3f
00000630: 4e75 967b eeec b0bf 4282 d328 7942 bd3f
00000640: e4f7 840c 2ad8 b2bf 0a0a 3d96 2bc4 dbbf
00000650: 5b20 b651 861d fbbf efac 7dc8 cb96 353f
00000660: 71b7 22da 5e12 113f 0466 c72e d83a d43f
00000670: bc14 b54e 9db0 9bbf ce62 c036 a09a 543f
00000680: 5644 5548 eea2 92be 863e e835 c33c eabf
00000690: 26a3 159a c0aa c6bf 8c83 99c4 8483 a9bf
000006a0: b2e7 5969 c5e6 a03f dea3 d132 478c bebf
000006b0: c54a 824e 11e9 c23f 952e 72b5 1108 adbf
000006c0: b3b8 2855 8ac4 c3bf 36df 9efc 8f5d ba3f
000006d0: a569 421f 3f6d c23f 9798 5b23 0073 babf
000006e0: 7687 e9b6 0d57 babf 091c e42e 2ee6 b5bf
000006f0: 2866 1637 5576 a43f 3f0f 1cf0 4044 9dbf
00000700: a770 4f41 3bc8 c8bf e7c0 af9b 1756 acbf
00000710: a55d e7f4 f9d8 b4bf 201d d0d4 fc06 8cbf
00000720: 9f78 3c33 c234 9ebf 728c 7649 389f 96bf
00000730: aecb 2477 2821 a3bf 9f70 09b1 8bfc c53f
00000740: 7e9a c799 e5a8 b23f 1ca6 be5d 1030 bdbf
00000750: 5531 1770 94b7 a0bf c3c9 d284 9292 b83f
00000760: 3b5b 9469 0d92 c0bf a45b a523 bd1a b13f
00000770: c23c cb6b 8391 c7bf 161d 70d2 53c4 b93f
00000780: 2739 868c a8ec ae3f 928c f3ae 9dc9 c2bf
00000790: 1d4d 6199 d94f c9bf 5a8f be25 1c6b b63f
000007a0: d068 3b71 948a d1bf 3558 a7cf dadd 9e3f
000007b0: ce0e ef77 fa79 b03f 85be 3307 b870 c8bf
000007c0: 6b38 aa10 2a8d b93f 3c4b 12d7 b9b3 bfbf
000007d0: 30c7 deb6 6fa2 bd3f 6c3b 7684 5b01 c9bf
-0.08401485878597022 0.004532080684678347 0.047774950343218346 -0.026108986514508076 -0.3539391174088417 -1.301138958178453 1.7490912118971802 -0.19922544807337092
-0.09414184223312316 0.3032493643501667 0.11111368637263848 0.15420153511525497 -0.03441816463264667 -0.430864405588631 0.0009551562379315552 -0.1710395996153299
0.0590616584363936 -0.10126631814861221 0.3704712560584868 -0.06121100616846537 -0.07074795650644036 2.664185e-318 -7.92527e-318 4.39763e-319
4.079045e-318 -9.69396e-319 1.06533e-318 2.43595e-318 0.5493150875786628 0.19632027838646068 -0.1459482834197627 -0.32811401845573646
0.5592824100233053 0.29166372369232346 -0.9335218143792835 -0.009297129352575529 -0.10173350973752075 -0.5780766578986184 0.16808720640259786 0.19261114862293952
0.11769924658742627 0.4447194333627256 0.10976506988461272 -0.09108562409102544 0.11204306577509324 -0.0052077572256427835 0.08205383187833909 -0.15184243703368488
-0.017771758470528823 -0.09391947965650464 -0.0934086536757727 0.046238462549513894 0.17206569420239176 0.1675308735024797 -0.13709402269060203 0.06410643572786583
0.09980257420516352 -0.15355890906088004 -0.054701121942404084 -0.07685996247109741 0.1257669651316662 0.10152435688226119 -0.01616798078101786 0.14250447421004614
-0.10763525379593732 0.08209706050069213 0.0059542387197762375 0.041584066646244484 -0.10690527299280149 0.1544428593556301 0.04380850429927112 -0.1140872792609876
0.0484337688065042 0.026815254382211714 -0.10697961945895176 -0.13267962862452357 -0.0027395174810437013 -0.011424104516575141 -0.03175520733851712 0.12436248728590184
-0.04222044297913087 -0.14737504066258986 -0.05271787670784492 0.07023643047308402 0.10620783654592512 -0.011966474636381673 0.05368202514226816 0.08043437410785112
-0.19593929477203545 0.09011822836168953 0.018114449796267855 0.06906657481042469 -0.1668656642974009 0.16421340999504275 0.0986787746666154 -0.14696823494712008
0.1269528024647086 -0.1319644818371303 0.12517847165917556 0.1259890834005921 -0.006381588106434198 -0.13424617330168107 -0.041226070809490804 -0.15121051308593408
0.08038211120878258 0.09655053564520827 -0.08199500312552783 0.1328519185619585 0.14279104284632763 -0.04174215057593177 -0.11023840350860499 0.08841073024634404
0.08420136279537915 0.03300358142209422 0.04276500996377783 -0.06801219064178311 -0.18916210431561478 -0.15337368823936456 -0.10093943881822376 -0.15687908038349554
0.06939414055478707 -0.027126447862217552 -0.06058717914442214 -0.032046532525886386 0.0220936937273386 -0.07710395965112997 0.07280900265013798 0.11748847118567304
-0.07505122072603095 -0.10969344448240581 -0.08598352020124946 -0.05170879150010117 -0.019512118621771157 0.0280804370293965 0.07655213656875182 -0.09289986130755147
-0.011737936952370992 0.12067676013354459 -0.14480229261175626 0.1292234455162655 0.03611293513405231 0.09574168594263463 0.06030307021912637 -0.14995606696132016
-0.0887508598901718 -0.0959586386505475 0.10601288136492446 0.08681091045696526 -0.0894855512638086 0.05285132459750161 0.06374214868806177 0.13046482894164732
-0.14184312523667586 -0.10348406014492967 -0.09338011636244908 0.14408425851553988 -0.06327585777355443 0.011927807944567714 -0.14204520752592595 0.14572993538924658
-0.011162396730689833 -0.1436117602359182 0.022772531518413686 -0.09759878941514785 -0.06429550591205149 -0.07295920376372267 0.0733431848479622 -0.11426577550905437
-0.13630619068944097 -0.1362310945962066 0.014472642430272385 -0.17452969935944906 -0.6687532864005995 -0.6357262553616521 0.36744037330330626 -0.07005485489206686
-0.08591914683907596 0.07599991692420072 -0.06469169112023865 -0.20935186824667124 -0.375755027879135 -0.4391727897110651 0.09548671414001482 -0.20243780038661052
-0.125884967697166 -0.046865102022261254 -0.1976574348464199 -0.22722249990298876 -0.46593067295259927 -8.990378080973527e-198 1.763344558969767e-244 -7.47013550556691e-248
2.680625515693222e-193 2.403913662231467e-244 6.110156814875794e-244 -3.7092839524245526e-25 -0.1288095329972673 0.2046802399625715 -0.06611528889921667 0.11429555174573472
-0.07361090474748228 -0.43384828254434693 -1.6947081748822004 0.00032942271399489983 6.512359553553588e-05 0.3160915810418319 -0.027040918282428036 0.0012575687969784036
-2.7770472173667036e-07 -0.8199173024058417 -0.17708594821604 -0.04983153247736202 0.033010644064190756 -0.1193279742307278 0.14773765881962767 -0.056702187918827786
-0.15443543584973937 0.10299014966483075 0.14395894075717056 -0.10331726897456615 -0.10289083209639024 -0.08554352421570867 0.03996530816511906 -0.02858067956459753
-0.19361057938556778 -0.05534433150740075 -0.08143579701515209 -0.013685202831779153 -0.029498133065424367 -0.02209175060637531 -0.03736235098258277 0.17176958221796654
0.07288966183078036 -0.1140146473759604 -0.032650602991994994 0.09598651640661786 -0.129457165291308 0.06681425209295228 -0.18412821544050045 0.10065196883816827
0.06039931025871886 -0.1467778305296617 -0.19774932851087437 0.0875718681477883 -0.2740832429677882 0.03014318363587894 0.06436124256202477 -0.19093990661302854
0.0998102465329979 -0.12383615017669752 0.1157598325214877 -0.195353927305827

tcn.network.0.net.0.bias f8 [6]
00000000: 9008 d3e3 d646 d73f d968 36ee 82eb bb3f
00000010: ce2e f2f1 f3b7 cf3f 1476 7f4d dbb7 c9bf
00000020: dc45 d98c a7a0 c5bf 2334 d39d 4d37 d43f
0.3636986946913874 0.1090623694966867 0.24780129731913408 -0.2009233597190564 -0.16896528603915228 0.31587543881033947

tcn.network.0.net.0.weight_g f8 [6, 1, 1]
00000000: 2c53 9980 6bce 1840 bcaf fa3e 1329 db3f
00000010: aa62 72eb 428a f33f a9bf 2e85 ebfd df3f
00000020: 9041 0c3a ab92 e83f 7987 f5e0 4848 eb3f
6.201581963880738 0.4243820300132446 1.2212552258626297 0.49987304693331197 0.7679039129016463 0.852573813794364

tcn.network.0.net.0.weight_v f8 [6, 3, 7]
00000000: ecdd a1e3 9deb a8bf 108b 00ba ed6b b43f
00000010: 461e f4a3 0fa6 6bbf 583c 5f2a 975c a13f
00000020: 2405 c877 3c2c 8d3f f6b9 a140 dd53 c33f
00000030: 812c 5012 d75d c1bf 04f5 36d8 d241 b73f
00000040: 757b 2891 f00b 93bf 78f9 0be6 8763 c33f
00000050: 67d1 c402 ec81 8c3f 4658 da1f 970b 9f3f
00000060: 3817 a405 52e0 89bf 99df 86c4 8f49 d5bf
00000070: 5c77 0d30 0681 9e3f 5171 d88f 32e8 e23f
00000080: 76ec b023 4cbc c0bf e31f acb2 db26 bb3f
00000090: 3a3e 4122 8e78 d43f af5a bdc8 3978 0040
000000a0: 96a9 7894 8fa1 09c0 ef04 ecd8 bbd9 cd3f
000000b0: 2842 d15a 6dd4 bdbf 5a20 666d aa40 d2bf
000000c0: a206 8e5d ede7 dc3f 6f33 61c8 01fa c73f
000000d0: b9a8 b29e 2902 c7bf 6107 4949 eaee d4bf
000000e0: ad1e bb70 fc1c e13f 6d6c 890d fe81 aabf
000000f0: f171 ab8d 417c 7abf 9b4f 3fe5 8cd9 c53f
00000100: 67b8 fe93 8bff efbf da81 d8e4 7e13 01c0
00000110: fd03 8dc2 e545 0ac0 448b c24d f258 aebf
00000120: 4de1 8913 8a20 dc3f 3449 8d89 2b7b e23f
00000130: e8ed cc1f 9df5 e23f 2639 d60a d01b d3bf
00000140: 9af9 1c0c a02b e6bf fe1f 10d9 5843 fbbf
00000150: b4c9 535c b840 cf3f 450e 442d 12b7 cb3f
00000160: 0c45 997b 501e da3f d75a 2fbf b038 d23f
00000170: 2033 5217 c586 bcbf ed0e 0dad 2f5e b43f
00000180: dc46 d056 190f ebbf c7ae 72e4 629d d6bf
00000190: 359e 48d6 eb1b cc3f 193b c5c9 e1b7 d53f
000001a0: 943b f9f5 9ca1 bbbf 4229 4ce8 d7eb dcbf
000001b0: 44dc 4023 a41f e9bf ba3d 80f5 6368 f7bf
000001c0: b148 e9a3 760f efbf a649 ae72 e780 c1bf
000001d0: bd0e f9b4 e75d d8bf 0f29 7744 dc50 e1bf
000001e0: 933d e7f6 6676 eabf 4bf7 e4bd 1486 f0bf
000001f0: 1d6f 632a 75f8 f8bf e081 c6b0 f0f4 a5bf
00000200: 2c27 618e ede6 a83f 5258 85c1 a13b c2bf
00000210: 2af5 b448 7dad bc3f 4c1c e722 7d5b b1bf
00000220: 46a7 cfb4 d0c9 b7bf cf51 931c fe5e bcbf
00000230: 00f4 06ca 59ba 573f 5bbe 0ce3 dc51 c4bf
00000240: 5fa7 bd2b 92ba c23f d03b bf72 879e 9e3f
00000250: 64dc 8940 e3f8 ab3f d048 4bfb eefd bbbf
00000260: db0c 985d facc c13f b4d9 f719 e56f a63f
00000270: 36ff 832e ef9d b53f e434 278b 0925 a63f
00000280: 2a5a 94cb d700 b23f f17d 448c 9a19 c63f
00000290: 5e7e 4f5d 4718 c5bf bc1a a821 a024 c7bf
000002a0: 63e4 8539 5fb8 dcbf 6667 e444 4131 da3f
000002b0: 195b 629b 5f2e d7bf 9987 266f fa1b 85bf
000002c0: 3871 b9c9 5379 e33f d5ac 2f10 fd54 de3f
000002d0: 6f79 4b95 ef9b a7bf 8fc6 6fac ba0b e5bf
000002e0: 9a6e 568f 0934 c4bf 165c 419c 81ef d03f
000002f0: e1c5 3229 c6ab d33f a1c2 f69f 0751 d13f
00000300: 46ac 726c 7b78 e0bf 210a 729e 0334 f0bf
00000310: 5bb4 ccde ce92 cf3f 3f3b 0ddf b20e dabf
00000320: 1c31 7ebb 2150 e6bf 3d6d af8e 397c e23f
00000330: af04 e93a 059f 1940 e58e 95ff 31e7 e43f
00000340: e566 9a12 ab51 0040 66f8 c4f1 1761 d23f
00000350: 2d5d 3400 61ef d7bf a8c5 f544 b50a d2bf
00000360: 6ce0 dc65 8f49 c9bf d010 a64e 6ce0 e8bf
00000370: c151 c3d0 b297 d03f 4416 9343 6254 f0bf
00000380: 253a 2a52 01b8 a53f 76eb bb83 cfc6 c4bf
00000390: 356d e083 84cf bf3f 6a9a 77ce 77f6 97bf
000003a0: e81f d4a7 fd28 e3bf 60d2 a7d2 b298 dbbf
000003b0: b968 a831 6230 cc3f 0137 2123 3225 d4bf
000003c0: c837 55a3 8425 ab3f 92c0 c871 bc21 dabf
000003d0: cdec 4e0d 2904 dabf e116 5356 2cb7 f2bf
000003e0: 87f2 77c1 9039 e63f 68ce daf5 a534 d7bf
-0.04867261317934521 0.07977186003749304 -0.0033750825383583065 0.03390953438030725 0.01424453011077504 0.15099683433386674 -0.13567627329061696 0.09084813860586755
-0.01860023389792383 0.1514749406123419 0.013919681391236961 0.030317651099345498 -0.012634888455533053 -0.3326148432929528 0.029789063151262382 0.590844422290994
-0.1307463812134732 0.10606167900198175 0.3198581060905529 2.058703964499123 -3.20388713830216 0.2332072076024256 -0.11652263133260787 -0.2851968830441415
0.45165571342668376 0.18731710704960444 -0.17975349663658394 -0.327082225387235 0.5347883416915998 -0.0517730132603099 -0.006466156070669347 0.17070161050525887
-0.9999444857146614 -2.1345193747113003 -3.2841296386036434 -0.059272357933215974 0.43948604496064975 0.5775354086456788 0.5924821492293946 -0.29857255037576846
-0.6928253399453752 -1.7039421538374877 0.24416260250252508 0.2165243836426375 0.4081002432840968 0.28471010847480954 -0.11143142527926075 0.07956216788175725
-0.845593137319351 -0.3533560973107623 0.21960208857602628 0.339348265687407 -0.107934770633831 -0.45189473805716684 -0.7851124466459471 -1.4629859533196012
-0.9706376267806914 -0.13674634074830044 -0.38073151276715206 -0.5411206567016807 -0.8269533941583397 -1.0327346246480882 -1.5606586128041677 -0.04288437040236537
0.04863684046774916 -0.14244481992017427 0.11202223801679581 -0.06780225851172011 -0.09292320646605132 -0.11082447240489234 0.0014482380721425603 -0.15874825560011882
0.146318694455938 0.02990161550388476 0.05463323748420448 -0.10934346804723138 0.13906793184296515 0.04382244054788789 0.08444113622317392 0.04325132201811657
0.07032536239817291 0.1726563630008822 -0.16480342918565588 -0.18080522197143079 -0.44875317208749815 0.4092562840247552 -0.3622054116653302 -0.010307270543140666
0.6085604610375759 0.473937288100115 -0.04611157128759912 -0.6576817863371661 -0.157838053692889 0.264618303864553 0.30735925696634864 0.2705706655643017
-0.5147072904704906 -1.0126987637783105 0.24666772726905858 -0.4071471384276499 -0.69728170985903 0.5776641642400261 6.405293388817127 0.653222083270944
2.0398770764703493 0.2871761189488836 -0.37398552913642186 -0.28190356954936613 -0.19755737756509306 -0.7773953949076944 0.25925894152649326 -1.020601524317855
0.04241947296133145 -0.16231721813513972 0.12426021785397696 -0.02340113828349858 -0.5987537649061752 -0.4311949784453528 0.22022654938411337 -0.31477025442733014
0.053020615518661496 -0.4083090888189044 -0.4065039281810641 -1.169720017628997 0.694527032726527 -0.36258839616059513

tcn.network.0.net.4.bias f8 [6]
00000000: 77f9 ace9 1dfd c03f 08b7 578a acca 94bf
00000010: 9b46 97ed 9639 bbbf 0c8f 8d25 833b bfbf
00000020: e670 f398 8638 d33f edd2 5db1 f62f abbf
0.13272451314874065 -0.020304389899982872 -0.1063474969917259 -0.12200183550663385 0.3003250592862642 -0.05310030856245427

tcn.network.0.net.4.weight_g f8 [6, 1, 1]
00000000: dbd7 1187 ca4c f53f 6674 b45c b2c8 e03f
00000010: c011 e268 2824 e13f 09ad 7d7b cad2 e33f
00000020: de87 e71f f566 f13f 3770 be2a eb86 e23f
1.3312478328857569 0.5244991121904945 0.5356638000962946 0.619481316750723 1.0876361128107344 0.5789695582238953

tcn.network.0.net.4.weight_v f8 [6, 6, 7]
00000000: 0522 dd6e ff81 b5bf 6d2a 2d25 3b90 723f
00000010: 4394 9552 f575 a83f f897 d86c 50bc 9abf
00000020: f7f2 8241 f0a6 d6bf f4d8 8e15 77d1 f4bf
00000030: 3e1c 0d11 47fc fb3f 0bc7 0030 3880 c9bf
00000040: 9892 9305 ae19 b8bf 1aac 9a05 7068 d33f
00000050: 8dc5 1b51 f271 bc3f e610 283b e0bc c33f
00000060: 7e9b f8f6 419f a1bf a3df c04c 4893 dbbf
00000070: 4169 f966 6e4c 4f3f 759a 5527 a0e4 c5bf
00000080: 3719 dd66 543d ae3f 8176 a2e4 96ec b9bf
00000090: 8345 3812 cdb5 d73f 3931 4c8b 0c57 afbf
000000a0: ce38 74bf 891c b2bf 653a 0800 0000 0000
000000b0: fd79 1800 0000 0080 b15b 0100 0000 0000
000000c0: 0899 0c00 0000 0000 70fe 0200 0000 0080
000000d0: 494a 0300 0000 0000 f285 0700 0000 0000
000000e0: 0231 0b3c fd93 e13f 4311 9bdb 0521 c93f
000000f0: f7fc 18f0 6eae c2bf 0b19 a8f0 d1ff d4bf
00000100: ade6 8839 a4e5 e13f fd09 ac52 9eaa d23f
00000110: 4592 db23 69df edbf 3ac1 2094 5f0a 83bf
00000120: f3dd 3a11 350b babf 6f2d 889e 9a7f e2bf
00000130: 3b05 30af e183 c53f 4d1b 176c 7ba7 c83f
00000140: 9159 dbae 8921 be3f 5511 8c7f 4876 dc3f
00000150: e5c6 6549 9019 bc3f f450 9b30 6351 b7bf
00000160: de62 3fb7 daae bc3f d9a8 83af ba54 75bf
00000170: 94cf 6ddc 7a01 b53f da30 9aae 926f c3bf
00000180: 047e b185 c232 92bf 93ff 9465 1b0b b8bf
00000190: da69 b328 a1e9 b7bf ed59 ef58 91ac a73f
000001a0: 8a70 aea8 3f06 c63f 2ab9 61d3 a671 c53f
000001b0: ad73 f703 4c8c c1bf 3310 ea84 4769 b03f
000001c0: eb8d 4458 a98c b93f 7a84 367e d1a7 c3bf
000001d0: e321 9813 c901 acbf 0a66 2f31 18ad b3bf
000001e0: d02e 14c5 2119 c03f cc86 8e10 80fd b93f
000001f0: 588d c9d2 568e 90bf 8206 222c 963d c23f
00000200: 0141 f3e6 fb8d bbbf a2bd f21d 5004 b53f
00000210: 3e2b 2fc9 7863 783f 1184 8fbc 814a a53f
00000220: 1f27 46db 245e bbbf 8d3e 049b c8c4 c33f
00000230: 060c 817a 116e a63f 98c8 50ed d234 bdbf
00000240: 2288 179a 4fcc a83f 6f0d 6c42 7575 9b3f
00000250: 4a2b ea2e 0463 bbbf 21d5 e464 a5fb c0bf
00000260: bfe6 9c3f 2f71 66bf b438 475a 8565 87bf
00000270: 5146 fef1 3742 a0bf 79fe bd4f 38d6 bf3f
00000280: e2d0 a2fb ea9d a5bf 3b3d f271 2fdd c2bf
00000290: c4df bf68 d6fd aabf efa2 dec3 03fb b13f
000002a0: 6f2d 8bd0 6f30 bb3f 7f81 b109 e181 88bf
000002b0: 8ff9 bcdc 357c ab3f 9677 44de 5897 b43f
000002c0: 850a 86ef 8914 c9bf 2440 96fb fc11 b73f
000002d0: 5e0b d725 988c 923f 12b9 0ed8 58ae b13f
000002e0: 88c7 7da5 da5b c5bf 0826 bfec f104 c53f
000002f0: a4a1 001e 0343 b93f 6c09 53e9 dacf c2bf
00000300: 2f59 5c4b fd3f c03f 05ae dc4e 36e4 c0bf
00000310: fa3e f820 d905 c03f 47e5 6d08 6920 c03f
00000320: 0b39 6b83 9423 7abf afd0 f885 fa2e c1bf
00000330: 8f1a bd63 951b a5bf d2fa 41b8 dd5a c3bf
00000340: 703d d30a ec93 b43f 5ce8 0131 89b7 b83f
00000350: 1d0c dce0 9ffd b4bf 9e9c b7aa 4a01 c13f
00000360: 2de6 9715 fa46 c23f 2f3a 2d27 3a5f a5bf
00000370: 7d2c d581 9538 bcbf c705 06eb 15a2 b63f
00000380: d81a 7c73 388e b53f 6bb0 b76d d8e5 a03f
00000390: ac42 6a9e 4be5 a53f 9928 8936 3f69 b1bf
000003a0: 2dcc d6bd 7636 c8bf 4709 87bf bfa1 c3bf
000003b0: 38d2 99c4 2ad7 b9bf c53a d61b 9d14 c4bf
000003c0: ae82 377c d0c3 b13f 0a12 b319 09c7 9bbf
000003d0: 21e1 f661 4805 afbf 4d3a 4c32 6768 a0bf
000003e0: ffeb 06b0 ba9f 963f 2bfd 17c9 15bd b3bf
000003f0: ae99 3c5d 9ca3 b23f e645 6675 b913 be3f
00000400: dd0d 8b8a 8e36 b3bf d034 a39c de14 bcbf
00000410: e962 4217 0403 b6bf 4a36 d120 9379 aabf
00000420: 60ba 6c1d fcfa 93bf b069 cb3a 1ec1 9c3f
00000430: 6070 00bb eb98 b33f 396e 1e0a 49c8 b7bf
00000440: 30de a93a 0f0a 88bf e22a 2912 ace4 be3f
00000450: d89f 93ab e188 c2bf c734 2fd4 648a c03f
00000460: 9c05 ba06 657d a23f 06ce fcf1 8682 b83f
00000470: 4c0b e144 0be0 ae3f 95c3 b7a9 c231 c3bf
00000480: cd5c b858 60b8 b6bf 1dd5 c5ce be90 b8bf
00000490: a6c5 6a02 a923 bb3f 2441 5965 3d39 b63f
000004a0: bd80 246c 86e8 b6bf 2ca2 642d 540f ab3f
000004b0: 5cf3 fdcb 6751 b03f f392 ca4e 12b3 c03f
000004c0: 00e8 0660 ea27 c2bf 34d2 fa6d ee7d babf
000004d0: b496 df61 c2e7 b7bf dda8 185d 5a71 c23f
000004e0: 0486 c3bb d832 b0bf 0073 4748 9b6d 883f
000004f0: 274e 7090 892e c2bf cbc2 454d 47a7 c23f
00000500: 30f0 3987 4fdc 86bf b262 c4c2 de61 c2bf
00000510: b090 79b8 ae51 973f f6d0 aaf8 3bfc b8bf
00000520: 8a0a 2c97 ab75 b0bf d87d 1b52 74ad b2bf
00000530: 8075 4e74 9ec6 b23f 200c dd98 8540 bdbf
00000540: 5172 a033 7b72 c1bf 3797 fe3f 0570 c1bf
00000550: 92d4 652f d5a3 8d3f 5cfb 763b fd56 c6bf
00000560: eddb c54a 6d66 e5bf 3294 7f96 de57 e4bf
00000570: b855 a4a0 2484 d73f e8fc af6e 1def b1bf
00000580: 5728 c615 ccfe b5bf 302b b005 bb74 b33f
00000590: 2032 af79 a28f b0bf 0eec bcc1 0acc cabf
000005a0: db19 03d1 5e0c d8bf f888 4630 681b dcbf
000005b0: bd11 6f3a d171 b83f d03c 115a 7be9 c9bf
000005c0: be9e a8a5 ff1c c0bf 02c5 04e1 b3fe a7bf
000005d0: 0602 3dbd d64c c9bf 66d5 ff7a a015 cdbf
000005e0: 4a38 a2e2 ced1 ddbf 36af 3805 5a81 0597
000005f0: c48a 8e62 aa43 530d 8283 1bd8 bab6 a08c
00000600: 5c17 06de 7c91 f317 0bba 5d4f 3043 5a0d
00000610: 4d1e 5136 2cb0 700d 03f6 5669 feb2 dcba
00000620: 2572 d1ad d47c c0bf 266a 634c f632 ca3f
00000630: 4e75 967b eeec b0bf 4282 d328 7942 bd3f
00000640: e4f7 840c 2ad8 b2bf 0a0a 3d96 2bc4 dbbf
00000650: 5b20 b651 861d fbbf efac 7dc8 cb96 353f
00000660: 71b7 22da 5e12 113f 0466 c72e d83a d43f
00000670: bc14 b54e 9db0 9bbf ce62 c036 a09a 543f
00000680: 5644 5548 eea2 92be 863e e835 c33c eabf
00000690: 26a3 159a c0aa c6bf 8c83 99c4 8483 a9bf
000006a0: b2e7 5969 c5e6 a03f dea3 d132 478c bebf
000006b0: c54a 824e 11e9 c23f 952e 72b5 1108 adbf
000006c0: b3b8 2855 8ac4 c3bf 36df 9efc 8f5d ba3f
000006d0: a569 421f 3f6d c23f 9798 5b23 0073 babf
000006e0: 7687 e9b6 0d57 babf 091c e42e 2ee6 b5bf
000006f0: 2866 1637 5576 a43f 3f0f 1cf0 4044 9dbf
00000700: a770 4f41 3bc8 c8bf e7c0 af9b 1756 acbf
00000710: a55d e7f4 f9d8 b4bf 201d d0d4 fc06 8cbf
00000720: 9f78 3c33 c234 9ebf 728c 7649 389f 96bf
00000730: aecb 2477 2821 a3bf 9f70 09b1 8bfc c53f
00000740: 7e9a c799 e5a8 b23f 1ca6 be5d 1030 bdbf
00000750: 5531 1770 94b7 a0bf c3c9 d284 9292 b83f
00000760: 3b5b 9469 0d92 c0bf a45b a523 bd1a b13f
00000770: c23c cb6b 8391 c7bf 161d 70d2 53c4 b93f
00000780: 2739 868c a8ec ae3f 928c f3ae 9dc9 c2bf
00000790: 1d4d 6199 d94f c9bf 5a8f be25 1c6b b63f
000007a0: d068 3b71 948a d1bf 3558 a7cf dadd 9e3f
000007b0: ce0e ef77 fa79 b03f 85be 3307 b870 c8bf
000007c0: 6b38 aa10 2a8d b93f 3c4b 12d7 b9b3 bfbf
000007d0: 30c7 deb6 6fa2 bd3f 6c3b 7684 5b01 c9bf
-0.08401485878597022 0.004532080684678347 0.047774950343218346 -0.026108986514508076 -0.3539391174088417 -1.301138958178453 1.7490912118971802 -0.19922544807337092
-0.09414184223312316 0.3032493643501667 0.11111368637263848 0.15420153511525497 -0.03441816463264667 -0.430864405588631 0.0009551562379315552 -0.1710395996153299
0.0590616584363936 -0.10126631814861221 0.3704712560584868 -0.06121100616846537 -0.07074795650644036 2.664185e-318 -7.92527e-318 4.39763e-319
4.079045e-318 -9.69396e-319 1.06533e-318 2.43595e-318 0.5493150875786628 0.19632027838646068 -0.1459482834197627 -0.32811401845573646
0.5592824100233053 0.29166372369232346 -0.9335218143792835 -0.009297129352575529 -0.10173350973752075 -0.5780766578986184 0.16808720640259786 0.19261114862293952
0.11769924658742627 0.4447194333627256 0.10976506988461272 -0.09108562409102544 0.11204306577509324 -0.0052077572256427835 0.08205383187833909 -0.15184243703368488
-0.017771758470528823 -0.09391947965650464 -0.0934086536757727 0.046238462549513894 0.17206569420239176 0.1675308735024797 -0.13709402269060203 0.06410643572786583
0.09980257420516352 -0.15355890906088004 -0.054701121942404084 -0.07685996247109741 0.1257669651316662 0.10152435688226119 -0.01616798078101786 0.14250447421004614
-0.10763525379593732 0.08209706050069213 0.0059542387197762375 0.041584066646244484 -0.10690527299280149 0.1544428593556301 0.04380850429927112 -0.1140872792609876
0.0484337688065042 0.026815254382211714 -0.10697961945895176 -0.13267962862452357 -0.0027395174810437013 -0.011424104516575141 -0.03175520733851712 0.12436248728590184
-0.04222044297913087 -0.14737504066258986 -0.05271787670784492 0.07023643047308402 0.10620783654592512 -0.011966474636381673 0.05368202514226816 0.08043437410785112
-0.19593929477203545 0.09011822836168953 0.018114449796267855 0.06906657481042469 -0.1668656642974009 0.16421340999504275 0.0986787746666154 -0.14696823494712008
0.1269528024647086 -0.1319644818371303 0.12517847165917556 0.1259890834005921 -0.006381588106434198 -0.13424617330168107 -0.041226070809490804 -0.15121051308593408
0.08038211120878258 0.09655053564520827 -0.08199500312552783 0.1328519185619585 0.14279104284632763 -0.04174215057593177 -0.11023840350860499 0.08841073024634404
0.08420136279537915 0.03300358142209422 0.04276500996377783 -0.06801219064178311 -0.18916210431561478 -0.15337368823936456 -0.10093943881822376 -0.15687908038349554
0.06939414055478707 -0.027126447862217552 -0.06058717914442214 -0.032046532525886386 0.0220936937273386 -0.07710395965112997 0.07280900265013798 0.11748847118567304
-0.07505122072603095 -0.10969344448240581 -0.08598352020124946 -0.05170879150010117 -0.019512118621771157 0.0280804370293965 0.07655213656875182 -0.09289986130755147
-0.011737936952370992 0.12067676013354459 -0.14480229261175626 0.1292234455162655 0.03611293513405231 0.09574168594263463 0.06030307021912637 -0.14995606696132016
-0.0887508598901718 -0.0959586386505475 0.10601288136492446 0.08681091045696526 -0.0894855512638086 0.05285132459750161 0.06374214868806177 0.13046482894164732
-0.14184312523667586 -0.10348406014492967 -0.09338011636244908 0.14408425851553988 -0.06327585777355443 0.011927807944567714 -0.14204520752592595 0.14572993538924658
-0.011162396730689833 -0.1436117602359182 0.022772531518413686 -0.09759878941514785 -0.06429550591205149 -0.07295920376372267 0.0733431848479622 -0.11426577550905437
-0.13630619068944097 -0.1362310945962066 0.014472642430272385 -0.17452969935944906 -0.6687532864005995 -0.6357262553616521 0.36744037330330626 -0.07005485489206686
-0.08591914683907596 0.07599991692420072 -0.06469169112023865 -0.20935186824667124 -0.375755027879135 -0.4391727897110651 0.09548671414001482 -0.20243780038661052
-0.125884967697166 -0.046865102022261254 -0.1976574348464199 -0.22722249990298876 -0.46593067295259927 -8.990378080973527e-198 1.763344558969767e-244 -7.47013550556691e-248
2.680625515693222e-193 2.403913662231467e-244 6.110156814875794e-244 -3.7092839524245526e-25 -0.1288095329972673 0.2046802399625715 -0.06611528889921667 0.11429555174573472
-0.07361090474748228 -0.43384828254434693 -1.6947081748822004 0.00032942271399489983 6.512359553553588e-05 0.3160915810418319 -0.027040918282428036 0.0012575687969784036
-2.7770472173667036e-07 -0.8199173024058417 -0.17708594821604 -0.04983153247736202 0.033010644064190756 -0.1193279742307278 0.14773765881962767 -0.056702187918827786
-0.15443543584973937 0.10299014966483075 0.14395894075717056 -0.10331726897456615 -0.10289083209639024 -0.08554352421570867 0.03996530816511906 -0.02858067956459753
-0.19361057938556778 -0.05534433150740075 -0.08143579701515209 -0.013685202831779153 -0.029498133065424367 -0.02209175060637531 -0.03736235098258277 0.17176958221796654
0.07288966183078036 -0.1140146473759604 -0.032650602991994994 0.09598651640661786 -0.129457165291308 0.06681425209295228 -0.18412821544050045 0.10065196883816827
0.06039931025871886 -0.1467778305296617 -0.19774932851087437 0.0875718681477883 -0.2740832429677882 0.03014318363587894 0.06436124256202477 -0.19093990661302854
0.0998102465329979 -0.12383615017669752 0.1157598325214877 -0.195353927305827

tcn.network.0.downsample.weight f8 [6, 3, 1]
00000000: e3a7 c432 c86b a4bf 4661 2f36 d91d 9b3f
00000010: 1334 6403 64f3 d3bf c105 f622 c677 7d3f
00000020: 6dd5 e1d4 2cae 94bf 410f b38a ee78 93bf
00000030: f398 2772 98bf 9ebf 36eb dddd 6716 acbf
00000040: 0cce 2bc6 3155 d1bf c1ef ba81 22a1 533f
00000050: 498c 9db2 a61c 89bf f271 5e7d ee8e 3b3f
00000060: a4e2 b807 83b7 b0bf eddb 4d14 6e42 dcbf
00000070: f0c1 38d7 7426 f0bf 6997 7e48 7f15 183f
00000080: 5439 0f08 412c c4bf 1671 712e 01e4 a1bf
-0.03988481158951609 0.026481050426668838 -0.3117303879851658 0.007194303484881316 -0.02019567536668403 -0.019016005721609778 -0.030027753798912604 -0.05485844214759654
-0.27082485535285694 0.0011980854969086826 -0.012261679006490793 0.0004205066919611692 -0.0653001684048698 -0.44155456526590237 -1.0093887717340486 9.187306761634723e-05
-0.15760052579430328 -0.03494266216213952

tcn.network.0.downsample.bias f8 [6]
00000000: aeff 1696 b6c8 b63f 4f7c 14bd c604 d1bf
00000010: a21a 9646 6894 aa3f 4622 f838 23cb c8bf
00000020: c8f2 f9be 7b4b bc3f 53dc 6b4c c056 c93f
0.08900014080336291 -0.2659165235981548 0.05191350804948526 -0.19369926721289427 0.11052678501614388 0.19795993548879895

tcn.network.1.conv1.bias f8 [6]
00000000: 2eb0 2686 c38b c73f cd13 ebb0 fab8 abbf
00000010: 1b5f f9ba 662b 683f 3bda 720c 70de a53f
00000020: dd98 16ed 6ee0 b6bf 3d94 5e7b 0f15 963f
0.18395275163982333 -0.054145654770344366 0.0029503828480236366 0.04271268989525764 -0.0893620804623398 0.021564714341043113

tcn.network.1.conv1.weight_g f8 [6, 1, 1]
00000000: cc6d 60ae c519 dc3f c2af f4c3 e9f3 e33f
00000010: 21ca 571e 1e2f e13f e9b6 d328 ee1b e03f
00000020: fd60 5a7c c387 e13f d94b 04ea 2a51 e33f
0.43907300976726726 0.6235245539914944 0.5370016663203537 0.503409461727384 0.5478227070589409 0.603658158363369

tcn.network.1.conv1.weight_v f8 [6, 6, 7]
00000000: 4e46 ba65 ff48 adbf 45c1 726f 199a ccbf
00000010: 7b32 396b 4bc3 c8bf 983b bdd6 aa8c 803f
00000020: 1fe6 90b6 18f5 a6bf 6212 3da8 d830 b9bf
00000030: de76 00e0 e0e1 c1bf 8068 58d5 be6a babf
00000040: 0680 3103 0dc1 b2bf 6594 8c0a 2f0d ae3f
00000050: 0bf3 eaf3 1b32 8e19 c31d e501 8b53 c03f
00000060: cee2 bf74 b215 cd3f f98a 2cab 8d89 cb3f
00000070: 5db9 f897 e46f 8f3f c540 50cb 941c b53f
00000080: 69ed 68bd ab66 b33f 7941 9c05 ca23 c8bf
00000090: c5df 01da 58c2 ae3f a0bc 0328 7307 a53f
000000a0: a8a6 6e5b 7b5a bd3f 7804 ac9f 68fc c0bf
000000b0: 2157 b8d0 4316 cebf 2f07 828f 3c85 a999
000000c0: 1e86 3ab4 d146 9718 47b4 5d3f aeaf c4bf
000000d0: c719 a5dc 9558 c7bf 7fc9 eac5 35b5 cd3f
000000e0: 0a50 6bc7 673d cfbf e196 a56a e509 9bbf
000000f0: a207 cd47 c251 b6bf 650a 0eb0 c312 d0bf
00000100: a77f c67a a9b6 743f 20fe 4a98 63d6 dbbf
00000110: da3f 05e5 9065 debf bf9b 02e1 e4da 8bbf
00000120: 3f6d 46f8 fa16 a3bf be85 a785 75be 963f
00000130: 5127 3585 c3be 763f 4a54 ea43 9255 b83f
00000140: e238 5086 fef2 bdbf 7241 8b70 de09 b2bf
00000150: 177f be66 3c0d c13f e122 f4f3 dd46 b53f
00000160: 2751 b314 f78f a9bf b6da 633a 7359 aa3f
00000170: abf8 5963 a20d c6bf b401 aa69 54d4 babf
00000180: 35cd 6aff 0fe4 b33f 0249 1714 5758 483f
00000190: a1de b5e9 77d6 853f ccec 870c 3176 1fbe
000001a0: bd13 3144 c7e0 92bf d806 dcf0 0ff2 743f
000001b0: 8597 2dcd f41e 623f c947 0a9a 7851 9abf
000001c0: 74f3 7ffe 7474 8b3f b91e 41d3 a6cb a1bf
000001d0: 7c41 5d96 32c8 b8bf 0611 c14c 7af2 76bf
000001e0: ed7c cd40 47f8 b7bf ed69 8e17 7d54 a3bf
000001f0: b73a 374c e541 a1bf b29b e22d 6a6a 66bf
00000200: 8ffe b05b 9be8 8b3f 0de9 79c2 97e0 aabf
00000210: 50c6 ac0f f5a7 9abf b4b6 b968 4343 21bf
00000220: 83ae 5f14 debb b03f 2b78 d909 bee9 853f
00000230: 3ad9 15ac 39d5 babf 712a ac09 62ba b23f
00000240: 061d 602f 1fac c4bf 3142 e934 52b5 c0bf
00000250: 65dd a080 5bf1 b53f 98e0 6855 2af4 c23f
00000260: 5a30 40c8 61c0 b33f 6a8b 4484 e814 b0bf
00000270: 9ccf 2b27 f160 b73f e216 b66e 759c bbbf
00000280: 42a1 a224 e828 b2bf bb8a 0b47 366c c6bf
00000290: 1d18 efc7 155d bbbf eb4a f67f a68e b0bf
000002a0: a511 4c75 0d3e c33f 0990 2f91 4335 8fbf
000002b0: 3051 d17c 9477 bebf a8c0 1350 b802 c03f
000002c0: 21c1 b9b2 c383 bf3f cd1b 2377 f2ab acbf
000002d0: a86a 21d7 a801 b53f 1f37 9546 e0cb b53f
000002e0: 0e07 9026 5cd1 c33f 8a85 69e6 ec4e a53f
000002f0: 53e5 b329 d4af 78bf 4aea e7d7 af77 b1bf
00000300: 730a 6ad4 8139 bb3f 667a 731f b905 a73f
00000310: 231f 646e 58c1 a23f d854 53fe fa4a 75bf
00000320: 3308 f6bc e7bc c4bf 77d4 4c32 e793 a13f
00000330: 7e22 d19b 1ddd c2bf 1039 7015 1d7e 923f
00000340: ccc8 a026 221c c5bf 71af 4497 bca8 b5bf
00000350: a745 b232 f467 b9bf a473 dcce a493 783f
00000360: e204 9c2d 5a74 c1bf de35 45f8 bc37 b1bf
00000370: 6e1a 11df 6b82 99bf c76a e6c4 1054 a03f
00000380: 6c29 9510 b3ee acbf fa03 75aa 6458 9abf
00000390: 88c7 5415 910a b7bf 4b9a 7508 8bf4 bd3f
000003a0: 1eb6 ce12 060c c3bf 95da 19b7 2463 a33f
000003b0: e52f 6207 f794 a93f d77d 6d26 b0fa c2bf
000003c0: 5490 9a3b 0b62 c2bf 2d14 3590 c880 b1bf
000003d0: 9d66 fd45 57fc 8bbf 1774 0094 2612 b0bf
000003e0: 37b8 dbd4 84b3 b6bf 5b64 bae5 7921 8c3f
000003f0: 3a47 ec4a cc59 b5bf e58b 5212 6080 9e3f
00000400: c381 7ea4 41c3 72bf d146 4b48 c16d 81bf
00000410: 2dba e8fa 0f21 b4bf 4768 f56c 9548 b8bf
00000420: d4dd 7a63 d85d c8bf 64ab 7056 135b bf3f
00000430: 6081 a596 87a0 c63f 71e4 76cf d7c5 cd3f
00000440: b2b3 c79d 2a60 c43f 09c0 636d 4275 be3f
00000450: ab29 99db f28e b83f 9aba a957 b92b cabf
00000460: 473e 3976 e7bb c4bf a4ab a846 9790 6abf
00000470: 2ce6 a3d4 e32d 75bf 1667 8f87 e583 bd3f
00000480: 218a fefa 15c7 9cbf 17f1 c042 98da c7bf
00000490: feba 33c4 bc28 c1bf e39d e963 8c11 bf3f
000004a0: f476 44ca b460 c6bf 924d db8f 631c c3bf
000004b0: 65a5 7d96 005a c0bf 60a6 56bb 6134 c53f
000004c0: 1a12 160e 29eb c7bf 642b 877d 0206 b7bf
000004d0: ef01 3bdb 4a46 a2bf 2fed 0ffb a01b c13f
000004e0: e163 8937 fdc1 b03f 2b03 f148 ff71 aabf
000004f0: deda 3c9a e4de bf3f ec97 9666 9233 c2bf
00000500: 6d25 a196 f71d c7bf 7807 6bf4 ec4b c0bf
00000510: 3bbb 332b 531c c5bf 2d12 1a64 fef2 bfbf
00000520: 6a40 3a6e 5949 ab3f d163 cb67 ec8e cdbf
00000530: 105b 8c1f 3d7c 73bf 67d7 d658 43d2 bcbf
00000540: 94f9 3d53 2b36 a7bf b039 1eef f446 a1bf
00000550: d241 1dff ed9b bb3f 32e1 a663 e683 be3f
00000560: 9f6b aa3f f6ba c3bf 01a6 e22f 9ee3 bfbf
00000570: 48e9 e02d 6749 a5bf 66cd 35be c9ff ba3f
00000580: 60dc dd2b c31d a9bf a8f7 2546 f56c a63f
00000590: 1032 b812 7d6b b2bf 207e ab9f ca23 733f
000005a0: 2004 3593 c308 9f3f dca7 0ddb 28c5 b5bf
000005b0: 4cae b89c f90e a53f 4699 2ffa 96a8 b83f
000005c0: 6fa0 15e8 b6d6 c2bf a58d e139 6a37 c2bf
000005d0: d016 4655 dc4f 9f3f 24a7 b380 bbea ae3f
000005e0: 2253 4f74 3f99 bc3f f24e 0311 7303 bd3f
000005f0: b0a8 513c 3fd6 91bf f860 1c74 2b63 98bf
00000600: 6a21 e349 8d35 b13f 104e 171f fb8f 913f
00000610: 9078 cfc2 45ac 96bf e2c9 c4cb fffc a4bf
00000620: 5ca4 2574 e526 b83f 54d1 4fa9 8410 9ebf
00000630: 561b b07f dbb9 b0bf 15ee 033b 4cae c3bf
00000640: cc53 1270 aac8 b73f bc9b dbf3 88c2 c0bf
00000650: 20a7 35f2 9381 8dbf 06a3 5c92 8e06 ba3f
00000660: d2f2 a33f feb8 adbf f059 18b4 7abd b7bf
00000670: c65a f875 4e3d b3bf b099 7b68 0254 87bf
00000680: 57b3 6b42 ba62 babf f838 283e 5f46 b7bf
00000690: 16c7 cdda 46e4 b3bf 9721 5d91 f7c1 bcbf
000006a0: 055a 9fd8 f4eb 833f acbe c371 8be5 ba3f
000006b0: ac74 7763 3683 b8bf a04c 9af6 304c c1bf
000006c0: c253 398e 3228 b0bf c27a 517a 75f0 c0bf
000006d0: 354e c4b1 f7cb b5bf 9f88 8866 2806 babf
000006e0: e2a4 85f2 c19a bd3f 0e89 0821 5c79 b8bf
000006f0: 5ddc 898b 081f c3bf e638 053f 2d8b b33f
00000700: 69e9 4c0a 487f b13f dbe6 7229 e2c2 b23f
00000710: b61c 5a77 a308 b2bf 91be 782d 3849 b8bf
00000720: b3e3 405e 7ac9 babf e7cb 2888 966e a4bf
00000730: 8caa 70f5 4213 c3bf 3129 623f db3f a9bf
00000740: 1344 4430 8713 c33f 36fc e81f 6826 a23f
00000750: cce6 8885 5671 b63f 89ff 6a3e 500a bdbf
00000760: 8580 3b6e 25c2 aa3f 27be 576a e977 b63f
00000770: 6ff0 6d92 e106 c4bf 4684 06da 0152 c1bf
00000780: d188 54f4 9964 c33f b0bc a718 dbac 933f
00000790: c465 71e6 5b52 c3bf 226e d1b3 456c a63f
000007a0: 61cb 77d6 a151 b6bf 76e9 a8d3 58ea c3bf
000007b0: b250 c780 99da b53f ddbe 6888 124d a2bf
000007c0: 1668 6235 2395 c1bf d478 a5d5 9bd4 b73f
000007d0: 7b35 c757 2339 a9bf 7e5c 673b a38c 90bf
-0.05719755284111426 -0.22345273916062972 -0.19345991836089013 0.008080801657028222 -0.04483868816937452 -0.0984015856493641 -0.13970576226795733 -0.10319130619646621
-0.07325822189295658 0.05869433406613992 1.3879644645703787e-185 0.1275495299580439 0.2272246427599129 0.21513529642205478 0.015350137603573339 0.0824673649187871
0.07578538297905414 -0.18859219812339825 0.06007650052282502 0.041072462687105515 0.11466189367515744 -0.1327029018066559 -0.2350544709340108 -4.69224947119495e-185
3.2651488839683145e-190 -0.1616113480953649 -0.18239091180494268 0.23209259189532003 -0.24406144368424548 -0.026404938348966737 -0.08718504193259816 -0.25114528839927736
0.005057012586263377 -0.43496026871068416 -0.4749490963486075 -0.013601101032987615 -0.03728470116331061 0.022210918696037522 0.005553020240151544 0.09505571516122405
-0.11698904780516586 -0.070463087536387 0.13321642891696037 0.08311259466075739 -0.04992649200144888 0.051463700177853 -0.17229108668465662 -0.10480239467324887
0.07769870744487124 0.0007429528415577038 0.01066297227838159 -1.8313111462378468e-09 -0.01843558648785736 0.005113661068891516 0.002212026718029616 -0.025701412584176162
0.013405717865674772 -0.034756863868606165 -0.09680477305415097 -0.005602338536906842 -0.09363217670533049 -0.03775397217323815 -0.033705869249037894 -0.0027362893880140344
0.013627256141375525 -0.05249475716569139 -0.02603133114025119 -0.00013170431008140626 0.0653666305294625 0.010699734378416611 -0.10481605960180654 0.07315647827287265
-0.16150274098638578 -0.13053348144104995 0.08571407213536515 0.1480763356246413 0.07715426577505138 -0.06281903485482379 0.09132296758963182 -0.10785612061416885
-0.0709366883699021 -0.17517736882208176 -0.10688911563110577 -0.06467667221140132 0.15033119418525334 -0.015238311641901718 -0.1190121464472369 0.12508300695436003
0.12310431588571592 -0.05599935249625041 0.0820565724583654 0.08514215205397278 0.1548266590398772 0.0416177779450307 -0.006027058373768784 -0.06823252698078722
0.10634623943227854 0.04496553906368632 0.03663135860011681 -0.005198460047911989 -0.1620149300252379 0.03433153618826961 -0.14737291439293537 0.018059210237020784
-0.1649210632909387 -0.0846059674556139 -0.09924246061043239 0.006000179082346433 -0.13636328913711454 -0.06725674687660141 -0.024911580552976202 0.03189136889996785
-0.05650863244462098 -0.025727818397402992 -0.09000498553066738 0.11701268154647797 -0.1488044349511463 0.037865779257960565 0.04996463742381233 -0.14827539326050385
-0.1436170617136009 -0.06837132950484266 -0.013664895842953323 -0.06277695763897416 -0.08867674061522811 0.013735725711102533 -0.08340145901845811 0.0297865878279814
-0.0045807422792738 -0.008510122317065523 -0.07862949252805924 -0.09485753927347772 -0.1903639302961283 0.1224834524188459 0.17677397590433497 0.23260018949602881
0.15918476776223894 0.11897673769613006 0.09593122350012233 -0.20445935039920898 -0.16198437950741804 -0.00324277444930972 -0.005170717204458646 0.11529383239340193
-0.02810320229003527 -0.1863584829278657 -0.13405570583514498 0.12136151732703797 -0.17482623936023567 -0.14930386089563946 -0.12774665210899197 0.1656610645998624
-0.186864024999651 -0.08993545117043095 -0.0356925385108332 0.13365566500565637 0.06546003919483169 -0.05165097966574302 0.12449482694215017 -0.1421988488120286
-0.18060202460246036 -0.12731706556774802 -0.16492690667606688 -0.12480153983967375 0.053293986039648925 -0.23092417781916066 -0.004757155192030252 -0.11258335989881872
-0.04533515349520481 -0.03374448222085691 0.10784804800392259 0.11920013363749574 -0.15414312466313349 -0.12456692380023783 -0.04157564578095446 0.10546551603129259
-0.04905519400102132 0.04380003434469809 -0.07195264536876089 0.004672805308217259 0.030306869373138423 -0.08503966663343426 0.04112987554648537 0.09632247551016801
-0.14717756588220562 -0.14231612993453982 0.030578081803034618 0.06038461633745687 0.11171337689968344 0.11333388486246657 -0.01741884999902571 -0.023815802537769465
0.06722338727843682 0.017150806210180447 -0.022141542449269525 -0.04099273073588329 0.09434351049061845 -0.029359886964770723 -0.06533595912342824 -0.15375664598092045
0.09290566669581252 -0.13093673617478696 -0.014407306508207152 0.10166255067145977 -0.0580520107923569 -0.09273497483113835 -0.07515421276216747 -0.011390703977167543
-0.10306896325682878 -0.09091754214771075 -0.0777019771756183 -0.1123347024814677 0.00972739492492015 0.10506507422882788 -0.09575214317688346 -0.13513767281674394
-0.06311336490882893 -0.13233822319576488 -0.08514354791650976 -0.10165646079306832 0.11564266367863099 -0.09560180479505595 -0.14938456357387767 0.07634241856178256
0.0683484101436186 0.07328618537840319 -0.07044431365840151 -0.09486724004886528 -0.10463681031332221 -0.03990621959783152 -0.14902531608943936 -0.04931531094287534
0.14903344971438112 0.0354492701485402 0.08766690025450002 -0.11343862079502122 0.052262468057734636 0.08776720854051999 -0.1564599957454251 -0.13531516214155398
0.15150761060892262 0.019214080219111807 -0.1509508967599641 0.04379480190320019 -0.0871831081965815 -0.15558920226051115 0.08536681550987416 -0.03574426570082576
-0.13736381632480804 0.09308790174461318 -0.04926405378828754 -0.01616148996421573

tcn.network.1.conv2.bias f8 [6]
00000000: 1e7b 7fea ccb7 afbf b550 a168 fa21 86bf
00000010: cd38 67de 3a68 90bf 58c2 45f5 8df7 a1bf
00000020: dcf5 d37c 5f2c b1bf 19f2 947d 07a7 94bf
-0.06194916117214276 -0.010806995695169833 -0.016022605728544904 -0.035091816130152054 -0.06708332822378033 -0.020168416061311676
