Ventil_trained_NNs/tcn_3.pth (torch, 15342 bytes, 32 tensors)

downsample_skip_connection.0.weight f8 [2, 3, 1]
00000000: 73cd 8f4b 1a7a d8bf f3db 8f4c 812d e6bf
00000010: db91 1c25 ce19 dc3f b1b5 7da1 6cec c2bf
00000020: b50a b945 1767 b13f d880 a57d 5998 ebbf
-0.3824525583179003 -0.6930548186636528 0.4390750276964163 -0.1478400982409034 0.0679792924138763 -0.8623473600419187

downsample_skip_connection.0.bias f8 [2]
00000000: 6431 49bc aa91 a33f 93b6 1562 5ac3 c2bf
0.038220725521201954 -0.14658670224473677

downsample_skip_connection.1.weight f8 [2, 4, 1]
00000000: b679 0eb2 1cce e4bf e070 8614 aeb1 ec3f
00000010: 945c afd8 2659 e13f a011 c3e7 5393 e43f
00000020: c450 3b64 2c4e e43f 6d36 c1ea 044d e4bf
00000030: d3ee 3a47 26c1 23bf f823 87ae 9db8 66bf
-0.6501601674715889 0.8966894532091167 0.5421327812317878 0.642984345111973 0.6345426519060529 -0.6344017586759044 -0.0001507148004885524 -0.0027735786172553532

downsample_skip_connection.1.bias f8 [2]
00000000: df56 be5b ce2e d53f 22d0 93fa 5549 89bf
0.3309818168575997 -0.01234690829230806

network.0.conv1.bias f8 [3]
00000000: 93db 6e99 b6ef cfbf 300c ccda 54cd e93f
00000010: 6102 7dd0 ab17 e03f
-0.2495029687103992 0.8063148759250733 0.5028895446813061

network.0.conv1.buffer f8 [1, 3, 3]
00000000: 0000 0000 0000 0000 0000 0000 0000 0000
00000010: 0000 0000 0000 0000 0000 0000 0000 0000
00000020: 0000 0000 0000 0000 0000 0000 0000 0000
00000030: 0000 0000 0000 0000 0000 0000 0000 0000
00000040: 0000 0000 0000 0000
0.0 0.0 0.0 0.0 0.0 0.0 0.0 0.0
0.0

network.0.conv1.parametrizations.weight.original0 f8 [3, 1, 1]
00000000: af62 e67b 4abe e23f 5f9c 8404 daa0 f43f
00000010: 77a2 6529 2c83 e13f
0.5857288761063354 1.2892704178318792 0.5472622688804013

network.0.conv1.parametrizations.weight.original1 f8 [3, 3, 4]
00000000: 9d7b b9b9 6c39 cb3f 3a00 dacf 4d83 cf3f
00000010: 50df d7fc 6a7d d1bf 2e05 d90b 6145 b73f
00000020: c6b6 746b 462b b3bf fedf 8851 9ed0 c6bf
00000030: cdc4 ce8a 3c62 cdbf 7106 ba5e 7862 cc3f
00000040: c9bd 626d 063e c8bf faec e24c 1504 b4bf
00000050: 9870 bae9 09f7 c5bf eed5 a1b4 d9ea b4bf
00000060: f5a0 b0f0 f418 51be c887 1182 9190 dcbf
00000070: a247 9fab 774b b03f 69ea 406d 2139 c7bf
00000080: 0e5e b62e dbd5 683e f136 c48f 0d8b e0bf
00000090: 5049 f1a4 ad9b e4bf 0535 4244 3dea e9bf
000000a0: c06b 89ce ef00 443e 6562 6d51 410d 723f
000000b0: f3d9 486f 756f cc3f a92e 9c17 81af bcbf
000000c0: 1a54 3fe1 b63c 533f 31f4 5f2a 4d9a 6dbf
000000d0: ce8d 1994 4236 c83f f25a 1f67 9a9a bb3f
000000e0: 462c 972e 1891 c8bf 6ec8 e9fc bd6d 00c0
000000f0: 43a5 2980 a846 c8bf 29dd 1ebc fd08 c2bf
00000100: ad42 dbfd 5cb3 4e3f 3254 a842 c16c cebf
00000110: 622b 78c5 5d46 b73f 6fb2 2088 b5e5 ddbf
0.212689963041126 0.24619457863809818 -0.2732799023792625 0.09090239085437155 -0.07487907527385138 -0.17824152928528741 -0.22956043985099087 0.2217550718815349
-0.1893928560361771 -0.07818730475530691 -0.17160152351869296 -0.0817085329052458 -1.5923276069360393e-08 -0.44632375432967963 0.06365154209131998 -0.1814309867348414
4.625949209384446e-08 -0.5169742401064622 -0.6440036984952631 -0.8098436673332406 9.314929675841032e-09 0.004407172344905595 0.2221514504796712 -0.11205298258226527
0.0011741434036498578 -0.003613615716857165 0.1891558859962132 0.10782780664099414 -0.19192793154647542 -2.0535850294918907 -0.18965631730979213 -0.14089938817571948
0.0009369091091802805 -0.23769393687021673 0.0909174544432694 -0.46714533132288855

network.0.conv2.bias f8 [3]
00000000: ed01 a897 6c1a b6bf 94c1 7e7d 48fa b6bf
00000010: 7a91 3f71 2a4c e53f
-0.08634070112748989 -0.08975651801916334 0.6655475818520664

network.0.conv2.buffer f8 [1, 3, 3]
00000000: 0000 0000 0000 0000 0000 0000 0000 0000
00000010: 0000 0000 0000 0000 0000 0000 0000 0000
00000020: 0000 0000 0000 0000 0000 0000 0000 0000
00000030: 0000 0000 0000 0000 0000 0000 0000 0000
00000040: 0000 0000 0000 0000
0.0 0.0 0.0 0.0 0.0 0.0 0.0 0.0
0.0

network.0.conv2.parametrizations.weight.original0 f8 [3, 1, 1]
00000000: 76bd 8fca 6b7a e83f 9dda 1722 776b de3f
00000010: be32 1294 682a 0c40
0.7649439770010946 0.4753091652814108 3.5207072799733785

network.0.conv2.parametrizations.weight.original1 f8 [3, 3, 4]
00000000: 5b98 191f 2507 2b3f ed87 2f88 30b2 2cbf
00000010: cefb 1e51 9fb7 7b3f c605 0b4b 9359 f9be
00000020: 149c 2756 eb21 763f 5873 fb72 3a04 d43f
00000030: 5c6f 70c4 e57a d93f c5ea 9894 6ee1 e93f
00000040: 58da 4d32 9065 4d3f 5521 2d85 df71 963f
00000050: b1ef 0dba 5e04 9e3f 0558 acf9 f156 cd3f
00000060: 5a0a bcd9 7b48 373f 93f8 2dfa 0e66 c2bf
00000070: 5ab1 e63f b91a db3f 4528 7763 0243 d13f
00000080: 93a2 35e8 1d93 18bf c9d4 d1fd f4fd d83f
00000090: e60b 2650 2bf6 de3f d032 00a8 b287 eb3f
000000a0: 5a33 2377 1495 17bf a527 4e64 06c9 c53f
000000b0: 5c2b 4942 ef5e b73f 9b87 b6c8 335d d63f
000000c0: a4a4 9387 5924 3cbb 99f7 5ccc 03df 2d3e
000000d0: a4b2 ee48 1e35 d43e feda 629e 4bcf 413e
000000e0: ae75 e189 6240 aa3b 0be1 c58a aabe e5bf
000000f0: beeb ff55 6aeb eabf c6e4 6008 1782 e3bf
00000100: 695e 6ddb ff02 9b3c a784 b6f7 a877 a03f
00000110: 136e ce90 7409 9e3f e85b 6d04 35b7 e7bf
0.00020620659011000544 -0.00021893351012552913 0.006766912776526147 -2.4175552143961843e-05 0.005403441699377804 0.3127580759881332 0.398126069865375 0.8087685491840025
0.0008971170505976496 0.021918766501842175 0.029313545328008398 0.22921585742068387 0.00035527251905890166 -0.1437395783977463 0.42350608101221143 0.26971492494033483
-9.37449458909923e-05 0.3905003050525236 0.4837749750806196 0.8603146821274894 -8.995950136920835e-05 0.1701972951671539 0.09129233711534596 0.3494386158073383
-2.3278509447503e-23 3.477459739353546e-09 4.817841854282013e-06 8.293309993916255e-09 2.779486055866857e-21 -0.6795246801766849 -0.8412372283631766 -0.6096301234857939
9.371571772114253e-17 0.03216293357696403 0.029332944238929026 -0.7411141478031569

network.1.conv1.bias f8 [4]
00000000: d24a 2940 ccd0 d3bf ee49 4487 ef28 d73f
00000010: bf07 5e7c 2ebd d1bf 2c80 8888 904b d7bf
-0.3096190096450019 0.361873514267386 -0.277171727611968 -0.3639870961505973

network.1.conv1.buffer f8 [1, 3, 6]
00000000: 0000 0000 0000 0000 0000 0000 0000 0000
00000010: 0000 0000 0000 0000 0000 0000 0000 0000
00000020: 0000 0000 0000 0000 0000 0000 0000 0000
00000030: 0000 0000 0000 0000 0000 0000 0000 0000
00000040: 0000 0000 0000 0000 0000 0000 0000 0000
00000050: 0000 0000 0000 0000 0000 0000 0000 0000
00000060: 0000 0000 0000 0000 0000 0000 0000 0000
00000070: 0000 0000 0000 0000 0000 0000 0000 0000
00000080: 0000 0000 0000 0000 0000 0000 0000 0000
0.0 0.0 0.0 0.0 0.0 0.0 0.0 0.0
0.0 0.0 0.0 0.0 0.0 0.0 0.0 0.0
0.0 0.0

network.1.conv1.parametrizations.weight.original0 f8 [4, 1, 1]
00000000: 5875 4f78 d5f4 ea3f b52a b230 6096 e43f
00000010: a6d3 c5c8 7455 dd3f d64d 47cf 14d0 e23f
0.8423869466602509 0.6433564139454889 0.45834083182063023 0.5879005478295152

network.1.conv1.parametrizations.weight.original1 f8 [4, 3, 4]
00000000: 7f3f aee0 e11a c4be 93eb 730e c2d4 953f
00000010: ed26 5026 0dea b0bf 657f 22ec 92b2 d53f
00000020: 5853 18d5 aca2 6bbf e6b3 b70c 2fde d5be
00000030: d46d 0aed 4951 b73f f94c ab89 2a66 e23f
00000040: 798b a218 a851 b4be 5486 5ccb d2a7 82bf
00000050: f5e0 d81d d09b a93f 6e30 847e 90ee d9bf
00000060: 1f10 ed48 c59f 4f3f 52ad 005d dce4 9fbf
00000070: dbe9 1cc2 a9d7 9dbf 1d80 b5a2 42d0 d3bf
00000080: 0af2 27eb 0c28 6ebf c26d 38af 7fd9 91bf
00000090: a54a baef 3403 a7bf 104c 0977 38de e4bf
000000a0: 983d 7def 9205 153f acc7 93a4 65b0 f83d
000000b0: 8abf eba3 215a c4bf a45e f680 c075 d63f
000000c0: 7454 3c3a 5331 c53f 4249 35ad 63a5 c8bf
000000d0: 207c a2c8 24ce b63f 90ef da3f 9829 9bbf
000000e0: 4098 0426 69d3 8f3f 30cf 63fd 9d05 923f
000000f0: 0a9b c9db d855 b9bf 40df e228 6762 83bf
00000100: 88dd 24b1 af66 c0bf c87a a93b a738 a2bf
00000110: b4c0 0e00 78a7 d13f d515 9b26 fa28 c7bf
00000120: 1c32 5789 62c6 9cbf d29d 0c1a ea3f c83f
00000130: 1878 82cc d344 d03f a56a c2d0 8dfe cd3f
00000140: 20a9 5d9c c560 613f f23d 57d5 a486 a13f
00000150: d710 b11b 12c2 e1bf fe7b a25c 5ae5 d93f
00000160: 1e9b 02fe bc64 89bf 41cd 2a79 6780 b23f
00000170: 55ef 94e6 3dca b63f 18b2 63b2 a561 a23f
-2.3967038535535066e-06 0.021319419986848564 -0.06607134042146941 0.3390242868426781 -0.00337346798256492 -5.2137149384291886e-06 0.09108411824347878 0.5749714554644064
-1.2111050602745645e-06 -0.009109160262201467 0.050016883510069755 -0.40518581729043646 0.0009650910668388446 -0.03114647214549155 -0.02914300200721152 -0.30958619966077255
-0.0036812069240552735 -0.017431254453283314 -0.04494634081233543 -0.6521265339782776 8.019170115613203e-05 3.592729764534271e-10 -0.15900059226941848 0.35093700975401476
0.16556778281725182 -0.1925472827666202 0.08908300302799477 -0.026525858781254963 0.015539952728954032 0.017599552717867784 -0.09896617284685419 -0.009465032515762695
-0.12813373708352693 -0.03558848002716314 0.27584648137691237 -0.1809380234246151 -0.028100528366666308 0.1894505145257726 0.25420088740963953 0.23433087056476612
0.002121339758493282 0.03423037628419569 -0.5549402752735898 0.4046235947261606 -0.012399174215102667 0.07227179248984773 0.08902346496045983 0.03590123941998885

network.1.conv2.bias f8 [4]
00000000: 0a34 432b 3ab5 cbbf f7e2 7019 03d0 a33f
00000010: 6428 bb6e e9c5 a53f 1d85 9bae 18b9 a63f
-0.21646811592509635 0.03869638143118508 0.04252557255456749 0.04438092357100685

network.1.conv2.buffer f8 [1, 4, 6]
00000000: 0000 0000 0000 0000 0000 0000 0000 0000
00000010: 0000 0000 0000 0000 0000 0000 0000 0000
00000020: 0000 0000 0000 0000 0000 0000 0000 0000
00000030: 0000 0000 0000 0000 0000 0000 0000 0000
00000040: 0000 0000 0000 0000 0000 0000 0000 0000
00000050: 0000 0000 0000 0000 0000 0000 0000 0000
00000060: 0000 0000 0000 0000 0000 0000 0000 0000
00000070: 0000 0000 0000 0000 0000 0000 0000 0000
00000080: 0000 0000 0000 0000 0000 0000 0000 0000
00000090: 0000 0000 0000 0000 0000 0000 0000 0000
000000a0: 0000 0000 0000 0000 0000 0000 0000 0000
000000b0: 0000 0000 0000 0000 0000 0000 0000 0000
0.0 0.0 0.0 0.0 0.0 0.0 0.0 0.0
0.0 0.0 0.0 0.0 0.0 0.0 0.0 0.0
0.0 0.0 0.0 0.0 0.0 0.0 0.0 0.0

network.1.conv2.parametrizations.weight.original0 f8 [4, 1, 1]
00000000: b1f1 da75 8dc2 e53f 5455 9eee 7ff3 e53f
00000010: 2a09 014b d5ce ec3f e897 2e3f 0718 e93f
0.6799990941868171 0.6859740887181638 0.9002481903956199 0.7841831430457633

network.1.conv2.parametrizations.weight.original1 f8 [4, 4, 4]
00000000: be7d 5a18 0600 bc3f e01e 50c4 3002 b7bf
00000010: a8fe ffb9 e75b c3bf f21e f18e 73f7 c4bf
00000020: a008 a4e3 7c5f 8cbf 3098 1935 2942 c4bf
00000030: 2edc 6a1d 24fb ba3f 5495 6f5c f4da c1bf
00000040: f307 d97a 0f9e cf3f 33d1 7534 705b cebf
00000050: 3bb0 49c1 21e4 cabf 430b 4268 08c4 c03f
00000060: 23c2 9bcf 3eca cfbf 727c ed5e b0b8 b23f
00000070: 637d f2cf af38 c8bf 439a eb82 4124 ce3f
00000080: 6774 7875 a302 b8bf 3bc3 1fdf d353 9bbe
00000090: 250c 8be1 06cc 923f 53f5 2bb5 eb9b d43f
000000a0: 3463 dcaf b4be 963f cb81 8f2f 85de d1be
000000b0: 17ec 5596 17e1 b4bf 8236 60ba b067 e9bf
000000c0: e6a2 cf5e c4da ad3f 976f ea0c d1eb b53f
000000d0: b0d7 5aec 05e0 c1bf 9c1d 3bc1 7eea 0ebf
000000e0: 7170 4d0b 1d4c b43f a12d d3be ca4f af3f
000000f0: 945b face abb3 d53f e4d2 3fc5 d6f5 d9bf
00000100: 68d6 b9bd 89c2 973f f7bb c64b e6fa 75be
00000110: 4a9f 118f a44a b63f 3c7b ab03 8889 ea3f
00000120: a8f7 f271 8245 a7be 702d 339b ab1c 92bc
00000130: 85b8 30a6 f95f a9bf 0ee4 c5ee da37 e5bf
00000140: 28e5 c828 6aa0 603e d7dc 6821 3431 963f
00000150: 070f 5b21 42d7 463e 05e2 36b2 8073 8abd
00000160: 244d 1892 80ee 983f b376 54d8 347d abbf
00000170: 4f0c ae3a dcf8 c93f cb12 55e1 1626 e13f
00000180: 8d76 de52 bc94 9e3d 9297 11c7 1615 c4bd
00000190: 484a ad84 44c3 ab3f c2cc e73d 2382 e53f
000001a0: f360 144c 201f 12bf 3082 96f9 1629 a03e
000001b0: 16e9 0b92 ad81 b1bf d2cd 8484 211b e2bf
000001c0: ede3 ea3b c177 723e 5291 9b08 101a 73bf
000001d0: 1aad 8869 5f22 84bf 77bc e94f a517 22bf
000001e0: 0c51 2311 ec1c 90bf 59aa bbce 8014 293d
000001f0: 8ce7 ee5d 6518 d13f a33f 27f5 831c d83f
0.10937536329810535 -0.08987717430874964 -0.15124222356825112 -0.16380161742767246 -0.013854003617329191 -0.1582690724637259 0.10539460867117675 -0.1394944621417077
0.2470111226885475 -0.23716547547849984 -0.21008703172572205 0.1309824475357236 -0.2483595384324114 0.07313062970705334 -0.18922994283364422 0.23548144238084676
-0.0937902604859616 -4.0721076210920935e-07 0.018356425777494096 0.32201664631414423 0.02221185992593462 -4.2603539833489525e-06 -0.08155963344863469 -0.7939075126793826
0.05830968530046281 0.08562952580763149 -0.13964914360775316 -5.896758389450503e-05 0.07928639913501613 0.061155639452034956 0.33909125530902284 -0.40562981855991453
0.02320304127211728 -8.188216588684974e-08 0.08707645886317752 0.8292884895016424 -6.935453916929138e-07 -6.283860065474835e-17 -0.049560357605842355 -0.6630682624373792
3.096949283518076e-08 0.021672071971093523 1.0636100926544824e-08 -3.007151292127354e-12 0.02434731380169554 -0.053689624221289554 0.20290711274364745 0.5358995820066296
6.953314048523872e-12 -3.652963425116406e-11 0.054224148937141836 0.672135945233457 -6.912836672190777e-05 4.816206341969647e-07 -0.06838497939671515 -0.5658118808991566
6.879788736869682e-08 -0.004663527137129657 -0.009831185730112813 -0.00013803379984575804 -0.015735329195039546 4.455119019875135e-14 0.26711401150861813 0.3767404455256786

network.1.downsample.weight f8 [4, 3, 1]
00000000: 0600 13d5 849c dbbf 40f6 038b 8a90 cbbf
00000010: 916f 1271 a9c5 f3bf 2eeb 3d24 9c3e cf3f
00000020: fafa 4487 bfc3 b7bf 9c36 c8ce 4fe6 f53f
00000030: fd05 d1e2 7aa2 ebbf 56bb 2de9 9617 ddbf
00000040: ed48 5fb0 f0cc e7bf 562d 03f5 5fe2 f4bf
00000050: e1e3 99df 6a1f f0bf e350 b9b7 f203 b43f
-0.43142815406827173 -0.21534854686608362 -1.2357572953105527 0.24409820336935567 -0.09283062984921378 1.3687284543442848 -0.8635839872369498 -0.45456478854514637
-0.7437671131868037 -1.3052672930524145 -1.007670281831672 0.07818524346777482

network.1.downsample.bias f8 [4]
00000000: ce50 bbe8 f910 ddbf ff30 21e4 1382 d83f
00000010: 2802 bc82 3119 e0bf 047c 24cd e67b cd3f
-0.45416114547448394 0.3829393127277995 -0.5030753663450627 0.23034367577290038

network.2.conv1.bias f8 [2]
00000000: c249 f2c8 a1c2 ccbf 2660 b30b 0ef5 963f
-0.22468969642484465 0.022419185127404394

network.2.conv1.buffer f8 [1, 4, 12]
00000000: 0000 0000 0000 0000 0000 0000 0000 0000
00000010: 0000 0000 0000 0000 0000 0000 0000 0000
00000020: 0000 0000 0000 0000 0000 0000 0000 0000
00000030: 0000 0000 0000 0000 0000 0000 0000 0000
00000040: 0000 0000 0000 0000 0000 0000 0000 0000
00000050: 0000 0000 0000 0000 0000 0000 0000 0000
00000060: 0000 0000 0000 0000 0000 0000 0000 0000
00000070: 0000 0000 0000 0000 0000 0000 0000 0000
00000080: 0000 0000 0000 0000 0000 0000 0000 0000
00000090: 0000 0000 0000 0000 0000 0000 0000 0000
000000a0: 0000 0000 0000 0000 0000 0000 0000 0000
000000b0: 0000 0000 0000 0000 0000 0000 0000 0000
000000c0: 0000 0000 0000 0000 0000 0000 0000 0000
000000d0: 0000 0000 0000 0000 0000 0000 0000 0000
000000e0: 0000 0000 0000 0000 0000 0000 0000 0000
000000f0: 0000 0000 0000 0000 0000 0000 0000 0000
00000100: 0000 0000 0000 0000 0000 0000 0000 0000
00000110: 0000 0000 0000 0000 0000 0000 0000 0000
00000120: 0000 0000 0000 0000 0000 0000 0000 0000
00000130: 0000 0000 0000 0000 0000 0000 0000 0000
00000140: 0000 0000 0000 0000 0000 0000 0000 0000
00000150: 0000 0000 0000 0000 0000 0000 0000 0000
00000160: 0000 0000 0000 0000 0000 0000 0000 0000
00000170: 0000 0000 0000 0000 0000 0000 0000 0000
0.0 0.0 0.0 0.0 0.0 0.0 0.0 0.0
0.0 0.0 0.0 0.0 0.0 0.0 0.0 0.0
0.0 0.0 0.0 0.0 0.0 0.0 0.0 0.0
0.0 0.0 0.0 0.0 0.0 0.0 0.0 0.0
0.0 0.0 0.0 0.0 0.0 0.0 0.0 0.0
0.0 0.0 0.0 0.0 0.0 0.0 0.0 0.0

network.2.conv1.parametrizations.weight.original0 f8 [2, 1, 1]
00000000: 8f7c 6c07 4edf e13f 108c 508f f8fb e33f
0.5585088868136995 0.6245081709970481

network.2.conv1.parametrizations.weight.original1 f8 [2, 4, 4]
00000000: 5ca4 6923 2dd5 babf d461 c56b 839f a43f
00000010: ec4d f065 350e c7bf 7d4e bb22 6cfc c9bf
00000020: e0ce c786 1cf1 92bf 8b4e 9aec 8da2 cbbf
00000030: b644 99db 7e5e c6bf 7a12 c6de dd0b c5bf
00000040: 3bb5 8e84 f973 c13f 06ec 78c7 14ef b53f
00000050: 6a16 5915 bb48 b23f ec31 91c8 5243 a93f
00000060: 740c 2d50 901a a63f ac54 8ed6 c8a9 bebf
00000070: 8925 51cc af16 cdbf 5873 bac0 0f04 c2bf
00000080: 34ef 3376 5b6a c7bf e1db 66ed 7f78 263e
00000090: ad21 9a9b 00a4 cabf a63d 99bf 7d40 c33f
000000a0: 8db8 2640 30e7 cc3f e98d 0477 7eee c93f
000000b0: 7db4 8638 9602 c3bf c68d 3fa9 68c4 ae3f
000000c0: 9e94 375b 85c1 c23f 861e 26da aa7c c33f
000000d0: 5a62 3d66 4220 cebf 5e94 e2eb 2c32 22bd
000000e0: 866d 3166 dc38 423d 2ce8 38c1 9bb1 c8bf
000000f0: 69cb e06b f33b 3bbc 895d b1ad a1c8 d0bf
-0.10481531252448079 0.04027949038089998 -0.18012111165499733 -0.20301582046396396 -0.01849789211878672 -0.21589826634282291 -0.17475877497284892 -0.1644246423494627
0.13635176632434728 0.08567933912210898 0.07142228385154117 0.04934176157312095 0.043171415125947826 -0.11977820623572438 -0.22725484348692884 -0.14074894819796202
-0.18293326636909912 2.615934006923397e-09 -0.20812995527036318 0.15040561538124314 0.22580531246552873 0.20259075938621088 -0.14851644287174173 0.06009223047274363
0.1465307898899128 0.15224204685022275 -0.23535947792221884 -3.232258540209354e-14 1.2947590039953972e-13 -0.1929201787441469 -1.4763680222892353e-18 -0.2622455784052922

network.2.conv2.bias f8 [2]
00000000: c875 09df 8a08 acbf 3dc5 3f2f 3a6d 76bf
-0.05475267384165822 -0.005475261004890539

network.2.conv2.buffer f8 [1, 2, 12]
00000000: 0000 0000 0000 0000 0000 0000 0000 0000
00000010: 0000 0000 0000 0000 0000 0000 0000 0000
00000020: 0000 0000 0000 0000 0000 0000 0000 0000
00000030: 0000 0000 0000 0000 0000 0000 0000 0000
00000040: 0000 0000 0000 0000 0000 0000 0000 0000
00000050: 0000 0000 0000 0000 0000 0000 0000 0000
00000060: 0000 0000 0000 0000 0000 0000 0000 0000
00000070: 0000 0000 0000 0000 0000 0000 0000 0000
00000080: 0000 0000 0000 0000 0000 0000 0000 0000
00000090: 0000 0000 0000 0000 0000 0000 0000 0000
000000a0: 0000 0000 0000 0000 0000 0000 0000 0000
000000b0: 0000 0000 0000 0000 0000 0000 0000 0000
0.0 0.0 0.0 0.0 0.0 0.0 0.0 0.0
0.0 0.0 0.0 0.0 0.0 0.0 0.0 0.0
0.0 0.0 0.0 0.0 0.0 0.0 0.0 0.0

network.2.conv2.parametrizations.weight.original0 f8 [2, 1, 1]
00000000: 4a05 a3ba 0d19 e33f 091c f61f 7fde e73f
0.5968083043336858 0.7459102272267738

network.2.conv2.parametrizations.weight.original1 f8 [2, 2, 4]
00000000: dab6 6643 8239 c13f 5765 c91a 5d68 d23f
00000010: ba72 497b ef4f c13f 322c 2ea7 2da0 d3bf
00000020: 080f 6d39 e7b8 af3f 76d3 c7d1 e3aa c33f
00000030: bd0a 44e1 d017 d33f b792 4633 55dd c4bf
00000040: 9ea2 bfc0 cad6 d1bf 29b4 d889 fd4d d83d
00000050: 3282 b6ac 0d23 d93f e7e8 a316 ee0c d83f
00000060: 9e41 c82b bd99 db3f c880 737e 6cb0 d8bf
00000070: b24b 2d51 8b3b db3f d61a 7e1e 5e4b d0bf
0.134567530546909 0.28761985412491725 0.13525193710201738 -0.3066515095349046 0.061957574615489064 0.1536526464766685 0.2983286094533176 -0.1630045414323342
-0.2787348635015777 8.841980139522792e-11 0.3927644907617235 0.3757891865822231 0.43125848079309914 -0.385768054473385 0.4255092900031584 -0.2546000764636295

network.2.downsample.weight f8 [2, 4, 1]
00000000: 8c7f 8ef9 2144 e23f 99d1 a44d 2b25 c53f
00000010: b04b ce74 8865 e4bf 40a8 64ca 6786 abbf
00000020: e0c6 e2e8 2507 d03f 689e 62a8 0b12 e43f
00000030: 54e3 bac9 1427 d2bf 29ce c891 5777 df3f
0.5708169817116739 0.16519681254579835 -0.6373941689838514 -0.05375980706806205 0.25043628447302346 0.6272028244756713 -0.2836353273410641 0.49165906178243063

network.2.downsample.bias f8 [2]
00000000: ca0d d3ef 90ee e0bf 3163 0658 6073 b3bf
-0.5291218456335909 -0.07597925328299195
