First_experiment_run_22_07_2024/MLP_no_or_nextstep_exp1.pth (torch, 25344 bytes, 8 tensors)

network.0.weight f8 [24, 60]
0.01717863984187025 -0.10879161899081016 -0.003280333936362002 -0.07805925767900504 0.032212979806471566 -0.09244211833409939 -0.07606719210013298 0.07853969132769241
-0.038233001646927764 0.08924842320243066 0.08221746021098894 0.03627251970852907 -0.07284316655079406 -0.0238492498009666 -0.11492983893816279 -0.042274925070309076
-0.06061888018208853 -0.095194441391624 -0.07311845675964385 0.0046356635954446284 0.018571623194756335 -0.01738182961450519 0.11026223593732365 0.027206455517781645
0.010359645450350513 0.1118308445463245 0.0627859409750834 0.033038672229374795 -0.0891018953452519 0.05547823384168335 -0.003310559208172839 -0.06724619876339079
0.0684145269797393 -0.060376260116517186 -0.06853150364651507 0.06046578630390991 0.11640282495876218 -0.07240573485712144 0.01150600046566909 0.024705716020918523
-0.05320672018423157 -0.08852992881719357 -0.03351073710966736 -0.03756235914904547 -0.0045228488461139405 -0.13529082076939458 0.014481402999891473 0.06358657586119196
-0.05981004064061914 0.10337023189495476 -0.07821007612164696 -0.09280699664033114 0.02120664952498889 0.06204289185497941 0.09318670327592841 -0.06926141862802594
0.11411756406272805 -0.029812891844459073 -0.031536803433428046 -0.11809018325468489 -0.0020886901604451613 -0.11921659347702439 -0.12628787251790463 0.05551317340152385
0.010154267158309008 0.0019838710455208426 -0.09600817171905707 0.0762203380231948 -0.033726789455672763 -0.035910055627800926 -0.013393668021221381 0.06257287478613972
0.02435782115159668 -0.03969048529755816 0.08504116362987718 -0.037405522326913944 -0.03335700868650553 -0.11247205562943133 -0.022493295696803018 -0.025734088663598838
0.014383769980501039 -0.042659691336920644 0.0158772721789421 0.0591825246428733 -0.04233979058364974 -0.0772060104786623 -0.000324617204419484 -0.03005006589084372
-0.011052103219889017 -0.03527468908296122 0.10477546968510557 0.12079694773456173 -0.07466762853103143 0.12075867702021043 0.10039733741837792 -0.008461453571007348
-0.11886714748403075 -0.009131681763980451 0.0835379212759037 0.02428171042380482 -0.08381851496284914 -0.09513612685841577 -0.11286685673439972 -0.03408932417896043
-0.031197625557072926 -0.07474507680720781 0.052333599800028545 -0.0739520984281671 -0.07155414790108992 0.053251562975131866 -0.11026235268663681 0.10587616597692348
0.09163016723120343 0.007206527706611484 -0.10371151196119371 -0.05441742302643831 -0.01470444311575974 -0.07942240427088816 0.09235141457781158 -0.12906074419141667
-0.04347912551886093 -0.033149138330818076 0.013652650522642267 0.05492578168487877 -0.08582346337393924 -0.02050705147277259 -0.025350604332095707 0.012271537464848168
0.04985561595830667 0.015818431700135558 0.08094608665160906 0.043603603048310735 -0.06957861284438971 0.0727870182385551 0.06123424482891563 0.06704968314071039
-0.014086291497005706 -0.07239337105492338 -0.001888826650760549 -0.12781619946080539 0.0017864449839217833 0.032572428457325685 -0.11912068824192 0.10987272242755701
0.03149052678607758 0.007291788000504946 -0.06499437801979024 -0.0070435655439977166 -0.058476788033579245 -0.013508190230193114 0.03649633778775949 -0.03225217331640991
-0.002995087218297416 -0.11606194022470265 -0.11331398403545613 -0.07327112346770491 -0.048282568464442045 0.01405511367943518 0.10196274729421505 0.014071579231155809
0.09526912695656238 -0.044801277930228485 0.12233100480323711 -0.047964371583044 0.04645833265130265 -0.11396551468305403 -0.021596146435406097 -0.11945188006970368
0.12408974368792197 0.025535283819536646 -0.07613549998262144 -0.006335401891781595 -0.013339372807339675 0.048030220191620177 -0.11754656211839884 -0.026367915926485318
-0.03827348098774922 -0.01081105023199005 0.00801180958007957 -0.004835513280717349 0.053211561575862015 -0.07903739888517447 0.0041278947891800356 -0.09521931914527307
0.00010501855083838814 -0.11037931056543203 -0.007444644039956385 0.09121567016110263 -0.12070087037802096 -0.11873555097100817 -0.07584981250731167 0.058318834526457426
-0.0886059132952253 -0.035172092664018564 -0.046967903002626696 0.106943035626776 -0.08349595192881251 -0.09725373236815928 0.12787113624519908 -0.08920444916766744
-0.05219471999027014 -0.09462175543353656 0.06615979499758147 -0.05988199137964364 -0.12428919953953586 -0.06763251193799856 0.06249159106813268 -0.0835557898971548
-0.04532909161407969 -0.032346964712895214 0.06312688051982997 -0.016111839553019727 -0.03938709301930208 0.06332284342724682 -0.11829876751896724 0.015138678856709947
-0.09714582690473762 -0.11168637700087619 0.0806826862657681 0.048880012558499795 0.011850846056374478 0.035769157105793425 -0.04398157225630285 0.06176228989054746
0.014011660472757531 -0.09437943802919467 -0.09027234007530899 -0.022948563761777695 0.08906037832649161 0.04331179516062936 0.06796192321809141 0.014381116249631874
0.023463456975391435 -0.010480532813895589 0.029136800463365455 -0.0221670691114658 0.0967962406892988 -0.09139214747169246 -0.08886728017736617 -0.050786186841942846
0.08656112569569374 -0.03429471916345619 -0.1410440631938027 0.01154049885204722 0.001786704092439083 0.10023702077708684 -0.065172654643153 -0.007066668837937567
-0.09309728414785925 -0.02935798014724883 -0.10935380835382469 -0.08773913573431087 -0.013800497183271355 0.09952528856921966 -0.057603599094357874 0.025836380688489508
00000000: b40c 3e01 4797 913f daf8 a47d c4d9 bbbf
00000010: 6995 40df 5bdf 6abf 0aa1 e106 b1fb b3bf
00000020: d50e 8d3d 387e a03f 5596 0463 49aa b7bf
00000030: ed5d 5eb6 2379 b3bf 55bc b05d 2d1b b43f
00000040: ee26 67a7 4693 a3bf f1be df12 fcd8 b63f
00000050: 6631 c416 340c b53f 1086 c8cb 4f92 a23f
00000060: 329f 128a d9a5 b2bf c496 b70f f06b 98bf
00000070: d1ee 92bb 0a6c bdbf f353 3c19 0fa5 a5bf
00000080: d5ee cd17 7009 afbf 46bb 89b4 a95e b8bf
00000090: dc43 8424 e4b7 b2bf 6763 9a78 d8fc 723f
000000a0: 793c 0589 7004 933f c2ad f4d6 8acc 91bf
000000b0: 08ab 5559 253a bc3f 597c c152 02dc 9b3f
000000c0: 8360 4213 7037 853f aeb1 023c f2a0 bc3f
000000d0: 39f6 224b bd12 b03f 89f4 74e1 71ea a03f
000000e0: 16fc 84be 61cf b6bf 4cd0 fa9f a467 ac3f
000000f0: 5376 faf0 be1e 6bbf 9115 7800 0c37 b1bf
00000100: ab04 f34b 9d83 b13f 5e7a 4f1d a3e9 aebf
00000110: 1151 e8d6 478b b1bf 1789 671d 5ff5 ae3f
00000120: 2722 5c56 93cc bd3f 3112 41a7 2e89 b2bf
00000130: 0998 a93d 7590 873f 7d20 5689 744c 993f
00000140: f2c5 3c46 e93d abbf 98af fcbc e5a9 b6bf
00000150: 12d9 e6bf 5128 a1bf bd25 36a0 5f3b a3bf
00000160: d29b 0ffe 8c86 72bf 70a7 53a9 3551 c1bf
00000170: 9c20 4702 6da8 8d3f 5ed7 c9b7 3547 b03f
00000180: 533b 0cf1 6b9f aebf 8067 5eb5 7876 ba3f
00000190: 36ff 2857 9305 b4bf 2303 6907 33c2 b7bf
000001a0: 2b95 ab28 32b7 953f 28cc eefe 15c4 af3f
000001b0: c3fe fd72 15db b73f 99c6 e1c7 1dbb b1bf
000001c0: 2c71 8c05 cf36 bd3f b271 e24d 4587 9ebf
000001d0: 64e1 bb86 9725 a0bf 87b9 0e83 283b bebf
000001e0: 8062 c7fd 4c1c 61bf 2fd5 1f8a fa84 bebf
000001f0: c043 2c75 332a c0bf 1171 8300 396c ac3f
00000200: 75d6 e0aa c2cb 843f 91dd 51a8 7a40 603f
00000210: 409e aed5 fd93 b8bf 1685 1913 2d83 b33f
00000220: 6121 6c43 a344 a1bf 41b3 0985 cd62 a2bf
00000230: 5f3c ffb0 236e 8bbf 79bb d2a2 c604 b03f
00000240: 00e0 fdb4 41f1 983f a379 a1b0 4f52 a4bf
00000250: c4a6 9af8 41c5 b53f 0df4 2a0e d126 a3bf
00000260: 9746 cd7a 2b14 a1bf ca6d a4f8 f7ca bcbf
00000270: 1d8e 9685 7b08 97bf c261 cf74 095a 9abf
00000280: b487 46ed 3c75 8d3f 068f 4cb6 7dd7 a5bf
00000290: e571 08b3 2142 903f 2df5 abff 2b4d ae3f
000002a0: baa5 c09f 8fad a5bf 227c 0fea c5c3 b3bf
000002b0: 3fda d546 2c46 35bf a8ab f9c8 71c5 9ebf
000002c0: 3830 0d2f 7ca2 86bf 48cc f927 860f a2bf
000002d0: 2277 b8af 90d2 ba3f 1800 fa7b 8cec be3f
000002e0: fc53 9cee 6a1d b3bf 5c91 8268 0aea be3f
000002f0: cc41 d1d0 a3b3 b93f b9ac e912 3d54 81bf
00000300: ab41 03cf 136e bebf 282c 4594 a1b3 82bf
00000310: 9c17 dbbf bd62 b53f 6b0d a500 4edd 983f
00000320: bc91 9054 2175 b5bf 9866 8659 d75a b8bf
00000330: 1c00 7aa2 d7e4 bcbf c795 fbe8 2774 a1bf
00000340: 7903 ec35 45f2 9fbf 0389 6c4c 7e22 b3bf
00000350: a703 3f37 78cb aa3f 7a34 3854 86ee b2bf
00000360: 1fda 2065 5f51 b2bf 8cce e0f2 c943 ab3f
00000370: 3ce5 c44e 273a bcbf 16f8 4b4e b31a bb3f
00000380: 80c4 951b 1375 b73f a2f2 148d 9784 7d3f
00000390: ec8f 1770 d68c babf 4759 76b8 99dc abbf
000003a0: 1cfd 4df2 5c1d 8ebf 8dc4 e9d4 0655 b4bf
000003b0: a7dd 59a1 57a4 b73f 78f1 bffd 0f85 c0bf
000003c0: 230a 535c e542 a6bf aafa 0a82 ecf8 a0bf
000003d0: a9db fcbb ebf5 8b3f a86b 1668 3b1f ac3f
000003e0: 63a7 6bc8 86f8 b5bf 8edb a6ed ccff 94bf
000003f0: c726 2942 82f5 99bf a550 aae0 d121 893f
00000400: 8f2f 20e0 ac86 a93f 09eb 4dfb b432 903f
00000410: 6768 e8fa e1b8 b43f e817 2922 3653 a63f
00000420: 58ee aa6a e7cf b1bf 646f e886 2ba2 b23f
00000430: 45f3 de4d 185a af3f 52e8 4b04 2b2a b13f
00000440: 8b99 690a 46d9 8cbf 70ca 2039 5f88 b2bf
00000450: af52 572c 50f2 5ebf 61a5 4afe 475c c0bf
00000460: 2410 0db2 e444 5d3f 8376 f355 55ad a03f
00000470: bfab 4684 b17e bebf fb80 8c65 9e20 bc3f
00000480: f42a 5cbd 861f a03f bb52 dd6f fedd 7d3f
00000490: 08d4 04b8 78a3 b0bf c80b 8aba b6d9 7cbf
000004a0: 5fd3 5b68 abf0 adbf be75 229a 2eaa 8bbf
000004b0: adc3 71e2 a5af a23f 0ae1 3c5b 5b83 a0bf
000004c0: c214 d734 2789 68bf ba4d 933d 3cb6 bdbf
000004d0: a99b 9c2f 2502 bdbf d7f3 0877 e5c1 b2bf
000004e0: f516 0b29 7eb8 a8bf 1e05 c26c edc8 8c3f
000004f0: aff9 0909 3b1a ba3f db9d ce64 8fd1 8c3f
00000500: edce 98b8 8e63 b83f 6105 0f6f 31f0 a6bf
00000510: 50ae eab0 1551 bf3f 1f0d a53e c98e a8bf
00000520: a562 baf6 62c9 a73f 8f7e 6f0e d82c bdbf
00000530: 6487 a3da 4c1d 96bf eb57 58fe 6594 bebf
00000540: 1c9d e86e 58c4 bf3f 4690 98e3 eb25 9a3f
00000550: 856e 7dba 9d7d b3bf ed5d ea7e 26f3 79bf
00000560: 8b45 a74f ac51 8bbf f0a7 e2c1 6a97 a83f
00000570: fe45 0e10 8817 bebf f68f 45e2 3000 9bbf
00000580: e5fc 4aea 9498 a3bf 0d59 7499 1a24 86bf
00000590: dc98 06e1 7e68 803f bd9f 6636 67ce 73bf
000005a0: cc8e 79b9 8b3e ab3f 506b 5f83 cb3b b4bf
000005b0: d207 ef51 69e8 703f 4224 ad15 4b60 b8bf
000005c0: 47b0 1df7 ac87 1b3f 3f97 0889 d141 bcbf
000005d0: 8f5d e96a 467e 7ebf 3e83 3900 e959 b73f
000005e0: 5c51 df92 40e6 bebf 6f03 4bfc 7365 bebf
000005f0: 2d6b 20b0 e46a b3bf 695e 105e f7db ad3f
00000600: f2cf d58b e0ae b6bf 529b 7297 1302 a2bf
00000610: 6649 b74e 2d0c a8bf a14d 8d68 9e60 bb3f
00000620: 8ef4 e19e fd5f b5bf 0168 efdf 9ee5 b8bf
00000630: 4443 23d6 145e c03f 1734 d54f 1ad6 b6bf
00000640: ffa0 c32e 44b9 aabf 17c0 13a1 2139 b8bf
00000650: 051e d32b d9ef b03f cb99 3035 daa8 aebf
00000660: efb0 44bf 6ad1 bfbf 4f87 eb42 5d50 b1bf
00000670: f844 d3d7 e5fe af3f 1dee ff88 e963 b5bf
00000680: 8c68 14ec 5f35 a7bf 2f2d 2207 c88f a0bf
00000690: 81c7 544f 1529 b03f 37a0 d53f 9f7f 90bf
000006a0: fd08 ce88 8b2a a4bf d118 9c05 ed35 b03f
000006b0: 9dac a6f9 d348 bebf 43f4 c014 0701 8f3f
000006c0: 71ac 7f85 8cde b8bf 2ca3 a078 7a97 bcbf
000006d0: 3e6a ddda 9ea7 b43f 9bd0 bb0e cd06 a93f
000006e0: 9bbc efa1 4145 883f 0022 f3bf 5550 a23f
000006f0: c259 efac c084 a6bf 4375 698e 4e9f af3f
00000700: 5df8 f13b 25b2 8c3f 5f10 c037 4029 b8bf
00000710: 045a 5b8c 161c b7bf 8655 630b d47f 97bf
00000720: 701b 4834 a9cc b63f b4ed 7daf f62c a63f
00000730: ac4f 98dd f365 b13f f2f2 c6bf d873 8d3f
00000740: 220f 71f1 cd06 983f 3754 714d d176 85bf
00000750: 4aa3 6694 09d6 9d3f 5a15 87d3 f6b2 96bf
00000760: 6fe3 2270 a3c7 b83f 798b 80cc 7965 b7bf
00000770: 7cd7 0b8e 01c0 b6bf c63d 26a7 a500 aabf
00000780: 90cb f7b3 de28 b63f a310 77d2 138f a1bf
00000790: f42d 5b5b bb0d c2bf c04a 3189 8ba2 873f
000007a0: fa07 42e9 fa45 5d3f 0f08 1626 22a9 b93f
000007b0: 1e2d 49b4 27af b0bf 5346 cf78 f0f1 7cbf
000007c0: 02f0 c23e 39d5 b7bf 10ab 6fb2 0410 9ebf
000007d0: 589e 9276 9cfe bbbf 3de4 8e6e 1276 b6bf
000007e0: 3ac6 9060 6f43 8cbf 6c9e 8743 7d7a b93f
000007f0: b2fc 7b0c 387e adbf e890 6a28 da74 9a3f

network.0.bias f8 [24]
0.11318401369066212 0.018366167661631037 0.029027047744508726 -0.04908108975971983 -0.02060331565992453 0.02578311070993642 -0.0146152782089651 0.12873254597208594
-0.039492799984013977 -0.0425231302712763 0.08827645890935913 -0.008077719117480123 -0.10702751369794061 -0.10072344129365166 -0.04940755019761977 -0.057663102146418385
0.10848909466371935 -0.06079368131134563 0.04144098361572301 -0.11862236407907917 -0.015410402020221366 0.005100481213516099 0.1100499617127317 -0.0511177849521255
00000000: b13d 3ba5 a0f9 bc3f 6696 d6a5 94ce 923f
00000010: c662 0c33 44b9 9d3f 8375 bd16 2821 a9bf
00000020: 344e cb1b 0919 95bf 7a3e 2745 e366 9a3f
00000030: ad81 6f6f 9dee 8dbf 2cc2 70dd 4e7a c03f
00000040: dcb5 b778 6638 a4bf 6067 ad7b 97c5 a5bf
00000050: 0bbb 0538 4999 b63f 829f 7c1b 0d8b 80bf
00000060: 40d7 1ab7 2766 bbbf bafb 4bee 02c9 b9bf
00000070: 2f6b 8c48 f24b a9bf 963e cfa3 0486 adbf
00000080: 8fa6 8df9 f0c5 bb3f 1c44 1272 5920 afbf
00000090: 9fec afaa c037 a53f c439 4b06 095e bebf
000000a0: 3e7d 8f25 7d8f 8fbf 5239 1800 3ee4 743f
000000b0: bd73 7bfa 3b2c bc3f b207 3a3d 1c2c aabf

network.2.weight f8 [24, 24]
-0.1709225010822085 -0.12708122884095135 -0.02282592884094948 -0.06473874117956065 -0.13660926928642397 0.02978239549135864 0.12912065816881035 0.12903086374057243
0.08083550153150659 0.11488548753677726 0.148605237001115 0.058233113845672056 -0.13144048782255363 0.13105355190702844 0.07404438183670488 0.1384843328640336
0.0598381349659854 0.11896409892850619 0.20003581886274008 0.11762594803837216 -0.10015032597036311 -0.17267683058337316 -0.11007698393338933 -0.1366329917286043
-0.02350501312920954 -0.19876213553396319 -0.11372506690801899 -0.18135629875217846 0.08481041199525058 0.14037473001430842 0.17691038418125277 -0.02510000011759751
0.15587193051407186 0.19570469130682025 -0.17798866316052694 -0.06648367714254927 0.056380698785134735 0.055228660738974256 0.01201887746151616 0.09092839443585436
0.0070387504126327395 -0.09304012816545885 0.0741235083314235 0.15817446926032583 0.14776754011508975 -0.18011509130653305 -0.11193319659095018 -0.029924156488436607
-0.16831297664348022 -0.1586850594280046 0.02974622985709884 -0.149303715429122 -0.02783419362483293 0.0433507669067791 0.03877485898675089 -0.09390050820574988
-0.08638088508911151 -0.018723202855367747 0.21418775980463445 -0.011611463829839064 0.029963657479973434 -0.006974764253545532 -0.005370007545547558 -0.0032566831067572096
0.14122331011896003 0.15017479791083527 0.01669303676279575 -0.10152799735549915 -0.15232163706751708 0.17127448228564515 -0.10023749226219142 0.21176067472870788
0.18339536086015615 -0.19026638821403452 -0.14566014300122426 0.026309124107753 0.07330690948010857 0.20801257692183175 -0.17306609257705083 0.1109848314089385
0.17415050569256343 0.11757978914233672 0.021110970710845674 -0.07628868258363847 0.1859379910755377 0.20909228929402426 -0.1885012126657081 0.10240448998223313
-0.009104346739923495 0.038936480332261755 0.08176275083498481 -0.0983866605833336 0.16382898311525798 -0.13605617983098053 0.1901262853075036 0.044841533671706645
0.13465038172396776 -0.1901074818195655 0.024398083439910036 0.00023288816217208172 -0.00452641884783511 -0.1877601342831963 -0.18319890654066187 -0.1597492727073618
-0.04715087261077605 0.0004588348416602697 0.1033162552510792 -0.004204131258434716 0.12864904813003425 -0.10168862792244156 0.05429426609171293 0.06410310682399982
-0.14357185645892587 0.04325838616577028 -0.1626019467374046 0.14566476459130004 -0.02621822865915904 0.1783575584088185 0.16731086659471336 -0.18581632356312477
0.1346102128950735 -0.07386614609954846 0.025625656784351705 0.08346661639739651 0.03394535404915089 0.22527773821835306 0.20095193734886294 0.0513821680010983
-0.19474226342975912 -0.10315063849030642 -0.1431717491837789 0.1508269922580116 0.129078957713196 -0.11656023415495471 0.05071936393678864 0.04564790568059479
0.002889930826030167 -0.19648777887441463 0.016187503484144418 -0.19693698870516707 -0.09101656066500703 0.11688044731681556 -0.17585540687349824 0.11402378207471305
0.062211674030070566 -0.03348839111960241 0.13804201877937677 -0.09678019785264556 0.10083502362640062 0.25640098974865655 -0.13244787891409532 0.13037493382368345
-0.09674448850622618 -0.15929931302164865 -0.09109876772987871 0.25764393556857873 0.03532887234104448 0.1253245533850211 -0.13187277872918476 0.038482000578837494
0.23632614995164433 -0.12846181792343878 0.078643393718417 -0.05482963101826475 0.13077277842698537 0.19563223751458286 -0.07611845124288359 -0.1767197749596595
0.004682532228493314 -0.09823904187565276 0.17038616509133403 0.19248741670916605 0.17867556382451835 -0.12354528843817093 0.13814509330122293 0.1368920700134241
-0.0858743398519696 0.045444192285491465 0.1746438725870713 0.027517968468571193 0.16455339851747094 -0.04162523341768051 0.05864676641065077 0.05611078515611598
-0.022043593562590044 -0.044062767508231196 0.15970426519823866 -0.06591423042552712 -0.12366548311399897 -0.15051763312412406 -0.05852680746955423 -0.07765379688173647
-0.0200836277388638 -0.05177245896078091 0.20233593279232975 -0.05329710298647565 0.17020609976487575 -0.00605930450240413 -0.038314319595957665 -0.03406047908444432
0.0908765492514599 0.05391553836014117 0.16891334630932103 0.16390525570202627 -0.17344932589559942 0.14828604317487976 0.13697323600592218 0.011597566041391207
-0.15980624605032467 -0.026414341182975903 -0.03883022508984907 0.09330490336880021 -0.19167643864531528 -0.04041642378115262 -0.005571178797333417 -0.0860592777300031
-0.019441985899918367 0.11094076911594951 0.12659835285805532 -0.0162991200152872 -0.12587515729276552 -0.17035236543046045 -0.15168990581364575 0.1102866228544218
-0.013370751540497857 0.03478497377764035 0.09243294562682552 -0.009214179091385432 -0.1046718486034509 0.22803034903690025 0.0831767579152623 -0.027521166203706687
0.18076681398157968 -0.09053151897354453 0.10733633972337799 -0.1783222836825201 0.04031925697834019 -0.016601817037899126 0.08038947517499889 0.17340129420597417
-0.042007948857435036 -0.027837446893056228 -0.12489627217902712 -0.020685770676188018 -0.1266039650785852 -0.14115303825821587 -0.12107124279436066 0.15087726540319985
-0.07012237434047636 0.10492065935474809 -0.16223387224282243 0.13448407517908972 -0.0843649309828239 0.21901264031707 -0.12968103683859727 0.08014881942020893
00000000: db38 26dc c9e0 c5bf 2a58 e79c 3244 c0bf
00000010: 62a5 7d27 ae5f 97bf 0582 26d8 b792 b0bf
00000020: f633 f59b 697c c1bf e116 87ba 467f 9e3f
00000030: 3c59 0996 0687 c03f ba5e f855 1584 c03f
00000040: 04ff 6eab a2b1 b43f bd66 c1a3 2269 bd3f
00000050: 2e91 7714 7f05 c33f 0bd7 050f bbd0 ad3f
00000060: 46b9 48ba 0ad3 c0bf ca8f bbdf 5cc6 c03f
00000070: 6df1 7096 92f4 b23f 4c67 54c8 dab9 c13f
00000080: a90f 77a1 1aa3 ae3f 75c9 4b62 6e74 be3f
00000090: 62a3 0512 c69a c93f a35d fcef bb1c be3f
000000a0: 90f8 b9a6 73a3 b9bf 6df6 103e 461a c6bf
000000b0: 0446 0956 012e bcbf 13b6 839b 307d c1bf
000000c0: ad5f baba b211 98bf 4597 e6a3 0971 c9bf
000000d0: 71f8 1a03 161d bdbf 1a38 08e6 ae36 c7bf
000000e0: 4c40 e199 22b6 b53f 0b53 4c95 ccf7 c13f
000000f0: aacd 30dd ffa4 c63f e3e8 897e d0b3 99bf
00000100: af0e f685 9cf3 c33f ad14 6bf0 d90c c93f
00000110: 0fa7 aa1f 55c8 c6bf d489 0b03 1305 b1bf
00000120: 9fc8 d052 eedd ac3f 00ff 5957 ee46 ac3f
00000130: ea03 0e6d 5a9d 883f 7339 6150 1547 b73f
00000140: bb3e 3b2d aad4 7c3f fbb0 af53 7ad1 b7bf
00000150: 8cf3 251c c2f9 b23f 4b83 449e 0f3f c43f
00000160: e832 1af8 0bea c23f 09bc 56e5 020e c7bf
00000170: fbe2 b16a a7a7 bcbf e1b2 e925 70a4 9ebf
00000180: 648c 1695 478b c5bf 54b5 4dc2 ca4f c4bf
00000190: dd82 a9b1 cb75 9e3f 433d 7857 621c c3bf
000001a0: f416 511d 9180 9cbf 7305 3e5c 1232 a63f
000001b0: 5b9d 825e 4cda a33f 364c d21b dd09 b8bf
000001c0: 840f 75c4 0e1d b6bf 19be c2df 2c2c 93bf
000001d0: 883e c827 816a cb3f 9a44 434b c0c7 87bf
000001e0: 62b6 c703 cbae 9e3f b750 dc05 9291 7cbf
000001f0: bc30 996c dcfe 75bf 1e8f fb6d c2ad 6abf
00000200: 0368 32fd 9a13 c23f eaef da82 ed38 c33f
00000210: 3c58 debb fa17 913f ab2e 4524 bdfd b9bf
00000220: 2fce d680 467f c3bf d130 077e 52ec c53f
00000230: e462 190f 2aa9 b9bf edf3 444a f91a cb3f
00000240: 67f5 90ca 7f79 c73f 0023 7425 a65a c8bf
00000250: 36ae 42d7 fda4 c2bf 234e 846e c7f0 9a3f
00000260: bab3 c9da 3dc4 b23f 119a 84f7 27a0 ca3f
00000270: cf1c d59b 0727 c6bf 0ce3 407d 8069 bc3f
00000280: a105 4453 904a c63f 1273 0985 b519 be3f
00000290: 82da 2843 1d9e 953f 446c c0b4 a787 b3bf
000002a0: 926e 60eb d0cc c73f 9d8a 2e40 89c3 ca3f
000002b0: 4de9 d3c7 ce20 c8bf adef 6f3f 2e37 ba3f
000002c0: 9fcd febb 4ca5 82bf 96fc 4b7b 7bef a33f
000002d0: 8504 de54 67ee b43f 0b6d 9141 de2f b9bf
000002e0: d9f8 4e1e 59f8 c43f 0979 65f5 496a c1bf
000002f0: 8fba c0e0 0e56 c83f 73b3 3e31 78f5 a63f
00000300: 62fd f244 393c c13f d4e9 9124 7155 c8bf
00000310: 4785 d6a9 cffb 983f fb25 8f14 6e86 2e3f
00000320: fe10 b64e 4b8a 72bf 2994 1e2a 8608 c8bf
00000330: 39a7 20d0 0f73 c7bf 7340 eb06 aa72 c4bf
00000340: 98aa aebf 2824 a8bf a95c a2a3 f811 3e3f
00000350: b5d5 7221 ef72 ba3f 3e87 35e4 5938 71bf
00000360: baa4 306f 9277 c03f cd4f 4d13 4408 babf
00000370: 1dce 7242 75cc ab3f 0b8e 61ab 0f69 b03f
00000380: e7fc 0e06 9060 c2bf 822d b893 f625 a63f
00000390: 2565 c0fd 23d0 c4bf afb1 0c9c 24a5 c23f
000003a0: c7bd 998a f3d8 9abf d41d 2ea4 6bd4 c63f
000003b0: 4f15 2546 716a c53f 221f 624c d4c8 c7bf
000003c0: a1c4 0b4f e83a c13f 5174 c749 e4e8 b2bf
000003d0: a42a 4fb7 9c3d 9a3f 710e bc73 115e b53f
000003e0: 7007 fc12 4961 a13f 1814 15a3 e6d5 cc3f
000003f0: 3398 7d07 cbb8 c93f 5118 5376 c34e aa3f
00000400: f137 4a82 50ed c8bf 4c9c e08a 1468 babf
00000410: 064c 3aae 7353 c2bf 0e15 8d83 4c4e c33f
00000420: cc6e fdc6 a885 c03f 7daa b539 e4d6 bdbf
00000430: bdcd c372 e3f7 a93f 48df 0e8c 295f a73f
00000440: f107 56cc 9fac 673f 3126 2af4 8226 c9bf
00000450: daec 45f8 7493 903f d042 ee32 3b35 c9bf
00000460: dd5a 737f dc4c b7bf b77f c482 e0eb bd3f
00000470: 6d58 ac12 6e82 c6bf c524 fa9e a930 bd3f
00000480: 12f2 c662 35da af3f db06 4ff1 6325 a1bf
00000490: 82cc 1062 5cab c13f 1772 ad48 96c6 b8bf
000004a0: 904b c4f8 52d0 b93f 107b 68b2 df68 d03f
000004b0: 6228 2e56 0df4 c0bf 4fd5 7e36 20b0 c03f
000004c0: 57d6 332e 3fc4 b8bf 0704 da7d eb63 c4bf
000004d0: 1211 1bb4 3f52 b7bf dde7 51fd 3c7d d03f
000004e0: 7862 9e3e a016 a23f 1755 168d a20a c03f
000004f0: 63ef ef0b 35e1 c0bf 7807 f1ab e9b3 a33f
00000500: 0baf 9d6e ef3f ce3f 3b08 62d5 6f71 c0bf
00000510: 602a 1134 f921 b43f dd7f 2620 a112 acbf
00000520: be85 4693 29bd c03f 5e8f 1527 7a0a c93f
00000530: ddd9 b5b2 7f7c b3bf 430d 01eb c09e c6bf
00000540: d4a0 8aac fd2d 733f 85da 0ba0 3126 b9bf
00000550: 9e0a 61bf 36cf c53f 6d25 d47b 6da3 c83f
00000560: d13e 9c43 d7de c63f 71b5 6afd a9a0 bfbf
00000570: 9072 ea08 bdae c13f 050b e5e9 ad85 c13f
00000580: 1ad4 3a59 dcfb b5bf 9192 510f 7644 a73f
00000590: 56a8 9afc ba5a c63f 92de 7f9a ab2d 9c3f
000005a0: 3702 8af4 1510 c53f 7c42 6f10 e74f a5bf
000005b0: 6bf2 7fef f206 ae3f bc94 6586 8dba ac3f
000005c0: cc24 c085 9892 96bf da94 d622 658f a6bf
000005d0: 5471 077a 3071 c43f 0fc6 0448 c1df b0bf
000005e0: e260 9e85 8aa8 bfbf f1a5 de6b 2944 c3bf
000005f0: a6c3 0ac8 39f7 adbf c96c 0486 1ee1 b3bf
00000600: b138 4b71 cd90 94bf 66de 2374 eb81 aabf
00000610: f008 13d3 24e6 c93f 56cf 9804 c249 abbf
00000620: fff0 0840 50c9 c53f 9c0f ca2a a4d1 78bf
00000630: a129 443b ef9d a3bf 80ef 8107 6070 a1bf
00000640: 7523 027f af43 b73f 6f8e 0144 d19a ab3f
00000650: 8ed3 20d9 f39e c53f fbfc 70f0 d8fa c43f
00000660: 6a0f 1e67 9633 c6bf 4ed6 f17c 09fb c23f
00000670: 114f 89c8 5688 c13f 1447 e3f6 76c0 873f
00000680: 40c8 3df4 8774 c4bf dbe5 1a6e 5c0c 9bbf
00000690: 98e5 b625 8ee1 a3bf 0c83 8684 d4e2 b73f
000006a0: cd9b b281 da88 c8bf e0ff b824 76b1 a4bf
000006b0: 2f65 c1eb cdd1 76bf 8024 5e17 fb07 b6bf
000006c0: b311 7096 99e8 93bf 2766 253f 9d66 bc3f
000006d0: 445c a0f4 5f34 c03f 9b4c ad6d b7b0 90bf
000006e0: abc3 f959 ad1c c0bf 02f8 2837 1bce c5bf
000006f0: c52c 4d28 936a c3bf 4795 587e be3b bc3f
00000700: d10c b7e4 1f62 8bbf 32cc 8809 56cf a13f
00000710: 0c48 8a7e afa9 b73f 391c db2e e2de 82bf
00000720: a74d 9036 c6cb babf 21f2 cd35 1930 cd3f
00000730: 548a 086f 124b b53f bbb9 2b33 822e 9cbf
00000740: 5062 20f1 5d23 c73f c2a2 3fd9 122d b7bf
00000750: e1c4 c8f4 647a bb3f 2b40 48bc 43d3 c6bf
00000760: 85f2 3dc4 b9a4 a43f ea84 ed14 1100 91bf
00000770: acb8 d196 6794 b43f 1870 d97b 0332 c63f
00000780: e989 07dd 1082 a5bf 800c 0a70 6b81 9cbf
00000790: 69b7 66bc 33f9 bfbf f9e7 2f92 a62e 95bf
000007a0: bd39 c708 8f34 c0bf d368 8681 4d11 c2bf
000007b0: d8b0 4964 86fe bebf 92ee 4e3c f24f c33f
000007c0: 7c9d 8238 8af3 b1bf 6478 9a90 14dc ba3f
000007d0: fe0d cb5b 14c4 c4bf 320e 5d30 c636 c13f
000007e0: 7522 80ab f098 b5bf 4745 c92f 9b08 cc3f
000007f0: f20a 1162 6399 c0bf e209 390e a284 b43f

network.2.bias f8 [24]
-0.040239528847734886 -0.13560311667856514 0.2439336355684817 0.1766893697436806 -0.20211227015012426 0.09323592080139463 -0.03639196824604609 -0.16581361713125572
-0.09981497511441496 0.15432380572429225 -0.08488204057074221 -0.13151924647812555 0.10070551913231332 -0.1827844541280437 -0.09055653768939062 0.1873364101600844
-0.014156931530756738 0.1494959269729638 -0.16157012879256838 -0.12088552223137931 0.10420023716039374 0.03856685712061032 -0.16574397919902184 -0.04899846172183353
00000000: e59f d088 469a a4bf bf5f af63 715b c1bf
00000010: 049c 94a5 3739 cf3f 7ecb 4cdc c19d c63f
00000020: 0522 359b d0de c9bf 1f89 a72e 4fde b73f
00000030: 835d e8d2 f7a1 a2bf ebb4 676f 6139 c5bf
00000040: a978 c465 798d b9bf 7b40 4ae9 e1c0 c33f
00000050: 9fe2 4454 d4ba b5bf b584 3567 9fd5 c0bf
00000060: 6a32 333f d6c7 b93f 893c 5922 7b65 c7bf
00000070: de9e d097 b62e b7bf d469 7eb5 a3fa c73f
00000080: d690 7d2f 4ffe 8cbf 75f6 9dba ae22 c33f
00000090: f058 9679 54ae c4bf fb2c 8b84 5af2 bebf
000000a0: a9de d6e2 ddac ba3f fac5 15fc 08bf a33f
000000b0: 1098 1545 1937 c5bf 2096 4c8d 5316 a9bf

network.4.weight f8 [24, 24]
-0.04969019713612014 0.16937052913392742 -0.025276774444143918 -0.08502810120602698 0.03445535377910745 0.1012608670291895 0.17697514146549956 0.09202544487638555
-0.07068079914042862 -0.020822829975845912 0.09508660856714794 0.19575640660353363 0.07486347509280956 0.07814723219172341 -0.05985063050896281 -0.007007556553110145
0.12566809869671464 0.09476031189530976 0.12130952307314914 -0.14772608157648912 0.0337164155905026 0.045102310699673916 -0.12433217949752143 0.02296173086618667
-0.14542303910684642 0.13059629907383766 0.0036493780355733546 -0.03037440172794264 -0.16662810745392473 0.02490312363954166 0.14108219346928652 -0.14092393694924593
-0.002358215353990463 0.08666903365520451 0.09536975192211318 -0.1700564984208153 -0.14054082006583887 0.10682214247660515 0.061950780937702336 0.16825734343966742
0.13852376145711626 -0.0823770449797386 0.12459752144382813 -0.10777151834946626 -0.17473640131003373 -0.14483512575025237 -0.14573916153459834 -0.19215433655863476
0.21067225018975327 0.207576414355752 -0.13007072584476256 0.1181182632215329 0.09457125964422325 -0.142656689553514 -0.0380661878524577 -0.030931068508627355
0.13907658585290206 -0.10082790126095317 0.1042391326287294 -0.14784566573263905 -0.12065962397943912 0.09556959056251926 -0.01803908952312184 -0.0308189521364128
0.11560936252412582 0.07836964108579635 -0.18286763792058217 0.11868976689245217 -0.027128522369203018 -0.04514890927084171 0.07033094606386564 0.13470691965422354
0.15625097317114547 0.08982267001944 0.11898429684773949 0.03216249833038419 -0.15386456893036907 -0.14156145310065477 0.1935892580038726 -0.16452064734466454
-0.10227603932002463 0.0476599261470564 -0.08955779974090289 0.19246792160966436 -0.009063331450903395 0.04984278458411707 -0.10617934365413205 0.1318355822962614
-0.054929134541381375 -0.03449408798603216 0.09782803962009556 0.22783682439174757 0.015158909077284791 -0.1358657192704244 0.14155327718881777 -0.0021320917613034318
-0.019015519558378064 0.08431235128590174 -0.06462562536221185 0.04201856336156929 -0.16272177165734553 0.1006768067845674 -0.14973030934146894 -0.15212648556023362
0.011178334328154427 -0.07846617097082381 0.08409780809124956 0.004361011290256601 0.009522106210574543 0.2099847336047025 0.009414579126187405 0.12072121535864679
0.006503167601198989 -0.06814389251773671 0.08087587820781546 0.10420394644548656 0.22656690254296594 0.08117054980378155 -0.07515176764570318 0.18629916693334267
0.04879256034372216 -0.17806871609315547 0.2526708214116818 0.15961559941853132 -0.13586940165614714 0.19429945450823236 -0.07129256051070566 -0.03958455490324805
0.04753272393647418 0.09559131987923981 0.11115440431534873 -0.12839477952047415 -0.056267323564507365 0.0458781382127682 -0.11806126621104872 -0.0733228009956313
0.11231121278482374 0.1499378827640683 0.03201200204084741 0.14788472698728383 -0.010648570439209028 0.09354202357718448 0.20605920123131266 -0.04304120167216322
-0.08142975411427573 -0.056078839441358164 -0.17453718134232568 0.1178379504332051 0.10847879125681978 0.15443687416530033 0.07536932212749266 -0.15525906350728608
0.004652419806644262 0.19184455746041704 0.11486328600164383 -0.15079729191557947 -0.18588196627399395 -0.15662624868132863 -0.07336882197708272 -0.009398006469202263
-0.14266897835865433 0.07007196615835244 0.18890270804325993 -0.09440166677473316 -0.004172289747043552 -0.08261633507452176 -0.06472836718381049 -0.06324676940424326
0.009434769093640846 0.052223368398133255 0.17944651479994783 -0.0763734104638368 0.15142607146997272 -0.0671231709999563 -0.0034862010626017428 0.14219020239868438
-0.007175018246896371 0.14586576603863524 -0.1906896920974998 0.1508294395781906 0.17788362512148745 -0.18157795970312798 -0.14904223409468528 -0.18909342640171126
-0.07153121314837714 -0.1267077351973963 -0.10519588865048683 0.1264769100882435 -0.014344942627716918 0.10903811866813015 -0.1277309518197043 0.11713663631694327
-0.09316603998033988 -0.09009575551238115 0.07299277099747115 0.17768732479505514 -0.18171870991972394 0.03951963463204747 0.07463324881717631 -0.038382457863980056
0.13335417315180315 0.07159259144724288 0.14766373390210166 0.10607763924935211 -0.09001915098780999 0.10395528853106138 0.19011125177222285 0.06107817540278869
0.19437694008799336 0.06679608098180329 -0.10030060056426361 -0.07835481948466272 0.07669752946488725 -0.016540931601707724 -0.18563158387976808 0.011939269812725532
-0.025424271324298017 0.19003526322374117 -0.111784186215078 -0.10657525390858506 0.18962552854933165 -0.10515321906505937 -0.1493697323606114 -0.01577087480958479
-0.0037231440864498163 -0.09044851683072702 -0.1736446080012064 -0.10432565217747818 -0.049393661242433946 -0.19606114985696035 -0.1235135175179658 -0.12890395948363687
0.1758830756156657 -0.11494398655466692 0.1131977734572658 0.19296862261767125 -0.12198850263093787 0.06076928334357239 -0.1873081599348663 -0.024999378332007043
0.16769098579476066 -0.12973407575299667 0.15714080639362543 0.13388042518798993 0.1754963100294047 0.03010696664719407 0.06293887138678281 -0.20728102061137424
0.14710074546061452 0.1643437451491287 0.05702133831003752 0.029672175027766076 -0.18874920950274046 0.04232107653857328 0.1931996653409434 -0.022130439434171294
00000000: a54a 4357 fe70 a9bf daa9 c4f9 eead c53f
00000010: a807 589e 27e2 99bf bfbd ebd1 66c4 b5bf
00000020: 5e87 4ed3 21a4 a13f f345 4170 3bec b93f
00000030: 454f 6616 1fa7 c63f 61d8 24c4 fa8e b73f
00000040: b366 c308 2318 b2bf b694 0677 9452 95bf
00000050: 3b5d 1592 9857 b83f ab1d 2cc2 8b0e c93f
00000060: 5943 30b1 402a b33f 934f 89fe 7401 b43f
00000070: c5a8 5ce9 bda4 aebf 8714 87a3 f4b3 7cbf
00000080: 16c5 066b e415 c03f d092 8c38 3642 b83f
00000090: 71e3 4a12 240e bf3f 5f91 9130 b0e8 c2bf
000000a0: 095f 992c 4743 a13f f9b6 db6a a617 a73f
000000b0: f241 c8d4 3bd4 bfbf faf0 84ac 4783 973f
000000c0: 3540 86de 389d c2bf 2919 c028 61b7 c03f
000000d0: 776c 08ea 4ce5 6d3f 0e73 3a98 771a 9fbf
000000e0: 13f3 0de0 1154 c5bf 4d7a 6656 3480 993f
000000f0: d8cf 7f37 fb0e c23f 7ad5 35aa cb09 c2bf
00000100: aa65 503a 8951 63bf c001 2019 f12f b63f
00000110: d979 88ed 266a b83f 5947 984d 69c4 c5bf
00000120: 3fc8 f7d8 3dfd c1bf d0f8 6c28 b258 bb3f
00000130: 6f9d 2d44 03b8 af3f 9e4e b1e5 7489 c53f
00000140: 22af 9688 25bb c13f 960c 217a a916 b5bf
00000150: fc8e c387 9fe5 bf3f 0d50 c00a ea96 bbbf
00000160: cb0e 862c c35d c6bf 9c66 3418 f589 c2bf
00000170: cdce 44b2 94a7 c2bf a3e6 a667 8398 c8bf
00000180: 26af 5eec 4ef7 ca3f 6319 8a2b dd91 ca3f
00000190: 55ca d554 28a6 c0bf 1cc8 989d ff3c be3f
000001a0: 243f 5073 d235 b83f 510f 180c 9342 c2bf
000001b0: fac3 d14f 697d a3bf 5c16 b3de 64ac 9fbf
000001c0: 9453 f0f5 42cd c13f 1eab 707a dbcf b9bf
000001d0: 9792 9a71 6aaf ba3f 01a9 9655 9bec c2bf
000001e0: 2379 f092 8ce3 bebf 0a48 f5a9 3f77 b83f
000001f0: a2a8 34ce d678 92bf 766e 17de 008f 9fbf
00000200: 1a0c 273f 9398 bd3f ff76 7665 0810 b43f
00000210: 45ce 2eee 3468 c7bf 2a46 2cdb 7362 be3f
00000220: b847 7551 94c7 9bbf 6263 8901 c21d a7bf
00000230: fcb4 3d79 3501 b23f 64da 3a8b 133e c13f
00000240: c17e de29 0800 c43f d042 2c56 9efe b63f
00000250: 41d7 b23f c175 be3f ce2a f95c 9a77 a03f
00000260: 61d7 c88d d5b1 c3bf b684 b889 af1e c2bf
00000270: 9ce4 fd65 88c7 c83f c058 ee37 030f c5bf
00000280: 123e 0b34 c32e babf 9244 43c0 e166 a83f
00000290: 3c28 fd8c 42ed b6bf 52da 6bf2 c9a2 c83f
000002a0: ea3f 65c1 cb8f 82bf 31f1 7553 fe84 a93f
000002b0: 8f57 81c8 912e bbbf faad 3405 fddf c03f
000002c0: a0d7 e7e8 ab1f acbf 7157 9c87 35a9 a1bf
000002d0: 88d3 cc26 420b b93f 7c24 cbce c129 cd3f
000002e0: 82fd d655 a20b 8f3f 9efd 7442 0c64 c1bf
000002f0: c273 15f4 6a1e c23f ae3b 610c 5277 61bf
00000300: f58d 7aea cd78 93bf d7fb 6b87 7e95 b53f
00000310: 290c 6a13 4e8b b0bf e1f9 ec06 7583 a53f
00000320: 02c8 ce27 11d4 c4bf 53fd 9a88 f4c5 b93f
00000330: a5b8 ebde 5c2a c3bf 5a16 2b74 e178 c3bf
00000340: 8dc9 e7a2 aae4 863f fc7a 29e6 5b16 b4bf
00000350: b0cd 6a17 6f87 b53f 27fe e70d dadc 713f
00000360: e68e 1b76 5380 833f 78e8 be9d c7e0 ca3f
00000370: d3e1 9e6b f347 833f 3115 e6e7 95e7 be3f
00000380: a64f aec2 10a3 7a3f 632b c9cd e071 b1bf
00000390: b516 f013 48b4 b43f c6f5 181e 1cad ba3f
000003a0: 6797 63ee 2400 cd3f 8e3a ced8 97c7 b43f
000003b0: ef5e 4670 253d b3bf 9f18 a0ae a6d8 c73f
000003c0: f2c4 eda5 56fb a83f adc8 07a8 f4ca c6bf
000003d0: dd76 a73c c22b d03f 408e b7b1 486e c43f
000003e0: 64f3 5126 2b64 c1bf ef2a 5ff5 cdde c83f
000003f0: e971 d7af 3a40 b2bf dbea 7841 6d44 a4bf
00000400: 390a 988d 3556 a83f e5ad a938 ac78 b83f
00000410: a03d 5773 9d74 bc3f a33f 8279 3d6f c0bf
00000420: 5005 1615 12cf acbf 5f4e 73de 567d a73f
00000430: 7f01 4d5d 4339 bebf 62cd 5378 48c5 b2bf
00000440: cb89 e279 6dc0 bc3f 999a 731f 2a31 c33f
00000450: ff99 b08b e063 a03f b87f fe00 e3ed c23f
00000460: 21d1 48ee eace 85bf a3cf 10bc 5ef2 b73f
00000470: 0e08 2add 2560 ca3f 95fd 1f13 7f09 a6bf
00000480: 3596 d792 94d8 b4bf d0e9 cb9a 5db6 acbf
00000490: 5591 e6fe 3b57 c6bf d799 56bf a02a be3f
000004a0: 76f5 c11c 44c5 bb3f 3610 eb65 96c4 c33f
000004b0: edc5 a865 674b b33f ceef 156c 87df c3bf
000004c0: 3736 ab6e 6a0e 733f 7fa2 1aca 5c8e c83f
000004d0: 1e5e e328 ae67 bd3f dd27 8d5e 534d c3bf
000004e0: b20f 08f3 faca c7bf 3207 e433 540c c4bf
000004f0: a007 f092 4cc8 b2bf 696a 7613 433f 83bf
00000500: a821 1a22 fa42 c2bf 213c 0483 3cf0 b13f
00000510: 38f8 95c4 f62d c83f 2041 7c27 b52a b8bf
00000520: 1533 3580 f616 71bf c4ac 4219 5826 b5bf
00000530: d98d 2dcc 0992 b0bf 9a3b 2bb6 f030 b0bf
00000540: cbb7 9e45 8952 833f 22c1 b676 05bd aa3f
00000550: da35 3978 1af8 c63f d6e5 3934 358d b3bf
00000560: 5ad6 5cf4 ed61 c33f 14a6 3ff0 fb2e b1bf
00000570: ac0f a3f1 178f 6cbf 9396 8ede 4933 c23f
00000580: 027b 7f4b 8d63 7dbf 6df7 5ebb baab c23f
00000590: f61c 9f13 8568 c8bf 3f94 210b 614e c33f
000005a0: df02 3200 e4c4 c63f 31b7 4c53 f23d c7bf
000005b0: d768 94e0 d013 c3bf e957 24a1 3634 c8bf
000005c0: 6d90 1d9d de4f b2bf 8c59 6985 f537 c0bf
000005d0: 8b70 6d25 1eee babf 099a 4338 6530 c03f
000005e0: 87a2 979b e160 8dbf ae6d b211 ece9 bb3f
000005f0: 9954 60e2 7c59 c0bf 300c 25a6 aafc bd3f
00000600: 373a d0c6 bad9 b7bf 7120 6ff3 8310 b7bf
00000610: 704f 477c a7af b23f 7549 7450 75be c63f
00000620: 6098 1606 8f42 c7bf 64ca 96e4 ea3b a43f
00000630: 4c2f dd22 2a1b b33f 0b23 8892 dda6 a3bf
00000640: 4a6e 3ce2 bf11 c13f 33dc e65e e453 b23f
00000650: 4917 f52d a5e6 c23f c1b0 6977 e727 bb3f
00000660: d89e 81bd 7e0b b7bf 07b6 7c54 d09c ba3f
00000670: 0b4e 7bc4 9055 c83f 9e6a b57b a345 af3f
00000680: 4122 63f4 57e1 c83f 2c5c 5147 8c19 b13f
00000690: e952 31d7 4cad b9bf 18ad 2bbb 0f0f b4bf
000006a0: fe55 bc04 73a2 b33f f14c 1921 1bf0 90bf
000006b0: f423 ef96 c6c2 c7bf 42f9 11ab 9d73 883f
000006c0: bc30 73f7 d108 9abf f7fc 5054 1353 c83f
000006d0: b7f4 0070 e39d bcbf 3bab 190e 8448 bbbf
000006e0: 7b94 cd39 a645 c83f 181c f444 52eb babf
000006f0: 0224 c021 8c1e c3bf 335a 257e 3d26 90bf
00000700: 1efc ddc2 ff7f 6ebf 447a c24d a227 b7bf
00000710: 48f7 3e8c fc39 c6bf ab73 3c00 16b5 babf
00000720: 41f8 543f 204a a9bf 2d6e 5321 8818 c9bf
00000730: a084 5af6 949e bfbf 0450 27c9 ec7f c0bf
00000740: 0737 d82c 5683 c63f d4c8 1f17 f86c bdbf
00000750: 019e fa7e 87fa bc3f 3106 a621 32b3 c83f
00000760: 09b3 4975 a33a bfbf 97be 1fc9 261d af3f
00000770: 29db 98ba b6f9 c7bf 3eda 6ce1 6f99 99bf
00000780: 9a47 e9f1 e576 c53f 9c98 444e 209b c0bf
00000790: b6f1 29a0 301d c43f 18e5 e067 fe22 c13f
000007a0: 608e 12c0 a976 c63f cb9d 8654 5cd4 9e3f
000007b0: aadd 400a c31c b03f c9bd 4d3a 2f88 cabf
000007c0: 4e3b 7c7d 32d4 c23f 7edc 5b41 3709 c53f
000007d0: 7f78 6e9e e631 ad3f dcbb 61f5 6162 9e3f
000007e0: 4de5 fa20 ef28 c8bf 9c51 54af 1bab a53f
000007f0: 4a66 1e42 c4ba c83f cba7 76a6 5ca9 96bf

network.4.bias f8 [24]
-0.04958470099222455 -0.05723184286072238 -0.13197831103439636 0.14983785092250818 0.05455451039741828 0.08927902369846687 -0.1557559244605621 -0.11423635336955776
-0.04033404845724515 0.1849398761561093 0.0309181458582751 -0.10133264007610916 0.054079673060812836 -0.10077867163691613 -0.13320021084248823 -0.021996089818659845
-0.03384910234545716 -0.04192773035496451 0.16529251384748656 -0.09208879031770714 -0.18520696594851746 0.18718532404545304 0.09553822527788336 0.07620319205623724
00000000: 7e7e 497a 2a63 a9bf 83d3 c0fa 7d4d adbf
00000010: 3747 d650 aae4 c0bf de21 b5fe e22d c33f
00000020: 1a2d 039c 91ee ab3f 11f4 0077 fdda b63f
00000030: b5b1 db64 cfef c3bf 8a8e bcf9 973e bdbf
00000040: 190b 1416 aaa6 a4bf 3c8c e81f 1cac c73f
00000050: 99ca 41a5 01a9 9f3f 1dec 2497 eff0 b9bf
00000060: 5e60 59b6 54b0 ab3f d19b d08a a1cc b9bf
00000070: ecc3 b15a b40c c1bf 1ce3 a499 2486 96bf
00000080: 5538 2567 ab54 a1bf 9a14 572d 8d77 a5bf
00000090: 88d1 9f1a 4e28 c53f 1a25 be86 2193 b7bf
000000a0: 1bc1 dea2 dcb4 c7bf 3f7f 884e b0f5 c73f
000000b0: a01d 1671 3175 b83f 067b bb69 0d82 b33f

network.6.weight f8 [2, 24]
-0.12744925256294884 -0.11217028746744487 0.16008938406332246 0.20875692431446755 0.1543239753104367 -0.057886498902091806 0.1511596933049379 -0.03391952483410604
0.03670405851125484 -0.06496326953485299 0.2142610957445064 0.13216604785914762 -0.21120499586125202 0.07896248656085052 -0.0774163084153024 0.05998120315822698
0.04604769742325854 0.14167935458043668 -0.04403196428909271 0.07874151034246331 0.02800773225934046 0.2163747535722864 -0.018104490072241863 -0.18082341627933343
-0.07785023817838585 -0.1675294312329372 0.15118063629279732 0.22536080964735714 -0.0001380304328032541 0.07316536917907869 -0.009372326486530339 0.019553679255746432
0.11982664075232591 -0.13572650778583198 0.23572074727332165 0.07931401968933628 0.018714944578962014 -0.10192423054691575 0.06173585449317675 0.13850405720181425
0.17870594358276876 0.105237152836024 -0.13940757260777545 0.0564359367942787 -0.1304553131213454 0.10537876430778251 -0.18228022967305843 -0.01702500941064535
00000000: 4529 d4d1 4150 c0bf a26e 4124 31b7 bcbf
00000010: 7a8f 7e16 cf7d c43f 7741 5f01 8cb8 ca3f
00000020: 8338 7955 e3c0 c33f 692f 5497 4ca3 adbf
00000030: a6ea 9b69 3359 c33f 0879 b763 e65d a1bf
00000040: 0664 dfd5 dfca a23f d0ea 17ce 6ea1 b0bf
00000050: 4a8e 8357 e86c cb3f 832a 992a d1ea c03f
00000060: 0eea fcea c308 cbbf e3c2 63b1 e236 b43f
00000070: 351e d220 8ed1 b3bf 21ee e033 dbb5 ae3f
00000080: 105e fa54 9093 a73f 987e 3891 8c22 c23f
00000090: 9d59 338d 5b8b a6bf bd2e c253 6728 b43f
000000a0: 9420 5b18 0fae 9c3f 9ff2 22fd 2ab2 cb3f
000000b0: 538a 15c3 fb89 92bf 51a7 a2c1 3825 c7bf
000000c0: 2e44 f642 feed b3bf 39a8 21ba 9a71 c5bf
000000d0: a440 5518 e359 c33f 3724 9e7d 9fd8 cc3f
000000e0: c050 b563 8817 22bf b9eb d233 f7ba b23f
000000f0: 5506 fa5d cc31 83bf 75fb ad33 e105 943f
00000100: 1485 386f f5ac be3f ddf9 1178 7c5f c1bf
00000110: 5288 43f2 182c ce3f 7114 ae70 ec4d b43f
00000120: 3402 a7ab 022a 933f a574 ded4 b417 babf
00000130: bfde 1388 d79b af3f 04c6 053e 80ba c13f
00000140: d2f7 a41b d6df c63f 9a3f c171 d2f0 ba3f
00000150: 5723 957a 1bd8 c1bf 4d7b b3cd 2be5 ac3f
00000160: 040a b97b c2b2 c0bf ca12 654a 1afa ba3f
00000170: 939a 9364 f554 c7bf 6600 880a 016f 91bf

network.6.bias f8 [2]
0.05739600869318057 -0.09237439455165856
00000000: 382b 8478 0263 ad3f 0b51 962b d9a5 b7bf
