First_experiment_run_22_07_2024/TCN_no_or_nextstep_exp2.pth (torch, 30722 bytes, 52 tensors)

tcn.network.0.conv1.bias f8 [5]
00000000: c728 5a4a 4593 c53f 0146 de89 7d9c bfbf
00000010: bb1f a001 7d8f c23f 41ef ab4b 1915 b1bf
00000020: f6b6 8f06 407b c23f
0.16855684404828805 -0.12348160377430163 0.1450039155899939 -0.06672819230510375 0.14438629455928947

tcn.network.0.conv1.parametrizations.weight.original0 f8 [5, 1, 1]
00000000: f420 6460 3491 e43f a3c9 c5f3 380f e43f
00000010: d350 be00 e67e e43f 523b 9cb1 50e7 e03f
00000020: 1992 d4b2 8a14 e63f
0.6427251703871932 0.6268582116302251 0.6404905333061158 0.528236719985083 0.690007542875324

tcn.network.0.conv1.parametrizations.weight.original1 f8 [5, 3, 7]
00000000: ef02 2e54 87a5 b13f dc00 d12e c8e0 c03f
00000010: b500 03cb 43e8 bebf f3b6 9e93 3286 c13f
00000020: 74d6 c95c ae1f d03f 0818 39f9 82ba c63f
00000030: dfa5 fa4d 0958 c2bf 915c f357 8d25 b93f
00000040: 0f63 ff8a 8721 c1bf 053f 9f7a 8ca0 aa3f
00000050: f4f8 edb3 5fb9 b23f 2fd4 2e32 5467 c73f
00000060: 0251 5555 4564 c73f 063b 81fe 3ef6 c43f
00000070: e588 b3ed 3183 cd3f fc56 b7b6 23ec af3f
00000080: 7e2e e71e ac07 c43f c875 cfcf 52d3 b5bf
00000090: b713 dde9 2de8 c73f 1795 5ed2 5556 4ebf
000000a0: 36cd ba6f 2514 bbbf 702b 9fa6 0475 c8bf
000000b0: a19c 2adc 7f86 aa3f a7fe 1108 fc52 b13f
000000c0: 6eb3 ea20 787a c03f 4959 2868 e039 7e3f
000000d0: ab3a 2ae9 1fe9 b3bf 7e3d 4b04 eaff a5bf
000000e0: b40c 6843 4f34 cb3f c4c0 beb1 3c36 ba3f
000000f0: 0264 8610 1ec4 c9bf 55bb b436 efce cabf
00000100: b2b8 5695 4437 cb3f 22a8 b091 bfa7 b8bf
00000110: 79a6 456d fd4e 9d3f b8fa a42d 78da c93f
00000120: 1f7d 06cc 1183 b3bf 788f 82b3 1ef6 ba3f
00000130: bcdb 4233 e6cb a1bf 6a3e c336 74df cabf
00000140: 7ba8 fa43 6c12 bebf 33e2 0f48 70a8 bc3f
00000150: 4b6c 8707 02bd af3f c776 eb8c d4b8 c5bf
00000160: d21c 4225 b1a1 bfbf e9c8 57bd 6115 cd3f
00000170: 2065 2aba 7704 abbf 1eb2 138d b855 b8bf
00000180: e155 8602 0675 c03f bdfb 6297 bec1 9b3f
00000190: ecdf df7e 279d c13f 63b4 afcb 81a5 a9bf
000001a0: 23a7 3c92 d67a c2bf ba3d fa81 8cb3 c0bf
000001b0: 783c 5a57 b95a c23f de8c 0363 09d9 c33f
000001c0: b598 b802 3fdd c8bf 2472 10cf 8e64 b03f
000001d0: d813 19de 7d07 c63f 0d7d 5576 5c98 c53f
000001e0: 7cf6 e3c7 7039 88bf 1c39 7793 f8c3 b23f
000001f0: 1d53 41fd 2453 c13f ded0 8410 b558 a43f
00000200: d488 7c5c f07a cb3f 6ca5 d387 ba28 c8bf
00000210: 4b8c 90b6 d8b9 c3bf d27e 218f 76d8 ab3f
00000220: 7b6b fe27 604e b3bf c160 b094 b794 bbbf
00000230: 7017 b63e 5cd4 c2bf 1620 8443 1da0 c5bf
00000240: 25f1 d193 f0d2 c2bf ec37 31a1 ce78 b43f
00000250: 7911 9718 84c7 7d3f 3eb3 2df3 e93f b63f
00000260: c850 7d8b d717 c73f 59f4 ad40 0db6 b23f
00000270: a334 0b79 0f74 bb3f a8d8 62d7 ce5d b83f
00000280: a84f f5b5 f229 8fbf 3b85 4682 9aef 903f
00000290: 5776 503d 963b bfbf 1650 b27e 2556 c2bf
000002a0: def2 cbdb 0a24 b93f d8f3 42b9 4e61 c2bf
000002b0: 72dd 7307 7278 ca3f 2b88 ac6b 9a5c ce3f
000002c0: bace 9ce1 a760 af3f 4188 41fd 1dd7 87bf
000002d0: 1ee6 0591 7f99 c53f b7cf 7aa1 8785 bcbf
000002e0: c3e5 4525 a21a c2bf b338 4636 d01d c23f
000002f0: 30d3 7897 e812 c03f 3c8d 1adc a65b b6bf
00000300: 9777 6e85 5b7b c0bf dcbc 3423 6fb0 c2bf
00000310: 7a5e f2a5 168e b83f a59d ecc1 9469 c1bf
00000320: 7c1f 609d 3cab ca3f 833a 2770 ba61 b8bf
00000330: ce6a ebff 3b61 cc3f 6895 c5ed 4123 bc3f
00000340: 6cec a70e 42bb a2bf
0.06893201642197842 0.13185980115850426 -0.12073157984105161 0.13690788467413703 0.25193366109247184 0.1775668827924053 -0.14331165607045102 0.0982292499278279
-0.13383573805801816 0.052006139725220314 0.07314108031093608 0.1828408474954428 0.18274752298987812 0.16376483370773814 0.23056625467785988 0.06234847646162042
0.15648414143503325 -0.08525579045768616 0.18677305144424647 -0.0009258193065206113 -0.1057761571672032 -0.19107111106708485 0.05180739939287916 0.06767249295261966
0.12873746497407573 0.0073794141667547575 -0.07777594988349772 -0.04296809484878404 0.21253386298494592 0.10239009227257428 -0.2012975292862223 -0.20944013758841132
0.2126241425698417 -0.09630963618170132 0.028621635240972474 0.20197965840084975 -0.07621871214950147 0.10531799204414749 -0.034758752591577985 -0.20994427370031882
-0.1174686113323861 0.11194516906096723 0.06198889104754154 -0.16970307236527146 -0.1235609737360506 0.22721502061137436 -0.05276846072701802 -0.09505799717198513
0.12857127307203967 0.027106264104755463 0.13760846800846538 -0.05009084330945581 -0.14437372341608876 -0.13047939631040412 0.1433936764264876 0.1550609334436563
-0.19425189621796837 0.06403439097670877 0.17210362763049036 0.1687121942331732 -0.011828309154675802 0.07330278015362918 0.13534986844992938 0.039739282862144995
0.21468929782810753 -0.1887429393021124 -0.15410908617295357 0.05438585755541471 -0.07541466690456204 -0.10773799305059396 -0.1471057230193611 -0.1689488010090378
-0.14706237046983364 0.07996837077482127 0.007270351410117442 0.08691274821258063 0.18041509924899501 0.07309038952912895 0.10723969178362096 0.09518139608812481
-0.01521672838013173 0.016539015008338636 -0.12200297352725308 -0.14325398146013474 0.09820621362809898 -0.14359458967183403 0.20680070270439505 0.23720102555768227
0.06128430012759396 -0.011640772143611257 0.16874689656451464 -0.11141250316978711 -0.14143778629276768 0.1415348305712932 0.12557704349605947 -0.08733599542261045
-0.1287645722886139 -0.14600934237521457 0.09591809798654963 -0.1360345789810086 0.20835073170041685 -0.09524121511570098 0.22171735759805816 0.1099129872796617
-0.03658491543679862

tcn.network.0.conv2.bias f8 [5]
00000000: 089d a638 216a 8a3f 43b9 fa79 f058 973f
00000010: bede 8dfb ee17 633f de85 4d1d 9185 a2bf
00000020: 3bd2 6d02 3994 c73f
0.01289773897299408 0.02280021423819646 0.0023307483319817404 -0.03617528422070014 0.1842108976230906

tcn.network.0.conv2.parametrizations.weight.original0 f8 [5, 1, 1]
00000000: 683f 1e19 96e5 e43f a8ef 4311 5571 e53f
00000010: 7345 cca6 f26c e43f 3d76 54bb 2f9d e13f
00000020: 8158 3772 4857 e13f
0.65302567392244 0.6700845086302154 0.6382992990276491 0.5504377993381194 0.5419046622071307

tcn.network.0.conv2.parametrizations.weight.original1 f8 [5, 5, 7]
00000000: 2baa 79b7 10c0 a53f 3541 054d eedb c83f
00000010: 01ef 96c5 be8f bc3f a51e 07d9 49fc c83f
00000020: 5251 f507 39b7 b43f 6623 12a5 9345 c13f
00000030: b1cd 76f3 1e98 74bf a807 ef1d 6312 64bf
00000040: 16cd 2ae0 bd09 643f df07 85e9 620b aa3f
00000050: cbae 5cb3 4456 99bf d250 1a29 446a b4bf
00000060: 2f9a 258a 84c5 62bf 1d59 044a 1ebf babf
00000070: 9bba 8e86 29f0 b23f 0584 9b0f be1b aebf
00000080: 6adc c868 bc70 aabf 7574 932b e23d b73f
00000090: 847b bcde e761 babf d1e3 9443 95f6 a03f
000000a0: b0c2 22d2 dfa2 a13f 149a 40aa 9208 a73f
000000b0: 7824 e2e2 929c a6bf e08b c6d8 0dd6 95bf
000000c0: c474 946d ea8e 63bf b346 e969 8820 bbbf
000000d0: 1e04 8d54 b76d b03f 3f01 41ad f6e7 a73f
000000e0: 2457 b628 1983 823f c6e3 8e0f 0777 ba3f
000000f0: 2086 ec0f 2a00 a93f 8e2e 875c 076b b8bf
00000100: ade6 f8d7 7245 b83f 735d cf6e b7ea b23f
00000110: 84b3 f668 e339 b93f 1eab 3cc1 7d16 b3bf
00000120: 03cc d89e 3eb9 bebf 04de 4b9d 189b bfbf
00000130: 81a7 fff7 87cd b13f f9fe 4b3b 5a3b a13f
00000140: 0948 18c7 2c53 ab3f 65c8 86a8 e433 c93f
00000150: 0d47 e0e8 27e0 a43f 47c1 2bfe 30b6 a2bf
00000160: d2ae 5d98 1b1c a93f d9b8 d06d a816 c03f
00000170: 4fc7 9496 1d37 85bf 8e9e b7ce 41c5 96bf
00000180: 9473 bc81 a1e9 b1bf e916 b51a 9af9 b63f
00000190: e34e bed9 d314 b53f 044c 5a89 38ae c13f
000001a0: 6a73 fce0 8ca8 c53f 3f48 0e42 5df3 88bf
000001b0: ae8a 8aa0 83cb c03f 8eb8 0eae 13a3 c63f
000001c0: 1a75 04cb 3dec 9a3f 2fb1 7f44 678c bfbf
000001d0: ea9b 8237 9d2f af3f 288e 358e 02eb b0bf
000001e0: d6ec 973e 2a17 bfbf 8107 ebb1 e188 b0bf
000001f0: 9ff0 9576 caca 89bf a95a 8d9f af2c bd3f
00000200: 26ba efa0 5329 aabf a3ae 5dbd 030e c0bf
00000210: ddb0 c3a8 587f c33f 8b38 5aa7 9013 b5bf
00000220: 4a4d 7699 cb8c acbf 8f58 6417 bf6d 623f
00000230: 6af2 2878 c44a c0bf 1730 18de 8343 bd3f
00000240: 705a 70d5 7f40 ab3f 0843 aa73 c71b 82bf
00000250: aaeb 4c27 2d2b bb3f 18cf 7aff 101d c0bf
00000260: adc7 4b5f f4f3 bb3f c0b2 d5aa 1981 b8bf
00000270: 80b1 3a1b 252b bdbf 29e8 6efc 3678 9c3f
00000280: b2ed 5c7a eee0 b5bf 59a3 5ed8 5104 5bbf
00000290: b98d dce6 710e c1bf 3ccb 2f54 c9ae ba3f
000002a0: 73c1 4cbb e865 ab3f 1739 181b 1d3d bf3f
000002b0: e3a5 0dc8 86a1 b03f 8494 acf6 c11a c53f
000002c0: c13f 61ba 11e8 c0bf 1004 b4eb 2a0a c03f
000002d0: d97c 2dce 2878 ab3f d86a 1fa0 6aca c33f
000002e0: 2f73 3254 a8ae c13f 7de1 2579 5ed1 a23f
000002f0: 49ce 9b22 33bd c1bf e05d 4b49 19f5 c03f
00000300: 0aeb 7bf6 b0f3 b1bf da9c 92ed 43ac 573f
00000310: ee86 9ad7 3314 a23f 8a6f 97d9 d76a b9bf
00000320: 3d6a ca02 8b56 abbf a513 980e 75b8 c23f
00000330: bd7f e192 bef4 b9bf 8198 82ec 0e51 c33f
00000340: 47d9 727f 2724 9fbf e68b df6e 9b2f c5bf
00000350: 416d 7098 6340 913f a1a4 926d 138a c3bf
00000360: 3cb6 15e4 c796 9cbf 5ba2 75c9 cc5a a3bf
00000370: 221d d380 8810 bbbf a25e f27d 8787 c1bf
00000380: 5f79 362f dc18 c03f 2c58 aedd 3204 9ebf
00000390: 2a86 deed c5af a43f 9c2f 5879 d208 c2bf
000003a0: a531 c1a0 7711 a03f e011 8e3c 1936 b7bf
000003b0: 0407 9922 2c7b c53f d9fb a813 ecf6 ab3f
000003c0: a7bf 64ae 70ec 90bf 5774 f828 2005 b3bf
000003d0: 5612 dbf9 0375 bc3f 3bcd 7899 d6c7 be3f
000003e0: 9e2d 639a 8e02 703f f110 a9a7 6807 72bf
000003f0: 0a73 90d6 c827 ba3f 05d6 61ad 6250 bd3f
00000400: 9c6f 7926 0c5d b8bf a952 f552 e36e b6bf
00000410: d2ab 7a66 cdb9 a43f 9bcc e45a 0324 96bf
00000420: c316 1560 4841 c53f ca2e 20df b9ea 9bbf
00000430: 5070 7e93 b1d5 b03f f06f 84e9 72a2 a53f
00000440: e6a0 93dc 67bc c3bf 1aac dac5 ca4f be3f
00000450: 6568 2d12 1096 b23f 19af c8fd c691 a53f
00000460: 4988 f670 c014 b2bf ad88 c9d0 4eb5 903f
00000470: cf41 1c6e 8e79 a43f 2db8 f392 587a b23f
00000480: 151e a450 2a8e 94bf 8279 055f be8d c03f
00000490: 34de 7e24 5640 c63f ed0c 2c7a b273 a2bf
000004a0: 34b2 77cb d553 bc3f 5ece 401b ef89 b0bf
000004b0: 1268 4e09 90dc a2bf 3dd1 4a59 7069 b03f
000004c0: 2c77 f043 04dc 60bf de86 4ac9 ed62 60bf
000004d0: 3446 982a f972 8a3f 790d 0b26 730c b03f
000004e0: a162 9689 b083 b1bf 2d29 3889 fa45 b13f
000004f0: 2b2f a3c5 4f8e 923f 8486 98c3 b1ce b73f
00000500: ef14 4a37 05fb bc3f c89d fb0a 22f9 53bf
00000510: 20bc 2132 798b 98bf 2c78 261e 1fe1 a0bf
00000520: f25e c445 7346 b7bf 8263 21ed 95f1 a1bf
00000530: 0a24 1829 ec19 61bf e1e4 a758 4016 643f
00000540: 7443 36f3 f6ab bfbf faad 3fd3 72ef 763f
00000550: 0409 dee1 c111 c73f 21dc 3cb1 5e8d c13f
00000560: e694 778f 2ea9 c1bf ed54 4d36 1cce b13f
00000570: 5cc6 1593 4975 823f
0.042480966946488806 0.19421175728576548 0.11156837772335494 0.19519923302708722 0.08092075771611931 0.1349358135232947 -0.0050278862976713004 -0.0024501739385138395
0.0024460514553880193 0.05086812115270311 -0.02474315018404986 -0.07974649432646011 -0.002291449419476586 -0.10447873408370296 0.07397708449455324 -0.05880540791054759
-0.05164135722264336 0.09078801692835888 -0.10305642307183233 0.03313127946825712 0.034445757294979784 0.04498728111530084 -0.04416331309864402 -0.02132436404793825
-0.0023874834702285203 -0.10596516214107048 0.06417413534383384 0.04669161667743759 0.009039112620296282 0.10337871675336804 0.04882937855132874 -0.09538312920556732
0.09480970165977949 0.0738939900905871 0.09853955566968692 -0.07456193893146376 -0.12001410844895592 -0.12346032943957402 0.0695424061265424 0.033655948389421604
0.05336894922596975 0.19689615467865731 0.0407726737759174 -0.03654625990555132 0.04904257044731043 0.12569146501613807 -0.01035903087413073 -0.02223685096933408
-0.06997117440591999 0.08974612381015458 0.08234905305863154 0.13812929827381037 0.16920624719287086 -0.012182930544245461 0.13121075953411804 0.17685171126271765
0.026291814342688992 -0.12323613569578094 0.06091014196982043 -0.06608596774963671 -0.12144722011719308 -0.0645886477823563 -0.012593824142406894 0.11396310468021888
-0.051096547504006204 -0.12542769190200884 0.15232380142641136 -0.08232978902580805 -0.05576168297116142 0.002249596810666672 -0.12728172175583846 0.11431144878605469
0.05322646599249914 -0.008842046944921758 0.10612756928905634 -0.12588703608127427 0.10919120146334534 -0.09571991368074872 -0.11393958964135287 0.027802333028127322
-0.08546343314531304 -0.0016489791173432604 -0.13325332424675 0.1042295294317172 0.05351187979101981 0.12202627097596906 0.06496469864000391 0.16487907929073142
-0.13208219147281677 0.1253102923292606 0.05365111843888721 0.1546147615288962 0.13814262496171056 0.036753608978815834 -0.13858641805528496 0.13247982100322897
-0.07012468354870918 0.001444879852252437 0.03531038290863174 -0.09928654730123135 -0.053394645777377715 0.14625418865776144 -0.10139075361212142 0.15091120289179474
-0.030411355165335576 -0.16551535524112565 0.01684718721308554 -0.152651241781574 -0.027918933197204718 -0.03780212363455312 -0.10572102685101872 -0.1369485249494931
0.1257586699038695 -0.029312891750656586 0.040403542792102634 -0.14089423108123078 0.0313832648977013 -0.09066922882454476 0.16782142342895423 0.05461824169150704
-0.0165269476357818 -0.07429696083313907 0.11116051530832158 0.1202367901503764 0.003908688586487767 -0.0044015968401860265 0.10216956365952626 0.11450783474887068
-0.09516979159655964 -0.08762951636647166 0.040480059394517945 -0.021621754095758488 0.16605477038881675 -0.02726259636260301 0.06576070643353771 0.042255011563810174
-0.15418718595834163 0.1184050305407002 0.07260227626594114 0.04212781761120094 -0.07062914617429884 0.016316634648668216 0.03998990148659553 0.07217935168930074
-0.020073567554417766 0.12932567252842025 0.17383839399347922 -0.03603894940717987 0.1106542226550083 -0.06460470595703202 -0.036839009414691884 0.0641088693617506
-0.0020580371197088856 -0.002000297952989934 0.012914606678381714 0.06268996886051593 -0.06841567381924075 0.06747403955538252 0.018121000707466067 0.09299765610969685
0.11320526695097376 -0.0012190658998692972 -0.023969548878479796 -0.03296754115147879 -0.09091873601243686 -0.035046277233681714 -0.002087556124710681 0.0024520165218261257
-0.12371772229950101 0.0055994496687889975 0.18022941139867765 0.1371267667215941 -0.13797552113752615 0.06955124212011628 0.009012770463161228

tcn.network.0.net.0.bias f8 [5]
00000000: c728 5a4a 4593 c53f 0146 de89 7d9c bfbf
00000010: bb1f a001 7d8f c23f 41ef ab4b 1915 b1bf
00000020: f6b6 8f06 407b c23f
0.16855684404828805 -0.12348160377430163 0.1450039155899939 -0.06672819230510375 0.14438629455928947

tcn.network.0.net.0.parametrizations.weight.original0 f8 [5, 1, 1]
00000000: f420 6460 3491 e43f a3c9 c5f3 380f e43f
00000010: d350 be00 e67e e43f 523b 9cb1 50e7 e03f
00000020: 1992 d4b2 8a14 e63f
0.6427251703871932 0.6268582116302251 0.6404905333061158 0.528236719985083 0.690007542875324

tcn.network.0.net.0.parametrizations.weight.original1 f8 [5, 3, 7]
00000000: ef02 2e54 87a5 b13f dc00 d12e c8e0 c03f
00000010: b500 03cb 43e8 bebf f3b6 9e93 3286 c13f
00000020: 74d6 c95c ae1f d03f 0818 39f9 82ba c63f
00000030: dfa5 fa4d 0958 c2bf 915c f357 8d25 b93f
00000040: 0f63 ff8a 8721 c1bf 053f 9f7a 8ca0 aa3f
00000050: f4f8 edb3 5fb9 b23f 2fd4 2e32 5467 c73f
00000060: 0251 5555 4564 c73f 063b 81fe 3ef6 c43f
00000070: e588 b3ed 3183 cd3f fc56 b7b6 23ec af3f
00000080: 7e2e e71e ac07 c43f c875 cfcf 52d3 b5bf
00000090: b713 dde9 2de8 c73f 1795 5ed2 5556 4ebf
000000a0: 36cd ba6f 2514 bbbf 702b 9fa6 0475 c8bf
000000b0: a19c 2adc 7f86 aa3f a7fe 1108 fc52 b13f
000000c0: 6eb3 ea20 787a c03f 4959 2868 e039 7e3f
000000d0: ab3a 2ae9 1fe9 b3bf 7e3d 4b04 eaff a5bf
000000e0: b40c 6843 4f34 cb3f c4c0 beb1 3c36 ba3f
000000f0: 0264 8610 1ec4 c9bf 55bb b436 efce cabf
00000100: b2b8 5695 4437 cb3f 22a8 b091 bfa7 b8bf
00000110: 79a6 456d fd4e 9d3f b8fa a42d 78da c93f
00000120: 1f7d 06cc 1183 b3bf 788f 82b3 1ef6 ba3f
00000130: bcdb 4233 e6cb a1bf 6a3e c336 74df cabf
00000140: 7ba8 fa43 6c12 bebf 33e2 0f48 70a8 bc3f
00000150: 4b6c 8707 02bd af3f c776 eb8c d4b8 c5bf
00000160: d21c 4225 b1a1 bfbf e9c8 57bd 6115 cd3f
00000170: 2065 2aba 7704 abbf 1eb2 138d b855 b8bf
00000180: e155 8602 0675 c03f bdfb 6297 bec1 9b3f
00000190: ecdf df7e 279d c13f 63b4 afcb 81a5 a9bf
000001a0: 23a7 3c92 d67a c2bf ba3d fa81 8cb3 c0bf
000001b0: 783c 5a57 b95a c23f de8c 0363 09d9 c33f
000001c0: b598 b802 3fdd c8bf 2472 10cf 8e64 b03f
000001d0: d813 19de 7d07 c63f 0d7d 5576 5c98 c53f
000001e0: 7cf6 e3c7 7039 88bf 1c39 7793 f8c3 b23f
000001f0: 1d53 41fd 2453 c13f ded0 8410 b558 a43f
00000200: d488 7c5c f07a cb3f 6ca5 d387 ba28 c8bf
00000210: 4b8c 90b6 d8b9 c3bf d27e 218f 76d8 ab3f
00000220: 7b6b fe27 604e b3bf c160 b094 b794 bbbf
00000230: 7017 b63e 5cd4 c2bf 1620 8443 1da0 c5bf
00000240: 25f1 d193 f0d2 c2bf ec37 31a1 ce78 b43f
00000250: 7911 9718 84c7 7d3f 3eb3 2df3 e93f b63f
00000260: c850 7d8b d717 c73f 59f4 ad40 0db6 b23f
00000270: a334 0b79 0f74 bb3f a8d8 62d7 ce5d b83f
00000280: a84f f5b5 f229 8fbf 3b85 4682 9aef 903f
00000290: 5776 503d 963b bfbf 1650 b27e 2556 c2bf
000002a0: def2 cbdb 0a24 b93f d8f3 42b9 4e61 c2bf
000002b0: 72dd 7307 7278 ca3f 2b88 ac6b 9a5c ce3f
000002c0: bace 9ce1 a760 af3f 4188 41fd 1dd7 87bf
000002d0: 1ee6 0591 7f99 c53f b7cf 7aa1 8785 bcbf
000002e0: c3e5 4525 a21a c2bf b338 4636 d01d c23f
000002f0: 30d3 7897 e812 c03f 3c8d 1adc a65b b6bf
00000300: 9777 6e85 5b7b c0bf dcbc 3423 6fb0 c2bf
00000310: 7a5e f2a5 168e b83f a59d ecc1 9469 c1bf
00000320: 7c1f 609d 3cab ca3f 833a 2770 ba61 b8bf
00000330: ce6a ebff 3b61 cc3f 6895 c5ed 4123 bc3f
00000340: 6cec a70e 42bb a2bf
0.06893201642197842 0.13185980115850426 -0.12073157984105161 0.13690788467413703 0.25193366109247184 0.1775668827924053 -0.14331165607045102 0.0982292499278279
-0.13383573805801816 0.052006139725220314 0.07314108031093608 0.1828408474954428 0.18274752298987812 0.16376483370773814 0.23056625467785988 0.06234847646162042
0.15648414143503325 -0.08525579045768616 0.18677305144424647 -0.0009258193065206113 -0.1057761571672032 -0.19107111106708485 0.05180739939287916 0.06767249295261966
0.12873746497407573 0.0073794141667547575 -0.07777594988349772 -0.04296809484878404 0.21253386298494592 0.10239009227257428 -0.2012975292862223 -0.20944013758841132
0.2126241425698417 -0.09630963618170132 0.028621635240972474 0.20197965840084975 -0.07621871214950147 0.10531799204414749 -0.034758752591577985 -0.20994427370031882
-0.1174686113323861 0.11194516906096723 0.06198889104754154 -0.16970307236527146 -0.1235609737360506 0.22721502061137436 -0.05276846072701802 -0.09505799717198513
0.12857127307203967 0.027106264104755463 0.13760846800846538 -0.05009084330945581 -0.14437372341608876 -0.13047939631040412 0.1433936764264876 0.1550609334436563
-0.19425189621796837 0.06403439097670877 0.17210362763049036 0.1687121942331732 -0.011828309154675802 0.07330278015362918 0.13534986844992938 0.039739282862144995
0.21468929782810753 -0.1887429393021124 -0.15410908617295357 0.05438585755541471 -0.07541466690456204 -0.10773799305059396 -0.1471057230193611 -0.1689488010090378
-0.14706237046983364 0.07996837077482127 0.007270351410117442 0.08691274821258063 0.18041509924899501 0.07309038952912895 0.10723969178362096 0.09518139608812481
-0.01521672838013173 0.016539015008338636 -0.12200297352725308 -0.14325398146013474 0.09820621362809898 -0.14359458967183403 0.20680070270439505 0.23720102555768227
0.06128430012759396 -0.011640772143611257 0.16874689656451464 -0.11141250316978711 -0.14143778629276768 0.1415348305712932 0.12557704349605947 -0.08733599542261045
-0.1287645722886139 -0.14600934237521457 0.09591809798654963 -0.1360345789810086 0.20835073170041685 -0.09524121511570098 0.22171735759805816 0.1099129872796617
-0.03658491543679862

tcn.network.0.net.4.bias f8 [5]
00000000: 089d a638 216a 8a3f 43b9 fa79 f058 973f
00000010: bede 8dfb ee17 633f de85 4d1d 9185 a2bf
00000020: 3bd2 6d02 3994 c73f
0.01289773897299408 0.02280021423819646 0.0023307483319817404 -0.03617528422070014 0.1842108976230906

tcn.network.0.net.4.parametrizations.weight.original0 f8 [5, 1, 1]
00000000: 683f 1e19 96e5 e43f a8ef 4311 5571 e53f
00000010: 7345 cca6 f26c e43f 3d76 54bb 2f9d e13f
00000020: 8158 3772 4857 e13f
0.65302567392244 0.6700845086302154 0.6382992990276491 0.5504377993381194 0.5419046622071307

tcn.network.0.net.4.parametrizations.weight.original1 f8 [5, 5, 7]
00000000: 2baa 79b7 10c0 a53f 3541 054d eedb c83f
00000010: 01ef 96c5 be8f bc3f a51e 07d9 49fc c83f
00000020: 5251 f507 39b7 b43f 6623 12a5 9345 c13f
00000030: b1cd 76f3 1e98 74bf a807 ef1d 6312 64bf
00000040: 16cd 2ae0 bd09 643f df07 85e9 620b aa3f
00000050: cbae 5cb3 4456 99bf d250 1a29 446a b4bf
00000060: 2f9a 258a 84c5 62bf 1d59 044a 1ebf babf
00000070: 9bba 8e86 29f0 b23f 0584 9b0f be1b aebf
00000080: 6adc c868 bc70 aabf 7574 932b e23d b73f
00000090: 847b bcde e761 babf d1e3 9443 95f6 a03f
000000a0: b0c2 22d2 dfa2 a13f 149a 40aa 9208 a73f
000000b0: 7824 e2e2 929c a6bf e08b c6d8 0dd6 95bf
000000c0: c474 946d ea8e 63bf b346 e969 8820 bbbf
000000d0: 1e04 8d54 b76d b03f 3f01 41ad f6e7 a73f
000000e0: 2457 b628 1983 823f c6e3 8e0f 0777 ba3f
000000f0: 2086 ec0f 2a00 a93f 8e2e 875c 076b b8bf
00000100: ade6 f8d7 7245 b83f 735d cf6e b7ea b23f
00000110: 84b3 f668 e339 b93f 1eab 3cc1 7d16 b3bf
00000120: 03cc d89e 3eb9 bebf 04de 4b9d 189b bfbf
00000130: 81a7 fff7 87cd b13f f9fe 4b3b 5a3b a13f
00000140: 0948 18c7 2c53 ab3f 65c8 86a8 e433 c93f
00000150: 0d47 e0e8 27e0 a43f 47c1 2bfe 30b6 a2bf
00000160: d2ae 5d98 1b1c a93f d9b8 d06d a816 c03f
00000170: 4fc7 9496 1d37 85bf 8e9e b7ce 41c5 96bf
00000180: 9473 bc81 a1e9 b1bf e916 b51a 9af9 b63f
00000190: e34e bed9 d314 b53f 044c 5a89 38ae c13f
000001a0: 6a73 fce0 8ca8 c53f 3f48 0e42 5df3 88bf
000001b0: ae8a 8aa0 83cb c03f 8eb8 0eae 13a3 c63f
000001c0: 1a75 04cb 3dec 9a3f 2fb1 7f44 678c bfbf
000001d0: ea9b 8237 9d2f af3f 288e 358e 02eb b0bf
000001e0: d6ec 973e 2a17 bfbf 8107 ebb1 e188 b0bf
000001f0: 9ff0 9576 caca 89bf a95a 8d9f af2c bd3f
00000200: 26ba efa0 5329 aabf a3ae 5dbd 030e c0bf
00000210: ddb0 c3a8 587f c33f 8b38 5aa7 9013 b5bf
00000220: 4a4d 7699 cb8c acbf 8f58 6417 bf6d 623f
00000230: 6af2 2878 c44a c0bf 1730 18de 8343 bd3f
00000240: 705a 70d5 7f40 ab3f 0843 aa73 c71b 82bf
00000250: aaeb 4c27 2d2b bb3f 18cf 7aff 101d c0bf
00000260: adc7 4b5f f4f3 bb3f c0b2 d5aa 1981 b8bf
00000270: 80b1 3a1b 252b bdbf 29e8 6efc 3678 9c3f
00000280: b2ed 5c7a eee0 b5bf 59a3 5ed8 5104 5bbf
00000290: b98d dce6 710e c1bf 3ccb 2f54 c9ae ba3f
000002a0: 73c1 4cbb e865 ab3f 1739 181b 1d3d bf3f
000002b0: e3a5 0dc8 86a1 b03f 8494 acf6 c11a c53f
000002c0: c13f 61ba 11e8 c0bf 1004 b4eb 2a0a c03f
000002d0: d97c 2dce 2878 ab3f d86a 1fa0 6aca c33f
000002e0: 2f73 3254 a8ae c13f 7de1 2579 5ed1 a23f
000002f0: 49ce 9b22 33bd c1bf e05d 4b49 19f5 c03f
00000300: 0aeb 7bf6 b0f3 b1bf da9c 92ed 43ac 573f
00000310: ee86 9ad7 3314 a23f 8a6f 97d9 d76a b9bf
00000320: 3d6a ca02 8b56 abbf a513 980e 75b8 c23f
00000330: bd7f e192 bef4 b9bf 8198 82ec 0e51 c33f
00000340: 47d9 727f 2724 9fbf e68b df6e 9b2f c5bf
00000350: 416d 7098 6340 913f a1a4 926d 138a c3bf
00000360: 3cb6 15e4 c796 9cbf 5ba2 75c9 cc5a a3bf
00000370: 221d d380 8810 bbbf a25e f27d 8787 c1bf
00000380: 5f79 362f dc18 c03f 2c58 aedd 3204 9ebf
00000390: 2a86 deed c5af a43f 9c2f 5879 d208 c2bf
000003a0: a531 c1a0 7711 a03f e011 8e3c 1936 b7bf
000003b0: 0407 9922 2c7b c53f d9fb a813 ecf6 ab3f
000003c0: a7bf 64ae 70ec 90bf 5774 f828 2005 b3bf
000003d0: 5612 dbf9 0375 bc3f 3bcd 7899 d6c7 be3f
000003e0: 9e2d 639a 8e02 703f f110 a9a7 6807 72bf
000003f0: 0a73 90d6 c827 ba3f 05d6 61ad 6250 bd3f
00000400: 9c6f 7926 0c5d b8bf a952 f552 e36e b6bf
00000410: d2ab 7a66 cdb9 a43f 9bcc e45a 0324 96bf
00000420: c316 1560 4841 c53f ca2e 20df b9ea 9bbf
00000430: 5070 7e93 b1d5 b03f f06f 84e9 72a2 a53f
00000440: e6a0 93dc 67bc c3bf 1aac dac5 ca4f be3f
00000450: 6568 2d12 1096 b23f 19af c8fd c691 a53f
00000460: 4988 f670 c014 b2bf ad88 c9d0 4eb5 903f
00000470: cf41 1c6e 8e79 a43f 2db8 f392 587a b23f
00000480: 151e a450 2a8e 94bf 8279 055f be8d c03f
00000490: 34de 7e24 5640 c63f ed0c 2c7a b273 a2bf
000004a0: 34b2 77cb d553 bc3f 5ece 401b ef89 b0bf
000004b0: 1268 4e09 90dc a2bf 3dd1 4a59 7069 b03f
000004c0: 2c77 f043 04dc 60bf de86 4ac9 ed62 60bf
000004d0: 3446 982a f972 8a3f 790d 0b26 730c b03f
000004e0: a162 9689 b083 b1bf 2d29 3889 fa45 b13f
000004f0: 2b2f a3c5 4f8e 923f 8486 98c3 b1ce b73f
00000500: ef14 4a37 05fb bc3f c89d fb0a 22f9 53bf
00000510: 20bc 2132 798b 98bf 2c78 261e 1fe1 a0bf
00000520: f25e c445 7346 b7bf 8263 21ed 95f1 a1bf
00000530: 0a24 1829 ec19 61bf e1e4 a758 4016 643f
00000540: 7443 36f3 f6ab bfbf faad 3fd3 72ef 763f
00000550: 0409 dee1 c111 c73f 21dc 3cb1 5e8d c13f
00000560: e694 778f 2ea9 c1bf ed54 4d36 1cce b13f
00000570: 5cc6 1593 4975 823f
0.042480966946488806 0.19421175728576548 0.11156837772335494 0.19519923302708722 0.08092075771611931 0.1349358135232947 -0.0050278862976713004 -0.0024501739385138395
0.0024460514553880193 0.05086812115270311 -0.02474315018404986 -0.07974649432646011 -0.002291449419476586 -0.10447873408370296 0.07397708449455324 -0.05880540791054759
-0.05164135722264336 0.09078801692835888 -0.10305642307183233 0.03313127946825712 0.034445757294979784 0.04498728111530084 -0.04416331309864402 -0.02132436404793825
-0.0023874834702285203 -0.10596516214107048 0.06417413534383384 0.04669161667743759 0.009039112620296282 0.10337871675336804 0.04882937855132874 -0.09538312920556732
0.09480970165977949 0.0738939900905871 0.09853955566968692 -0.07456193893146376 -0.12001410844895592 -0.12346032943957402 0.0695424061265424 0.033655948389421604
0.05336894922596975 0.19689615467865731 0.0407726737759174 -0.03654625990555132 0.04904257044731043 0.12569146501613807 -0.01035903087413073 -0.02223685096933408
-0.06997117440591999 0.08974612381015458 0.08234905305863154 0.13812929827381037 0.16920624719287086 -0.012182930544245461 0.13121075953411804 0.17685171126271765
0.026291814342688992 -0.12323613569578094 0.06091014196982043 -0.06608596774963671 -0.12144722011719308 -0.0645886477823563 -0.012593824142406894 0.11396310468021888
-0.051096547504006204 -0.12542769190200884 0.15232380142641136 -0.08232978902580805 -0.05576168297116142 0.002249596810666672 -0.12728172175583846 0.11431144878605469
0.05322646599249914 -0.008842046944921758 0.10612756928905634 -0.12588703608127427 0.10919120146334534 -0.09571991368074872 -0.11393958964135287 0.027802333028127322
-0.08546343314531304 -0.0016489791173432604 -0.13325332424675 0.1042295294317172 0.05351187979101981 0.12202627097596906 0.06496469864000391 0.16487907929073142
-0.13208219147281677 0.1253102923292606 0.05365111843888721 0.1546147615288962 0.13814262496171056 0.036753608978815834 -0.13858641805528496 0.13247982100322897
-0.07012468354870918 0.001444879852252437 0.03531038290863174 -0.09928654730123135 -0.053394645777377715 0.14625418865776144 -0.10139075361212142 0.15091120289179474
-0.030411355165335576 -0.16551535524112565 0.01684718721308554 -0.152651241781574 -0.027918933197204718 -0.03780212363455312 -0.10572102685101872 -0.1369485249494931
0.1257586699038695 -0.029312891750656586 0.040403542792102634 -0.14089423108123078 0.0313832648977013 -0.09066922882454476 0.16782142342895423 0.05461824169150704
-0.0165269476357818 -0.07429696083313907 0.11116051530832158 0.1202367901503764 0.003908688586487767 -0.0044015968401860265 0.10216956365952626 0.11450783474887068
-0.09516979159655964 -0.08762951636647166 0.040480059394517945 -0.021621754095758488 0.16605477038881675 -0.02726259636260301 0.06576070643353771 0.042255011563810174
-0.15418718595834163 0.1184050305407002 0.07260227626594114 0.04212781761120094 -0.07062914617429884 0.016316634648668216 0.03998990148659553 0.07217935168930074
-0.020073567554417766 0.12932567252842025 0.17383839399347922 -0.03603894940717987 0.1106542226550083 -0.06460470595703202 -0.036839009414691884 0.0641088693617506
-0.0020580371197088856 -0.002000297952989934 0.012914606678381714 0.06268996886051593 -0.06841567381924075 0.06747403955538252 0.018121000707466067 0.09299765610969685
0.11320526695097376 -0.0012190658998692972 -0.023969548878479796 -0.03296754115147879 -0.09091873601243686 -0.035046277233681714 -0.002087556124710681 0.0024520165218261257
-0.12371772229950101 0.0055994496687889975 0.18022941139867765 0.1371267667215941 -0.13797552113752615 0.06955124212011628 0.009012770463161228

tcn.network.0.downsample.weight f8 [5, 3, 1]
00000000: 3b5a 028d c9bb a43f c731 00e5 4327 b13f
00000010: e245 c04a 2e67 ab3f 63c3 3de2 199f ad3f
00000020: ca89 c73b fb9e a53f a518 3297 ef82 a03f
00000030: 226f 5560 8da4 70bf 7b86 1410 2ca8 a03f
00000040: 1863 983d 2979 70bf afef 110e 6a4f a23f
00000050: 96fb 43b3 9b7c a53f 0c63 0704 19d7 9f3f
00000060: 1c31 b15a e651 a93f 7aa1 41f1 8254 a73f
00000070: 0f7e 8c37 a981 ad3f
0.04049520345977383 0.06700538960303169 0.05352158224571803 0.05785447012647784 0.042228556678100285 0.0322489616456079 -0.004063179255662937 0.03253305145541404
-0.004021798225516425 0.03576213285211282 0.04196631015110268 0.031093970175649452 0.0494529710491369 0.04556664652847338 0.057629859953746025

tcn.network.0.downsample.bias f8 [5]
00000000: a46d 6b93 71fd a7bf e10f 8a88 b599 de3f
00000010: cad5 b0c1 9048 d1bf a310 7228 04cd df3f
00000020: af18 31d7 bbcb d53f
-0.046855496640741096 0.47813165983120426 -0.2700540439139699 0.4968881983734354 0.34055992140600727

tcn.network.1.conv1.bias f8 [5]
00000000: de2c a34a b46b b33f 1f74 dc24 27d2 c0bf
00000010: 3e4c a73d 4cbc b7bf f3bb 717b 30a2 9cbf
00000020: e15a c1d9 2af9 b83f
0.07586218664362174 -0.13141335773335158 -0.09271694665157867 -0.027962453398171005 0.09755199257174808

tcn.network.1.conv1.parametrizations.weight.original0 f8 [5, 1, 1]
00000000: eb95 e8d4 dc92 e13f 9ef8 2c53 5cfa e13f
00000010: 6c6c 7400 4737 e33f 0db2 d198 127e e13f
00000020: b432 9bdf fa17 e43f
0.5491775663728594 0.5618116020703103 0.600497723472825 0.546639727091646 0.6279272429761336

tcn.network.1.conv1.parametrizations.weight.original1 f8 [5, 5, 7]
00000000: 90d3 15b7 345f a7bf 1a9c 5a84 86e0 af3f
00000010: bbd9 4e47 5cd0 71bf 3310 ef0c 7f84 b33f
00000020: b2e9 bac3 3f1c b7bf 2630 7f67 bb14 ac3f
00000030: 805c b248 ee66 bdbf dd4d 4f7e 8a49 5c3f
00000040: 3ae4 d4d1 3174 b0bf 2bc6 9a9e da4f b33f
00000050: c11d 3f35 5329 a63f 0465 a940 7052 b53f
00000060: 976d 3287 e5fe c1bf 1166 39d7 6580 bc3f
00000070: 274b 406d 17a3 a9bf d473 00ae f53d bf3f
00000080: dc28 e155 ce36 c2bf 13ed a4f7 a49b bebf
00000090: 4e04 0334 adf5 b6bf 8763 eb80 e0a6 963f
000000a0: 634d 0d3d 0330 b43f 3f17 4cae 3a37 b9bf
000000b0: a2f4 4a6d 89f4 64bf 8079 2b4c fb80 803f
000000c0: 7e28 fedc aa6f b93f fe02 6cdd 74dc b9bf
000000d0: 5cc1 3a8c f657 533f f162 d082 6230 c53f
000000e0: df5a f76b 546a 593f f438 ae90 9019 b53f
000000f0: df1d 3ece 867d 7abf 732f 8495 bbc5 b0bf
00000100: ac2c 0514 076c b6bf b9ad a459 2e28 ad3f
00000110: 5a3b 5738 d55b 77bf 6482 5cef 16e3 ab3f
00000120: 19f1 566b f284 a7bf e8cb e29b 7d39 bb3f
00000130: 8f1d 1484 e528 c0bf abf9 e1af 9142 afbf
00000140: 8b9e e45e 5ca2 c23f 7e5c c24b 1b3c c5bf
00000150: 8e49 8995 9694 c23f 0904 3ad5 c0ee 7cbf
00000160: 7ea8 6695 d7b3 a53f 79cb 2842 2b40 b5bf
00000170: 22ca 241d 0f7b adbf 782e 2a32 0ae8 a33f
00000180: f3d8 8483 efe3 c0bf 5f6f a2ce 8207 c23f
00000190: 333e e139 39a5 ba3f 810e 5acd b6ee bc3f
000001a0: 8a4c 62f8 97d8 bb3f 1c5b df24 9963 99bf
000001b0: a441 ca20 05a1 bcbf f328 8563 a1ac b8bf
000001c0: 82ec 7f27 e3fa 8ebf 228f 4161 12cf ab3f
000001d0: 5931 6cb8 7957 b23f a3e3 a7a4 3729 c2bf
000001e0: ee21 ad7a 9fce c4bf b61d 3cf2 0d3d b4bf
000001f0: 6393 8e21 6d83 c2bf 6513 51c5 d387 ab3f
00000200: 1266 bbc2 d8a4 a3bf ab4e bb9a f788 bb3f
00000210: 8ce5 a330 a9b2 a33f ec08 e3d6 3b65 9dbf
00000220: 8303 8c4f e285 95bf 4816 b6f9 8acc 943f
00000230: bdde f5ed e035 8e3f 23ae e034 f645 bf3f
00000240: c99c 08c7 4d16 ae3f 130a 0f2d 0d23 90bf
00000250: 5139 0dd1 0bbe 4d3f 4cbb d583 47c9 bfbf
00000260: 1478 6697 60e0 c23f eee0 d3dd 050e c43f
00000270: 2f5d abb8 175d b2bf 96bb fd69 89fe c13f
00000280: 6e94 c5da ce3d b13f d224 28f4 c814 bc3f
00000290: 0ee6 c34e 6e61 983f 9595 01fa 3ab1 c3bf
000002a0: cfca 29eb 995b b9bf bef5 cea2 1afc bb3f
000002b0: 125a 90dc 8b1f a03f d479 e664 b30b be3f
000002c0: adc2 0027 f1f7 c1bf 6449 8d71 aa12 bd3f
000002d0: 82f2 6fb5 e07f 8fbf 57ca 1ba8 4c7f a83f
000002e0: 5c9d 5b3c d4e4 b4bf 6af2 f2e3 fffb c3bf
000002f0: 667a 775a 5a09 ac3f ab05 acee 4ef4 933f
00000300: 7650 4f33 aa2e c4bf 00ac 31bb 536f c2bf
00000310: b57b 2bea 3823 c1bf 0418 a42a f511 7bbf
00000320: 858e 8e87 1cf0 be3f 82f1 a021 e08b c3bf
00000330: 2a1e 4d61 59cb bfbf bd10 2047 0a70 aa3f
00000340: 5fa9 80a8 7d84 a5bf 3279 0ab1 ecb8 c1bf
00000350: b1dd a4e8 c20d b2bf 4619 4ca5 a3da c5bf
00000360: 8df2 4338 dea0 bbbf db23 3379 ee6d c23f
00000370: 450a 3e71 bebe 9cbf 0208 07b5 b554 b2bf
00000380: 344a 8b48 fcd5 c5bf c095 6c2d 229d c13f
00000390: ea48 00cc ceb7 bcbf f640 d4b3 c845 c3bf
000003a0: 59ca af14 2180 91bf 42da 8af0 eac1 a6bf
000003b0: b6c2 6361 2cc6 6fbf 0bbc d798 cea3 ac3f
000003c0: aab8 5b86 5ed6 b6bf d499 22ac 689c b3bf
000003d0: afc7 1824 cb97 c63f 8d67 fdb0 88e9 b13f
000003e0: 16cc f633 ada4 c0bf 1c51 930c 91e6 94bf
000003f0: 89f0 1f9f 1e3e b8bf 58e8 935f 79ea a0bf
00000400: ce16 c0d5 25df b63f dd51 cc74 fbd2 aebf
00000410: 09d0 5db5 42db c2bf 0e8c 70ec a6c1 aabf
00000420: 617e 67f0 0631 b93f 1ac4 c500 b8e0 bc3f
00000430: b69b a000 5c22 943f 4b59 406d bb48 bbbf
00000440: bdd4 b144 c935 bbbf 3618 0a5f 714c c23f
00000450: 86b2 8074 72eb b93f fd6b 9ced 1bd5 a6bf
00000460: 82d1 87c9 5c58 b3bf 3a5f cdf5 b8b8 b0bf
00000470: 2c9f 8ec3 4012 b6bf 310f 1d10 a302 79bf
00000480: 86e7 a3de c0ce babf 765c 8bf4 e18d c2bf
00000490: f5ed 1528 8e69 903f 6794 e15c 739c bbbf
000004a0: bdb6 b7e5 6c72 98bf 3bcd dc14 880d 5cbf
000004b0: ea75 41d6 e70d a23f 9739 39fd a94c ca3f
000004c0: dc26 c37c 1d79 b7bf 412e 53ab 4cd4 babf
000004d0: 3fdb cb43 cc6c b3bf ccb0 e3c0 056c 60bf
000004e0: 2f56 6c0b aa92 583f c843 a00a 4342 82bf
000004f0: f08b 6307 80d7 9f3f 3e31 7a3e 5ebe b83f
00000500: 5988 c14e 2e78 bfbf ad06 d69e 8ecd b6bf
00000510: 124c 6196 7441 bbbf 9980 9ba2 6248 a13f
00000520: 5b3d 54fc 8d02 b4bf 50d9 e3da 6b07 bb3f
00000530: 1956 c149 d578 babf a85a a430 25e9 a43f
00000540: a098 bf06 cd8c a73f da52 4746 6d3b a8bf
00000550: 81fb 3d95 fea9 abbf b156 af15 df33 b0bf
00000560: 7e86 763b b2d3 b53f dd27 b686 bbcf c03f
00000570: 3ef1 9ce0 f32e c43f
-0.04564823851516231 0.062259868294226986 -0.004349098647188072 0.07624048295753098 -0.09027479675834263 0.05484567297352809 -0.11485184931585657 0.0017265179133020205
-0.06427298901407222 0.07543722507650645 0.04328403496725342 0.08328916147856452 -0.14059132672705907 0.11133419517991451 -0.050072414480516074 0.12203917978372597
-0.14229754632316982 -0.11956244512559903 -0.08968622703379589 0.02212096011030298 0.07885761490370195 -0.09849898104957065 -0.0025580104941967533 0.008058512937563433
0.09936015982944643 -0.10102014928635225 0.0011806400006371875 0.16553908717539614 0.0015512298995098912 0.08242133648147726 -0.006467367729676237 -0.06551716232587328
-0.08758587111258248 0.056947182123930636 -0.00570281304449235 0.05446693107501657 -0.045936179736118805 0.10634598785217941 -0.12624806355618687 -0.06105475685125169
0.14557985909890578 -0.16589680861645556 0.1451595525891886 -0.00706363034589775 0.04238771151297359 -0.08301039090365049 -0.05757949095495386 0.0388796983944219
-0.1319560424978544 0.1408542164762094 0.10408361113626867 0.11301748765441212 0.10877370657026311 -0.024793999553220578 -0.1118319706968181 -0.09638413123790084
-0.015126967089591273 0.05431420743187078 0.0716472697496945 -0.1418828538878901 -0.16255563249639188 -0.07905661739288558 -0.14463581217310226 0.05377065452242994
-0.038367055674552245 0.10755870368603364 0.038472449481513044 -0.028706488600399746 -0.02101853952899858 0.020311519137541617 0.014751202833152783 0.12216128149946619
0.05876391462907688 -0.01575871074215669 0.0009076650331765556 -0.12416502922654366 0.14747245209304138 0.15667794543674723 -0.07173298128633541 0.14058034587239082
0.06734936562641433 0.10969215355739273 0.023809169347236696 -0.1538461418851226 -0.0990539740685492 0.10931555247130739 0.03149067943029506 0.11736603940378326
-0.1403790893978302 0.11356606743109904 -0.015380626236941145 0.04784621765238189 -0.08161665414410407 -0.15612791662524056 0.054758857291507465 0.019486649815922224
-0.15767409806597116 -0.14402243271192106 -0.1338873999984266 -0.006608922655010122 0.12085130986684518 -0.15270616189981118 -0.1241966116477832 0.051636048490793375
-0.04202644998470605 -0.13845595020843288 -0.07052248172555299 -0.17073484011798196 -0.10792340158145404 0.14397984426457708 -0.028071380292667553 -0.07160506887069576
-0.17059281866257126 0.13760783403374255 -0.11217968445297158 -0.1505671384879929 -0.01709033669244273 -0.04444822489079005 -0.00387867610981404 0.055937248380239245
-0.08920851497871021 -0.07660536005514668 0.17650737059153473 0.06996969529191528 -0.13002553021723945 -0.02041079177145476 -0.09469787011033949 -0.03303889552803757
0.08934246510042529 -0.06020341683157302 -0.14731630187782255 -0.05225869785524405 0.09840434426541257 0.11280393618450582 0.01966232065037917 -0.10657855431813805
-0.10628946234813248 0.14295785084340346 0.10124888748459612 -0.0445946433594244 -0.07556705398730482 -0.0653186416724311 -0.08621601843207988 -0.006106030430433938
-0.10471730647614494 -0.14495491448062453 0.016027661511072783 -0.10785599725348193 -0.02387399818501622 -0.0017122105522958248 0.035262341408024714 0.20546460022383137
-0.09169182105975032 -0.10480193312394538 -0.07587887435134365 -0.002004634129766902 0.001499811228943836 -0.008915447007923918 0.031095505190830097 0.09665478730511709
-0.12292756483796675 -0.08907405259926789 -0.10646752044094424 0.033755380963840405 -0.07816398058297606 0.10558199018473613 -0.1034062676493125 0.040841257274384646
0.04599610049608427 -0.04732839091199077 -0.054031329839737026 -0.06329149512688549 0.08526147796376368 0.1313394935389728 0.15768288104471567

tcn.network.1.conv2.bias f8 [5]
00000000: 2dac 290f 0ed5 c73f 80ef 43f7 23ac c1bf
00000010: 539d ef02 56a6 c63f 7b84 6642 5606 b4bf
00000020: 0292 0ce1 97a6 b6bf
0.18618942013139997 -0.13806581090454628 0.17695117133483027 -0.07822169419388729 -0.08847951168406357

tcn.network.1.conv2.parametrizations.weight.original0 f8 [5, 1, 1]
00000000: b03c 2104 89be e13f 9781 f1fa 245d e23f
00000010: 6dd7 fc6d 6b97 e13f 2f89 1a4a 3dd3 e23f
00000020: cdd6 8a74 2461 e23f
0.5545086937580859 0.5738701726186716 0.5497338436314131 0.5882860610329653 0.5743582035272198

tcn.network.1.conv2.parametrizations.weight.original1 f8 [5, 5, 7]
00000000: 83c0 6065 8eab bd3f ff98 25c4 afd8 9d3f
00000010: 5e15 07f8 d959 c7bf 452c 27a3 4225 b9bf
00000020: 50f9 c077 1080 ae3f 65f6 f0a6 ba25 b3bf
00000030: b182 fdb0 5d62 c1bf 1d52 a38b 20c8 b53f
00000040: 8e03 66d9 8954 a8bf ac4b dfdc 90cc 093f
00000050: c4c9 1a5b 33c6 13bf 6695 565d d816 acbf
00000060: ab32 e75d adff 953f 572f 8a23 df3d 2f3f
00000070: db92 b63d be2f babf 6642 4e10 d7f4 a63f
00000080: 7eaa f595 78f4 b03f 058c 8c63 dc82 c13f
00000090: 1de2 4c41 c58d 403f 7240 2c8e d668 383f
000000a0: 97ce e5ba 7d86 bcbf c4e0 14d1 25b6 32bf
000000b0: 8174 737b 52b6 babf 6732 3098 26f6 bfbf
000000c0: 9780 86c7 5ee7 b1bf 771d 0c5a 628e b73f
000000d0: dc73 4cce c524 acbf e924 4144 6148 b1bf
000000e0: a2ec 806b e7f5 b3bf 9805 330e 517e bcbf
000000f0: 9986 b250 1855 4bbf 7742 4353 d231 c1bf
00000100: 4c05 2593 c0fd b4bf 327a db33 1f72 91bf
00000110: e1fd 6b47 054a cabf 09c5 1ca4 b176 a7bf
00000120: 4b3e 64c3 c7ab ba3f 769c 0f90 4c67 9a3f
00000130: 3407 86a8 ec63 c2bf 2891 4d0e 72ba 74bf
00000140: c9fd 1df5 5028 533f e3fb 504f 112f a03f
00000150: 0fee 70c1 db12 c3bf 6d97 7e16 5b08 bcbf
00000160: 4418 6ae2 f277 c33f c07a f3c2 5ed2 babf
00000170: ba2b e625 5da6 b8bf 272b 8191 4dc4 943f
00000180: 93e6 10a4 c7a6 af3f c8f9 569c 2163 babf
00000190: 95f5 a879 bfe1 ff3e 4149 ccb6 cd16 c4bf
000001a0: e39e e76f 5cbb c03f f6c5 3153 c12c bf3f
000001b0: 072a 73af 7dc7 a73f edb9 cf4b 0047 b43f
000001c0: 99d6 7ec7 dfc1 c33f 6599 07b8 b941 903f
000001d0: 8ed9 eeae 223c acbf eb8f 368e 3963 c3bf
000001e0: 6c51 0c00 c93f b6bf 17f4 7867 dcb1 8e3f
000001f0: 7894 a783 c713 c13f 5d5f 2bbe 8a73 c2bf
00000200: d3b3 9fe7 d826 bfbf e02e 7b9e ac36 ba3f
00000210: bbf9 ce62 197b bbbf 4eeb af9a efe7 96bf
00000220: 797a 78ed 75c9 a6bf dbe8 aa83 98df 9ebf
00000230: 9290 54fa 9178 953f 2090 a9bc 6eba 6c3f
00000240: ea54 fef9 ae97 a43f 927f b686 73a1 6b3f
00000250: 918c 8977 80b4 b5bf ac32 81a0 17de 50bf
00000260: 5aec eb8b 17b7 b0bf 386e 7359 3c70 a93f
00000270: 7afa ba5c 9879 b13f 9860 d0d5 da5d aabf
00000280: 786c a3a4 c1cf b2bf 4661 7596 1ace bdbf
00000290: 2f9c f8cd 2022 bbbf b656 eacb 3360 b03f
000002a0: 5c82 eeaf 31bf b53f e52f 01f1 fc38 a1bf
000002b0: 598e 581b 040e b1bf f186 eacc 6031 b6bf
000002c0: 87a3 a5be 3c76 c2bf 7b92 8361 17d1 a1bf
000002d0: df15 cd9d 1196 c4bf 9a58 5abf 0bfd c63f
000002e0: 1a1d 1157 200f 9dbf ef8c cf89 2df6 c1bf
000002f0: d796 0c28 16c1 8bbf 6e7e d664 e982 b63f
00000300: 29da 295d b71f a93f b3c9 f0b8 94a3 c2bf
00000310: b221 cb0a ae30 b4bf a67b 64cb 171d 87bf
00000320: 0e99 0fa0 94ef c53f 9a0d 8a17 55b5 a03f
00000330: e3a8 d5fd 5e12 b23f f6e3 932d 36f0 bfbf
00000340: 7dd1 5ff1 ec93 cb3f 22bb 04a9 984d 46bf
00000350: 7cf0 fab7 4c3d 753f c3e1 cc64 bc1d a8bf
00000360: b0db 6193 f015 babf afb2 4ee5 9247 b73f
00000370: 5a96 6f8b 979b b23f 0600 9e06 17b5 c0bf
00000380: 8e6d 61a3 f152 63bf 7d06 2bee 6f3d 793f
00000390: 68a4 cf4d c13f a73f cd8d 6760 d34f ab3f
000003a0: 6e7f 3f79 453a c53f 02eb c556 1495 b13f
000003b0: 9fdf 5e88 f304 b73f 2842 2564 0f79 c1bf
000003c0: 517a 4b0f 64b8 ac3f 750d bea4 9406 303f
000003d0: 2f64 33df 7aa3 c3bf a934 d6dd 19d1 86bf
000003e0: 6654 9799 5b27 b53f 353b c18a 4f77 c43f
000003f0: 5654 ff7d 8914 c2bf 5f0b c1f9 c7b7 a23f
00000400: 829b 984c 78dc a2bf 19a4 1207 7eff a23f
00000410: 81af c275 9365 be3f 649d bc07 0dfc bf3f
00000420: 6d46 93b9 5279 c53f 4055 5b03 b2d3 933f
00000430: 5ec2 055d 0734 bcbf 33b4 bfba b6b6 c43f
00000440: 1d40 4987 efd6 bcbf 0e7a 4cdc 3ba9 c0bf
00000450: 85a5 b85b 54f5 b6bf 710f a2f6 63c6 c2bf
00000460: cd11 fd34 b7cc 9b3f a464 de35 45a9 bb3f
00000470: b68c cc8d 403c c13f 53b2 6920 f4a4 ba3f
00000480: 942d 1864 7a47 b8bf d6d9 46a6 2aa4 7a3f
00000490: b2a4 ed64 8e50 b4bf 5fbe 9334 8397 9f3f
000004a0: 4eae f137 2f1d b8bf 9135 158e de6a bb3f
000004b0: e753 c106 a720 b9bf f047 f6e6 fdd3 bcbf
000004c0: 10cd 2b52 0342 92bf e0c6 e61a dad0 a93f
000004d0: 29a0 57cf b479 a23f b2d2 303d aa3d a03f
000004e0: 2543 6d90 f732 bdbf 2e21 40c7 1fef b33f
000004f0: c91c bae3 7863 c1bf bbbf d54d 0cf4 b93f
00000500: 010a f9a4 ccfd 8e3f 234f 6402 b0ac 943f
00000510: 2840 34b9 62ff c03f 1ae0 5cf3 654f c03f
00000520: f0d0 cb0e cb43 50bf d17c 6135 1f94 90bf
00000530: 6015 509d 1e53 5d3f 4310 ae47 2682 553f
00000540: d69d 40b7 2e0e c43f 50da f5c7 f38b b33f
00000550: e416 8f5f 2d1f bf3f bdff ef87 227b a3bf
00000560: b4fb aabe e063 c4bf 23a4 a647 2d07 8cbf
00000570: 899a b156 a2dc c1bf
0.11589899039313604 0.029146906229834176 -0.18242954836584152 -0.09822479708889016 0.05957080327833586 -0.07479445052828167 -0.13581439153769773 0.08508494767313164
-0.047519977367307495 4.920785032393819e-05 -7.543266726876054e-05 -0.05486179484732183 0.021483143669501697 0.00023835514891278983 -0.10229100233716386 0.044836731663171744
0.06623033200382086 0.13680605755607203 0.0005051816138808594 0.00037245977561984397 -0.11142717183047988 -0.0002855150533665025 -0.10434451593342155 -0.12484971251996911
-0.0699366795656736 0.09201636026783953 -0.05496805327695828 -0.06751068035477527 -0.0779709470233905 -0.11130243870413492 -0.000834118721645366 -0.13433293405116206
-0.08199695198438411 -0.017036902942772332 -0.20538393008608494 -0.04582743767094583 0.1041836597471441 0.02578467969206285 -0.143674452101601 -0.005060620814081575
0.0011692801094510422 0.031609097416086994 -0.1490130133187084 -0.10950249957258303 0.15209804587738252 -0.10477249393032206 -0.09628851104041206 0.02028008652295479
0.06181930425414097 -0.10307512347114944 3.0404880457126483e-05 -0.15694590974505654 0.13071780647373207 0.12177665978540361 0.04644387022706913 0.07920839167466172
0.15435406914700847 0.015875722749023952 -0.055146297315718504 -0.15146560138703022 -0.08691078425574056 0.014987680347184491 0.1334161179394504 -0.14415106092087174
-0.12168651251677369 0.10239676350755245 -0.10734709417645309 -0.02236914044986387 -0.04450577281771912 -0.03014982513079976 0.02096775141139113 0.003506866725091498
0.04021975328138601 0.0033728844043280993 -0.08478548925772801 -0.0010295134288923853 -0.06529376188329775 0.04968441574029864 0.06826164497304346 -0.05149730548890935
-0.0734826113652377 -0.11642614529899217 -0.10598950413314932 0.06396793106463403 0.084948640300817 -0.033637909335624085 -0.06662011783242273 -0.08669095042071341
-0.14423331555306282 -0.03479836526256449 -0.1608297367585427 0.17959734767345453 -0.028378014864100277 -0.14032525280990835 -0.013551877114490391 0.08793505393850307
0.0490701009011228 -0.145617094328896 -0.07886779559624449 -0.01128595914320647 0.17137391868090684 0.0326334563478909 0.07059282014020911 -0.12475908863770244
0.21545182977537172 -0.0006806369220039058 0.005185413057628204 -0.04710186701271681 -0.10189727400016468 0.0909358796913675 0.07268664507099612 -0.13052642653565288
-0.002358886670703781 0.006162106731325443 0.0454082877620941 0.053343396680954315 0.16584080143274654 0.06868102186664873 0.08991930083618492 -0.13650696172636967
0.056094290606541926 0.00024453286163624656 -0.15342651270364757 -0.011141016085071636 0.08263180255683408 0.1598910739434928 -0.1412517419072709 0.036558388936575474
-0.03683830199252382 0.0371055015214738 0.11873742699634528 0.12493974150549075 0.16776498853009816 0.019362241225129084 -0.11016889592225129 0.16182598227115505
-0.1126546578682341 -0.13016460663580215 -0.08968093146599727 -0.1466793970358782 0.027148115739025692 0.10805161061434149 0.1346512501123464 0.10407949248628627
-0.09484066909515426 0.006504217719728497 -0.07935419048375783 0.03085141189961715 -0.09419531932660982 0.10709944695300623 -0.09815448679849191 -0.11260973824235498
-0.017829944506002227 0.05042153910052405 0.036084795294130174 0.03172046658474893 -0.11405894542737068 0.07786749472154916 -0.13584815139276987 0.1013801279093504
0.015132521423883995 0.020190000673280594 0.13279375117463244 0.1274230421347518 -0.0009927256571105568 -0.016190040238481643 0.0017898367852933958 0.0013127683475611252
0.15668281505462173 0.07635425216526781 0.1215694769190026 -0.03804881963151228 -0.15929803190189562 -0.013685563801873418 -0.1395457194623371

tcn.network.1.net.0.bias f8 [5]
00000000: de2c a34a b46b b33f 1f74 dc24 27d2 c0bf
00000010: 3e4c a73d 4cbc b7bf f3bb 717b 30a2 9cbf
00000020: e15a c1d9 2af9 b83f
0.07586218664362174 -0.13141335773335158 -0.09271694665157867 -0.027962453398171005 0.09755199257174808

tcn.network.1.net.0.parametrizations.weight.original0 f8 [5, 1, 1]
00000000: eb95 e8d4 dc92 e13f 9ef8 2c53 5cfa e13f
00000010: 6c6c 7400 4737 e33f 0db2 d198 127e e13f
00000020: b432 9bdf fa17 e43f
0.5491775663728594 0.5618116020703103 0.600497723472825 0.546639727091646 0.6279272429761336
