First_experiment_run_22_07_2024/TCN_or_nextstep_exp2.pth (torch, 30562 bytes, 52 tensors)

tcn.network.0.conv1.bias f8 [5]
000000 3e 13 e4 d6 6d a2 d7 bf e8 3e 0b 55 4a 44 c1 bf
       -0.36928888307038565 -0.13489655640159204
000010 d3 90 74 5c 65 c9 db 3f ef 5e 49 86 6f 85 c8 bf
       0.43416723278847974 -0.1915721326538384
000020 c2 a1 cf 67 91 0c d5 bf
       -0.32889208925055524

tcn.network.0.conv1.parametrizations.weight.original0 f8 [5, 1, 1]
000000 4b 91 b5 d5 97 16 e6 3f 70 db 0d 84 95 8d e6 3f
       0.6902579473503833 0.7047832087690562
000010 ac 95 65 51 2c 1a da 3f c1 53 88 45 b9 2e e2 3f
       0.40784748028667184 0.5682035787636935
000020 0a 6e c3 65 59 82 e3 3f
       0.6096617686811794

tcn.network.0.conv1.parametrizations.weight.original1 f8 [5, 3, 7]
000000 09 57 b7 26 b9 c6 df 3f bd de 2b 90 c7 d8 91 bf
       0.4965041044318786 -0.017428510832330647
000010 5a 99 0c 84 f5 7e cd 3f d9 0b 3e 12 36 9c e1 3f
       0.23043698260989737 0.5503187519356018
000020 b9 2c 2f 1a 8f 6e e9 3f 14 87 6e d7 67 fb a3 3f
       0.794745970860638 0.03902744774610603
000030 dd 0c 26 90 8c 78 b9 3f 1f d0 bc 53 11 27 4c 3f
       0.09949568289998774 0.0008591494183520821
000040 75 e5 a4 a9 62 6b 8b 3f 97 52 e1 84 2b b9 b3 bf
       0.013388415147903324 -0.07704421991486253
000050 73 9b c6 19 05 b8 bc 3f 6e eb 68 44 b2 2f c0 3f
       0.11218292121212219 0.1264555772812303
000060 60 9d 26 86 95 bc bb 3f 2e 30 b1 34 6b a0 b1 3f
       0.10834631467024769 0.06885404621533617
000070 03 93 ce 56 14 2d de 3f d1 5b 8a 2f 13 f6 88 3f
       0.47150143124808624 0.012188100708312806
000080 8b 48 e2 09 67 40 de 3f f0 9c f6 be 23 35 e1 3f
       0.47268081631876474 0.5377367715599615
000090 c4 8a 14 01 19 57 e2 3f 14 47 42 31 b3 90 df 3f
       0.5731320401285633 0.493206785301582
0000a0 dd b2 05 32 37 e6 bd 3f 9d 66 16 73 d4 e6 e5 3f
       0.11679406138655275 0.6844274757197187
0000b0 ad cb 32 55 50 24 97 bf ed b2 d2 8a 05 93 b8 3f
       -0.02259946365365877 0.09599337233766976
0000c0 7f c1 4a 2f e6 7b e3 3f 5c 95 ff c3 95 33 cf 3f
       0.6088744090721291 0.24376174993737265
0000d0 9d 72 ba f5 ff 89 ef 3f 1e 65 76 b7 ba 65 dd 3f
       0.985595683992489 0.4593340674997125
0000e0 1e fb 27 87 82 d0 cb bf 39 20 38 21 e3 c4 ce bf
       -0.21730071639464027 -0.24038352129014287
0000f0 ff 4f 47 22 6c 94 c8 bf 3c 6b 26 04 f4 f2 b9 bf
       -0.1920294921279719 -0.10136342145271454
000100 23 08 83 ac 12 68 bb 3f 09 31 ca f2 43 86 88 3f
       0.10705677711214938 0.011974840971810357
000110 78 e3 71 cd 71 31 96 bf 3b 0f 71 d9 54 56 b7 3f
       -0.021672990955696275 0.09116106327661282
000120 26 79 6d 84 2e cf b7 bf e2 71 42 c0 cd 40 b3 3f
       -0.09300509198280746 0.07520757621609378
000130 b8 98 08 36 db 16 a9 bf e0 41 9c 9e 4e 64 c8 3f
       -0.049002504678627046 0.19056112999579877
000140 93 0f 42 47 ae b0 b3 3f 41 15 58 9b 6d c0 cf bf
       0.0769146846742486 -0.24805994115028265
000150 5f 22 29 26 d8 a8 d3 3f 37 65 af 5c a8 99 cd 3f
       0.30718044020298935 0.23125175977365028
000160 b6 56 07 ba 79 0d c3 3f 23 c9 a1 d2 11 41 c8 3f
       0.14884873946600913 0.18948576721920415
000170 83 3c 12 bf a1 50 c1 3f 5f bf c8 4f 24 05 b9 3f
       0.13527318792009532 0.09773470828872409
000180 23 2e 9e fe 3e 3d ca 3f 40 20 2a 41 e4 15 da bf
       0.20499408180727227 -0.4075861584065059
000190 4f 06 49 0d 07 a0 d4 bf 9d 53 99 df cd 4c e1 bf
       -0.3222673063029093 -0.5406255118528979
0001a0 2b 80 e0 dc 9c ed e1 bf dd 97 b8 49 a7 89 d7 bf
       -0.5602554620745698 -0.3677767009670541
0001b0 d1 1d 7f 84 66 28 c8 bf 2e 2b d7 ae c3 ac c8 bf
       -0.18873292417104762 -0.19277235066541593
0001c0 40 a2 c0 a6 1d bb a9 3f 43 e8 b6 07 a2 54 d4 3f
       0.05025570545723612 0.31766558411948526
0001d0 f2 3e cc 95 53 e8 d2 3f 19 c3 c5 89 4d c5 d2 3f
       0.29543008450217123 0.29329241232248787
0001e0 32 74 b4 3a 34 e5 cb 3f ac fc c4 66 3b 2a cd 3f
       0.21793225161028001 0.22785131948510207
0001f0 d2 9a 6f 23 1e 42 b7 3f fe a0 5d e6 4a b1 c8 bf
       0.09085262646804473 -0.19291054008795777
000200 95 ea 7f 2f 35 28 ca bf e0 79 3a 0f 42 fe 5d bf
       -0.20435204333610515 -0.0018306393730323986
000210 77 d7 ee 97 dd 1c ad bf c4 3d 70 66 66 02 c8 bf
       -0.05686085204744889 -0.18757324220540117
000220 37 6b 1c 2e 0c 20 ab bf 9f 76 4c 32 ce 65 ad 3f
       -0.052978878620896834 0.05741733898160572
000230 a1 f4 0c b1 72 fc ba bf 5b 3d 39 2b 8b b5 c1 bf
       -0.10541455099606135 -0.13835277185942627
000240 30 f8 f1 53 fe 6f c1 bf f4 0d 0f 52 ee 99 c3 3f
       -0.13623026942144767 0.15313509947564763
000250 3b e5 08 1e d6 f2 9a 3f 44 99 14 f3 29 58 cb bf
       0.026316972335029148 -0.2136280476490332
000260 90 2e 8a 72 df ca c4 bf 82 52 cb af f8 71 79 bf
       -0.16244118778955796 -0.006212207252890624
000270 34 f0 aa 5a 52 95 bf bf c1 d9 f9 05 35 24 a4 3f
       -0.12337221826140948 0.039338738421907056
000280 8a 1f 98 d3 cf 0f ba 3f de b5 0e b9 c5 02 bb 3f
       0.10180376926302706 0.10551105278019388
000290 0b 72 43 78 25 31 c0 bf 65 f0 50 2a 3f 69 81 bf
       -0.12649982807387547 -0.008501523474585502
0002a0 a0 74 52 14 f7 ec c0 bf 4d 85 d8 27 59 4d 97 3f
       -0.1322316025952306 0.022755997712129262
0002b0 40 e6 d8 e0 ce 8c b2 3f a0 37 19 81 7d 53 d5 3f
       0.07246106137690678 0.33322084052348977
0002c0 bf 04 f3 9b f3 a5 b1 bf 6a 74 6d fb 79 a0 f3 3f
       -0.06893847043376676 1.2266788312329262
0002d0 bd 91 38 d7 f3 49 92 3f 29 23 ac 94 4a e0 9a bf
       0.017860231410070194 -0.02624622852730166
0002e0 3c a7 48 da 9e e4 b4 bf 84 6d 52 86 4b b7 a7 bf
       -0.08161347226328258 -0.046320305010534774
0002f0 1c 70 5e d7 4b b1 a3 bf 40 e0 21 f0 8c a7 6c 3f
       -0.03846203807844992 0.0034978630729334548
000300 eb 4f fc 7b c0 24 ab 3f 90 93 53 1d 09 08 c2 3f
       0.05301476968284632 0.1408702271648079
000310 db 60 b7 44 79 9d 96 3f 3f 9a d1 6d e6 7d a5 bf
       0.02208508951102393 -0.04197616663514169
000320 d4 f5 02 36 90 d9 ea 3f 36 36 c7 a4 7d 7c c1 3f
       0.8390580229676581 0.13661165757950905
000330 5d 31 74 72 86 f4 ec 3f ee fc 83 b6 33 25 ce 3f
       0.9048492656161603 0.23551031505483117
000340 24 8b 48 b8 e2 e2 c7 3f
       0.18661149976932123

tcn.network.0.conv2.bias f8 [5]
000000 75 46 64 a5 ce b3 4e 3f 0b 8f 91 97 7e a4 88 3f
       0.0009369620336505251 0.012032498360162977
000010 a9 94 30 23 a0 03 bb 3f 47 52 c7 29 99 b8 80 3f
       0.10552407130360798 0.008164593303186097
000020 77 a6 fa 2a 4a 87 ae 3f
       0.059625928637001495

tcn.network.0.conv2.parametrizations.weight.original0 f8 [5, 1, 1]
000000 c2 70 7e fd 74 7e e5 3f 3c dc d2 12 72 d3 e4 3f
       0.6716866446545497 0.6508112304353584
000010 1e aa 22 55 bf 5f ef 3f 76 48 92 ca af 32 ea 3f
       0.9804379141617721 0.818687339446355
000020 49 e5 84 50 24 37 e3 3f
       0.6004811833037503

tcn.network.0.conv2.parametrizations.weight.original1 f8 [5, 5, 7]
000000 1c f2 70 7c 4f 58 ec 3f ad 02 02 16 cc d2 9d 3f
       0.885780089425285 0.02912444004369046
000010 02 f2 03 c3 63 e6 b2 3f c6 c0 9b e1 9d 44 f0 3f
       0.07382796774977154 1.0167521298244977
000020 35 f7 d5 5e bf dc f1 3f 22 09 4e 1d 9e 12 f2 3f
       1.1163934425853317 1.1295453209609794
000030 64 00 7e 4b 7c 3d b8 3f be 14 8f 60 b7 db c3 3f
       0.09468819468566064 0.15514270987310924
000040 7c 8e fa 11 2c e2 b4 bf 01 df a5 27 bc 81 b7 3f
       -0.08157611311849594 0.09182334869353427
000050 0a 2d 19 18 03 53 e8 3f 53 4b 21 23 f5 6d ea 3f
       0.7601333113356372 0.8259225546010874
000060 5d f3 f1 85 bc 9b e8 3f 87 1e 91 a3 63 be ba 3f
       0.7690107933154696 0.10446760886508787
000070 f0 ee d2 df da 35 be bf 86 b9 05 de 71 65 b1 3f
       -0.11800926174594983 0.0679541747137816
000080 02 e4 b1 93 8b e4 be bf e0 14 2d 47 b0 da bf bf
       -0.120674823339769 -0.12443067300508259
000090 c8 a4 cc bd ba 07 a6 bf f0 57 20 48 36 13 b2 bf
       -0.043027721089239857 -0.07060565243622796
0000a0 fe be 12 52 2e 01 b0 bf 45 4e e1 f1 0e 7f 57 bf
       -0.06251801971188439 -0.0014341016717666227
0000b0 7e dd 1b 48 25 86 57 bf f4 41 14 f7 94 80 57 3f
       -0.0014357914046153326 0.0014344649064846867
0000c0 46 60 4d f7 50 85 57 bf 45 4e e1 f1 0e 7f 57 bf
       -0.0014355936702568225 -0.0014341016717666227
0000d0 45 4e e1 f1 0e 7f 57 3f f4 41 14 f7 94 80 57 3f
       0.0014341016717666227 0.0014344649064846867
0000e0 4e f4 42 7e ef 86 cb 3f 87 08 ef fe a9 01 cc 3f
       0.21505540528406403 0.21880078266082512
0000f0 81 fa 97 c3 fd 4a db 3f 71 98 68 db cb db dc 3f
       0.4264521036238094 0.4509153025304676
000100 9c 30 29 92 90 cd dc 3f f8 48 54 77 7b 7a e0 3f
       0.45004667542958443 0.5149514513634861
000110 40 e2 c0 36 b8 b2 de 3f 0b 52 e2 7c f1 1c c1 bf
       0.47965817782418085 -0.13369577977995592
000120 6b e5 27 e4 bb 45 b0 3f 15 db d0 a5 1e 15 b3 3f
       0.0635640556355576 0.0745410113166652
000130 90 a4 5d e8 df 0f c1 3f 17 dd 7a dc 1b fb d0 3f
       0.13329695554719878 0.26532646685832745
000140 7f 69 c5 5a 23 53 b3 3f 71 e4 03 16 d0 48 be 3f
       0.07548733678905782 0.11829853570442751
000150 17 36 31 c2 22 9f bb bf 8e df 5e 49 8c 95 e4 3f
       -0.10789696923276214 0.6432553704280382
000160 92 54 67 2d 44 00 a7 bf 02 71 1c d7 e6 ee d5 3f
       -0.04492390684360105 0.34270640379851625
000170 5c c0 a2 6d b1 cb e3 3f 78 da 42 59 44 9a e9 3f
       0.6186148778269955 0.8000814193135986
000180 23 23 8f 3f 1b 09 f0 3f 02 20 e6 92 88 b8 e8 3f
       1.002223251607753 0.7725260609740874
000190 fc f9 33 d3 c1 18 e2 3f 82 a6 0e e4 ee b7 e0 3f
       0.5655221104678385 0.5224527792208422
0001a0 ff 24 1d 53 58 62 e5 3f 16 29 d0 67 9e ce e3 3f
       0.6682550071065235 0.6189720180130134
0001b0 5f 6b fc 13 f8 7d df 3f 0b 46 d8 4d 9d e0 d7 3f
       0.4920635409522926 0.373084379215556
0001c0 6d cb 04 db 23 b1 50 3f 6d cb 04 db 23 b1 50 bf
       0.0010187959815765827 -0.0010187959815765827
0001d0 6d cb 04 db 23 b1 50 bf 6d cb 04 db 23 b1 50 bf
       -0.0010187959815765827 -0.0010187959815765827
0001e0 6d cb 04 db 23 b1 50 bf 6d cb 04 db 23 b1 50 3f
       -0.0010187959815765827 0.0010187959815765827
0001f0 6d cb 04 db 23 b1 50 bf d3 2e e3 c5 6a 04 a4 3f
       -0.0010187959815765827 0.03909619966142732
000200 27 c8 3f 07 5b d5 7e bf 4d c0 28 b1 4c a9 bb 3f
       -0.007527690486300676 0.10805205655265233
000210 7e 19 e1 37 a6 d0 d0 3f bb c5 53 cc 75 b0 c3 3f
       0.26273494202577996 0.15382263638416113
000220 80 ee ef fe b6 8d d9 3f 9f 46 71 e1 e5 53 9d bf
       0.39927458664144666 -0.02864035786143992
000230 e9 ff 4e 6a b4 54 cd 3f 08 cb f6 4a 47 f0 c1 3f
       0.22914748373841512 0.14014521751740738
000240 c0 5c 5d bc 51 65 bb 3f 3f b5 a7 eb 78 c7 96 bf
       0.10701475952861284 -0.022245301612135334
000250 82 e3 b0 f7 4b 85 d1 bf b4 97 1b 5a 83 39 d7 bf
       -0.2737607878548759 -0.3628853206595253
000260 6d 3b 99 2b 33 ba b2 bf 11 54 cc cc 59 99 b1 3f
       -0.07315368475359003 0.0687461972232344
000270 2a c6 0c a4 c5 3c b8 3f 34 cb 01 31 3b d1 b6 3f
       0.09467730765461427 0.0891301149984372
000280 36 88 50 6c 76 37 84 bf 6c cd c4 36 e4 69 c1 3f
       -0.00987141149568425 0.13604405092483363
000290 00 87 3d c8 30 7b d2 3f a4 cd 33 c7 73 b8 e4 3f
       0.28876895479889697 0.6475161448164966
0002a0 38 25 9c 29 b9 10 d4 3f 93 8f 6d be 75 34 ed 3f
       0.31352070868941295 0.9126538008972481
0002b0 52 9d 9f 30 40 01 e8 3f f1 8b df 77 24 6e d8 3f
       0.7501526784589407 0.381722561896992
0002c0 82 5f e7 62 23 7f f7 3f 84 60 1b 0f 50 cd f4 3f
       1.4685396064214449 1.300125178348055
0002d0 5a 6a 11 ee f3 4b da 3f 68 96 bc 33 ec d7 71 3f
       0.4108857941516014 0.004356310524405417
0002e0 78 7d ef ae 4f 0c 71 bf 49 3d d8 dd a0 2e 5b 3f
       -0.00416213156037714 0.0016590662920668733
0002f0 7e bb 74 3f c4 bb 71 bf 88 da db c6 8e 85 41 3f
       -0.004329458802472595 0.0005347201492601076
000300 98 ee e0 9f 9f b1 71 3f d5 db be 9f 91 26 38 bf
       0.004319785626701787 -0.0003685098197325186
000310 8c 71 40 58 f4 24 b0 3f 51 7b b6 58 40 a0 be 3f
       0.0630638804872829 0.11963274160232841
000320 00 15 3c fc 22 dc 8b 3f b8 81 37 91 ae ba c9 bf
       0.013603471109954857 -0.20100957956948462
000330 5b c4 ec 9d cf 4d d1 bf 0b 53 c3 06 7f 8d d5 bf
       -0.2703742067561216 -0.3367612424893173
000340 e9 47 0b 7e 06 11 be bf c4 51 17 98 2a b6 c7 bf
       -0.11744728638885217 -0.18524677683184454
000350 b5 68 0e b2 21 1f a8 bf d2 d5 6e 06 c7 c0 c1 bf
       -0.04711251543558729 -0.13869560064419645
000360 80 8e c2 d8 b0 6a b0 3f d9 cc 83 df 81 56 b3 bf
       0.06412797252647273 -0.07553874689965613
000370 50 83 71 74 56 b9 a3 bf 7f 22 4a 3a 0b 50 c1 bf
       -0.03852338954380363 -0.13525524469539005
000380 ee e1 89 34 5e 25 c6 bf 3d fd f8 5d 88 b1 c5 bf
       -0.1730153805290366 -0.16948036755091236
000390 6d 01 78 de f5 68 c8 bf b0 29 03 51 c1 c9 c6 bf
       -0.19070313799603458 -0.17803207832032575
0003a0 aa 04 fa af 6b f5 c5 bf c9 b8 ef fe 5e a9 ca bf
       -0.1715521439801127 -0.2082937950903612
0003b0 89 c5 69 8e 0b 94 c7 bf 74 a2 00 22 2d 58 c9 3f
       -0.18420547918098532 0.19800342712666785
0003c0 7a 1a a3 c6 85 e7 c3 3f 8d e9 fd 8d 43 66 bc 3f
       0.15550300788000354 0.1109354230556276
0003d0 64 03 33 01 ee c8 c8 3f 8a 22 f3 e0 26 7f b6 3f
       0.19363188799436692 0.08787768356263306
0003e0 a8 cc da b3 d8 c9 c3 3f 2b 59 09 f7 c3 11 a2 3f
       0.15459736616103226 0.03529178991873246
0003f0 04 5a 40 06 85 6f 66 3f 3a 50 62 e8 ba e5 63 3f
       0.0027387235768501234 0.0024288797895426735
000400 6a 02 8c b1 9d d6 5a bf 21 f9 bc 24 ec 93 5d bf
       -0.0016380825019838515 -0.0018052869881582461
000410 09 a6 36 51 ec fb 5a bf d3 c2 bd bf ad 4f 61 3f
       -0.0016469772134349878 0.002113189080710101
000420 f5 44 e9 1a 68 71 66 bf fc cf fa 64 87 09 c7 bf
       -0.002739623384777285 -0.17997829847956825
000430 6c 2e a5 ce 5e 03 92 bf 9e 5a f4 f3 ee a0 b0 bf
       -0.017590981829285132 -0.0649556489555416
000440 f4 ab 96 ab ac fa b1 bf eb 33 9a 3e 6c f7 c0 bf
       -0.07023123921560154 -0.13255074555163956
000450 b8 8e 64 f1 03 86 c7 bf d6 9f 4d f3 2b bd cb bf
       -0.1837773255039019 -0.21671056156196639
000460 c3 c8 71 b3 04 f5 b7 3f 34 b6 ae db 6c f6 a9 3f
       0.09358243351906297 0.05070820027991055
000470 38 d8 91 7a fc f6 be bf 22 bf 2c 58 4d e5 bb bf
       -0.12095621101784182 -0.10896762278275365
000480 4c c4 7c b2 70 47 c2 3f 2b cf 8c a9 75 8e bd 3f
       0.1428051826019633 0.11545501126675776
000490 dd e0 ab 47 7c 9b ba 3f e4 b7 1f e3 2e be b0 bf
       0.10393501996793782 -0.06540196461693842
0004a0 60 75 e1 ca c0 0b b9 3f 91 e1 68 9d 44 ae c0 3f
       0.0978355880083277 0.1303182381250392
0004b0 24 24 28 9b 49 fb bb 3f f9 99 a7 31 a8 0b ba 3f
       0.10930309331901406 0.10174037182114394
0004c0 b5 3d 74 e3 ae b6 bf bf a3 31 06 51 6b 21 80 3f
       -0.12388127377584264 0.007876242075121115
0004d0 ed 49 8e 2c 99 c1 b2 bf f9 1a 27 b0 19 ad c4 3f
       -0.07326657617367234 0.16153260327538257
0004e0 a6 2e 1c d5 05 81 bc 3f 44 c2 70 f0 1a f5 a6 bf
       0.11134373143084506 -0.04483875451149236
0004f0 2c 15 77 14 14 68 c6 bf f8 8d 81 f4 f7 56 a7 3f
       -0.17505122184062694 0.04558539256757038
000500 23 00 cb 97 40 54 bf bf 62 dd 4f 77 4f 5d 70 bf
       -0.12237933832057073 -0.003995237745577059
000510 60 c8 80 45 91 16 c6 bf 4b 3e cc 64 19 ff 8d 3f
       -0.17256370443061808 0.014646719349484935
000520 c5 28 3f 97 4b 42 b8 3f 44 5e 92 52 f3 e5 c3 bf
       0.09476158564135335 -0.15545503169845365
000530 3c af fd 03 21 cb a5 bf cc 46 78 7b 92 45 ac 3f
       -0.04256537603109087 0.05521829373550488
000540 8b da 09 df 60 f3 bb bf 95 ff 43 3f bd 1c b0 3f
       -0.10918240971828135 0.06293852610178725
000550 e3 85 41 03 35 f7 60 3f be 11 3f ee be b9 a0 3f
       0.0020710025219592295 0.032667128165062106
000560 df a1 d6 d3 dd 8d c1 bf 60 c1 36 09 3b c4 bf bf
       -0.13714192241356124 -0.12408799147556726
000570 c2 73 29 93 54 13 c6 bf
       -0.17246491609230757

tcn.network.0.net.0.bias f8 [5]
000000 3e 13 e4 d6 6d a2 d7 bf e8 3e 0b 55 4a 44 c1 bf
       -0.36928888307038565 -0.13489655640159204
000010 d3 90 74 5c 65 c9 db 3f ef 5e 49 86 6f 85 c8 bf
       0.43416723278847974 -0.1915721326538384
000020 c2 a1 cf 67 91 0c d5 bf
       -0.32889208925055524

tcn.network.0.net.0.parametrizations.weight.original0 f8 [5, 1, 1]
000000 4b 91 b5 d5 97 16 e6 3f 70 db 0d 84 95 8d e6 3f
       0.6902579473503833 0.7047832087690562
000010 ac 95 65 51 2c 1a da 3f c1 53 88 45 b9 2e e2 3f
       0.40784748028667184 0.5682035787636935
000020 0a 6e c3 65 59 82 e3 3f
       0.6096617686811794

tcn.network.0.net.0.parametrizations.weight.original1 f8 [5, 3, 7]
000000 09 57 b7 26 b9 c6 df 3f bd de 2b 90 c7 d8 91 bf
       0.4965041044318786 -0.017428510832330647
000010 5a 99 0c 84 f5 7e cd 3f d9 0b 3e 12 36 9c e1 3f
       0.23043698260989737 0.5503187519356018
000020 b9 2c 2f 1a 8f 6e e9 3f 14 87 6e d7 67 fb a3 3f
       0.794745970860638 0.03902744774610603
000030 dd 0c 26 90 8c 78 b9 3f 1f d0 bc 53 11 27 4c 3f
       0.09949568289998774 0.0008591494183520821
000040 75 e5 a4 a9 62 6b 8b 3f 97 52 e1 84 2b b9 b3 bf
       0.013388415147903324 -0.07704421991486253
000050 73 9b c6 19 05 b8 bc 3f 6e eb 68 44 b2 2f c0 3f
       0.11218292121212219 0.1264555772812303
000060 60 9d 26 86 95 bc bb 3f 2e 30 b1 34 6b a0 b1 3f
       0.10834631467024769 0.06885404621533617
000070 03 93 ce 56 14 2d de 3f d1 5b 8a 2f 13 f6 88 3f
       0.47150143124808624 0.012188100708312806
000080 8b 48 e2 09 67 40 de 3f f0 9c f6 be 23 35 e1 3f
       0.47268081631876474 0.5377367715599615
000090 c4 8a 14 01 19 57 e2 3f 14 47 42 31 b3 90 df 3f
       0.5731320401285633 0.493206785301582
0000a0 dd b2 05 32 37 e6 bd 3f 9d 66 16 73 d4 e6 e5 3f
       0.11679406138655275 0.6844274757197187
0000b0 ad cb 32 55 50 24 97 bf ed b2 d2 8a 05 93 b8 3f
       -0.02259946365365877 0.09599337233766976
0000c0 7f c1 4a 2f e6 7b e3 3f 5c 95 ff c3 95 33 cf 3f
       0.6088744090721291 0.24376174993737265
0000d0 9d 72 ba f5 ff 89 ef 3f 1e 65 76 b7 ba 65 dd 3f
       0.985595683992489 0.4593340674997125
0000e0 1e fb 27 87 82 d0 cb bf 39 20 38 21 e3 c4 ce bf
       -0.21730071639464027 -0.24038352129014287
0000f0 ff 4f 47 22 6c 94 c8 bf 3c 6b 26 04 f4 f2 b9 bf
       -0.1920294921279719 -0.10136342145271454
000100 23 08 83 ac 12 68 bb 3f 09 31 ca f2 43 86 88 3f
       0.10705677711214938 0.011974840971810357
000110 78 e3 71 cd 71 31 96 bf 3b 0f 71 d9 54 56 b7 3f
       -0.021672990955696275 0.09116106327661282
000120 26 79 6d 84 2e cf b7 bf e2 71 42 c0 cd 40 b3 3f
       -0.09300509198280746 0.07520757621609378
000130 b8 98 08 36 db 16 a9 bf e0 41 9c 9e 4e 64 c8 3f
       -0.049002504678627046 0.19056112999579877
000140 93 0f 42 47 ae b0 b3 3f 41 15 58 9b 6d c0 cf bf
       0.0769146846742486 -0.24805994115028265
000150 5f 22 29 26 d8 a8 d3 3f 37 65 af 5c a8 99 cd 3f
       0.30718044020298935 0.23125175977365028
000160 b6 56 07 ba 79 0d c3 3f 23 c9 a1 d2 11 41 c8 3f
       0.14884873946600913 0.18948576721920415
000170 83 3c 12 bf a1 50 c1 3f 5f bf c8 4f 24 05 b9 3f
       0.13527318792009532 0.09773470828872409
000180 23 2e 9e fe 3e 3d ca 3f 40 20 2a 41 e4 15 da bf
       0.20499408180727227 -0.4075861584065059
000190 4f 06 49 0d 07 a0 d4 bf 9d 53 99 df cd 4c e1 bf
       -0.3222673063029093 -0.5406255118528979
0001a0 2b 80 e0 dc 9c ed e1 bf dd 97 b8 49 a7 89 d7 bf
       -0.5602554620745698 -0.3677767009670541
0001b0 d1 1d 7f 84 66 28 c8 bf 2e 2b d7 ae c3 ac c8 bf
       -0.18873292417104762 -0.19277235066541593
0001c0 40 a2 c0 a6 1d bb a9 3f 43 e8 b6 07 a2 54 d4 3f
       0.05025570545723612 0.31766558411948526
0001d0 f2 3e cc 95 53 e8 d2 3f 19 c3 c5 89 4d c5 d2 3f
       0.29543008450217123 0.29329241232248787
0001e0 32 74 b4 3a 34 e5 cb 3f ac fc c4 66 3b 2a cd 3f
       0.21793225161028001 0.22785131948510207
0001f0 d2 9a 6f 23 1e 42 b7 3f fe a0 5d e6 4a b1 c8 bf
       0.09085262646804473 -0.19291054008795777
000200 95 ea 7f 2f 35 28 ca bf e0 79 3a 0f 42 fe 5d bf
       -0.20435204333610515 -0.0018306393730323986
000210 77 d7 ee 97 dd 1c ad bf c4 3d 70 66 66 02 c8 bf
       -0.05686085204744889 -0.18757324220540117
000220 37 6b 1c 2e 0c 20 ab bf 9f 76 4c 32 ce 65 ad 3f
       -0.052978878620896834 0.05741733898160572
000230 a1 f4 0c b1 72 fc ba bf 5b 3d 39 2b 8b b5 c1 bf
       -0.10541455099606135 -0.13835277185942627
000240 30 f8 f1 53 fe 6f c1 bf f4 0d 0f 52 ee 99 c3 3f
       -0.13623026942144767 0.15313509947564763
000250 3b e5 08 1e d6 f2 9a 3f 44 99 14 f3 29 58 cb bf
       0.026316972335029148 -0.2136280476490332
000260 90 2e 8a 72 df ca c4 bf 82 52 cb af f8 71 79 bf
       -0.16244118778955796 -0.006212207252890624
000270 34 f0 aa 5a 52 95 bf bf c1 d9 f9 05 35 24 a4 3f
       -0.12337221826140948 0.039338738421907056
000280 8a 1f 98 d3 cf 0f ba 3f de b5 0e b9 c5 02 bb 3f
       0.10180376926302706 0.10551105278019388
000290 0b 72 43 78 25 31 c0 bf 65 f0 50 2a 3f 69 81 bf
       -0.12649982807387547 -0.008501523474585502
0002a0 a0 74 52 14 f7 ec c0 bf 4d 85 d8 27 59 4d 97 3f
       -0.1322316025952306 0.022755997712129262
0002b0 40 e6 d8 e0 ce 8c b2 3f a0 37 19 81 7d 53 d5 3f
       0.07246106137690678 0.33322084052348977
0002c0 bf 04 f3 9b f3 a5 b1 bf 6a 74 6d fb 79 a0 f3 3f
       -0.06893847043376676 1.2266788312329262
0002d0 bd 91 38 d7 f3 49 92 3f 29 23 ac 94 4a e0 9a bf
       0.017860231410070194 -0.02624622852730166
0002e0 3c a7 48 da 9e e4 b4 bf 84 6d 52 86 4b b7 a7 bf
       -0.08161347226328258 -0.046320305010534774
0002f0 1c 70 5e d7 4b b1 a3 bf 40 e0 21 f0 8c a7 6c 3f
       -0.03846203807844992 0.0034978630729334548
000300 eb 4f fc 7b c0 24 ab 3f 90 93 53 1d 09 08 c2 3f
       0.05301476968284632 0.1408702271648079
000310 db 60 b7 44 79 9d 96 3f 3f 9a d1 6d e6 7d a5 bf
       0.02208508951102393 -0.04197616663514169
000320 d4 f5 02 36 90 d9 ea 3f 36 36 c7 a4 7d 7c c1 3f
       0.8390580229676581 0.13661165757950905
000330 5d 31 74 72 86 f4 ec 3f ee fc 83 b6 33 25 ce 3f
       0.9048492656161603 0.23551031505483117
000340 24 8b 48 b8 e2 e2 c7 3f
       0.18661149976932123

tcn.network.0.net.4.bias f8 [5]
000000 75 46 64 a5 ce b3 4e 3f 0b 8f 91 97 7e a4 88 3f
       0.0009369620336505251 0.012032498360162977
000010 a9 94 30 23 a0 03 bb 3f 47 52 c7 29 99 b8 80 3f
       0.10552407130360798 0.008164593303186097
000020 77 a6 fa 2a 4a 87 ae 3f
       0.059625928637001495

tcn.network.0.net.4.parametrizations.weight.original0 f8 [5, 1, 1]
000000 c2 70 7e fd 74 7e e5 3f 3c dc d2 12 72 d3 e4 3f
       0.6716866446545497 0.6508112304353584
000010 1e aa 22 55 bf 5f ef 3f 76 48 92 ca af 32 ea 3f
       0.9804379141617721 0.818687339446355
000020 49 e5 84 50 24 37 e3 3f
       0.6004811833037503

tcn.network.0.net.4.parametrizations.weight.original1 f8 [5, 5, 7]
000000 1c f2 70 7c 4f 58 ec 3f ad 02 02 16 cc d2 9d 3f
       0.885780089425285 0.02912444004369046
000010 02 f2 03 c3 63 e6 b2 3f c6 c0 9b e1 9d 44 f0 3f
       0.07382796774977154 1.0167521298244977
000020 35 f7 d5 5e bf dc f1 3f 22 09 4e 1d 9e 12 f2 3f
       1.1163934425853317 1.1295453209609794
000030 64 00 7e 4b 7c 3d b8 3f be 14 8f 60 b7 db c3 3f
       0.09468819468566064 0.15514270987310924
000040 7c 8e fa 11 2c e2 b4 bf 01 df a5 27 bc 81 b7 3f
       -0.08157611311849594 0.09182334869353427
000050 0a 2d 19 18 03 53 e8 3f 53 4b 21 23 f5 6d ea 3f
       0.7601333113356372 0.8259225546010874
000060 5d f3 f1 85 bc 9b e8 3f 87 1e 91 a3 63 be ba 3f
       0.7690107933154696 0.10446760886508787
000070 f0 ee d2 df da 35 be bf 86 b9 05 de 71 65 b1 3f
       -0.11800926174594983 0.0679541747137816
000080 02 e4 b1 93 8b e4 be bf e0 14 2d 47 b0 da bf bf
       -0.120674823339769 -0.12443067300508259
000090 c8 a4 cc bd ba 07 a6 bf f0 57 20 48 36 13 b2 bf
       -0.043027721089239857 -0.07060565243622796
0000a0 fe be 12 52 2e 01 b0 bf 45 4e e1 f1 0e 7f 57 bf
       -0.06251801971188439 -0.0014341016717666227
0000b0 7e dd 1b 48 25 86 57 bf f4 41 14 f7 94 80 57 3f
       -0.0014357914046153326 0.0014344649064846867
0000c0 46 60 4d f7 50 85 57 bf 45 4e e1 f1 0e 7f 57 bf
       -0.0014355936702568225 -0.0014341016717666227
0000d0 45 4e e1 f1 0e 7f 57 3f f4 41 14 f7 94 80 57 3f
       0.0014341016717666227 0.0014344649064846867
0000e0 4e f4 42 7e ef 86 cb 3f 87 08 ef fe a9 01 cc 3f
       0.21505540528406403 0.21880078266082512
0000f0 81 fa 97 c3 fd 4a db 3f 71 98 68 db cb db dc 3f
       0.4264521036238094 0.4509153025304676
000100 9c 30 29 92 90 cd dc 3f f8 48 54 77 7b 7a e0 3f
       0.45004667542958443 0.5149514513634861
000110 40 e2 c0 36 b8 b2 de 3f 0b 52 e2 7c f1 1c c1 bf
       0.47965817782418085 -0.13369577977995592
000120 6b e5 27 e4 bb 45 b0 3f 15 db d0 a5 1e 15 b3 3f
       0.0635640556355576 0.0745410113166652
000130 90 a4 5d e8 df 0f c1 3f 17 dd 7a dc 1b fb d0 3f
       0.13329695554719878 0.26532646685832745
000140 7f 69 c5 5a 23 53 b3 3f 71 e4 03 16 d0 48 be 3f
       0.07548733678905782 0.11829853570442751
000150 17 36 31 c2 22 9f bb bf 8e df 5e 49 8c 95 e4 3f
       -0.10789696923276214 0.6432553704280382
000160 92 54 67 2d 44 00 a7 bf 02 71 1c d7 e6 ee d5 3f
       -0.04492390684360105 0.34270640379851625
000170 5c c0 a2 6d b1 cb e3 3f 78 da 42 59 44 9a e9 3f
       0.6186148778269955 0.8000814193135986
000180 23 23 8f 3f 1b 09 f0 3f 02 20 e6 92 88 b8 e8 3f
       1.002223251607753 0.7725260609740874
000190 fc f9 33 d3 c1 18 e2 3f 82 a6 0e e4 ee b7 e0 3f
       0.5655221104678385 0.5224527792208422
0001a0 ff 24 1d 53 58 62 e5 3f 16 29 d0 67 9e ce e3 3f
       0.6682550071065235 0.6189720180130134
0001b0 5f 6b fc 13 f8 7d df 3f 0b 46 d8 4d 9d e0 d7 3f
       0.4920635409522926 0.373084379215556
0001c0 6d cb 04 db 23 b1 50 3f 6d cb 04 db 23 b1 50 bf
       0.0010187959815765827 -0.0010187959815765827
0001d0 6d cb 04 db 23 b1 50 bf 6d cb 04 db 23 b1 50 bf
       -0.0010187959815765827 -0.0010187959815765827
0001e0 6d cb 04 db 23 b1 50 bf 6d cb 04 db 23 b1 50 3f
       -0.0010187959815765827 0.0010187959815765827
0001f0 6d cb 04 db 23 b1 50 bf d3 2e e3 c5 6a 04 a4 3f
       -0.0010187959815765827 0.03909619966142732
000200 27 c8 3f 07 5b d5 7e bf 4d c0 28 b1 4c a9 bb 3f
       -0.007527690486300676 0.10805205655265233
000210 7e 19 e1 37 a6 d0 d0 3f bb c5 53 cc 75 b0 c3 3f
       0.26273494202577996 0.15382263638416113
000220 80 ee ef fe b6 8d d9 3f 9f 46 71 e1 e5 53 9d bf
       0.39927458664144666 -0.02864035786143992
000230 e9 ff 4e 6a b4 54 cd 3f 08 cb f6 4a 47 f0 c1 3f
       0.22914748373841512 0.14014521751740738
000240 c0 5c 5d bc 51 65 bb 3f 3f b5 a7 eb 78 c7 96 bf
       0.10701475952861284 -0.022245301612135334
000250 82 e3 b0 f7 4b 85 d1 bf b4 97 1b 5a 83 39 d7 bf
       -0.2737607878548759 -0.3628853206595253
000260 6d 3b 99 2b 33 ba b2 bf 11 54 cc cc 59 99 b1 3f
       -0.07315368475359003 0.0687461972232344
000270 2a c6 0c a4 c5 3c b8 3f 34 cb 01 31 3b d1 b6 3f
       0.09467730765461427 0.0891301149984372
000280 36 88 50 6c 76 37 84 bf 6c cd c4 36 e4 69 c1 3f
       -0.00987141149568425 0.13604405092483363
000290 00 87 3d c8 30 7b d2 3f a4 cd 33 c7 73 b8 e4 3f
       0.28876895479889697 0.6475161448164966
0002a0 38 25 9c 29 b9 10 d4 3f 93 8f 6d be 75 34 ed 3f
       0.31352070868941295 0.9126538008972481
0002b0 52 9d 9f 30 40 01 e8 3f f1 8b df 77 24 6e d8 3f
       0.7501526784589407 0.381722561896992
0002c0 82 5f e7 62 23 7f f7 3f 84 60 1b 0f 50 cd f4 3f
       1.4685396064214449 1.300125178348055
0002d0 5a 6a 11 ee f3 4b da 3f 68 96 bc 33 ec d7 71 3f
       0.4108857941516014 0.004356310524405417
0002e0 78 7d ef ae 4f 0c 71 bf 49 3d d8 dd a0 2e 5b 3f
       -0.00416213156037714 0.0016590662920668733
0002f0 7e bb 74 3f c4 bb 71 bf 88 da db c6 8e 85 41 3f
       -0.004329458802472595 0.0005347201492601076
000300 98 ee e0 9f 9f b1 71 3f d5 db be 9f 91 26 38 bf
       0.004319785626701787 -0.0003685098197325186
000310 8c 71 40 58 f4 24 b0 3f 51 7b b6 58 40 a0 be 3f
       0.0630638804872829 0.11963274160232841
000320 00 15 3c fc 22 dc 8b 3f b8 81 37 91 ae ba c9 bf
       0.013603471109954857 -0.20100957956948462
000330 5b c4 ec 9d cf 4d d1 bf 0b 53 c3 06 7f 8d d5 bf
       -0.2703742067561216 -0.3367612424893173
000340 e9 47 0b 7e 06 11 be bf c4 51 17 98 2a b6 c7 bf
       -0.11744728638885217 -0.18524677683184454
000350 b5 68 0e b2 21 1f a8 bf d2 d5 6e 06 c7 c0 c1 bf
       -0.04711251543558729 -0.13869560064419645
000360 80 8e c2 d8 b0 6a b0 3f d9 cc 83 df 81 56 b3 bf
       0.06412797252647273 -0.07553874689965613
000370 50 83 71 74 56 b9 a3 bf 7f 22 4a 3a 0b 50 c1 bf
       -0.03852338954380363 -0.13525524469539005
000380 ee e1 89 34 5e 25 c6 bf 3d fd f8 5d 88 b1 c5 bf
       -0.1730153805290366 -0.16948036755091236
000390 6d 01 78 de f5 68 c8 bf b0 29 03 51 c1 c9 c6 bf
       -0.19070313799603458 -0.17803207832032575
0003a0 aa 04 fa af 6b f5 c5 bf c9 b8 ef fe 5e a9 ca bf
       -0.1715521439801127 -0.2082937950903612
0003b0 89 c5 69 8e 0b 94 c7 bf 74 a2 00 22 2d 58 c9 3f
       -0.18420547918098532 0.19800342712666785
0003c0 7a 1a a3 c6 85 e7 c3 3f 8d e9 fd 8d 43 66 bc 3f
       0.15550300788000354 0.1109354230556276
0003d0 64 03 33 01 ee c8 c8 3f 8a 22 f3 e0 26 7f b6 3f
       0.19363188799436692 0.08787768356263306
0003e0 a8 cc da b3 d8 c9 c3 3f 2b 59 09 f7 c3 11 a2 3f
       0.15459736616103226 0.03529178991873246
0003f0 04 5a 40 06 85 6f 66 3f 3a 50 62 e8 ba e5 63 3f
       0.0027387235768501234 0.0024288797895426735
000400 6a 02 8c b1 9d d6 5a bf 21 f9 bc 24 ec 93 5d bf
       -0.0016380825019838515 -0.0018052869881582461
000410 09 a6 36 51 ec fb 5a bf d3 c2 bd bf ad 4f 61 3f
       -0.0016469772134349878 0.002113189080710101
000420 f5 44 e9 1a 68 71 66 bf fc cf fa 64 87 09 c7 bf
       -0.002739623384777285 -0.17997829847956825
000430 6c 2e a5 ce 5e 03 92 bf 9e 5a f4 f3 ee a0 b0 bf
       -0.017590981829285132 -0.0649556489555416
000440 f4 ab 96 ab ac fa b1 bf eb 33 9a 3e 6c f7 c0 bf
       -0.07023123921560154 -0.13255074555163956
000450 b8 8e 64 f1 03 86 c7 bf d6 9f 4d f3 2b bd cb bf
       -0.1837773255039019 -0.21671056156196639
000460 c3 c8 71 b3 04 f5 b7 3f 34 b6 ae db 6c f6 a9 3f
       0.09358243351906297 0.05070820027991055
000470 38 d8 91 7a fc f6 be bf 22 bf 2c 58 4d e5 bb bf
       -0.12095621101784182 -0.10896762278275365
000480 4c c4 7c b2 70 47 c2 3f 2b cf 8c a9 75 8e bd 3f
       0.1428051826019633 0.11545501126675776
000490 dd e0 ab 47 7c 9b ba 3f e4 b7 1f e3 2e be b0 bf
       0.10393501996793782 -0.06540196461693842
0004a0 60 75 e1 ca c0 0b b9 3f 91 e1 68 9d 44 ae c0 3f
       0.0978355880083277 0.1303182381250392
0004b0 24 24 28 9b 49 fb bb 3f f9 99 a7 31 a8 0b ba 3f
       0.10930309331901406 0.10174037182114394
0004c0 b5 3d 74 e3 ae b6 bf bf a3 31 06 51 6b 21 80 3f
       -0.12388127377584264 0.007876242075121115
0004d0 ed 49 8e 2c 99 c1 b2 bf f9 1a 27 b0 19 ad c4 3f
       -0.07326657617367234 0.16153260327538257
0004e0 a6 2e 1c d5 05 81 bc 3f 44 c2 70 f0 1a f5 a6 bf
       0.11134373143084506 -0.04483875451149236
0004f0 2c 15 77 14 14 68 c6 bf f8 8d 81 f4 f7 56 a7 3f
       -0.17505122184062694 0.04558539256757038
000500 23 00 cb 97 40 54 bf bf 62 dd 4f 77 4f 5d 70 bf
       -0.12237933832057073 -0.003995237745577059
000510 60 c8 80 45 91 16 c6 bf 4b 3e cc 64 19 ff 8d 3f
       -0.17256370443061808 0.014646719349484935
000520 c5 28 3f 97 4b 42 b8 3f 44 5e 92 52 f3 e5 c3 bf
       0.09476158564135335 -0.15545503169845365
000530 3c af fd 03 21 cb a5 bf cc 46 78 7b 92 45 ac 3f
       -0.04256537603109087 0.05521829373550488
000540 8b da 09 df 60 f3 bb bf 95 ff 43 3f bd 1c b0 3f
       -0.10918240971828135 0.06293852610178725
000550 e3 85 41 03 35 f7 60 3f be 11 3f ee be b9 a0 3f
       0.0020710025219592295 0.032667128165062106
000560 df a1 d6 d3 dd 8d c1 bf 60 c1 36 09 3b c4 bf bf
       -0.13714192241356124 -0.12408799147556726
000570 c2 73 29 93 54 13 c6 bf
       -0.17246491609230757

tcn.network.0.downsample.weight f8 [5, 3, 1]
000000 c4 8c 8c cd ea f5 d7 3f c9 46 ed 99 22 1f c0 3f
       0.374384594661205 0.12595016971550013
000010 7c d1 5e 17 ff 4f ba 3f f4 ae 45 ce b9 a9 d3 3f
       0.10278314896169677 0.30723424094934093
000020 42 7b 02 04 27 48 d0 3f ad 4b 35 3f 08 8d d3 bf
       0.2544038333089028 -0.3054829232470933
000030 07 c7 d4 59 ed 9c c2 3f f7 79 67 6b 16 12 e0 bf
       0.14541403662001803 -0.5022079560984015
000040 a6 4b 59 92 e5 e6 e7 bf db 9b f1 90 59 51 cc bf
       -0.7469356401801306 -0.22123260094960426
000050 98 26 24 42 df f5 a5 bf 5d 56 aa 30 e1 e0 9c bf
       -0.04289148027789941 -0.02820159778146657
000060 2d 35 a1 3a de 94 92 bf b8 cb 55 14 61 4e a4 bf
       -0.01814601166579626 -0.039660485966030945
000070 e8 35 c0 2a e5 57 95 3f
       0.02084310601644815

tcn.network.0.downsample.bias f8 [5]
000000 18 0e 14 9a 84 03 e6 bf 83 dc a9 ce 6c 5d c1 3f
       -0.6879294404356555 0.1356636056040977
000010 1d 6d ec 29 d2 84 b5 3f 5d 89 c0 12 a3 0c b3 bf
       0.08405793689273762 -0.07441157539191097
000020 66 75 45 b6 1d ce df bf
       -0.4969553260796914

tcn.network.1.conv1.bias f8 [5]
000000 74 2e a4 e6 a6 20 c7 bf 94 87 03 fa a3 cc ce 3f
       -0.18068395864280584 0.2406201334734389
000010 f3 ae 6e 17 96 90 dd bf 8e 1b f3 d1 93 70 dc bf
       -0.4619498471099483 -0.44437118056196645
000020 a2 14 73 54 cd e3 e5 bf
       -0.6840578698544457

tcn.network.1.conv1.parametrizations.weight.original0 f8 [5, 1, 1]
000000 a2 82 fc 83 55 68 e1 3f ce 5e b9 0c 7e 69 03 40
       0.5439860895022159 2.426509951979688
000010 76 3f 26 ec 9d ee e8 3f 9d 54 49 16 03 01 08 40
       0.7791280376713832 3.0004941693428706
000020 f6 b6 4b d7 ca 63 e6 3f
       0.699681683063061

tcn.network.1.conv1.parametrizations.weight.original1 f8 [5, 5, 7]
000000 3a 07 22 79 fa 19 89 bf f4 92 c0 47 90 4f 91 3f
       -0.01225658113640159 0.01690507352772648
000010 41 27 ca 39 be 8f bc 3f a5 eb 08 14 f8 bc a6 bf
       0.1115683451736489 -0.04441046948019015
000020 69 46 fd 77 99 d2 c2 bf 07 37 e0 03 4e 5b be bf
       -0.14705198630194907 -0.11858069986939422
000030 2a c7 7b b4 8b e1 a7 bf 78 e1 95 88 27 2a bd bf
       -0.04664265230338878 -0.11392447552305451
000040 87 71 d3 66 1e 93 9d bf ca 11 95 c3 5e c0 b7 bf
       -0.02888152601814078 -0.09277908587416231
000050 ba 42 1a 63 4b 92 b4 bf f4 6d 5f 7a 27 59 c1 3f
       -0.0803572766256008 0.1355332705996798
000060 f3 5e e5 a8 9a f1 90 3f 35 0a fb f1 12 e6 b3 3f
       0.016546646650879415 0.07772940070848551
000070 67 fb c7 4d 35 13 b9 3f fe f2 a8 0e 1f 5a a5 bf
       0.09794934414820276 -0.04170319608645022
000080 99 8b 0b 69 2b 07 c0 3f 45 3a da 7d 96 3d 9d bf
       0.12521879796176164 -0.02855525153295903
000090 e3 98 dc 4c e4 9c 90 3f 74 32 6f 5a 85 b1 bd bf
       0.016223494712129926 -0.11599000413770871
0000a0 92 c1 42 ba 29 e9 c1 bf 70 9b 90 a6 79 74 c3 bf
       -0.13992807001842472 -0.15199204094934826
0000b0 c6 a6 9a 43 54 5a b8 3f 09 f3 57 7e 3c a4 be 3f
       0.09512831354609394 0.1196935471015871
0000c0 d6 9c 93 17 c7 21 c1 bf 36 cc cb 24 ed 87 aa bf
       -0.13384331370546104 -0.05181828569575268
0000d0 a5 eb 14 a2 fe 4b c5 3f 48 d9 ae 91 5b 31 a2 bf
       0.16638167299410359 -0.0355328193031022
0000e0 5e db c4 8d 9f 36 a2 bf 9c f4 6c f7 a1 89 6c 3f
       -0.035572992378027676 0.0034835971268010867
0000f0 f7 88 c5 c2 aa ff be bf ac 3c 4e 6a 5d 7e c6 3f
       -0.12108866934935124 0.17573135081008695
000100 77 36 a1 6f ff 8b c4 bf 90 97 34 93 d8 c7 ac 3f
       -0.16052239370985763 0.05621220395032289
000110 6e 66 bb 22 e5 f5 b5 3f 66 42 33 af ac b2 d9 bf
       0.08578331087064736 -0.4015304289760365
000120 c6 7b 70 ab 6d 66 cc bf 82 80 e2 0f 8e 06 d5 3f
       -0.22187586661399744 0.32852508116958046
000130 1a b9 20 61 91 3a ca 3f 46 12 59 72 38 39 a6 3f
       0.20491235010690262 0.043405307730186624
000140 59 1c 66 65 ce a7 c5 bf b6 fa ed a5 4f 52 d6 bf
       -0.16918353987805082 -0.34877387241423763
000150 d5 f3 75 51 28 b9 d4 bf 03 3e a2 9e 96 9c ba 3f
       -0.3238011165156512 0.10395184872526646
000160 45 09 d8 b2 36 31 77 bf 08 9a bd 57 14 86 86 bf
       -0.0056621681847011706 -0.01099792378199728
000170 e2 4c b7 30 29 df c7 bf aa 0e d1 15 32 b0 db bf
       -0.18649783018790972 -0.4326291287472751
000180 f4 0c 44 53 c2 68 d2 bf af 99 72 12 7b 6b d6 bf
       -0.28764398700168603 -0.3503101043846994
000190 ac aa e5 87 f2 6f c5 bf a4 38 1c ae 2e d3 b5 3f
       -0.16747886310198135 0.08525363684404624
0001a0 dd 85 f7 d8 11 7b cd 3f cb ba 66 02 a3 85 d6 3f
       0.23031828970037696 0.35190654024601703
0001b0 06 a6 3a c8 78 3b d7 3f 21 36 1b b6 67 ad d8 3f
       0.3630048709261192 0.3855838087446007
0001c0 04 55 b2 db 7d bf 8f bf 90 91 6a 07 97 68 72 bf
       -0.015501960055454685 -0.004494276005662448
0001d0 79 cd 01 ab d2 ec 9f bf 24 e7 4e 98 28 be 9e bf
       -0.031176845252458094 -0.030022272392421404
0001e0 7c 89 9e 84 ff ce 9c bf 86 19 c1 f4 8e aa 9f bf
       -0.028133385152281573 -0.030924066246620828
0001f0 b1 71 12 85 ce 3c a3 bf 50 a1 33 fa ec c2 5a 3f
       -0.03757329344191208 0.0016333879692017224
000200 b8 66 35 2b a7 d5 54 bf 56 c5 cb a6 cd 55 5a 3f
       -0.0012716419704105596 0.0016073711696516688
000210 45 71 9b 75 cd 55 5a bf a8 a0 8c ee 30 a7 40 3f
       -0.0016073709907039196 0.0005082119870154682
000220 5a a1 fe 87 5a c3 55 3f 88 7b 9f 19 9f ab 54 bf
       0.001328314217952173 -0.0012616208755315845
000230 17 b0 e9 0f b4 ec c4 3f ea 01 54 92 f5 da c1 3f
       0.16347361351961417 0.1394946064465466
000240 3a 90 ef 82 62 db a4 bf 4d 17 d6 c7 f5 71 a6 bf
       -0.040736273272870396 -0.0438381964150226
000250 a5 3c a3 d1 24 09 cb bf 15 b3 05 2d f2 8e cd 3f
       -0.21121654735768405 0.23092486570694662
000260 48 50 48 98 fe 9c f0 3f b9 dd 0c cd 84 dd c3 bf
       1.038328738072794 -0.1551977158758129
000270 bf 9a a9 6e fe d4 d1 bf 5b 3f 3d 14 3d 8c d4 bf
       -0.2786251145065925 -0.32105948425759373
000280 4d 12 03 6f 28 69 cd bf 53 76 a9 65 0c da a2 3f
       -0.22977166576869693 0.036819827470691145
000290 68 ec fb 5d 80 d4 b4 3f aa 87 60 4a 3f 4f c1 3f
       0.08136751455815416 0.1352309334916389
0002a0 47 8f bd eb f6 8f e0 3f 0a 69 e7 89 7f f7 e1 3f
       0.5175737957292562 0.5614621823727088
0002b0 27 81 7d cc ce a5 d8 3f f2 ca 00 4a 83 78 ad 3f
       0.38512010545493286 0.05756006506307711
0002c0 fe c4 5c 83 4c e9 bb bf 40 fb 6e c4 2e e4 d0 bf
       -0.10902860838975312 -0.26392716582261144
0002d0 c5 10 a4 bd 55 1e d0 bf e0 a2 17 63 46 be 53 3f
       -0.25185149688355707 0.001205033051855313
0002e0 4d b2 8f b7 12 74 69 bf 53 d9 59 54 34 67 68 3f
       -0.003107105786048592 0.0029788991985767815
0002f0 cd 9f 6b 1f 68 56 66 bf cd 9f 6b 1f 68 56 66 3f
       -0.002726748814314539 0.002726748814314539
000300 cd 9f 6b 1f 68 56 66 3f cd 9f 6b 1f 68 56 66 3f
       0.002726748814314539 0.002726748814314539
000310 cd 9f 6b 1f 68 56 66 3f cd 9f 6b 1f 68 56 66 3f
       0.002726748814314539 0.002726748814314539
000320 cd 9f 6b 1f 68 56 66 bf cd 9f 6b 1f 68 56 66 3f
       -0.002726748814314539 0.002726748814314539
000330 cd 9f 6b 1f 68 56 66 bf cd 9f 6b 1f 68 56 66 3f
       -0.002726748814314539 0.002726748814314539
000340 cd 9f 6b 1f 68 56 66 bf ba 0d 34 06 51 ed 2b 3f
       -0.002726748814314539 0.00021306623521165168
000350 39 8f a7 ec 4f 4a 3a 3f c8 b3 13 c7 bc 72 a5 3f
       0.000401157868195268 0.041891001988779986
000360 2e 99 30 83 d1 25 cf bf be e4 02 e9 17 a4 be 3f
       -0.24334162622216965 0.11969136656525145
000370 95 95 4b 25 07 f2 df 3f 3a 02 4f f2 2f 44 e2 3f
       0.49914721147646307 0.5708236439314256
000380 ae b7 ce 36 aa 8a 2e 3f 82 09 28 d0 9e 2e a8 3f
       0.00023301437195527352 0.04723068514796848
000390 df 94 ac a4 4c aa c3 bf a7 8d d6 0f 1d 8c e2 bf
       -0.15363462486963095 -0.5796037015283461
0003a0 26 6b 64 c8 8a 13 eb bf ee d2 14 3a e0 1c c1 3f
       -0.846135512725003 0.13369372211459257
0003b0 7d 1a 72 69 b2 d2 cd 3f 19 c8 1a 22 d4 f2 2d bf
       0.2329924597617782 -0.00022848929898128324
0003c0 6d d8 6c 21 a5 d0 93 bf b6 12 7f 78 f1 8d d9 3f
       -0.019350605168448377 0.39928852812981164
0003d0 8a 1c 58 3e 23 cb 04 3f 59 65 f9 f0 b2 3c dd bf
       3.966046623920482e-05 -0.45682977230679495
0003e0 23 02 f5 f5 51 19 c1 3f ad b7 90 be fe b6 da 3f
       0.1335852099382616 0.4174191342343601
0003f0 19 c8 1a 22 d4 f2 2d bf 19 c8 1a 22 d4 f2 2d 3f
       -0.00022848929898128324 0.00022848929898128324
000400 19 6c 0d 08 09 fb 39 3f 57 82 f3 c1 13 7c 1f bf
       0.000396432595200559 -0.00012010450926736839
000410 e4 5f 22 e7 22 e8 b4 bf 53 58 0d e6 a6 2f c0 bf
       -0.08166711943556454 -0.12645422204031095
000420 74 5b d5 8c 69 ff c4 bf 04 53 6d 33 10 57 61 bf
       -0.1640445649779526 -0.002116710321767081
000430 ae b7 ce 36 aa 8a 2e 3f ba 0d 34 06 51 ed 2b bf
       0.00023301437195527352 -0.00021306623521165168
000440 ba 0d 34 06 51 ed 2b bf ba 0d 34 06 51 ed 2b bf
       -0.00021306623521165168 -0.00021306623521165168
000450 39 8f a7 ec 4f 4a 3a 3f ba 0d 34 06 51 ed 2b bf
       0.000401157868195268 -0.00021306623521165168
000460 24 2c d7 bc e0 6c c3 3f bc ee da b2 7e 07 a5 3f
       0.15176018925407775 0.041072806675825885
000470 7c 1e 15 47 0d 35 d0 3f 27 d4 81 e5 55 21 da 3f
       0.2532380289235119 0.40828463948065735
000480 3c d3 8f 8b 36 3d df 3f 83 38 29 aa 90 db d9 3f
       0.48811114911159215 0.4040261899689385
000490 fe 4d bb 67 04 f2 b6 3f be 0a de 40 4f eb b7 bf
       0.08963038952361299 -0.09343428929973194
0004a0 d0 5f d5 05 fd 0b bd bf de de 07 72 09 21 c0 bf
       -0.11346417801303166 -0.1260082060614342
0004b0 2a e3 57 a5 4b be c3 bf 84 09 8a b5 e3 05 c3 bf
       -0.1542448575344449 -0.14861723293513418
0004c0 2e 73 ca 31 9c c2 ac bf 2b f9 4d a3 88 ee d1 bf
       -0.056172257497769315 -0.28018394420350273
0004d0 52 58 35 67 ee cf e3 3f fa c0 77 33 d6 7e b1 3f
       0.6191322341717387 0.06834162479913522
0004e0 3b 9a 06 d8 50 cf a7 3f 9c ce 32 ed 6a 74 b0 3f
       0.04650356900247173 0.0642763928506675
0004f0 5a c3 bd e5 17 a1 ca bf 59 77 55 4b 04 f3 e4 bf
       -0.20804117887339652 -0.6546651336063675
000500 8b 7d 69 aa 39 d8 ed bf af f4 38 2b 04 8d 5d 3f
       -0.9326446846352366 0.001803640433436098
000510 c6 c6 b6 55 e4 f8 5c bf c6 c6 b6 55 e4 f8 5c bf
       -0.0017683248359898081 -0.0017683248359898081
000520 c6 c6 b6 55 e4 f8 5c bf 9e e4 2f 54 d0 36 61 3f
       -0.0017683248359898081 0.0021013325617756503
000530 a9 85 56 7b 3b dc 5d 3f 0b df 79 0a 12 71 3c bf
       0.0018225270153851925 -0.0004339856190891256
000540 c0 9c 23 f0 f7 ce 54 bf 2d fb 64 be 46 08 52 3f
       -0.0012700482625918469 0.0011006060463640375
000550 87 3f dc bb 64 d9 5e bf 03 34 ac 78 45 2c 5c bf
       -0.001882885334854452 -0.0017195394927427283
000560 84 b7 8c e3 06 08 54 3f 6a c6 85 3e 9d d6 52 3f
       0.0012226168893891562 0.001149800833527693
000570 31 70 72 43 8d 0f 5e 3f
       0.0018347625280403896

tcn.network.1.conv2.bias f8 [5]
000000 8e 3a 78 55 ea 1b de bf 3c f5 3e 97 a3 01 d0 bf
       -0.4704538187660682 -0.250100038243392
000010 44 44 df 6e 91 68 d0 3f ec 86 b8 c9 8a e0 dd bf
       0.2563823302016923 -0.46682996463105897
000020 4e 16 9f 83 cf de f2 bf
       -1.1793971196615476

tcn.network.1.conv2.parametrizations.weight.original0 f8 [5, 1, 1]
000000 c5 a9 50 9d c2 e5 ef 3f 96 0e 6f 15 70 d7 df 3f
       0.9967969009933816 0.49752428143640637
000010 2d ac 0a 84 1a a7 10 40 a2 ab 0c 0c 06 bc f4 3f
       4.163187087203409 1.2959042044337612
000020 fd ce 4e f0 b5 db f8 3f
       1.5536403071427565
