First_experiment_run_22_07_2024/TCN_or_nextstep_sparsedata_exp0.pth (torch, 31746 bytes, 52 tensors)

tcn.network.0.conv1.bias f8 [5]
00000000: 3bd1 6a7a 7fd9 c3bf 8b3b fa42 5fcb d63f
00000010: 0655 5b52 6cef c7bf b111 9ee0 728b c8bf
00000020: b8b2 af77 b41f a5bf
-0.15507501103787455 0.35616284886139543 -0.1869941141255042 -0.19175563781403818 -0.04125751458182009

tcn.network.0.conv1.parametrizations.weight.original0 f8 [5, 1, 1]
00000000: 1edb 96fd 9ddb e53f d066 0216 1a8c e33f
00000010: 5256 4ba1 9cd8 e53f 988e e865 2693 e63f
00000020: 6dfe 4b6e 69d3 e53f
0.683058734218182 0.6108522825117806 0.6826918745306989 0.7054626455687467 0.6820571092830058

tcn.network.0.conv1.parametrizations.weight.original1 f8 [5, 3, 7]
00000000: 138f 1d04 ee74 9d3f df29 554c 3b76 cc3f
00000010: ff48 1f8a 7c23 b9bf 336a dd53 682d cd3f
00000020: 0df6 3692 ccca b73f 8345 da48 30e0 d43f
00000030: 7942 8719 d155 ce3f e8f3 de29 83dc bf3f
00000040: 35e0 3233 326b b5bf eb98 de77 58be a93f
00000050: a943 9a9a 1c6d c5bf 80d4 ecb0 ba4c b4bf
00000060: ff22 312a 5b42 b0bf a35e 5fd8 bd89 d33f
00000070: f079 2705 9882 773f 881a 48b2 ca6e a13f
00000080: 945a 8da5 1b26 b0bf 0677 b0f8 90ab 5d3f
00000090: 38d2 c3fa a56e ccbf ba63 7085 b0e7 c1bf
000000a0: 6353 0704 630d c8bf e304 6a29 97a5 a63f
000000b0: 6bb7 2578 f7a7 bebf 4642 6f29 0b4d a3bf
000000c0: 2814 d189 f731 b7bf a1d8 714a 767a d0bf
000000d0: cb5e c44e a926 cdbf fb5f ae38 33eb bdbf
000000e0: 390d 9dcc 21c2 c63f d98a a094 b537 d03f
000000f0: 55a8 8ff8 e2e1 d13f 3fd7 4626 1597 c53f
00000100: 9a7b 6763 4414 c63f b7ba 8013 118b d0bf
00000110: a331 7656 fd0b b93f 61fe 96b6 b530 993f
00000120: 02ad 0dea 64e4 bebf 604d 80b8 034a c2bf
00000130: 54c8 0b7c f7f7 283f efe1 ea1d 73fd a4bf
00000140: 8371 1ed9 2136 ccbf 9234 5c55 c156 c43f
00000150: dd8b 4b09 af89 b33f d4e1 b011 16d2 a63f
00000160: cca1 d93b e793 ca3f 3a46 0907 b8e5 c03f
00000170: 8a10 fdaf 7926 c53f 97a9 779a ca88 773f
00000180: 3936 7f2d f0d3 da3f b115 526a 85e1 793f
00000190: 8411 362f 20b4 d53f 8d98 d79e 5f49 c53f
000001a0: f999 c388 e077 ad3f 289f 1e70 d4ad c9bf
000001b0: def8 3f55 bf5e b43f 0276 7f80 49bb bfbf
000001c0: 9e55 2eb9 d83a c3bf ff02 f80c b459 c1bf
000001d0: 0392 5d79 49cd b83f 711a 5c99 5cc1 c9bf
000001e0: a39e 5117 ece0 bfbf aa7d 15ac 971e ae3f
000001f0: c629 edf9 3a46 ccbf f5e1 3718 91eb ccbf
00000200: 6802 a34d b7f8 afbf 02c2 1fc8 7b77 c53f
00000210: f0fc b4ef 1445 ca3f d8e2 98d6 bbef b33f
00000220: 96ad 791e bea1 c43f a50e 2de3 bb00 d13f
00000230: 2652 507b 8e33 d0bf cf57 25d9 ab0e cbbf
00000240: 35dd cb15 6da4 d0bf 221e 9eef 1acc c6bf
00000250: 11b5 c98d e770 bf3f 6842 8cf3 184e 61bf
00000260: 8265 9078 3c66 c0bf 3e6b ed6f 3357 cbbf
00000270: 2171 2fa5 1e6d cc3f caba 4061 b969 abbf
00000280: 2d67 de17 80d4 c7bf 22d3 3e2d d028 c33f
00000290: b1ce 7623 b961 c3bf 573c 75e5 ecce d53f
000002a0: 5e93 4efa b55c d1bf b54b e459 4a5e d1bf
000002b0: c93f f2c2 182e c1bf 8cc9 ece9 cc62 85bf
000002c0: e745 6cd2 eb0a bf3f 00c5 0cd5 ad19 afbf
000002d0: 5aa8 7f48 e9c8 c5bf 2cb1 d1fe 2589 94bf
000002e0: f8af d2ba a52a d7bf 879f c103 60ad aa3f
000002f0: dce0 7b3d c1a8 943f 705e 3611 fa3b b3bf
00000300: df1c eb02 1b34 9a3f 283c c537 47d6 d03f
00000310: 9594 bf5a 25ba c93f ab3c 6461 c936 9f3f
00000320: 9840 aabc 7db1 b1bf 6b66 abc0 bbe2 cc3f
00000330: c606 d02f 4ffd d73f 9e49 a8d0 4d40 db3f
00000340: eecb c33f 5207 d63f
0.02876636409872819 0.22235814311200294 -0.09819773075222214 0.22794822783437638 0.09293821878142002 0.32618338694108945 0.23699392076970918 0.12445850155104632
-0.08366693258256037 0.05028034651995646 -0.1673923258681758 -0.07929579562626721 -0.06351251392437617 0.30528207903032917 0.005739778355261724 0.03404839922227604
-0.06308148185540069 0.0018109241234535735 -0.22212671989804433 -0.13988310351922256 -0.1879085321112611 0.04423210506957689 -0.1197504680946772 -0.03769717102807539
-0.0906061850992762 -0.2574744917868746 -0.22774235101745996 -0.11687011846368016 0.17779943934338308 0.2534002257763582 0.27941202424574857 0.16867317551594316
0.17249350408289105 -0.2584879579980383 0.09783919678574775 0.024599875707052358 -0.12067251886553623 -0.14288374432417594 0.00019049545337385349 -0.04099616756633739
-0.22040198422918075 0.15889755886056328 0.07631963707858298 0.044571580562152185 0.20763864920014752 0.13201046317640125 0.16523667424383276 0.005745688838468508
0.4191856808000441 0.006318589356970093 0.339119001488392 0.16630168205228238 0.057555214590866606 -0.2006173655947745 0.07957073050781413 -0.12395152461200357
-0.15023335496941298 -0.13555002816431025 0.09688243115449073 -0.20121343124647553 -0.12452579087550446 0.058827152019826315 -0.2208932609886018 -0.2259389274838807
-0.06244442770685482 0.1677088477295144 0.205233208698679 0.07787679661931735 0.1611859940343094 0.2656697958484336 -0.2531467632518648 -0.21138523199868905
-0.2600357735495494 -0.17810379695969042 0.12281653606051558 -0.0021124350863675374 -0.12812000166813325 -0.21359866109090747 0.22208006921472026 -0.053540986177144825
-0.18617249646632086 0.14968301972626202 -0.15141977531094633 0.34075472267153856 -0.2712836212543176 -0.2713800313805977 -0.1342192603956376 -0.010442353142569492
0.12126039397505615 -0.06074279046732478 -0.17019382514928588 -0.020054429700779128 -0.36197798962052685 0.05210399671415105 0.020174998643569406 -0.07513392372345051
0.025589391759038512 0.2630785030968945 0.20099322253296195 0.030482431954678074 -0.06911455017166401 0.22566935451213807 0.3748357741279559 0.42579980255791294
0.3441968558028624

tcn.network.0.conv2.bias f8 [5]
00000000: 5334 bdde 0e5d d13f 2835 2343 8a33 b4bf
00000010: d3a6 0112 69b8 b53f 295d a09b 7993 b7bf
00000020: ed17 5819 9820 ce3f
0.27130481483329055 -0.07891143931484079 0.08484512986765518 -0.09209404038880521 0.23536969411378497

tcn.network.0.conv2.parametrizations.weight.original0 f8 [5, 1, 1]
00000000: 9f10 0eb3 54d0 f33f 2930 6828 d67e e63f
00000010: 9e72 1e17 145b e23f 5234 139e f448 e33f
00000020: ec11 ec8a 6731 da3f
1.2383620256742132 0.7029829777907298 0.5736179782430388 0.6026557052042654 0.40926540915123044

tcn.network.0.conv2.parametrizations.weight.original1 f8 [5, 5, 7]
00000000: 67bf fa4a 6eaf c13f 61c8 31ba b7ff d03f
00000010: 177b dbde 90a0 b9bf 1636 64d2 be81 bb3f
00000020: 5ff6 599f c3d9 cdbf 305c ecd3 e4b3 9a3f
00000030: 5bef ad8e 4b54 c1bf b0c6 50d8 7e2d d73f
00000040: ab46 3175 8d85 d43f 4a01 2f85 4868 d73f
00000050: 828e 35fc c549 c03f 48b7 ae32 ec8d b03f
00000060: a257 8151 edc8 b7bf 2453 59d0 2916 c4bf
00000070: 70c7 d87d b70d e13f 0e53 c5c2 bada d13f
00000080: de55 14f9 6566 ca3f c792 123f a32d a73f
00000090: 54e9 8095 b770 9d3f 9256 4b86 5c04 c7bf
000000a0: 0133 30d0 0e83 bd3f fda2 af62 41a3 d7bf
000000b0: 911d 207a 36fa e0bf 53d7 da6c c459 9bbf
000000c0: 7558 099d 1af9 a93f 2b6c 7212 188c c73f
000000d0: 99e7 9220 1b5d 503f 25a4 8370 4b92 c03f
000000e0: 992b a472 9b4e d5bf d1d9 ed6b b6ad c7bf
000000f0: c155 2f55 958e cbbf a224 5a32 9005 d2bf
00000100: f634 8506 f21d 813f c27a 8412 a435 6b3f
00000110: cdc1 7792 2f25 ccbf 38a7 ef37 0afe bb3f
00000120: 54d8 cecd 530e 58bf 5fa4 d426 5195 da3f
00000130: 7e00 c3ef b220 c93f 2c01 6b6a 44d3 e73f
00000140: 66c9 7c74 bb81 b43f 3349 a1ee 2a13 c53f
00000150: 7abd 5f68 8aca c1bf 1ebf 8f10 996a c6bf
00000160: f53f 09cb 34b8 aebf e8c7 39ca 1f82 a1bf
00000170: 3dd6 5a22 c238 c53f e73a 4018 9fd8 cc3f
00000180: 14fc 54d8 2f87 ae3f 307f ce43 4dd2 a43f
00000190: d0ca 4261 c6e6 b63f 2cf3 6d48 22c4 c53f
000001a0: 30ae 888e cbe7 d83f 74b0 11cb 6c04 d03f
000001b0: 6e37 9ba5 c0d6 df3f e6da 2fbf d038 d83f
000001c0: 5dde 11af d2d2 b53f 795c 9ba3 123a cd3f
000001d0: 0f72 a386 c451 cb3f 8eb9 1f2e 14aa bc3f
000001e0: 6ad9 4f3a 0837 c13f b530 7fbd 5a15 d03f
000001f0: 875b 7150 e82f b93f dc92 6369 97e1 c13f
00000200: 0bcf fb8f 7912 b8bf 366b ff4d bbeb 903f
00000210: 8a96 8229 e1df d53f 3066 04be b549 c03f
00000220: 22e0 bc34 1774 843f 724c 503b 0fa4 c0bf
00000230: 56cc bbf2 ff8f bfbf 624c c922 b564 aabf
00000240: 3f99 2d79 0996 443f 6f42 cb87 c7d2 bd3f
00000250: 8fa8 2932 f296 c2bf db9f ce38 80ef 943f
00000260: 6539 3d9d 0681 4c3f c892 7e1a 4776 a93f
00000270: 5fae 2afc 5b11 b33f 5a94 cd81 8b53 b0bf
00000280: f04a e638 f386 b7bf 9266 2cef ee84 bcbf
00000290: 1e76 cd8e bab6 b83f 8583 c7e8 b789 9d3f
000002a0: 64d1 f32b 1555 b23f 91c6 7d0b fca5 783f
000002b0: 5561 f86c dd8b c53f a7dd f818 0e2c b6bf
000002c0: 5900 2d08 c745 a7bf 9f21 8e6e 4b84 c43f
000002d0: 1cd1 19e2 e3da 943f 2a00 142d 778d aebf
000002e0: b8e1 f684 58cf bfbf 6fe1 d24e 8039 a13f
000002f0: 8aeb 3457 e430 b5bf e497 de02 078a c43f
00000300: 82ec fcb8 e640 a2bf de80 0448 e1e0 89bf
00000310: 19c7 14c0 8a43 bf3f 585a 5104 9dbe b1bf
00000320: 7fbb 6920 83de c03f a1b4 e0ee 8b68 c53f
00000330: d66c a340 a177 9d3f 9623 1a54 96f5 c1bf
00000340: a661 949b 9bdd c3bf a941 2b43 5de9 aebf
00000350: 4112 afbe f98a bbbf af8f 2ffb d8a8 99bf
00000360: 5085 3178 e6b9 c0bf 0fab 443a e093 c33f
00000370: 72fe d2b7 daea c5bf 5c80 1a52 2110 a8bf
00000380: ab05 02a1 5277 b7bf e81d 5a7c a30f c23f
00000390: b2f7 1556 e4c5 923f 1ddb 7b5d e142 973f
000003a0: d8e7 2e1f 4e5d a5bf c2d8 7854 245a aa3f
000003b0: 734f 1298 87a8 be3f d999 f579 6acd b63f
000003c0: 2273 8d3a 8bcc b7bf 3e5d 5e62 0852 bf3f
000003d0: eeb3 492f 670b 9a3f 8c94 a958 0ec1 a5bf
000003e0: 6aee 2105 5d94 c33f 35c4 8cf8 b3b7 c5bf
000003f0: a435 8a6f 2e09 bdbf d248 ea01 f456 c13f
00000400: e056 4681 2308 b6bf 5815 ee4c 2909 c2bf
00000410: 43be 8155 afe5 a63f eebc d3f2 78e4 b83f
00000420: b36c 6964 f319 b7bf f308 d6ef 9328 b9bf
00000430: 3113 1ab9 ff3c c4bf 486a b61d b9df c33f
00000440: 0706 bf30 1f84 5e3f 8ce8 9cc4 aa62 a93f
00000450: 4c34 1320 2f42 c43f 469d 551c cfb6 93bf
00000460: 275d 1907 1e74 ccbf 1f01 811b f386 b6bf
00000470: 7165 a78b b09f b0bf 1d3e 1c6d c203 c0bf
00000480: 8eb9 b9ef da00 d0bf 0764 e2f3 e774 b2bf
00000490: 71bc 6136 e54f cfbf 64d5 3477 6d56 83bf
000004a0: 8530 0f6c c6ab 9a3f 708c f0ba 18ea cc3f
000004b0: 79ad d149 7432 b33f 0eba 3ab4 51e5 bb3f
000004c0: eba9 2137 1ccd ca3f 122d 3597 a327 a3bf
000004d0: 552f beea 4921 be3f 5a06 9734 8fad bfbf
000004e0: af81 d1a1 04e3 73bf 271b 6f68 8acf c5bf
000004f0: 934e b475 51c0 c0bf b4d7 2e7b fbb1 9a3f
00000500: 38f6 e9ff 9661 583f b667 4262 4f5b e1bf
00000510: 091f 5ab7 e056 d0bf 3c0e 1f8b cee9 e4bf
00000520: 99da a1e3 c919 d9bf 968e bef2 7f37 d8bf
00000530: 72c9 e036 bd75 e0bf 9981 3dd4 e707 e8bf
00000540: 432b 0f8b 6648 bb3f c059 fd84 b7e4 b63f
00000550: 960e 1d3b 4cfa b63f e016 b848 806e bd3f
00000560: 5ebc 74d5 537a c13f 879c 3d38 9a6b a6bf
00000570: 08af aa8d 5950 94bf
0.1381662241087682 0.265607768850833 -0.10010629120686719 0.10744850765714661 -0.2332081344683727 0.02607686561085759 -0.135384983699505 0.36215182423175474
0.32065140194490976 0.36573994642460106 0.12725138487722992 0.0646655677544149 -0.09290965309023005 -0.15692637131965015 0.53292440967037 0.27897519131265447
0.20624994909364508 0.0452700628750669 0.028750294208501018 -0.1798206001027905 0.11528103430482518 -0.3693393195849664 -0.5305435548079221 -0.026709622520420705
0.050728637380118714 0.18396283055048576 0.0009987606920689228 0.12946455949648442 -0.33292280383528233 -0.18498878736472915 -0.2152887979452043 -0.28158955495070803
0.00835789759062287 0.003321476415421771 -0.2198848214316186 0.10934509149197147 -0.001468259658606215 0.4153635863500024 0.19631039340129414 0.7445394590832044
0.08010455697948302 0.16464745189529992 -0.1389935502661322 -0.17512811001460532 -0.05999913195103083 -0.03419589370322723 0.16579462697488792 0.22536076244474332
0.059625144155227044 0.0406669755241168 0.08945884584936015 0.1700480321559551 0.3891476528103537 0.2502700789543788 0.49748245403758673 0.3784677378711606
0.08524815344014187 0.22833474148385216 0.21343285154479516 0.11197019697258367 0.13449194762479105 0.2513033724360512 0.09838726009307495 0.13969700475640578
-0.0940319038889436 0.016524244914630525 0.34178952268334994 0.12724944856818032 0.009987050339631823 -0.13000669857192154 -0.12329101253617245 -0.051549587723138016
0.0006282373673059185 0.11649748864443564 -0.1452315087256619 0.020444873301727156 0.0008698732658361351 0.049730512603934296 0.07448363214887753 -0.06377479475993778
-0.09190292491102148 -0.11140340174861255 0.09653821932212067 0.028845666487430605 0.07161075900132158 0.006017670202582829 0.1683308393555857 -0.08660972699805446
-0.045454234836598224 0.1602873124904933 0.020366249728298688 -0.059673046353055106 -0.12425759550286031 0.03364182436183937 -0.08277728203840531 0.16046226158249433
-0.03565140731958484 -0.012635955820372077 0.12212435903054732 -0.06931477885641735 0.13179053385416847 0.167253009452371 0.028776664324010458 -0.14030722719715233
-0.15520043465290917 -0.06037417836126064 -0.10758934884422279 -0.02505816491237994 -0.13067322605915388 0.15295031399849576 -0.17122968650618337 -0.04699806334724663
-0.09166447096688184 0.14110225269199295 0.018333022836934006 0.022716065722273904 -0.04172748690275768 0.05146897822526021 0.11975905859645568 0.08907189824603935
-0.0929648416471989 0.12234547044351005 0.025434124242042992 -0.04248852569870917 0.15296519041645534 -0.1696686709997565 -0.11342134688512445 0.13546609967722262
-0.08606168657419344 -0.14090458160732555 0.04472110670837683 0.0972362130012134 -0.0902397270341904 -0.09827541928646948 -0.1581115392511037 0.15526498747643047
0.00186255498827881 0.04958089494762516 0.15826977792895247 -0.01925204859199183 -0.22229361864695216 -0.0879966680668116 -0.06493667039412344 -0.1251147301450012
-0.25005219851200244 -0.0720963449879407 -0.24462571292267257 -0.009442191315069244 0.026045894952219335 0.22589406135475398 0.07498862077925662 0.10896788263446686
0.20938446704833721 -0.03741179676816321 0.11769544583347387 -0.12374205621656512 -0.0048551732007528344 -0.17039613818470764 -0.13086908576280062 0.026069573777668345
0.0014881109815684367 -0.5423962515953835 -0.25530259995910903 -0.6535408704007248 -0.3921990130396949 -0.3783874388266012 -0.5143724510037784 -0.7509650368993334
0.10657349486352267 0.08942744252030987 0.08975674098206307 0.11496736312264089 0.1365456383004781 -0.043789691319767114 -0.019837760230685425

tcn.network.0.net.0.bias f8 [5]
00000000: 3bd1 6a7a 7fd9 c3bf 8b3b fa42 5fcb d63f
00000010: 0655 5b52 6cef c7bf b111 9ee0 728b c8bf
00000020: b8b2 af77 b41f a5bf
-0.15507501103787455 0.35616284886139543 -0.1869941141255042 -0.19175563781403818 -0.04125751458182009

tcn.network.0.net.0.parametrizations.weight.original0 f8 [5, 1, 1]
00000000: 1edb 96fd 9ddb e53f d066 0216 1a8c e33f
00000010: 5256 4ba1 9cd8 e53f 988e e865 2693 e63f
00000020: 6dfe 4b6e 69d3 e53f
0.683058734218182 0.6108522825117806 0.6826918745306989 0.7054626455687467 0.6820571092830058

tcn.network.0.net.0.parametrizations.weight.original1 f8 [5, 3, 7]
00000000: 138f 1d04 ee74 9d3f df29 554c 3b76 cc3f
00000010: ff48 1f8a 7c23 b9bf 336a dd53 682d cd3f
00000020: 0df6 3692 ccca b73f 8345 da48 30e0 d43f
00000030: 7942 8719 d155 ce3f e8f3 de29 83dc bf3f
00000040: 35e0 3233 326b b5bf eb98 de77 58be a93f
00000050: a943 9a9a 1c6d c5bf 80d4 ecb0 ba4c b4bf
00000060: ff22 312a 5b42 b0bf a35e 5fd8 bd89 d33f
00000070: f079 2705 9882 773f 881a 48b2 ca6e a13f
00000080: 945a 8da5 1b26 b0bf 0677 b0f8 90ab 5d3f
00000090: 38d2 c3fa a56e ccbf ba63 7085 b0e7 c1bf
000000a0: 6353 0704 630d c8bf e304 6a29 97a5 a63f
000000b0: 6bb7 2578 f7a7 bebf 4642 6f29 0b4d a3bf
000000c0: 2814 d189 f731 b7bf a1d8 714a 767a d0bf
000000d0: cb5e c44e a926 cdbf fb5f ae38 33eb bdbf
000000e0: 390d 9dcc 21c2 c63f d98a a094 b537 d03f
000000f0: 55a8 8ff8 e2e1 d13f 3fd7 4626 1597 c53f
00000100: 9a7b 6763 4414 c63f b7ba 8013 118b d0bf
00000110: a331 7656 fd0b b93f 61fe 96b6 b530 993f
00000120: 02ad 0dea 64e4 bebf 604d 80b8 034a c2bf
00000130: 54c8 0b7c f7f7 283f efe1 ea1d 73fd a4bf
00000140: 8371 1ed9 2136 ccbf 9234 5c55 c156 c43f
00000150: dd8b 4b09 af89 b33f d4e1 b011 16d2 a63f
00000160: cca1 d93b e793 ca3f 3a46 0907 b8e5 c03f
00000170: 8a10 fdaf 7926 c53f 97a9 779a ca88 773f
00000180: 3936 7f2d f0d3 da3f b115 526a 85e1 793f
00000190: 8411 362f 20b4 d53f 8d98 d79e 5f49 c53f
000001a0: f999 c388 e077 ad3f 289f 1e70 d4ad c9bf
000001b0: def8 3f55 bf5e b43f 0276 7f80 49bb bfbf
000001c0: 9e55 2eb9 d83a c3bf ff02 f80c b459 c1bf
000001d0: 0392 5d79 49cd b83f 711a 5c99 5cc1 c9bf
000001e0: a39e 5117 ece0 bfbf aa7d 15ac 971e ae3f
000001f0: c629 edf9 3a46 ccbf f5e1 3718 91eb ccbf
00000200: 6802 a34d b7f8 afbf 02c2 1fc8 7b77 c53f
00000210: f0fc b4ef 1445 ca3f d8e2 98d6 bbef b33f
00000220: 96ad 791e bea1 c43f a50e 2de3 bb00 d13f
00000230: 2652 507b 8e33 d0bf cf57 25d9 ab0e cbbf
00000240: 35dd cb15 6da4 d0bf 221e 9eef 1acc c6bf
00000250: 11b5 c98d e770 bf3f 6842 8cf3 184e 61bf
00000260: 8265 9078 3c66 c0bf 3e6b ed6f 3357 cbbf
00000270: 2171 2fa5 1e6d cc3f caba 4061 b969 abbf
00000280: 2d67 de17 80d4 c7bf 22d3 3e2d d028 c33f
00000290: b1ce 7623 b961 c3bf 573c 75e5 ecce d53f
000002a0: 5e93 4efa b55c d1bf b54b e459 4a5e d1bf
000002b0: c93f f2c2 182e c1bf 8cc9 ece9 cc62 85bf
000002c0: e745 6cd2 eb0a bf3f 00c5 0cd5 ad19 afbf
000002d0: 5aa8 7f48 e9c8 c5bf 2cb1 d1fe 2589 94bf
000002e0: f8af d2ba a52a d7bf 879f c103 60ad aa3f
000002f0: dce0 7b3d c1a8 943f 705e 3611 fa3b b3bf
00000300: df1c eb02 1b34 9a3f 283c c537 47d6 d03f
00000310: 9594 bf5a 25ba c93f ab3c 6461 c936 9f3f
00000320: 9840 aabc 7db1 b1bf 6b66 abc0 bbe2 cc3f
00000330: c606 d02f 4ffd d73f 9e49 a8d0 4d40 db3f
00000340: eecb c33f 5207 d63f
0.02876636409872819 0.22235814311200294 -0.09819773075222214 0.22794822783437638 0.09293821878142002 0.32618338694108945 0.23699392076970918 0.12445850155104632
-0.08366693258256037 0.05028034651995646 -0.1673923258681758 -0.07929579562626721 -0.06351251392437617 0.30528207903032917 0.005739778355261724 0.03404839922227604
-0.06308148185540069 0.0018109241234535735 -0.22212671989804433 -0.13988310351922256 -0.1879085321112611 0.04423210506957689 -0.1197504680946772 -0.03769717102807539
-0.0906061850992762 -0.2574744917868746 -0.22774235101745996 -0.11687011846368016 0.17779943934338308 0.2534002257763582 0.27941202424574857 0.16867317551594316
0.17249350408289105 -0.2584879579980383 0.09783919678574775 0.024599875707052358 -0.12067251886553623 -0.14288374432417594 0.00019049545337385349 -0.04099616756633739
-0.22040198422918075 0.15889755886056328 0.07631963707858298 0.044571580562152185 0.20763864920014752 0.13201046317640125 0.16523667424383276 0.005745688838468508
0.4191856808000441 0.006318589356970093 0.339119001488392 0.16630168205228238 0.057555214590866606 -0.2006173655947745 0.07957073050781413 -0.12395152461200357
-0.15023335496941298 -0.13555002816431025 0.09688243115449073 -0.20121343124647553 -0.12452579087550446 0.058827152019826315 -0.2208932609886018 -0.2259389274838807
-0.06244442770685482 0.1677088477295144 0.205233208698679 0.07787679661931735 0.1611859940343094 0.2656697958484336 -0.2531467632518648 -0.21138523199868905
-0.2600357735495494 -0.17810379695969042 0.12281653606051558 -0.0021124350863675374 -0.12812000166813325 -0.21359866109090747 0.22208006921472026 -0.053540986177144825
-0.18617249646632086 0.14968301972626202 -0.15141977531094633 0.34075472267153856 -0.2712836212543176 -0.2713800313805977 -0.1342192603956376 -0.010442353142569492
0.12126039397505615 -0.06074279046732478 -0.17019382514928588 -0.020054429700779128 -0.36197798962052685 0.05210399671415105 0.020174998643569406 -0.07513392372345051
0.025589391759038512 0.2630785030968945 0.20099322253296195 0.030482431954678074 -0.06911455017166401 0.22566935451213807 0.3748357741279559 0.42579980255791294
0.3441968558028624

tcn.network.0.net.4.bias f8 [5]
00000000: 5334 bdde 0e5d d13f 2835 2343 8a33 b4bf
00000010: d3a6 0112 69b8 b53f 295d a09b 7993 b7bf
00000020: ed17 5819 9820 ce3f
0.27130481483329055 -0.07891143931484079 0.08484512986765518 -0.09209404038880521 0.23536969411378497

tcn.network.0.net.4.parametrizations.weight.original0 f8 [5, 1, 1]
00000000: 9f10 0eb3 54d0 f33f 2930 6828 d67e e63f
00000010: 9e72 1e17 145b e23f 5234 139e f448 e33f
00000020: ec11 ec8a 6731 da3f
1.2383620256742132 0.7029829777907298 0.5736179782430388 0.6026557052042654 0.40926540915123044

tcn.network.0.net.4.parametrizations.weight.original1 f8 [5, 5, 7]
00000000: 67bf fa4a 6eaf c13f 61c8 31ba b7ff d03f
00000010: 177b dbde 90a0 b9bf 1636 64d2 be81 bb3f
00000020: 5ff6 599f c3d9 cdbf 305c ecd3 e4b3 9a3f
00000030: 5bef ad8e 4b54 c1bf b0c6 50d8 7e2d d73f
00000040: ab46 3175 8d85 d43f 4a01 2f85 4868 d73f
00000050: 828e 35fc c549 c03f 48b7 ae32 ec8d b03f
00000060: a257 8151 edc8 b7bf 2453 59d0 2916 c4bf
00000070: 70c7 d87d b70d e13f 0e53 c5c2 bada d13f
00000080: de55 14f9 6566 ca3f c792 123f a32d a73f
00000090: 54e9 8095 b770 9d3f 9256 4b86 5c04 c7bf
000000a0: 0133 30d0 0e83 bd3f fda2 af62 41a3 d7bf
000000b0: 911d 207a 36fa e0bf 53d7 da6c c459 9bbf
000000c0: 7558 099d 1af9 a93f 2b6c 7212 188c c73f
000000d0: 99e7 9220 1b5d 503f 25a4 8370 4b92 c03f
000000e0: 992b a472 9b4e d5bf d1d9 ed6b b6ad c7bf
000000f0: c155 2f55 958e cbbf a224 5a32 9005 d2bf
00000100: f634 8506 f21d 813f c27a 8412 a435 6b3f
00000110: cdc1 7792 2f25 ccbf 38a7 ef37 0afe bb3f
00000120: 54d8 cecd 530e 58bf 5fa4 d426 5195 da3f
00000130: 7e00 c3ef b220 c93f 2c01 6b6a 44d3 e73f
00000140: 66c9 7c74 bb81 b43f 3349 a1ee 2a13 c53f
00000150: 7abd 5f68 8aca c1bf 1ebf 8f10 996a c6bf
00000160: f53f 09cb 34b8 aebf e8c7 39ca 1f82 a1bf
00000170: 3dd6 5a22 c238 c53f e73a 4018 9fd8 cc3f
00000180: 14fc 54d8 2f87 ae3f 307f ce43 4dd2 a43f
00000190: d0ca 4261 c6e6 b63f 2cf3 6d48 22c4 c53f
000001a0: 30ae 888e cbe7 d83f 74b0 11cb 6c04 d03f
000001b0: 6e37 9ba5 c0d6 df3f e6da 2fbf d038 d83f
000001c0: 5dde 11af d2d2 b53f 795c 9ba3 123a cd3f
000001d0: 0f72 a386 c451 cb3f 8eb9 1f2e 14aa bc3f
000001e0: 6ad9 4f3a 0837 c13f b530 7fbd 5a15 d03f
000001f0: 875b 7150 e82f b93f dc92 6369 97e1 c13f
00000200: 0bcf fb8f 7912 b8bf 366b ff4d bbeb 903f
00000210: 8a96 8229 e1df d53f 3066 04be b549 c03f
00000220: 22e0 bc34 1774 843f 724c 503b 0fa4 c0bf
00000230: 56cc bbf2 ff8f bfbf 624c c922 b564 aabf
00000240: 3f99 2d79 0996 443f 6f42 cb87 c7d2 bd3f
00000250: 8fa8 2932 f296 c2bf db9f ce38 80ef 943f
00000260: 6539 3d9d 0681 4c3f c892 7e1a 4776 a93f
00000270: 5fae 2afc 5b11 b33f 5a94 cd81 8b53 b0bf
00000280: f04a e638 f386 b7bf 9266 2cef ee84 bcbf
00000290: 1e76 cd8e bab6 b83f 8583 c7e8 b789 9d3f
000002a0: 64d1 f32b 1555 b23f 91c6 7d0b fca5 783f
000002b0: 5561 f86c dd8b c53f a7dd f818 0e2c b6bf
000002c0: 5900 2d08 c745 a7bf 9f21 8e6e 4b84 c43f
000002d0: 1cd1 19e2 e3da 943f 2a00 142d 778d aebf
000002e0: b8e1 f684 58cf bfbf 6fe1 d24e 8039 a13f
000002f0: 8aeb 3457 e430 b5bf e497 de02 078a c43f
00000300: 82ec fcb8 e640 a2bf de80 0448 e1e0 89bf
00000310: 19c7 14c0 8a43 bf3f 585a 5104 9dbe b1bf
00000320: 7fbb 6920 83de c03f a1b4 e0ee 8b68 c53f
00000330: d66c a340 a177 9d3f 9623 1a54 96f5 c1bf
00000340: a661 949b 9bdd c3bf a941 2b43 5de9 aebf
00000350: 4112 afbe f98a bbbf af8f 2ffb d8a8 99bf
00000360: 5085 3178 e6b9 c0bf 0fab 443a e093 c33f
00000370: 72fe d2b7 daea c5bf 5c80 1a52 2110 a8bf
00000380: ab05 02a1 5277 b7bf e81d 5a7c a30f c23f
00000390: b2f7 1556 e4c5 923f 1ddb 7b5d e142 973f
000003a0: d8e7 2e1f 4e5d a5bf c2d8 7854 245a aa3f
000003b0: 734f 1298 87a8 be3f d999 f579 6acd b63f
000003c0: 2273 8d3a 8bcc b7bf 3e5d 5e62 0852 bf3f
000003d0: eeb3 492f 670b 9a3f 8c94 a958 0ec1 a5bf
000003e0: 6aee 2105 5d94 c33f 35c4 8cf8 b3b7 c5bf
000003f0: a435 8a6f 2e09 bdbf d248 ea01 f456 c13f
00000400: e056 4681 2308 b6bf 5815 ee4c 2909 c2bf
00000410: 43be 8155 afe5 a63f eebc d3f2 78e4 b83f
00000420: b36c 6964 f319 b7bf f308 d6ef 9328 b9bf
00000430: 3113 1ab9 ff3c c4bf 486a b61d b9df c33f
00000440: 0706 bf30 1f84 5e3f 8ce8 9cc4 aa62 a93f
00000450: 4c34 1320 2f42 c43f 469d 551c cfb6 93bf
00000460: 275d 1907 1e74 ccbf 1f01 811b f386 b6bf
00000470: 7165 a78b b09f b0bf 1d3e 1c6d c203 c0bf
00000480: 8eb9 b9ef da00 d0bf 0764 e2f3 e774 b2bf
00000490: 71bc 6136 e54f cfbf 64d5 3477 6d56 83bf
000004a0: 8530 0f6c c6ab 9a3f 708c f0ba 18ea cc3f
000004b0: 79ad d149 7432 b33f 0eba 3ab4 51e5 bb3f
000004c0: eba9 2137 1ccd ca3f 122d 3597 a327 a3bf
000004d0: 552f beea 4921 be3f 5a06 9734 8fad bfbf
000004e0: af81 d1a1 04e3 73bf 271b 6f68 8acf c5bf
000004f0: 934e b475 51c0 c0bf b4d7 2e7b fbb1 9a3f
00000500: 38f6 e9ff 9661 583f b667 4262 4f5b e1bf
00000510: 091f 5ab7 e056 d0bf 3c0e 1f8b cee9 e4bf
00000520: 99da a1e3 c919 d9bf 968e bef2 7f37 d8bf
00000530: 72c9 e036 bd75 e0bf 9981 3dd4 e707 e8bf
00000540: 432b 0f8b 6648 bb3f c059 fd84 b7e4 b63f
00000550: 960e 1d3b 4cfa b63f e016 b848 806e bd3f
00000560: 5ebc 74d5 537a c13f 879c 3d38 9a6b a6bf
00000570: 08af aa8d 5950 94bf
0.1381662241087682 0.265607768850833 -0.10010629120686719 0.10744850765714661 -0.2332081344683727 0.02607686561085759 -0.135384983699505 0.36215182423175474
0.32065140194490976 0.36573994642460106 0.12725138487722992 0.0646655677544149 -0.09290965309023005 -0.15692637131965015 0.53292440967037 0.27897519131265447
0.20624994909364508 0.0452700628750669 0.028750294208501018 -0.1798206001027905 0.11528103430482518 -0.3693393195849664 -0.5305435548079221 -0.026709622520420705
0.050728637380118714 0.18396283055048576 0.0009987606920689228 0.12946455949648442 -0.33292280383528233 -0.18498878736472915 -0.2152887979452043 -0.28158955495070803
0.00835789759062287 0.003321476415421771 -0.2198848214316186 0.10934509149197147 -0.001468259658606215 0.4153635863500024 0.19631039340129414 0.7445394590832044
0.08010455697948302 0.16464745189529992 -0.1389935502661322 -0.17512811001460532 -0.05999913195103083 -0.03419589370322723 0.16579462697488792 0.22536076244474332
0.059625144155227044 0.0406669755241168 0.08945884584936015 0.1700480321559551 0.3891476528103537 0.2502700789543788 0.49748245403758673 0.3784677378711606
0.08524815344014187 0.22833474148385216 0.21343285154479516 0.11197019697258367 0.13449194762479105 0.2513033724360512 0.09838726009307495 0.13969700475640578
-0.0940319038889436 0.016524244914630525 0.34178952268334994 0.12724944856818032 0.009987050339631823 -0.13000669857192154 -0.12329101253617245 -0.051549587723138016
0.0006282373673059185 0.11649748864443564 -0.1452315087256619 0.020444873301727156 0.0008698732658361351 0.049730512603934296 0.07448363214887753 -0.06377479475993778
-0.09190292491102148 -0.11140340174861255 0.09653821932212067 0.028845666487430605 0.07161075900132158 0.006017670202582829 0.1683308393555857 -0.08660972699805446
-0.045454234836598224 0.1602873124904933 0.020366249728298688 -0.059673046353055106 -0.12425759550286031 0.03364182436183937 -0.08277728203840531 0.16046226158249433
-0.03565140731958484 -0.012635955820372077 0.12212435903054732 -0.06931477885641735 0.13179053385416847 0.167253009452371 0.028776664324010458 -0.14030722719715233
-0.15520043465290917 -0.06037417836126064 -0.10758934884422279 -0.02505816491237994 -0.13067322605915388 0.15295031399849576 -0.17122968650618337 -0.04699806334724663
-0.09166447096688184 0.14110225269199295 0.018333022836934006 0.022716065722273904 -0.04172748690275768 0.05146897822526021 0.11975905859645568 0.08907189824603935
-0.0929648416471989 0.12234547044351005 0.025434124242042992 -0.04248852569870917 0.15296519041645534 -0.1696686709997565 -0.11342134688512445 0.13546609967722262
-0.08606168657419344 -0.14090458160732555 0.04472110670837683 0.0972362130012134 -0.0902397270341904 -0.09827541928646948 -0.1581115392511037 0.15526498747643047
0.00186255498827881 0.04958089494762516 0.15826977792895247 -0.01925204859199183 -0.22229361864695216 -0.0879966680668116 -0.06493667039412344 -0.1251147301450012
-0.25005219851200244 -0.0720963449879407 -0.24462571292267257 -0.009442191315069244 0.026045894952219335 0.22589406135475398 0.07498862077925662 0.10896788263446686
0.20938446704833721 -0.03741179676816321 0.11769544583347387 -0.12374205621656512 -0.0048551732007528344 -0.17039613818470764 -0.13086908576280062 0.026069573777668345
0.0014881109815684367 -0.5423962515953835 -0.25530259995910903 -0.6535408704007248 -0.3921990130396949 -0.3783874388266012 -0.5143724510037784 -0.7509650368993334
0.10657349486352267 0.08942744252030987 0.08975674098206307 0.11496736312264089 0.1365456383004781 -0.043789691319767114 -0.019837760230685425

tcn.network.0.downsample.weight f8 [5, 3, 1]
00000000: 3d1f 0082 d224 d1bf 5c92 9590 cbb5 c3bf
00000010: 39ef 79b3 047e c7bf 9d8c e479 018a d23f
00000020: 54b6 0ffa e110 a83f 9793 5436 be29 a4bf
00000030: d56d 5aa0 10c1 873f 8d21 8d32 e952 893f
00000040: f1b8 7195 210a 6ebf 118a ec96 5b32 91bf
00000050: 43de 7036 8ddc 613f 5dd9 5b45 9f83 693f
00000060: 5f9a d3e5 4338 d2bf fb6f 851e 26a2 bfbf
00000070: d73f 0505 cdc7 bebf
-0.26787245459898995 -0.15398544845369855 -0.18353327525607613 0.28967320350256803 0.04700380494601278 -0.03938097394192324 0.011598710912315827 0.012365171294405975
-0.003666940301221826 -0.016793662153881842 0.0021803625163803477 0.00311452014545492 -0.28468415683747667 -0.1235679459109064 -0.12023621914454395

tcn.network.0.downsample.bias f8 [5]
00000000: cc02 783b 78fa d33f 67a3 9fb3 7061 963f
00000010: 9218 37ef a470 e1bf bf96 af1a d97e c1bf
00000020: a025 dfdf c957 d13f
0.3121624546766213 0.021856080020288184 -0.545000521867012 -0.13668359568617025 0.2709831892248875

tcn.network.1.conv1.bias f8 [5]
00000000: a70d bfb9 e447 9a3f aa09 663f fd63 843f
00000010: fa8f 67a8 6c27 89bf 4db2 1bd1 75f1 c4bf
00000020: 9a0b 1051 cf09 c5bf
0.02566487678246934 0.009956339356681127 -0.012282227410601355 -0.1636187811885911 -0.16436187227381255

tcn.network.1.conv1.parametrizations.weight.original0 f8 [5, 1, 1]
00000000: d8ed 5060 634d eb3f 0470 a4fa 4407 e53f
00000010: 30d3 63b8 0938 df3f 50cf 45ca 02fb e23f
00000020: 8ef9 3d0f f0de e63f
0.853196800343933 0.6571373839719858 0.4877952862437267 0.5931409788740698 0.7147140786835722

tcn.network.1.conv1.parametrizations.weight.original1 f8 [5, 5, 7]
00000000: 9a11 ecfe 8433 d2bf b509 0678 4b1b d1bf
00000010: 4348 8d7c b007 d1bf a9ea ceb2 18bf cbbf
00000020: 794b 3a70 1167 c2bf 4343 68b6 deb9 cabf
00000030: e00f acbf dadd c5bf 0e3a 9478 70f2 d63f
00000040: 5266 ee88 09b3 c13f f2db 59c8 c870 b4bf
00000050: 64f1 40a3 0ef8 d03f 3d1c 5028 3fdb c33f
00000060: f35c dde4 48c9 b13f f74c 9cd8 71dc 7dbf
00000070: 46c6 9d9d fe75 55bf 46c6 9d9d fe75 553f
00000080: 46c6 9d9d fe75 55bf 46c6 9d9d fe75 553f
00000090: 46c6 9d9d fe75 553f 46c6 9d9d fe75 553f
000000a0: 46c6 9d9d fe75 55bf 46c6 9d9d fe75 553f
000000b0: 46c6 9d9d fe75 55bf 46c6 9d9d fe75 55bf
000000c0: 46c6 9d9d fe75 55bf 46c6 9d9d fe75 553f
000000d0: 46c6 9d9d fe75 553f 46c6 9d9d fe75 55bf
000000e0: 09a3 7acb 4cea b7bf db93 feb6 1b21 babf
000000f0: eefa 51cd a4c1 b5bf 57b6 8fba ff33 a23f
00000100: f99e 02ed 1ae5 b9bf c99a 069e 24ca 4bbf
00000110: 90e6 6497 4dc8 b63f 5e4e 8c94 6e4d a13f
00000120: f505 06b0 cb84 9d3f daba 1a5f bddd a43f
00000130: 6c13 51c9 6650 d03f b0f7 93a9 aae1 b43f
00000140: a76a 0750 a686 c83f 298f 69f2 fccb a9bf
00000150: d819 8bd4 23d7 a7bf 613a 0bf9 63c8 8e3f
00000160: dd0d 9b13 fb17 a3bf a4a1 cbd5 dd63 c8bf
00000170: c443 30c1 7856 6dbf cdbd ba57 a970 bebf
00000180: 6d83 3a54 71ad c8bf a7d7 24fd ee61 623f
00000190: 562b bb95 e7f5 69bf 0453 9991 81c7 573f
000001a0: e36e 119b 1de7 6abf c7fc 564e 00fa 423f
000001b0: 38f9 f562 f387 6c3f 27e6 e2a2 d368 71bf
000001c0: 62ea c383 9f34 70bf 5558 c453 8764 563f
000001d0: 08a2 60d2 b956 51bf d906 a9d5 5e54 543f
000001e0: 42f2 2826 a94e 5b3f a25b ae66 1515 54bf
000001f0: 791e d54e 66d1 56bf 273e 94b3 2431 d23f
00000200: 679f 7aa3 de42 e23f 8273 27fa 86af db3f
00000210: dc6e b92d 3da0 ea3f d363 32e7 4102 c63f
00000220: 979d 7385 2180 c33f 37df edf2 f0ff c4bf
00000230: 86ac f568 c67d b3bf dc87 58f6 5a13 b0bf
00000240: db32 2ff9 7bdf b63f 7cd8 9822 776e c4bf
00000250: 005c 64e5 dddf c5bf 1db6 13eb a999 94bf
00000260: d1ef d5fb 6015 ab3f 1a9e 010a 2129 b8bf
00000270: 44ec 530f 4d15 c03f 3f90 1890 ed55 cebf
00000280: 62e9 24da 7f13 b93f 5db7 8792 0474 c1bf
00000290: e154 e77d 6bc9 a1bf 3f05 d0ce d874 b4bf
000002a0: 3fa9 861c 42c2 a83f 856c 8967 dbf8 c73f
000002b0: 9ac2 7700 c023 a5bf d07d b3bb 0924 c6bf
000002c0: bf27 bb58 2ef4 b53f 78a3 8075 b1f6 b1bf
000002d0: d724 5325 0294 c6bf 0af0 5cb5 524f c4bf
000002e0: e534 193a b552 c33f 19a7 f463 0477 bc3f
000002f0: 23d4 f767 60ce a73f 4356 da53 f359 a8bf
00000300: 456c b2d2 d6ec b43f f572 1ddf 8b11 c7bf
00000310: 0014 4cad f648 bd3f fa6c 0515 155a ca3f
00000320: 0147 afb5 14fc c8bf eb2e 12a3 261d c03f
00000330: c7d4 825e 0f81 aabf 421f 9237 f0e5 b33f
00000340: 7bbb 1e56 0349 b9bf 413a 1801 fdad c4bf
00000350: e0a4 ea8d 97db c3bf 6316 6bda dff1 c13f
00000360: 294a c01d 522d b5bf 7c2a 7c21 d624 b9bf
00000370: 78e1 6fca 0504 b3bf dd6e f694 0207 15bf
00000380: 9698 7a48 38df b83f d65e b9d5 ecb2 a1bf
00000390: 479e b537 f725 c4bf 711b d35a a7ff a8bf
000003a0: 5a23 7023 054c c5bf ba35 64f0 f19c 3d3f
000003b0: b64a 1e7c 6e1d a73f 9a61 2abf beb3 b83f
000003c0: 636f 0c15 2136 b0bf b2ee aefd 8f41 c13f
000003d0: 4063 f6c3 6b96 c0bf 3b53 21c2 6671 b03f
000003e0: 1a8c 956a 67c4 c4bf 99c7 cc75 7f57 b63f
000003f0: d86d 0fe1 7c1c bdbf fb53 1898 a003 813f
00000400: 6d4b 38d4 ba5b b5bf fb23 b2cf 2029 bebf
00000410: d46d 0e96 f93a b43f 228f 8318 9e6b b53f
00000420: 31c0 9317 5d11 b73f de70 1e68 85f1 c43f
00000430: 86f8 a611 9135 b63f e5e5 ced5 d4b5 b3bf
00000440: 11fe d80e 9dfc 9e3f 4bf5 fc8d dff8 743f
00000450: 2f97 5c3e 0ca5 9f3f 6072 1677 e3fd b73f
00000460: 4333 b5d9 b665 d73f 62e0 4e7a 4e21 b4bf
00000470: 8539 a99b d630 bc3f b75b 0973 bfc1 c93f
00000480: 0dd0 4290 23c9 c23f 3995 58f1 cb6d b93f
00000490: d81f 589c 2648 b23f 0e21 9299 0026 9b3f
000004a0: a57d 0e3b 596f bf3f 879b a37c 3dcb b0bf
000004b0: 3e91 9cbc 1022 a7bf 3075 7c58 f6a2 a13f
000004c0: fc95 5a6a 2152 abbf 1df8 f8b6 bc76 733f
000004d0: fd81 e484 aae4 67bf 0ad1 f8d4 4252 633f
000004e0: 5a3c 4158 3d28 68bf 4de4 7fdb 2321 673f
000004f0: 889b 9406 68b8 643f 7816 8b12 c0f5 60bf
00000500: b87e d588 2a99 57bf bc5a 1e54 2986 683f
00000510: 02fc 1162 4deb 673f 1cc9 dc50 7ccd 65bf
00000520: dca2 8c03 0467 65bf 1884 e74f 8056 61bf
00000530: 3c08 758a d846 653f dc48 d7e3 aff0 68bf
00000540: a3e4 386d db0a e13f adbd 90e9 2047 e13f
00000550: 91e9 2220 04b6 e33f c266 1e1b 9d5d e63f
00000560: f17c e7d2 6b83 e83f 87af 26e4 7a21 e73f
00000570: 379b 2724 fc56 ad3f
-0.2843945016359385 -0.2672909423928574 -0.26609432376165304 -0.21676930170891254 -0.1437703893648992 -0.20879730135541238 -0.17083296164503192 0.3585473229913142
0.13827628313156254 -0.07984595195181024 0.2651402086519481 0.155128378566788 0.06947761142270163 -0.0072903105845114535 -0.0013098703843436184 0.0013098703843436184
-0.0013098703843436184 0.0013098703843436184 0.0013098703843436184 0.0013098703843436184 -0.0013098703843436184 0.0013098703843436184 -0.0013098703843436184 -0.0013098703843436184
-0.0013098703843436184 0.0013098703843436184 0.0013098703843436184 -0.0013098703843436184 -0.09341888396978616 -0.10206769197118552 -0.08498601925564817 0.035552970431905244
-0.10115211759932298 -0.0008480719371178554 0.08899388261934349 0.033793883927640364 0.028826887720702705 0.040754239901948444 0.25490731868585814 0.08156839981162878
0.19160918147720915 -0.05038443049559611 -0.046563262648806336 0.01503065208217186 -0.03729233373953964 -0.1905476850436233 -0.0035812719811549616 -0.11890657798607336
-0.1927930508873276 0.0022439639807556202 -0.0031690142767265934 0.0014513745612891324 -0.0032840326535231597 0.0005791188711369515 0.003482795109163519 -0.004250361160467209
-0.0039564353030479855 0.0013667413287002013 -0.0010582747140778243 0.0012408186072580456 0.0016667034002601088 -0.0012257298464868134 -0.001392698202225788 0.2842494729711426
0.5706628029774777 0.4325883334075159 0.8320604222348851 0.17194389141948693 0.1523477460498099 -0.16406070577408524 -0.0761379247903041 -0.06279533876707383
0.08934759935000207 -0.15962113560971491 -0.17089437199385316 -0.02011743066116455 0.05289748262563843 -0.09437757963461771 0.1256500553934946 -0.23699731384215458
0.09795378757272524 -0.1363530841330726 -0.034739836806389375 -0.07990794228682761 0.048357072813205886 0.18728201442249684 -0.041288375908952804 -0.17297479310125974
0.08575715700422303 -0.07017048948968163 -0.17639185736178462 -0.15867074828736377 0.15096154534186393 0.11119105758976068 0.04649640339986429 -0.047561267839381326
0.08173887866944181 -0.18022297281540714 0.11439458590400875 0.20587409521508687 -0.19519289847681168 0.12588961565449294 -0.05176589993190244 0.07772733074864127
-0.09877034046688309 -0.1615597014756123 -0.1551389162971537 0.1401939217086464 -0.0827227900156592 -0.09821832959657145 -0.07428013031301883 -8.021310099198425e-05
0.09715606469635171 -0.03456821545540627 -0.15740862102687656 -0.048825483166686896 -0.1663824484860708 0.0004518595382173269 0.04514642014614394 0.09649269263389329
-0.06332594646340577 0.13481330763703664 -0.12959048336485957 0.06423036803728348 -0.1622437735014451 0.08727261186575531 -0.11371593947062963 0.008307699815341954
-0.08343093567991185 -0.11781506605815643 0.07902488625989373 0.08367336367114978 0.09010869813550994 0.16362063964778079 0.08675486260378493 -0.07699327678610464
0.030260519057490557 0.005120156536404362 0.030903044992690084 0.09371778161443833 0.3655831457188478 -0.07863321767843126 0.11012021351164065 0.20122521512049982
0.14676327270501624 0.0993316139434527 0.07141343419073054 0.026512154935091785 0.12279279414950979 -0.06560119908281879 -0.045181773208499795 0.03444642858651503
-0.053360981209419095 0.00475190846151288 -0.002916653676166668 0.0023585610686273116 -0.0029488752498206096 0.0028234196033705473 0.002529338050084321 -0.002070307866548767
-0.001440326249699737 0.0029936606596935016 0.002919818056909219 -0.002661459736281858 -0.002612598266200512 -0.002116442308065302 0.0025972585023348576 -0.0030444560386310004
0.5325753339049196 0.5399326860260111 0.6159687640822985 0.6989274530089562 0.7660426253532063 0.72283691941037 0.05730426732389165

tcn.network.1.conv2.bias f8 [5]
00000000: 113e 0214 9528 b5bf 000b 36c2 49f2 d43f
00000010: 36f6 ebd0 cb87 c1bf 97e3 3701 6acf 533f
00000020: 58f2 6ca8 55dd a5bf
-0.0826504873132239 0.32728809324196106 -0.1369566698194135 0.0012091193392491423 -0.042704273996126474

tcn.network.1.conv2.parametrizations.weight.original0 f8 [5, 1, 1]
00000000: 6c77 8314 61ca ec3f 5c98 a062 6a06 ea3f
00000010: a44f 2c72 af76 e03f 0610 d854 5ab9 e03f
00000020: 18f7 fd19 5be5 e43f
0.8997044945387933 0.8132831503214777 0.5144879560416382 0.5226260811909931 0.6529975421578653

tcn.network.1.conv2.parametrizations.weight.original1 f8 [5, 5, 7]
00000000: 30ad 7013 d443 e03f c70a e6ff 77a5 d63f
00000010: bfec 5815 d096 c53f 6931 afa3 1c41 9a3f
00000020: f29d bc70 9417 863f 0950 ff47 d0ee 873f
00000030: b1e6 1d48 648c a0bf 9d56 0b15 d4e4 a43f
00000040: c6a3 93e1 7954 b53f f65b 5280 2ddd ba3f
00000050: 9318 a4df ab46 aa3f 997d c16b 48a3 a83f
00000060: 47ee bfab fd68 a93f 4a9b bb9a 8843 ae3f
00000070: e217 0fee 95c7 56bf 2b4d 0ddd 11a7 553f
00000080: a86c 3aa7 2f52 533f 2827 8d4f e175 583f
00000090: b52a 1f85 aa9b 53bf 1ce6 beb1 29ac 53bf
000000a0: 2c4b ef7c 63a6 553f 9a6d a88b 39a1 59bf
000000b0: 4376 6963 8c12 543f afc0 3374 78a0 59bf
000000c0: 5a2e d599 4fb3 58bf e214 9a2c 77fe 583f
000000d0: e261 1402 12a5 553f ddbb da07 4dae 533f
000000e0: 4309 c03d 0f3b bdbf d489 51f8 0e31 b0bf
000000f0: 66a7 bc70 25b7 be3f e7eb 8e45 c9df b2bf
00000100: 10e9 ed61 c68f a7bf db67 d4df 52b3 b0bf
00000110: e5c5 1eae e49c abbf b3b1 eb94 ff27 c73f
00000120: a2ac 9a5a 2849 44bf dbba 61c6 3fd8 cf3f
00000130: 7fd0 3532 9d8b b13f 0e89 6f2f d7c4 6e3f
00000140: 8ae6 be64 64d5 ba3f 7aa1 68ef fe02 c43f
00000150: f30e f19d 211b 9e3f a13f 9eb0 78c6 c0bf
00000160: 7c93 948c 020b a43f dbb9 60ef cebc b43f
00000170: a994 b7fa 442f c13f d6ec 41d3 febd acbf
00000180: c2ae e9f2 5201 dabf f2a7 3135 4634 74bf
00000190: 2e0a bae1 41d1 31bf 6d65 ab77 2c62 6c3f
000001a0: b22c 51b1 4a38 693f 4d48 6a36 bfb1 6cbf
000001b0: 7bc5 030d 44e5 363f 3077 4130 ce6a 6b3f
000001c0: 9b64 7ce9 f928 6fbf cad5 97d9 7569 6e3f
000001d0: c068 27d8 9145 6bbf 2a7f 4b5d ce78 71bf
000001e0: e92a f48b 7ab0 6bbf b266 387c 2f01 703f
000001f0: e06a c6e3 76b6 733f 0fe3 11d5 b096 eebf
00000200: 2876 4d13 40ea a1bf b738 51fc 79a6 91bf
00000210: 4cf6 cfd0 8025 b43f 7d6f 5c95 af27 c23f
00000220: d870 c688 2bec cc3f 629b 2749 9587 d1bf
00000230: 6d6b beaa 3d1d 7cbf a39c 88b6 08ab b7bf
00000240: 964e 8986 dc2a b43f f16f cd8c 9fdd b8bf
00000250: 6ea6 d605 d096 aa3f 4693 659c 6922 b93f
00000260: 6913 869a 2be3 b0bf 3315 6ae8 28e8 c0bf
00000270: 85e4 c848 47af 59bf 66fe 5dd9 b396 b5bf
00000280: 4953 7748 c975 b33f 0a65 1319 e696 b13f
00000290: 4feb 543c 14e0 8f3f bd63 c4e0 0d6f bb3f
000002a0: 6b81 f914 4b6d a83f dcf5 ec8d 4f1d 63bf
000002b0: 301b 1a89 af4f 90bf 1280 d051 5c55 bfbf
000002c0: d137 10b5 47ef adbf b620 81fd cf4b a93f
000002d0: 20d2 3125 7c54 a8bf a788 72a1 a48c a43f
000002e0: 4545 9692 1b30 a6bf 9ee0 4e2c 87c8 bb3f
000002f0: 387d 5a87 b204 c5bf 7ebf a354 8a44 9b3f
00000300: d41d 4085 0262 9abf efb2 37d3 22f7 93bf
00000310: 9863 ac26 e87c c53f 5bed 801d cafd bbbf
00000320: cf59 9e09 050b b83f 8ea4 d4ec e88f a63f
00000330: 05ca 5fc6 8697 bdbf 68b0 56e1 321a c3bf
00000340: e7a5 0e48 1e7a c2bf ca90 95b2 4316 9e3f
00000350: cb11 308b 53bc a53f 4792 f5e2 897d 8a3f
00000360: e50f 9cb6 29a2 c7bf 8233 7970 71e3 9b3f
00000370: 52fd 6d50 18af 903f 4fb4 f944 a96b a83f
00000380: e1a9 bddd f149 e13f b159 c07e 9f58 e43f
00000390: fff3 ef89 d504 bfbf 79cf 0efe 32c4 e53f
000003a0: 0bd0 b16b 6dc0 bdbf 9f57 3b2d 38ec a7bf
000003b0: 67dd d3b5 8c61 c0bf 029d 8266 d29c 52bf
000003c0: 1289 b155 9880 64bf 97e5 d6da e4cf 543f
000003d0: d582 2475 d19f 52bf c7b8 2c43 33d4 c0bf
000003e0: d820 fe75 2318 533f feab e05e 457b 523f
000003f0: c001 0048 ade2 b83f 551f 40f9 5ab9 52bf
00000400: 7e80 67d5 e10a 52bf ebb4 8230 cb9c 52bf
00000410: 1b22 c165 f3ed 553f 2ffd 0ad7 ac9a 57bf
00000420: 770c 211d 59e3 5ebf e29a 1766 9a5a d13f
00000430: c9dd 3fcc 2089 c63f 7203 b491 573a e23f
00000440: 9af7 997f 2925 b23f 2c01 6c45 0013 b5bf
00000450: 78fd 6d14 d2d9 c5bf e02d d375 ef2b cbbf
00000460: 699e d8f2 2cba d13f bf12 4034 e146 d33f
00000470: 7811 46d8 0d84 c13f d0d2 c3e8 d4f8 b0bf
00000480: 2e73 d061 84d5 b5bf 7f66 bc43 0f95 bfbf
00000490: f42e 6935 ab9e bfbf d65b 470f 8386 d33f
000004a0: 9d2a 5dc8 b232 95bf 5896 1fe1 6305 813f
000004b0: 8c3a a316 50da dd3f 8afc 9003 1efa 9dbf
000004c0: ba98 6dc5 835a c33f 7eab 79ee 9a13 c43f
000004d0: 7726 96a3 e305 4cbf a615 6eae d34f 6d3f
000004e0: 9491 be52 cccd 4cbf e56b 4587 75a8 673f
000004f0: 3811 d51c 99bd 503f 0291 2166 85d3 6c3f
00000500: 9b64 211c 9851 6f3f 0e88 2d90 acfe 69bf
00000510: db13 2546 a08e 643f f5bb 0dfd d3f9 6c3f
00000520: 6ad9 4c67 ee9a 4d3f 75bb fafa ff1b 70bf
00000530: ba27 bbd4 2689 6a3f 1bcc efb9 50b7 6abf
00000540: 99fa ed15 f528 bc3f 013a 7b87 d4ad b23f
00000550: 1656 4da6 7879 da3f a15c e647 4ab5 d83f
00000560: 7821 83d6 f30a c93f b132 2a59 6e27 c43f
00000570: b5b3 6555 a7cc be3f
0.5082798366251264 0.3538494109163079 0.16866494219161685 0.02563900708246206 0.01078716248555531 0.011685969540771184 -0.032321103862114405 0.04080832249534903
0.0833202529644402 0.10493740446905506 0.05132042984955478 0.048120749620234445 0.04962914201311413 0.05910899056271164 -0.0013903583678582733 0.0013215708206260706
0.001179262672770057 0.0014929485607404012 -0.0011967816576425154 -0.0012007147952161129 0.0013214084208256855 -0.0015643178909446665 0.0012251254062428808 -0.0015641380603561952
-0.0015075948097828169 0.0015255130587388745 0.0013210941181737092 0.0012012245419261638 -0.11418242700168428 -0.06324857294524772 0.119982090018906 -0.0737272066898381
-0.046018790678276855 -0.06523626293747446 -0.053931375746639344 0.1809081532623061 -0.000619072631896773 0.24878689943894625 0.06853659129939337 0.003755970271854931
0.10481860599147744 0.15634142579916582 0.02940037275790437 -0.1310568678277351 0.039146499310198174 0.08100598663506935 0.13425504915281763 -0.05613704994990491
-0.4063308117099319 -0.004932665108848143 -0.00027187212410964806 0.0034647816186008013 0.0030785998192520364 -0.0035027250881478956 0.00034935866734916277 0.003346827232276882
-0.003803718671303869 0.003712396789292004 -0.003329071857689575 -0.004265600310389842 -0.0033800500383497256 0.003907380570603957 0.004812683499404641 -0.9558948670884052
-0.03499031291606186 -0.017236619973396396 0.07869725320775806 0.1418361167242174 0.22595733812784746 -0.2739003385926734 -0.006863823782533679 -0.09245352226627061
0.0787790134866618 -0.09713170230446601 0.05193185874243232 0.09818134372978901 -0.06596634409477321 -0.1320849547229642 -0.0015676685462849016 -0.08433078820052628
0.07601602572624445 0.0687087832660788 0.015564115611245958 0.10716330277899906 0.04770884161985375 -0.0023333123966995228 -0.015928976767578706 -0.12239624974654387
-0.058466187336406635 0.04940652818237494 -0.04751956895862386 0.04013552161019734 -0.043335782665176605 0.10852856475583159 -0.1642058525949126 0.026628648200982756
-0.025764502890550947 -0.019497436658570896 0.16787435425137853 -0.10934127064040437 0.0939181469424064 0.04406669512747739 -0.11559336035842456 -0.1492370224272037
-0.14435175436419387 0.029381807112614657 0.04245244096822239 0.01293475841402726 -0.18463632027135116 0.027234814157327765 0.016292934330974625 0.04769638983712154
0.5402764635921892 0.6358182407009761 -0.12116751306162142 0.6802000963275382 -0.11621745948087907 -0.04672408630510393 -0.12797697904873503 -0.0011360220615104781
-0.0025027251518149407 0.0012702689085542834 -0.001136736439157617 -0.1314758375169218 0.0011654230401934498 0.0011280229041499275 0.0972088146954837 -0.0011428249754334614
-0.0011012273222306408 -0.0011360153458029275 0.0013384701660631496 -0.001440686024736081 -0.001885258698636231 0.2711549756044588 0.17605981801146545 0.5696218343510806
0.07087954869527238 -0.0823211831557315 -0.17070985791722726 -0.21227830174608098 0.2769882556480981 0.3012011537796688 0.1368424707435556 -0.06629687006700213
-0.08528926265757938 -0.1233682194109864 -0.12351484350181946 0.3050849580008025 -0.020701211432689538 0.008311062152596069 0.4664497586317473 -0.029274434058831157
0.15119979038280978 0.15684830326366844 -0.0008551942366221273 0.003578103485269951 -0.0008790252372717238 0.0028879447437879396 0.001021766208695386 0.0035188298652873993
0.0038230868240530353 -0.00317319587468124 0.0025094156600595613 0.003537096061726692 0.000903479011504155 -0.003932952807800362 0.0032392271440117833 -0.003261239689430718
0.10999995980635403 0.0729649382367157 0.4136640190166373 0.3860650732180578 0.19564674352865175 0.1574533400893379 0.12031026682752961

tcn.network.1.net.0.bias f8 [5]
00000000: a70d bfb9 e447 9a3f aa09 663f fd63 843f
00000010: fa8f 67a8 6c27 89bf 4db2 1bd1 75f1 c4bf
00000020: 9a0b 1051 cf09 c5bf
0.02566487678246934 0.009956339356681127 -0.012282227410601355 -0.1636187811885911 -0.16436187227381255

tcn.network.1.net.0.parametrizations.weight.original0 f8 [5, 1, 1]
00000000: d8ed 5060 634d eb3f 0470 a4fa 4407 e53f
00000010: 30d3 63b8 0938 df3f 50cf 45ca 02fb e23f
00000020: 8ef9 3d0f f0de e63f
0.853196800343933 0.6571373839719858 0.4877952862437267 0.5931409788740698 0.7147140786835722
