Full_System/or_lstm_1_987.pth (torch, 9662 bytes, 6 tensors)

lstm.weight_ih_l0 f8 [48, 5]
000000 17 47 37 00 2c 8d 9a 3f 66 55 83 6a b4 ae c7 bf
       0.025929152978114347 -0.18501906586486
000010 53 0a 15 2a 3d 4f d8 bf 30 04 98 70 e8 7a e5 bf
       -0.3798363600691676 -0.6712534140680244
000020 46 98 e5 2b 7b 49 b2 bf 78 1f de b3 4f 68 e1 bf
       -0.07143373319340282 -0.5439833176651367
000030 8e a4 3c ac 7b a0 f5 bf 0d 51 6b 1b f0 b5 8f bf
       -1.351680443573318 -0.015483737789886232
000040 ec 3c d3 bf f1 99 cf 3f 0e d2 c2 10 be 07 a4 3f
       0.24688550821745225 0.03912157015421168
000050 dc eb 52 d3 79 66 d0 3f 28 e5 df bc 15 e1 ca 3f
       0.25625463139630056 0.20999404642479047
000060 5c b3 34 8f eb 03 d6 3f e9 8d 9d 8d 78 e6 da 3f
       0.3439892672056908 0.42031682805665455
000070 d8 4b 39 89 b2 bf df 3f 02 73 0b 6b f7 af e1 3f
       0.4960752811504654 0.5527302828519114
000080 02 29 5d b2 60 6a e1 3f b0 99 6f 8c ef 18 c0 bf
       0.5442355617208536 -0.1257609782907827
000090 5e 74 03 e0 42 dc b8 3f 7b 55 50 26 66 56 dc bf
       0.09711091965751126 -0.44277337781507925
0000a0 e7 e3 58 2d 91 e4 ab 3f df 08 69 39 f1 b9 93 3f
       0.0544782035689833 0.01926400101570713
0000b0 fb 27 60 27 49 29 7c bf 46 f0 27 20 d3 30 d0 3f
       -0.0068753106661549835 0.2529800237678085
0000c0 34 e4 ef c6 ab b1 b0 bf 15 9b 95 03 b6 20 c0 3f
       -0.06521104437696651 0.12599826025981345
0000d0 23 bc 50 da 87 ea b2 bf 8a e2 ae 07 ad b9 e1 bf
       -0.07389115409817797 -0.5539155149518404
0000e0 7b b9 99 60 0c 47 7d bf 0e 27 04 c1 34 28 d7 bf
       -0.007147835110670515 -0.3618289837764771
0000f0 43 3c 78 28 e2 1f cc bf 8c e2 d9 bc 39 f1 cd bf
       -0.21972300506647188 -0.23392411919828182
000100 69 3e 01 4c a1 ae d4 bf 85 38 1b 7a 7a 94 dd bf
       -0.3231585733637759 -0.4621874039120331
000110 c6 dd 34 b2 4a 6d c2 bf 71 a5 58 56 f9 97 c3 3f
       -0.14396032048692414 0.15307537761809045
000120 a0 29 37 d1 8e a4 d4 3f c9 db e9 98 ba 21 a0 bf
       0.3225438159103309 -0.03150733105297083
000130 3d cb 52 29 77 ae e0 3f 67 8d 9e e0 c4 29 f0 bf
       0.5212970549676822 -1.0101975225632829
000140 fe 6d ac f8 bc 7b cd 3f 60 04 48 86 87 d7 d2 bf
       0.23033868925345752 -0.29440487016115036
000150 2e c9 7e e8 e9 bf a2 3f 72 10 4d f2 cd fd d0 3f
       0.03662043536259528 0.26549099600038695
000160 74 7d 6d 2d 68 d3 c5 3f 9c eb 0c 00 0f ac cb 3f
       0.17051412790440745 0.21618831160034524
000170 83 83 1e af c6 7e cc bf f5 11 76 ba 66 72 cc bf
       -0.22261889982931046 -0.22224125008155196
000180 e8 45 97 7a 6e b9 d5 bf be 0a 20 b9 aa 6f b9 bf
       -0.3394428441216335 -0.09936015147836039
000190 71 2c 8e 1a e5 e8 89 3f 9b da 52 cf 8a a1 d4 bf
       0.012651243088632054 -0.3223597550053598
0001a0 fc 9a 05 5a 55 b5 e1 bf 60 49 a9 5f 18 d4 de bf
       -0.5533854253997954 -0.48169526426240417
0001b0 1a d5 4e a5 38 dc b2 bf a5 6b 6b 61 7a f0 7d bf
       -0.0736728099426113 -0.007309415863995837
0001c0 4b 6f cf 43 05 7c df bf 88 af 45 31 df 73 c1 3f
       -0.4919446146211512 0.1363486281001054
0001d0 a3 07 eb 26 50 d9 d1 3f 77 e7 9f 7a 52 7f af 3f
       0.2788887386378695 0.0615182661712898
0001e0 df 78 88 f0 d1 82 ba bf 62 d4 ba c4 8e 64 d7 3f
       -0.10355865595235823 0.36551255428213925
0001f0 a5 e3 ac e7 1e 36 c6 3f 57 40 03 68 63 3f 93 3f
       0.17352663337967758 0.018796494697028567
000200 d3 03 ab 78 da 88 d1 3f df f3 8b 00 b2 83 f0 bf
       0.2739778688811018 -1.032152177939899
000210 1e 2b 3b 24 ab 78 e1 bf 05 94 9f 99 17 1b b4 3f
       -0.5459800441397851 0.07853839397974134
000220 34 5b 1b dd 60 b2 c4 3f b2 b1 c5 87 ae 6d c7 3f
       0.16169367595895212 0.18303472165588414
000230 30 a2 ca b9 f1 fc b0 bf 83 2f d8 02 f3 59 d3 3f
       -0.06635962282110408 0.30236506727009543
000240 53 0d e9 e7 c7 56 be 3f 8f 84 02 3f 15 7f c2 3f
       0.11851167117952359 0.14450326515819653
000250 38 8d ae f8 54 cd c9 3f b5 f2 07 c4 b1 2d e3 3f
       0.2015787328974541 0.599327929375781
000260 dd f9 21 06 19 6c de 3f 80 7c 46 bc fd d3 cd 3f
       0.47534776305101706 0.23303195660716725
000270 18 fa 1b 04 08 36 88 3f 4c b4 75 6a 02 e6 d5 3f
       0.01182180655041258 0.3421636619230568
000280 1f 4f c7 44 44 0b b2 bf 08 4b 69 a9 54 54 d7 bf
       -0.07048441580928654 -0.3645221380622137
000290 a3 33 1e 75 bf 5a de 3f 07 7d 78 7a f1 88 e2 3f
       0.4742888110857228 0.5792167083745036
0002a0 0c 98 f1 fe 25 74 d7 3f b1 13 72 b8 77 4e e5 3f
       0.3664641370472743 0.6658285715535525
0002b0 b0 30 56 58 a2 9b d4 3f 75 df d9 48 0a 01 c7 3f
       0.3219991552985091 0.17971924359494165
0002c0 a5 39 52 d7 df 8c d5 3f 5e 55 f1 16 96 07 d8 3f
       0.33672328975162663 0.3754630302476779
0002d0 6b 1c 1a 85 a1 df c2 bf 1b ab a8 2e ee 04 cd bf
       -0.14744967459793953 -0.2267129638506383
0002e0 04 6b 94 fe 82 72 cd bf d4 20 56 c7 27 24 d2 bf
       -0.2300571196618294 -0.28345674959611
0002f0 f2 30 b0 86 72 25 ba bf 92 55 60 01 91 ef 8e 3f
       -0.1021339014843681 0.01510537419748451
000300 f1 74 fc 3d e4 59 ca 3f 27 b2 ab 96 72 78 f2 bf
       0.20586827303569735 -1.1544061551641194
000310 1d 8c dc 09 6d 97 13 c0 80 34 56 c7 81 eb 99 3f
       -4.897876886449947 0.02531245021014117
000320 14 88 a3 9e 5a ab a4 bf 3f d6 32 91 51 af c6 bf
       -0.04036982714184503 -0.17722529973768705
000330 ba d9 93 5f 5d 72 a5 bf b1 01 04 37 f6 81 ba 3f
       -0.04188815871923475 0.10354555934100663
000340 56 75 3e 7b ce 1b 9a 3f b1 66 4e e1 3a 78 db 3f
       0.025496698639121483 0.42921325686038886
000350 ce 3c 3b f7 0d b9 b2 bf af 13 9d 3b 6f 54 c4 3f
       -0.07313620839998977 0.15882673655337728
000360 4f 4c 41 80 ba ab 8d bf 55 63 53 16 b5 2a b7 3f
       -0.014487702406915796 0.09049541277944446
000370 f4 08 3a c1 69 20 df 3f c3 12 c5 ea a9 39 7d bf
       0.48635333890719257 -0.007135070551446079
000380 e5 cb 86 f2 2e 34 b9 bf ed 85 c7 af e4 84 ca bf
       -0.0984525053125221 -0.20718058188417335
000390 75 2f e9 c0 a9 cd c1 3f 87 76 64 ee bd dd c9 3f
       0.13908883971668798 0.2020795263314776
0003a0 cc 69 83 74 c5 ed d4 3f 27 d6 7c be 3e 33 d3 3f
       0.32701240900283035 0.30000275232609613
0003b0 2f e4 1c 51 1b 26 d7 3f 44 9a 43 57 f0 53 c5 3f
       0.3617008487813704 0.1666241098493676
0003c0 9f 28 9d 4f 5c 5d a3 bf 8f 37 37 93 b5 5f a0 3f
       -0.037821659773343834 0.03198020383898303
0003d0 d5 95 99 e2 13 6b b2 3f 5a de 99 8f d4 d8 b0 bf
       0.0719463756773487 -0.06580856805691707
0003e0 80 fe b3 6f 66 3e b7 3f de 1b e5 f6 9d 42 86 bf
       0.09079590060354725 -0.010869249436508296
0003f0 b7 3b 61 ff 07 9f a4 3f 34 33 27 14 fd 0c 7b bf
       0.0402758120768491 -0.006604183758508953
000400 ed 49 eb 46 7b ca b7 bf eb 87 40 68 84 c2 e1 3f
       -0.09293337327407132 0.5549947773145026
000410 c3 57 27 f9 79 17 90 3f 61 17 56 1e aa 4a 81 3f
       0.01571455558026692 0.008443192530431966
000420 5c a4 48 30 46 c7 e4 bf 83 e6 a9 bf a8 0b cb 3f
       -0.6493254607240817 0.2112933097703725
000430 17 28 64 90 1d 5c c6 bf 5e d2 72 4b 57 57 c4 3f
       -0.17468614149430614 0.158915435638522
000440 18 42 25 23 49 0b bb bf f1 81 13 3b 3d ea c8 3f
       -0.10564095600171475 0.19464841255741264
000450 ec 8e 08 26 81 7f bb bf bf e9 8c 43 c9 2b c9 3f
       -0.1074143140654617 0.19664874838220034
000460 eb 27 9c 71 2c 80 a3 3f e4 05 ec 57 3b e0 c6 bf
       0.03808726202812792 -0.17871801178993885
000470 f2 96 0c b4 df 37 a2 bf 92 ab cc 69 a5 95 bf 3f
       -0.035582533577594236 0.12337716897006448
000480 bb 21 e5 3a 36 05 a8 bf 9a e3 ce 7d 7d e1 d1 bf
       -0.04691476315435091 -0.27938782964661757
000490 f4 c2 bc 73 b5 a6 a0 bf c4 a9 c3 ac 50 4c b6 3f
       -0.03252188718614049 0.08710197656515734
0004a0 08 5c 2b 72 41 c4 b2 bf f2 de ba 0b 0e 12 a9 3f
       -0.07330712354028901 0.048965872699623506
0004b0 36 94 3e 8b 76 b1 a8 3f 4c c3 fc 81 6f ef 70 bf
       0.04822893571626034 -0.004134593560409194
0004c0 37 60 f7 82 24 4c b9 bf bf b4 6d ee 71 31 a8 bf
       -0.0988180942289326 -0.047252235751196185
0004d0 27 46 3e a7 49 e1 ba 3f b0 bf c7 df 65 8c 29 3f
       0.1050001176174865 0.00019491904812651622
0004e0 fc f1 d8 f3 f9 85 84 bf 55 d4 e9 dc ab 0d af 3f
       -0.010021164659627317 0.06065117904373866
0004f0 1d 34 e6 c1 9e 1e d6 bf f1 2f 4f 9a 2a ac a7 3f
       -0.34561890540573065 0.046235400520885046
000500 8d 08 82 d4 85 2d 53 bf 02 2d c7 1c 55 c3 af bf
       -0.001170521443811387 -0.06203714348120039
000510 64 0d 49 8b 01 7d c8 3f 23 18 10 e3 64 2e bf bf
       0.19131488133471486 -0.12180166762854631
000520 c0 ba a2 4a b7 8c df bf 7a 2a a9 ed d0 bd 95 3f
       -0.49296362198485255 0.02123190355841096
000530 26 c4 d5 0e b0 75 b9 bf 3b 31 ca d4 1b 73 ae bf
       -0.09945202219184121 -0.05947195980579286
000540 32 b7 41 78 b7 e1 c8 bf 6d 47 13 bf 43 58 b2 bf
       -0.19438832637700326 -0.07165931143688704
000550 4b 82 c0 96 34 1d c8 bf 3c 5f 4f 77 73 90 93 3f
       -0.1883912788480465 0.019105724484546047
000560 9a d3 84 03 be 20 9e 3f 3c 31 e5 51 79 ca 90 3f
       0.02942177673795108 0.01639737665509354
000570 ac 06 ab c8 27 61 c4 bf 18 c1 df 8f 52 03 92 3f
       -0.15921494768376954 0.017590799361586112
000580 b2 e8 e0 da 6c 02 c5 bf ad b2 c1 09 0f 8c ac 3f
       -0.16413651168278914 0.05575606340503234
000590 38 a8 1b ce ac 0d bf bf 81 36 f6 e7 15 52 b1 3f
       -0.12130241424498045 0.0676587764084733
0005a0 84 4c ea c4 17 19 d2 bf 94 8f e9 10 f7 72 d1 3f
       -0.28278154592516835 0.2726419129523887
0005b0 63 84 7a 42 0f b8 cf 3f ff 56 f4 28 1e 01 ba 3f
       0.2478045534708456 0.10157955646385729
0005c0 89 86 bc 58 6f de 97 bf 2b 0b 79 f6 4e 3b e2 bf
       -0.02330945948700117 -0.5697398008272548
0005d0 ca 5d db 3c bb 8e fc bf de 4f fc 1e f9 2b a6 bf
       -1.7848465325567866 -0.043304238350316146
0005e0 70 1b cb 69 e9 b6 bb 3f ff a6 b3 fe 6b b5 92 bf
       0.10825976212355015 -0.01827019445491995
0005f0 60 89 8c 56 48 6c d7 3f 1c 08 f2 b0 8b ce b8 3f
       0.365984043617706 0.09690163679081859
000600 b0 37 87 a6 10 ce d6 3f a2 04 0f 05 b5 87 dc 3f
       0.3563272119762315 0.4457829045678158
000610 7a 35 67 60 f4 ff df 3f 47 5c 30 af b5 49 d2 3f
       0.4999972287594897 0.28574888332645226
000620 f5 42 47 fb 49 31 b1 bf b5 d4 cd 2c 86 8d b8 3f
       -0.06715834030843466 0.09590948671196282
000630 20 10 eb 6a 2f 62 de 3f 7c 58 49 ea 6a db 9a bf
       0.47474275056106485 -0.026227636861527945
000640 a9 fa 29 e4 33 75 a7 3f ef b2 5f b6 ec 67 c8 bf
       0.0458160606403813 -0.19067152886363867
000650 86 85 ab db 67 07 d9 bf 5e 2a f9 6b 0f 3b d3 bf
       -0.39107700779103316 -0.3004797510554108
000660 09 0b 7e d3 3d 66 d6 bf 75 e6 0c 8e ba f0 71 3f
       -0.3499903264384306 0.004379967432038269
000670 cc 45 0e fa 24 ba c9 bf da d2 80 4a be 4c e1 bf
       -0.20099317750695744 -0.540618081583115
000680 98 2b d0 d7 4e 18 da bf 9a 43 9b d6 74 b6 dc bf
       -0.40773364139084256 -0.44863625486055414
000690 07 f7 ae 41 e2 f6 d4 bf 66 01 b3 92 cd a2 d3 bf
       -0.3275685922088631 -0.3068117077455298
0006a0 10 50 56 14 f6 71 d9 bf 88 96 29 b7 34 aa da bf
       -0.3975806425671644 -0.41663854491194074
0006b0 46 a3 35 a5 08 92 c8 bf ed 22 9d 3d 0b 4a c4 bf
       -0.19195659701224538 -0.15850964077460308
0006c0 2b f2 23 06 20 14 c9 3f 33 97 b2 a7 65 17 b6 3f
       0.19592666911911868 0.08629451126270453
0006d0 90 f8 a3 3f 02 c8 e3 3f fd bc 65 d7 6c 2c f0 bf
       0.6181651347140065 -1.0108459867440722
0006e0 fc 6b 38 d8 53 f8 b4 3f 0d 33 da cb 19 bb c9 bf
       0.08191417721575073 -0.20102236226775752
0006f0 7b ae 9a ab fd fa c8 bf 46 ba 48 20 56 da a2 3f
       -0.1951596343909506 0.03682202476590084
000700 9c 1a 95 26 83 9b c4 3f 87 d4 84 20 87 0d ce 3f
       0.16099585899265356 0.23478783691249225
000710 29 84 a0 bd a7 f9 c3 bf 21 fd 2f 25 b6 f3 b6 bf
       -0.15605637320644064 -0.08965624244591598
000720 fa bd 88 c3 6a 2e c9 bf a0 8a 4e 68 f9 21 ce bf
       -0.19672903583112583 -0.2354118117628632
000730 f5 27 85 a8 94 b8 c0 bf 2e e3 93 b4 6a a8 d4 bf
       -0.13063295582315929 -0.3227793467954595
000740 60 70 15 54 e3 8d d7 bf d9 b4 c9 75 73 93 e1 bf
       -0.3680351563577968 -0.5492493916077833
000750 25 8f f5 a0 ee 21 b9 bf 28 c3 f7 b4 0a a2 cd 3f
       -0.09817401342075678 0.23150762401885427
000760 c4 8a 72 7f 14 f8 cd bf cf f5 50 18 ab ea c8 bf
       -0.23413330290812528 -0.1946615093928998
000770 63 66 1c d2 c0 e4 ad bf 26 21 ae bd 64 9b d3 bf
       -0.05838587345915582 -0.30635946773010614

lstm.weight_hh_l0 f8 [48, 12]
000000 ea b4 5e 33 92 c5 c6 bf 2f c9 92 3e 5e cc d2 3f
       -0.17790439136789554 0.29372364149743907
000010 1d 41 50 6e 81 2f 9e bf b7 b7 c7 3f de 1d f3 bf
       -0.029478094442368808 -1.194792031422805
000020 43 3a 88 81 05 46 cd 3f ce fa 66 b6 6d ad d4 bf
       0.22869938683330035 -0.32308523953171864
000030 26 80 8d 87 5c 10 b6 3f 04 1e f6 1f 18 87 ea 3f
       0.08618715581315026 0.8289909958120352
000040 69 44 7f 4f 77 cc b8 3f fc 85 c3 d6 41 b7 b7 bf
       0.09686990443084799 -0.09264003270393312
000050 4f b7 d7 eb 68 2a b3 3f 86 58 e0 e7 0a 79 c3 bf
       0.0748658729350755 -0.1521314270218605
000060 74 c0 0c e3 a3 24 d4 bf 56 bc ce 3b 27 01 cb bf
       -0.31473633931000866 -0.21097269459048346
000070 e3 5b 6e e5 1a db a1 3f 70 57 a1 2e 28 75 93 3f
       0.03487476397201996 0.019001605840763103
000080 90 0c c4 47 b8 71 a0 bf 3e ba 37 f1 75 25 74 3f
       -0.03211761356399123 0.0049185378188512634
000090 a4 70 bb 07 99 67 66 bf 04 cd 21 4b f4 2d e6 bf
       -0.002734946143261823 -0.6931096522734213
0000a0 b8 94 b4 d4 65 7e c8 bf 0e 9d 44 54 c2 9e a2 3f
       -0.19135735403066234 0.03636748579656955
0000b0 30 cc b5 ee be e1 c2 3f 37 9e ef 52 79 86 d5 bf
       0.14751421600121395 -0.3363326368257477
0000c0 ec 75 ed 28 d0 7d d6 bf 1b 68 d9 46 77 5a db 3f
       -0.35142902371248286 0.42739660185691414
0000d0 49 5a e9 68 11 89 c3 3f 22 58 2c 0a 28 ee e5 bf
       0.1526204836142873 -0.6853218268104266
0000e0 96 bf ca 60 0d 74 c9 bf 1b 60 30 5a e0 1b 9c 3f
       -0.1988541338555449 0.027450089935968074
0000f0 94 ab 1d 4d 53 dd b2 bf ab 29 e6 4e 68 f5 ec 3f
       -0.07368965752327333 0.9049569645879293
000100 b0 4a 8d 9d af 7b a7 bf bd 1d 6c 0a 07 bf d7 3f
       -0.04586552427521917 0.3710343934803538
000110 2c 31 7c f3 6a 57 c1 3f a6 74 35 33 1e 51 d7 3f
       0.13548027886316427 0.3643260479055449
000120 5e 56 5b 34 91 a3 ea 3f 05 fc 0f 6b 31 7f c2 3f
       0.8324666998475541 0.14450662353189628
000130 af 85 4c 16 22 5d d1 bf 87 f1 13 6c 59 60 e3 bf
       -0.27130939653042224 -0.605511389817864
000140 54 b7 49 9e fd 03 d0 bf 50 b3 3d 13 38 91 d2 bf
       -0.2502435727864072 -0.2901134670162735
000150 84 86 a0 a5 c9 41 d8 3f c8 11 0e 83 ce bc ef bf
       0.3790153615428624 -0.9917976913134732
000160 b0 b5 2c 5d 03 83 87 3f 8c 61 61 7e 59 f6 f5 bf
       0.011480356484379367 -1.3726439415678184
000170 6b 6e bf 1b 0b 70 cb 3f 43 ee 0c c0 aa 31 e6 bf
       0.21435679297325136 -0.6935628653513465
000180 95 fd ca df 0a ae c4 bf f0 0c 54 38 86 52 e9 3f
       -0.16156135489835025 0.7913237667238757
000190 93 42 db 9d 1a b5 da bf ca 6e 99 86 80 f7 e2 bf
       -0.4173037091796143 -0.5927126530545703
0001a0 a6 84 80 bf fe 18 a6 3f 5f b0 27 a0 4f 0a d2 bf
       0.043159447552406235 -0.2818793357862485
0001b0 71 2f 80 65 ae 97 cb bf eb 2f 60 c0 03 cb d9 bf
       -0.2155664439782146 -0.40301603113834855
0001c0 2b b5 af 55 97 51 c4 bf 1a c8 5f 7e 75 f5 e2 bf
       -0.158739964331667 -0.5924632519002018
0001d0 57 78 27 37 a8 5d e0 bf 57 fc 07 6e 17 9a f0 bf
       -0.5114327504377439 -1.0376200006574174
0001e0 93 e1 f7 1b 2b 72 da bf b5 98 90 cd 86 5c f3 bf
       -0.41321828585889725 -1.2100894956470658
0001f0 78 4c 11 d8 56 f8 f1 3f c8 cc 2f 79 b0 47 d3 bf
       1.1231296959056447 -0.3012505706275985
000200 cc d8 2b 5d d9 7f b4 3f 73 64 ca c8 bd d6 c5 bf
       0.08007582211198211 -0.17061588577488215
000210 3c 89 d8 72 c8 cf d4 3f d3 e2 38 54 e6 fc f1 3f
       0.32518206801809746 1.1242430963449592
000220 88 3a 85 fb d9 31 e2 bf d6 e9 c8 a2 b2 e2 f0 bf
       -0.5685853874691285 -1.0553461416990237
000230 d9 09 ee e6 cc 9b 82 3f 14 8c 8c 7d a3 fb c5 bf
       0.009086228177470556 -0.17174190168688652
000240 ae 00 19 76 7a 53 b1 bf eb c4 cb b2 54 85 aa bf
       -0.06768002875560583 -0.05179848368232761
000250 4e 72 fc 79 ae 98 c5 3f 33 e1 4f db dd d1 d6 bf
       0.1687219710955951 -0.3565592424124759
000260 ca b8 c6 f8 a0 b8 c7 3f 79 aa d7 f8 ec 96 53 bf
       0.18532192370680028 -0.0011956514530263847
000270 31 ff 80 3b d5 35 a9 3f fd cf 6c 14 e9 27 e6 3f
       0.04923883773198979 0.6923718832899791
000280 17 86 1b 0c 90 69 48 3f d2 31 78 3d ff 5b c7 3f
       0.0007450059276516455 0.1824950266021817
000290 90 c9 11 e9 f0 0c d1 bf 53 91 6a 74 91 d9 de 3f
       -0.2664148593968543 0.4820293080213293
0002a0 07 29 67 b9 e3 ce e0 bf b2 73 84 80 ac 2c a4 bf
       -0.5252550717498544 -0.039403334320219044
0002b0 eb aa 90 ac 8a f3 e1 3f ce e8 c0 76 a3 6a ea bf
       0.5609792108928934 -0.8255173987775153
0002c0 c5 0c 7b 11 35 2f 83 3f 18 56 5c 20 1c 09 6e bf
       0.009367384525268094 -0.003666453298943006
0002d0 39 94 61 ca b1 1a b7 3f 8b fd c9 7e 23 d6 dc bf
       0.09025107565828784 -0.45056998616924976
0002e0 22 62 07 f2 36 b1 e3 3f e5 d6 9c b4 16 b3 d4 bf
       0.6153826453328899 -0.3234307063861322
0002f0 63 fc 7f 2e 5c bd e2 bf 89 ee fd 0e 4a 7f e3 3f
       -0.5856152446939514 0.609288243561836
000300 02 b4 0a 60 83 34 db 3f 3e 09 37 db ee 8e e1 3f
       0.4250801504047673 0.5486978799383804
000310 c0 fc a2 0d 1c 08 d8 bf c6 90 4c 77 bc 3b 72 bf
       -0.3754949696703527 -0.004451500125274238
000320 72 97 75 29 77 58 d7 bf 70 22 36 03 83 3b 6d 3f
       -0.36477450417293433 0.003568416484715002
000330 28 a4 45 41 0c f3 c2 3f 5f 00 d9 10 a4 e1 d4 bf
       0.14804223239050995 -0.3262720264938305
000340 d5 f3 61 d7 36 1d bd 3f c4 06 9d c5 fb 05 e0 bf
       0.11372702368130601 -0.500730405772821
000350 ad ab 59 84 7f 15 ed 3f fe d4 ad 44 90 b6 c7 bf
       0.908874281403191 -0.18525889733761142
000360 6e b7 0e 0f 8b ee a0 3f 02 12 33 27 32 ce b8 bf
       0.03306994017417152 -0.09689629990595708
000370 4b 93 c1 d8 22 15 d3 3f 74 f8 b9 91 ad e4 fc 3f
       0.29816504638283864 1.8058295910300588
000380 5a f0 5d b0 6e f5 cc bf 79 94 7d 1a ff b0 d4 3f
       -0.22624000178973597 0.3233030089089151
000390 fb 88 cd 15 04 f6 bb 3f 60 fb b8 aa 2a 56 d8 3f
       0.10922265560433068 0.3802591960156203
0003a0 ef 21 9c 1e ca 2a b5 3f 5a 05 a9 49 9f bb b0 bf
       0.08268416640579067 -0.06536288784356739
0003b0 ca 43 5c 4d 4d fb d6 3f 29 a5 fc a9 79 2f ba 3f
       0.35908825449683646 0.10228691482611353
0003c0 57 12 aa 41 35 41 bc bf 5a 1f 1b 2b b9 b6 ca bf
       -0.11036999562390669 -0.20870127301008773
0003d0 ff 58 a5 8c 5a 5a be bf 5b b8 35 f9 14 82 db 3f
       -0.1185661881803277 0.42981457077883584
0003e0 19 d0 d6 3b 93 17 b0 bf ff ce bb 5e 54 be b8 bf
       -0.06285972796359864 -0.09665419876892754
0003f0 91 3a 44 0c fd a6 d9 3f 12 a2 db 92 5e 7a e2 3f
       0.40081716726209843 0.5774376743621039
000400 77 41 23 72 14 96 cc 3f 74 d1 c1 2f c8 fe a4 bf
       0.22333007405405755 -0.04100633223507347
000410 57 58 a5 80 1b 5e de bf e2 17 0d 97 65 40 93 bf
       -0.4744938617999472 -0.018800341934614447
000420 a0 f1 a5 26 09 ba cb bf 98 fc 72 3a 29 60 c6 3f
       -0.21661486041183498 0.17480960229838582
000430 ec 07 80 5c 23 83 ba bf 89 b1 c4 c3 21 18 ed bf
       -0.10356350906661732 -0.9091957877731583
000440 05 72 5d f6 75 52 ce 3f 79 5e c8 40 6f 2e d2 3f
       0.2368915036157803 0.28408414198336335
000450 cc 6f 7d 9d 6b 46 c3 bf 45 c5 c2 a4 77 fe d0 3f
       -0.15058655919972208 0.2655314549438866
000460 e8 ea 3d 5c a8 a2 e5 3f 64 44 f7 f4 21 a8 de 3f
       0.6761056710814417 0.4790120022053712
000470 a7 7b da 51 42 51 db bf 66 a4 d8 8e db bd df 3f
       -0.42683465951443583 0.4959629912360185
000480 c4 39 bc 7e e4 63 c4 bf 85 1b fd 87 fc 3d d2 3f
       -0.15929847896809524 0.2850333526625309
000490 54 49 d4 79 b2 52 d4 3f 20 dd ec f5 f1 f4 e1 bf
       0.31754743478190517 -0.5611505320765993
0004a0 75 57 fb a1 8c af d5 3f 9c 9e a4 05 88 38 92 bf
       0.33883968180213425 -0.017793774933265824
0004b0 1b ee d9 16 6a eb c4 bf 14 b7 d2 e0 f3 43 d5 3f
       -0.16343427768502825 0.33227250056630564
0004c0 3b 97 93 ce 14 71 a9 3f 19 3e 16 1f ce c4 be 3f
       0.0496908666771518 0.12019050845105318
0004d0 97 e4 70 cd ed 6c d9 3f 8d a8 50 bf fa 49 c5 bf
       0.39727349341007695 -0.16632017461353535
0004e0 55 40 35 c7 1a 1a c0 bf 98 39 26 cc 83 1d ab 3f
       -0.12579664923623804 0.0529595553117474
0004f0 84 5d 6d 21 d0 de d7 bf f0 19 70 9c 09 b1 d6 bf
       -0.3729744268834667 -0.3545555141176058
000500 dd 00 82 50 d1 48 e1 bf c9 63 42 f8 b8 b4 a5 3f
       -0.5401388714235754 0.04239442854413473
000510 14 f4 e6 4e 3d 83 b3 bf 50 e0 42 30 c1 b6 e2 bf
       -0.07622130562135992 -0.5848089163400889
000520 60 95 77 1d 7a 18 d4 3f f9 32 dd 19 ba 94 ca 3f
       0.3139939582600473 0.20766378653424747
000530 eb 25 27 32 4a 82 dd 3f d6 b0 55 58 72 6d bb bf
       0.46107725999590227 -0.10713877350434883
000540 61 5b bc 11 fd cd c7 bf 0c 69 f2 23 46 d6 9d 3f
       -0.18597377172474253 0.02913770288851318
000550 10 ea e0 5f 62 a2 9d bf 44 7b a4 8a a6 c7 7a bf
       -0.028939759351695626 -0.006538057854668381
000560 67 18 37 e3 38 5c d9 bf 79 9b 93 36 94 10 c5 3f
       -0.39625379742608974 0.16456844963905917
000570 e6 ca 05 4d 90 d6 d2 bf dd 17 57 49 5f cc d7 3f
       -0.2943459274458021 0.37184888994340587
000580 67 4f bb 4a 64 34 cf 3f a3 43 e2 70 ff 95 d2 3f
       0.24378636979110554 0.29040514015019364
000590 2b a7 b4 56 1f 2b cb 3f c2 ef 6b 13 72 cc 9f bf
       0.21225349172282768 -0.031053335605051087
0005a0 bb 1a 27 ad c5 46 f1 3f c0 c1 dc 06 5f c5 a7 3f
       1.0797783626345978 0.0464276977421636
0005b0 5b 03 4f 9e 8d 7e d7 3f f8 4f e5 e1 22 af 8f 3f
       0.3670991941435681 0.015470764654914135
0005c0 98 3c 2e 21 d2 32 c3 bf 7d 3d f5 a4 4c 88 d4 bf
       -0.1499884283079822 -0.32081905469109256
0005d0 7c 43 3d 59 5e 57 e6 3f f4 5c 2c 8e c7 f3 cc bf
       0.6981651061015408 -0.2261895603375944
0005e0 0a 0b ea 2a f5 4b e5 3f 48 12 ee bb 05 41 e4 bf
       0.6655221784752439 -0.6329373045451314
0005f0 1c 46 28 9a 5e a6 d2 3f 60 bb 40 2e f7 a1 c5 3f
       0.2914043908541275 0.16900529631080996
000600 cf bb 46 9d da 50 b3 bf 1f c9 5c 0f 74 95 eb 3f
       -0.07545248355630395 0.8619938182876331
000610 66 8a 18 c3 8e 2f c2 3f 51 5f b9 42 61 12 b8 bf
       0.14207634473958136 -0.09403045538908585
000620 c3 9b 2a 77 52 53 b5 bf 9c 80 5a 19 68 91 d3 3f
       -0.08330264481865783 0.30574991680078667
000630 c8 39 dc ad e9 9d db bf c1 79 5b ae 74 c6 c5 bf
       -0.43151323298016253 -0.17011888993779503
000640 1e 81 d9 48 5e 9d d7 3f e3 86 4a a4 43 61 d8 3f
       0.3689799987241872 0.38093653720907933
000650 3e 5d df bf eb f3 c2 3f 3a 89 9a 6b 5e dd c4 bf
       0.14806887501502247 -0.16300564054569994
000660 fa de 8a 7b 7a ff cb 3f 06 00 95 b3 44 38 e0 bf
       0.21873408348414342 -0.5068686969243579
000670 81 d5 37 39 29 1f f9 3f b6 1a 01 35 3a 1d b6 bf
       1.5701076731760113 -0.08638347429323798
000680 84 26 d8 a0 12 34 e1 3f 31 09 79 54 07 39 e1 bf
       0.5376065389147731 -0.5382115030154521
000690 c5 17 54 39 47 1a d2 3f b3 0b 90 f3 3a b8 f5 3f
       0.28285389517293097 1.357478095452035
0006a0 f5 fe 8a 47 19 01 c2 bf 76 b2 e9 87 e4 bc c2 bf
       -0.14065853112514728 -0.14638954769488394
0006b0 14 c3 cc ca fc 0f b2 3f 67 95 67 37 d1 79 d5 bf
       0.07055644942444089 -0.3355601349888588
0006c0 6e 93 ff 0e d7 3b c5 bf ef 20 75 70 47 f8 b6 bf
       -0.1658886740907763 -0.08972593780083903
0006d0 ee 19 d3 7f 3f 07 cb 3f 61 2c 2d c4 d5 92 d0 bf
       0.2111586927550912 -0.25896209867341297
0006e0 b7 23 d1 de 2d 0b d2 3f 0f 2a af b1 a3 c7 a4 bf
       0.28193232306926624 -0.040585627975435405
0006f0 91 d1 12 0a f7 a5 a4 bf 89 21 bc 99 50 b2 e6 3f
       -0.040328712443996946 0.7092669489511972
000700 b0 44 26 ad 43 46 c1 3f 86 f1 fc 67 43 4c c0 3f
       0.13495679812016226 0.12732737138311395
000710 55 a3 44 4b 96 e3 d2 bf b1 fc 50 15 0c e4 d6 3f
       -0.295140813354512 0.35766889650035255
000720 87 14 49 1b 3d ba eb bf 70 13 a1 c0 2b 8f 01 40
       -0.8664842160147977 2.194907669940612
000730 06 9c 90 05 70 0a e7 3f 89 22 47 bc 7d df c6 3f
       0.7200241192521168 0.1786954087567845
000740 74 ad cb f5 c0 25 f0 3f 8f 82 91 62 5f 9a f4 3f
       1.0092172242537716 1.287688622505957
000750 e8 d2 d5 8e 82 a0 c5 bf 3f 84 cf 7a 0f ba e4 3f
       -0.16896087622048772 0.6477124594349631
000760 29 8c a1 ac 36 00 c7 bf 81 a4 a5 6f a8 e1 eb 3f
       -0.17969401768923035 0.8712961369138982
000770 3e 40 4d 08 63 6b df bf af 24 57 e6 8a d6 bc bf
       -0.49092937288969896 -0.11264865993065841
000780 f6 49 00 33 f1 a2 d4 3f 95 62 03 59 34 5d db 3f
       0.32244520168856583 0.4275637501973873
000790 20 df 69 65 e0 6d e8 bf c4 3a a3 5a 4d 24 b3 bf
       -0.7634126644834147 -0.07477267706711205
0007a0 52 68 d9 12 66 af a6 bf 3a e4 a3 e2 af 0c bd bf
       -0.04430693607419357 -0.11347483905036962
0007b0 60 fb 34 c7 7e 96 c4 bf ba f3 00 c4 e2 5f c8 bf
       -0.16084274985220315 -0.19042620249265757
0007c0 f9 b2 72 b2 46 28 bf bf a8 b3 f7 71 4b 13 e6 bf
       -0.12170831543580708 -0.6898553110055348
0007d0 0f ce f2 5d 89 10 e4 3f 71 a7 a6 fe e8 00 db bf
       0.627018626683311 -0.4219305502725695
0007e0 01 d0 e1 cf d7 ce c5 bf ee 73 a4 17 66 d7 cd bf
       -0.17037484789364046 -0.23313594965375678
0007f0 28 fd 40 8a ec 2a da 3f d1 52 11 90 a8 f5 f1 3f
       0.4088698721061115 1.1224752071040494

lstm.bias_ih_l0 f8 [48]
000000 31 63 d6 95 d1 60 8b 3f 2b f1 60 e9 82 29 a8 bf
       0.013368260750938528 -0.04719170664654578
000010 f2 23 d1 a0 a7 2f ca 3f 30 91 18 c6 01 29 e0 bf
       0.20457930900946014 -0.5050057286321472
000020 f9 3d b5 18 58 7a 9d bf 09 45 07 51 ef d1 ab 3f
       -0.02878701830678485 0.05433605064502884
000030 eb 08 ff ba a1 59 c5 bf a5 cb ed 4a 42 18 d3 bf
       -0.16679784422564778 -0.29835564915918616
000040 64 c9 18 ac 83 02 c6 3f 72 20 8d 6d ff f6 6c bf
       0.17195173171200928 -0.0035357464625214658
000050 2f db d3 69 6a 91 b1 bf b3 06 2c 12 ac f7 af 3f
       -0.06862511714630835 0.06243646356416601
000060 8f 99 4c 3e 81 d2 d8 3f 9f 4e 6d 19 f7 ba b1 3f
       0.3878481968298723 0.06925911303306485
000070 a4 1e 7f 24 c1 b8 d3 3f 0d 71 9f 5e 40 b3 c7 3f
       0.308151517525838 0.18515781994108985
000080 a0 dc f9 3b c4 67 df 3f 8c 4b 24 da 5b 60 e2 3f
       0.4907084069922778 0.5742625485021207
000090 44 5d 74 f9 10 67 8b bf 5a 90 67 d8 ff 43 cc 3f
       -0.013380177128552113 0.2208251768744301
0000a0 36 c7 54 e5 9d 23 c6 3f 39 bc 9c 00 d6 30 d3 3f
       0.17296193788347985 0.29985570964612723
0000b0 14 f3 0c 09 ae 35 d1 3f 47 18 27 4f 78 a1 d4 3f
       0.26890135654302694 0.32235534410245176
0000c0 cc 96 23 9b 87 a3 a5 bf a5 2a a0 46 ae ac a5 bf
       -0.042263257682675 -0.042333074685378315
0000d0 03 5f f2 f4 09 74 c4 3f 99 cf 4e ac fe 51 aa bf
       0.1597912260083306 -0.05140682080619214
0000e0 e7 8a f7 34 bf 53 79 bf 2e e6 26 be 73 ef 9d 3f
       -0.006183382894479484 0.02923374984832188
0000f0 10 b9 69 e8 15 72 96 3f b0 cd 3e 95 9b c7 b4 3f
       0.021919576940882257 0.08117077249226301
000100 a8 8b d4 4b 1b 29 c1 3f d7 0f 3c 75 50 84 ae 3f
       0.1340669746651575 0.05960322791182165
000110 fe 8a 64 cc 0d 8b b2 3f 40 6c 3e e3 2d d5 93 3f
       0.07243429412896416 0.01936790179716419
000120 b5 4a 98 e3 9d 35 68 bf ee 6d 84 b8 7b b1 ae bf
       -0.0029552539606439673 -0.05994783999832608
000130 3d 8d 11 65 d6 85 d3 3f 76 28 eb 5a 4e f0 ca bf
       0.3050437914846105 -0.21045855941185082
000140 8a f7 b5 04 80 c1 d4 bf 7d d3 6b 58 20 ac cb bf
       -0.3243103071216572 -0.2161903793090935
000150 51 72 b0 37 99 ef c4 bf 2f 48 c1 cd dd 8f d2 bf
       -0.16356196612550147 -0.29003090947401494
000160 7e 90 a5 86 68 cc c0 3f 3e 57 bb 2a d7 0b a1 bf
       0.1312380464033857 -0.03329346081379335
000170 b1 a2 92 7d 4a b0 ab bf 00 3e 49 e2 78 8b c2 bf
       -0.05407936842795403 -0.1448813538467988

lstm.bias_hh_l0 f8 [48]
000000 50 90 b8 f4 ce 19 90 3f 04 de c1 c7 c3 ad 9d bf
       0.015723451315480752 -0.028983172480790756
000010 ca cf 11 3c 70 24 d2 3f 1b 34 26 ef 5e 89 df bf
       0.28347402445001235 -0.49275945047776454
000020 b7 1c 2a af db 4a ac bf 8a cb 77 be f6 40 7f 3f
       -0.05525862229574712 0.007630313724336877
000030 0e 87 87 79 a8 6a c6 bf 8b 23 45 0e 5a 27 d2 bf
       -0.1751299470334335 -0.2836518420559108
000040 78 57 45 60 c9 51 c4 3f dd 82 8c 3c d2 01 b2 bf
       0.15874592972494006 -0.07034028986209813
000050 89 df de 42 41 a8 a4 bf 8d 4c a1 71 96 4a ab 3f
       -0.04034618321696743 0.053303433771952326
000060 8f 13 d3 df f7 54 da 3f a9 30 db 18 24 26 bb 3f
       0.4114360509668637 0.10605073553887458
000070 7f e1 76 63 45 4e d2 3f 6a 3c 0f dd 14 13 cb 3f
       0.2860272857028789 0.21151982110902462
000080 b1 98 2f 06 ab 72 e1 3f 30 f6 0f 2b 2d 75 e0 3f
       0.5452475663012334 0.514303764444497
000090 6c 01 80 68 fd 3d 97 3f af 47 0d 86 81 17 c9 3f
       0.022697410109686997 0.19602984471799575
0000a0 f0 1a e0 33 49 ba cd 3f e7 21 a6 89 0b 6d d7 3f
       0.2322474959657579 0.3660305828311991
0000b0 69 30 91 d3 2a 90 cb 3f f5 65 9d a8 ef 6f da 3f
       0.2153371365587902 0.4130820414189594
0000c0 44 23 78 14 9a 81 84 3f e9 88 1d d3 c6 b5 bd bf
       0.01001282095877943 -0.11605494169410559
0000d0 82 d5 1f dd 8d 65 c3 3f 6a d1 cd 73 ee c0 b6 bf
       0.1515366868695019 -0.08888140036817097
0000e0 a9 30 de f9 42 00 a8 3f 88 36 6f cc a8 d7 ba 3f
       0.04687699604173307 0.10485320082735872
0000f0 00 a7 b5 f7 7e 96 35 3f 27 50 3b 0e 3a 50 b7 3f
       0.0003294048289804591 0.09106791350797093
000100 92 73 f8 bd f2 8c bb 3f d6 8c c0 81 62 b0 c3 3f
       0.10761944902374257 0.1538203366809287
000110 86 21 84 cf 62 cc b5 3f a2 48 cb 04 73 e2 ae 3f
       0.08514993254005362 0.060321420989241106
000120 38 ac 10 09 ac 9f b9 3f 01 95 24 1b 16 17 b6 bf
       0.10009265157047842 -0.08628976977032111
000130 f4 17 91 61 ba 44 d4 3f 57 9d f3 0b a7 a8 d1 bf
       0.31669482734684995 -0.27591873328352307
000140 71 b1 3b 09 70 ec cd bf 3f 88 6b 3c 78 70 ca bf
       -0.23377800417746245 -0.20655730200002329
000150 83 31 85 f7 6d 29 c3 bf d9 6e 3a 78 5a 7c d1 bf
       -0.1497018297763014 -0.2732149290184061
000160 9c 3a b4 bb a4 9b c4 3f 2b 6e 4b 1b 76 8e a2 bf
       0.1609998623393566 -0.036243143874994686
000170 40 e9 b7 f0 a5 98 b2 bf 5c e8 f0 db b4 e9 b7 bf
       -0.07264172675050862 -0.09340982789663727

linear.weight f8 [3, 12]
000000 70 c0 92 f3 9d 52 6d 3f 7a 06 d8 e0 04 b0 82 bf
       0.00357943391698972 -0.009124792205514643
000010 6a 57 73 4a 45 e6 bb 3f 1a 78 fc 81 75 9a 74 bf
       0.10898240153923458 -0.0050301160952397565
000020 c5 96 52 d6 4d 7b 70 bf c0 15 9d 68 61 c7 82 bf
       -0.004023841907075447 -0.009169350628904449
000030 74 86 e9 41 37 fc 74 bf 44 9b f5 95 4b 93 a5 bf
       -0.0051233442778496514 -0.04213939862784469
000040 53 ce aa a1 8b b6 97 bf a8 7d 0a 28 d3 86 a3 3f
       -0.02315729307401988 0.03813800681859486
000050 f8 77 c8 ed 4e db 91 bf 10 ab 20 3a 13 09 9a bf
       -0.01743815733254192 -0.025425243780925533
000060 d7 0d 21 60 68 9b a3 3f 31 75 96 63 e5 72 82 3f
       0.03829504178477421 0.009008209325481605
000070 d2 ef 4a e2 c6 b8 a4 bf 9d 54 1d de cb b9 9e 3f
       -0.04047223579752281 0.030005631858632687
000080 f2 6e 4c 33 43 01 6a 3f 48 7a 9a f8 74 cc 6a 3f
       0.0031744301326294072 0.003271320780938756
000090 a6 ef 28 9e 08 da 9a 3f 24 72 d6 4d 90 55 c0 3f
       0.026222357419314023 0.12761119652431419
0000a0 de f8 e2 9e b3 4e a5 bf 9e b2 f6 1b 14 85 8a 3f
       -0.041616070885980724 0.012949139693625707
0000b0 74 08 80 2a e8 0a 95 3f fe a1 bf 59 77 95 72 bf
       0.02054941901588632 -0.004537073338703566
0000c0 43 a7 87 e2 30 21 a8 3f fc f8 bd 4d 8b ff a7 3f
       0.0471282269025566 0.046871522178649955
0000d0 4c 79 88 53 0b 28 a2 bf 7d 5a cf 1b f1 60 9c 3f
       -0.03546176333132908 0.027713553736101283
0000e0 42 62 3c cf 0c 8c 93 3f 75 bb ba f2 a9 b1 58 bf
       0.019088935993837326 -0.0015072021150605828
0000f0 8f 1d 20 e5 b7 a2 c2 bf 1e 91 a9 cd db 48 c3 3f
       -0.14559076965109027 0.15066096822841585
000100 b7 8a 7b c7 ab 0a c0 3f aa 77 3a 3d 21 a7 b9 3f
       0.12532565346108068 0.10020644898256018
000110 fd 00 2c 9d 8f 23 80 3f 55 3f d4 7e b8 e5 bd bf
       0.007880327209477839 -0.11678650947965015

linear.bias f8 [3]
000000 be d3 04 15 1c 6b 52 3f 61 54 31 18 f4 7f 35 bf
       0.0011241697539621088 -0.00032806119287915296
000010 88 19 6d e5 30 38 46 3f
       0.0006780852080304082
