Full_System/or_mlp815.pth (torch, 32856 bytes, 8 tensors)

network.0.weight f8 [24, 100]
0	0x3fb608bb49db84c0	0.08607073357736095
1	0x3fa70269c373dd99	0.044940285786590546
2	0xbfb346525369e247	-0.07529177223649085
3	0x3fb7adbd19075698	0.09249479161311525
4	0x3fb6666c32fb802f	0.0875003456562815
5	0xbfb3c48fc0757133	-0.0772180409307495
6	0x3f9031a19d7aea49	0.015814328419518273
7	0xbf78aa0d1f0806fa	-0.006021548514128611
8	0x3f9fed42095eb134	0.03117850477399138
9	0xbfb2fd83da307cc0	-0.07418083264245734
10	0x3f9e92ee33931ff9	0.02985737027918842
11	0xbfb22fc4bd714035	-0.07104138970430614
12	0x3f97f3c5930e527a	0.023390853024084703
13	0x3fa11dd6416acd7f	0.03343076275396139
14	0x3fa4384bdc216000	0.03949200689447707
15	0x3fb045793f13a7ed	0.06356008329353786
16	0xbfaf5ec68e7db8c4	-0.06126995553391759
17	0xbfb44f8fdb0eac21	-0.07933901880339579
18	0x3fac6465d44df6e8	0.055453474203188524
19	0xbf83eef2b739d803	-0.009733101097690882
20	0x3fb29224cd21b3aa	0.07254247673127048
21	0xbf81266b1001850d	-0.008374058176004806
22	0xbfb0962aba785c7e	-0.06479136517042325
23	0xbf99d94801dc6281	-0.02524292479856394
24	0x3f7aeeabd9865ebf	0.006575270927349385
25	0x3f625604b564bb0a	0.0022382823909973303
26	0xbfa7b8d8a8e6341e	-0.04633214055784428
27	0xbf842e426232d0da	-0.009853857633381247
28	0x3fb7dd7d1990995b	0.09322339891568758
29	0x3f8a60b47416fbe9	0.01287976245191476
30	0x3fa386c60b4a05aa	0.03813761604125017
31	0xbf875e2f5b8439ac	-0.011410112362253276
32	0xbf9bf67d962a83db	-0.027307474413308924
33	0xbf6921a75cbf8e63	-0.00306780517529308
34	0x3f8eb850b39c7543	0.014999990922258127
35	0xbf884158e3a93968	-0.011843389938033425
36	0x3fb6221a5645edde	0.08645786863592472
37	0x3fafa500a2af4821	0.0618057440366473
38	0xbfb9200b32002487	-0.09814519854275448
39	0xbfad625eda05930b	-0.05739113246344204
40	0x3fb79710cd9aced5	0.09214882869383285
41	0xbf873ad3e1b89803	-0.011342673612556814
42	0x3fb1ac0c3ea7c43a	0.06903149156256996
43	0x3fa08efe18728b63	0.0323409466593805
44	0xbfb1f9b7f6d9009c	-0.07021665360025725
45	0xbfb6e20b1f1da1fe	-0.08938664922391834
46	0xbf7581f8282e5369	-0.005250901568520352
47	0xbf907fc5322d641a	-0.016112405002193332
48	0x3fa5396c915fea10	0.04145373606293756
49	0xbf4de586f236b281	-0.0009123715321287114
50	0x3fb63727bf76eb2a	0.08677910255839252
51	0x3fb15d50a6e0c176	0.0678301246086955
52	0x3f89f765dca314b5	0.012678905292327828
53	0x3fafc2a4b79e77d2	0.0620318864960009
54	0xbf8436ad343bed1e	-0.009869912296827151
55	0xbfb150fdfbe6bc85	-0.06764209175047327
56	0x3fb6b77ab875a69f	0.08873717311294137
57	0x3faca92547836fa2	0.05597797868696765
58	0xbfb49e8f97b8091d	-0.08054444746088447
59	0x3fa8288cf7f09f95	0.04718437697039161
60	0xbfaaef4879fdea2a	-0.052606835261901644
61	0xbf9f945202756904	-0.03083923473364171
62	0xbf6375c5cd3fc9c0	-0.0023754943194884415
63	0x3fac98d29ef80d21	0.05585344496287293
64	0x3f7b7e0a15362981	0.006711997400439152
65	0xbf9bcbd6c26add3b	-0.027144771210001677
66	0x3fb38d7541e40a64	0.07637722834264477
67	0xbf90fcda8f270b05	-0.01658956049665063
68	0xbfa2fe67b9cc08c4	-0.037097207479762
69	0xbfa0a50625362746	-0.032509033243583604
70	0x3f75ff0c1f14524f	0.005370185231431692
71	0xbfaaa5ce71409c3c	-0.05204625256038084
72	0x3fb5d9079d276ebb	0.08534286104935067
73	0x3f80672f834f53d9	0.008009310908088029
74	0x3f830575ea255510	0.009287759025634418
75	0x3fb45bbc9117c175	0.07952478925995428
76	0xbfb47d187ccc5b4f	-0.08003380820114823
77	0xbfa50793a6dd63ea	-0.04107343112872981
78	0xbfb19f4a0a482357	-0.06883681059856649
79	0xbfb57ea1863a784f	-0.0839634850221682
80	0x3fab10d6be72872b	0.05286284518048342
81	0xbf50b5f543e7996e	-0.0010199446838839682
82	0xbfb21bb1cf40f7a9	-0.07073508558184351
83	0xbfabb399d58a4ab5	-0.05410462123577046
84	0x3f76e0b61f9bde56	0.005585395259678791
85	0x3f93d503caf6733b	0.01936727453504548
86	0x3fa919dfef12c404	0.04902553361296927
87	0x3fa4228d8cd0fd6f	0.03932611793470186
88	0xbf7021ae23d3ed11	-0.003938369974316972
89	0xbf9294e09aed03a6	-0.018146047073290504
90	0xbfa5ab7dcb915a73	-0.04232400045355158
91	0x3fb0f48039c5bd4b	0.0662307873769709
92	0x3fa3b90fb6af0e89	0.038521281290312244
93	0x3f985d8bf5183471	0.02379435237348954
94	0xbfb837acab362c43	-0.0945995252606489
95	0xbf7ddb8e56b4f6e0	-0.007289463053266693
96	0xbf9b37f95c089220	-0.02658071159580022
97	0x3fb5bdd50ac227f5	0.08492785942704002
98	0x3f678e9bd8f92005	0.0028756183526503797
99	0x3fb340b0cb335dae	0.07520585022881818
100	0x3fb37c05f4c0111f	0.07611119485233474
101	0x3fb0d1e313b7f7ee	0.0657026217595271
102	0x3fb5fee0c063a074	0.08592037865639829
103	0x3fb19f767e849003	0.06883946026624703
104	0x3f8720180cd23f95	0.011291683093332764
105	0x3fb4475d1dfc9d00	0.07921392423724072
106	0xbfb80b613aed9e07	-0.09392364205051972
107	0x3fb47dd8716d7f9c	0.080045249645535
108	0xbfb1e2f60b73fd07	-0.06986940173736765
109	0xbfa3c90c965f7b05	-0.0386432584343677
110	0x3f6708ac5a9d2395	0.0028117529190336368
111	0x3faedf362946b154	0.06029671911105319
112	0x3fb0fd9a769bf163	0.06636968036395312
113	0xbfa445e2f2987ff0	-0.03959569178937261
114	0xbfb565838fa46076	-0.08358022934805995
115	0xbfb033ea710ddf2e	-0.063292172051544
116	0xbfb0c0c92a031786	-0.06544167781529894
117	0xbfafd1fb7b78bc6e	-0.06214891321393955
118	0x3fa079385bb5b2a0	0.03217483634475582
119	0xbf780678914781a7	-0.005865546194826632
120	0xbfb2bcdb7e9ec404	-0.07319423524201346
121	0x3fb669398e670d03	0.08754310347199028
122	0xbfa8d7dcf869847d	-0.048521905254127674
123	0x3fb031acbe334fc8	0.06325797694745383
124	0xbf639b6dc2aab784	-0.0023934501417305926
125	0x3fa898941219cb75	0.04803908081966927
126	0xbf98c16a70f95194	-0.024175322671298696
127	0xbfb7db61af84b239	-0.09319124732127983
128	0xbfab44ab71812449	-0.053258283238911526
129	0x3f93fadb54f7eda7	0.019511630116523595
130	0x3fa9b05184beeea1	0.05017332787926177
131	0x3fa471f93b2da063	0.03993204924955831
132	0xbfb457018257c5fa	-0.07945260460089534
133	0x3fb71f57ed3e0564	0.09032201330230333
134	0x3f91906843438f43	0.01715243254228872
135	0x3fadda3efb215df3	0.058305709987219866
136	0xbfb3351b6a88ecf6	-0.0750290999503028
137	0xbf90db71368b103f	-0.01646210570721984
138	0xbfb71925a649a1a3	-0.0902274638152734
139	0x3f4fef6cb14fff90	0.0009745865560262124
140	0x3fb38305882bdf4f	0.07621798109528054
141	0x3fb588f75fb37f5c	0.08412118994192269
142	0x3fb03bb42c20d9ce	0.06341100766517302
143	0x3fa7987c993854e8	0.04608525629388699
144	0xbfaf21138fe20336	-0.06079922801382624
145	0xbfb70c36f74cecd6	-0.09003013169869986
146	0x3faeffa10b0c74a7	0.06054404506560589
147	0x3fa63c22f958209e	0.04342755597832702
148	0xbf85b8bac4a8699e	-0.01060624992992559
149	0x3fb16d8b3e500d4e	0.06807775756174303
150	0xbfabe3f8dcf26ad5	-0.05447366425615533
151	0x3f6b3616fa716f64	0.0033216904444496754
152	0xbfaa34ccfd3e1415	-0.05118408767069852
153	0x3fac6b61e5d9ec09	0.05550676279832351
154	0xbfa9d3019e91ba12	-0.05043797550830588
155	0x3fb646e54fe3ee28	0.08701928329895081
156	0xbf9128c80331e3b8	-0.016757130808830317
157	0xbf9b68687fdb622c	-0.026765473178644125
158	0xbfa2f4ff9a9efa7b	-0.03702543985808845
159	0x3fb6ff5991670e06	0.08983382987849362
160	0xbfb478d44666cc55	-0.07996870726383183
161	0x3fb992fd62da51d1	0.09989913619421677
162	0xbfb532ccee5f0ed8	-0.0828064043008071
163	0xbfa74025e348c648	-0.04541128539530043
164	0x3fb406c631c1de04	0.0782283660390633
165	0xbfb0b228d11e41e5	-0.06521849732803948
166	0x3fae29fdf58548d7	0.05891412374570997
167	0x3fa6999631c63a5f	0.04414052350613384
168	0x3fa6ed2e0cb48b5c	0.04477828888982202
169	0xbfb4ec6aa23d4ebf	-0.0817324300854194
170	0x3fa1fcb00ca214b2	0.03513097910130493
171	0xbfa402d3b8b165ee	-0.039084068580176864
172	0xbf95e024065b0e4e	-0.021362841499252654
173	0x3fb0c055e74c933c	0.06543480774832927
174	0xbf7ff6cb98abddd6	-0.007803721712427122
175	0xbf9e6d244e9f09bc	-0.029713218020114715
176	0xbfa02bb71af8af1b	-0.03158352092972746
177	0x3f8b8e39558aada5	0.013454864428544886
178	0x3f9d47452d8a4acb	0.02859218683677049
179	0x3fb055b1f1696e57	0.06380760330051181
180	0xbfb693febf662594	-0.08819572613551535
181	0xbfb49b9190722b53	-0.08049878860962893
182	0x3fafd4c9a52402b3	0.06217031613232873
183	0xbfb30fc5bf83ea7c	-0.07445941854158805
184	0xbfa1b732c6cf5763	-0.03460081745985979
185	0xbfb300634fa6dc77	-0.07422466940521298
186	0xbfb29574f7ccae9a	-0.07259303140443266
187	0xbfb7bf226217bc34	-0.09276022810784995
188	0xbf78da775c3608e7	-0.006067720652369802
189	0xbf768652a7e1cdb4	-0.005499194025208199
190	0x3fb0334b33c2c4a3	0.06328268064204905
191	0x3fb6300b89e7e37c	0.08667060963479217
192	0x3f908513ca167b84	0.016132649621450237
193	0x3fb90dae1c375a7c	0.09786499203560511
194	0xbf96961da4c20dc2	-0.022057021313697474
195	0x3fb66bc65e644d8e	0.08758201412665853
196	0x3f952ea3996661a4	0.020685726392544304
197	0xbf8a52f8176eef48	-0.012853563513878577
198	0xbfaec7c461bf8a7c	-0.0601178521462957
199	0x3f76484ec1af9d4b	0.0054400516919266935
200	0xbfb3e8e4349aabb6	-0.07777239116937448
201	0xbfae45842325d55e	-0.05912411622095236
202	0xbfb3b00f474ef67c	-0.0769052075474636
203	0xbfa632fbfab41dbe	-0.043357729295219624
204	0xbfb13b40928b062a	-0.06731036737166876
205	0x3fb7bb224f6d7cdd	0.09269918860580924
206	0x3fb75e6d3d9bd4f5	0.09128458742255303
207	0xbf935b9cc5a51ef9	-0.01890416103677148
208	0x3fb4145483bf8285	0.07843521324640264
209	0x3f8be8a5391d40e5	0.013627329640855066
210	0xbf8d8b13ea3c5305	-0.014425426088146684
211	0xbf7ffc9ed61bb15c	-0.007809277014285545
212	0x3fb2ea2af0cec74f	0.07388561610312404
213	0x3fac3d03deffae03	0.05515300843384454
214	0x3fa80c8025f1b801	0.0469703718489285
215	0xbfb2d40521eb3625	-0.07354766920180873
216	0xbf9f52d588b059fb	-0.03058942457945511
217	0xbf8f25b37ffb9f45	-0.015208628028133506
218	0x3fb2dac620585ddb	0.0736507252662401
219	0xbf9096971b4517de	-0.016199456252500848
220	0xbfb5b9f7f6823412	-0.08486890571857966
221	0x3f57173d833f04ac	0.0014093495092171544
222	0xbfa7912c4e1694d9	-0.04602945759988026
223	0x3fb5a2b4d9f6b630	0.0845139534128172
224	0xbfae7878354fb4b6	-0.05951285982869463
225	0xbfb8ea2c8ef028cf	-0.09732321252537023
226	0x3fa492c84e94abac	0.0401823612140427
227	0xbfae4d4ea97fa758	-0.059183557692292055
228	0x3fa6dd101ecf5f83	0.04465532661532647
229	0xbfb94b14e5b50527	-0.09880190475543725
230	0xbfb117fe2e60b5f4	-0.06677235252637798
231	0xbfb189a2dbc7e607	-0.06850641122573374
232	0x3fb5179cac1ef065	0.08239154054803206
233	0x3fb78d220326560e	0.09199726654909332
234	0x3fa0a9591174bad0	0.032542022114616764
235	0x3fa9191f72127ff2	0.049019797015034686
236	0xbfb185b26c26e15d	-0.06844630375315348
237	0xbf84f66171b2d99a	-0.01023555877905551
238	0xbf8b3ae180a5793c	-0.013295900095439898
239	0xbfb7aff4476144a3	-0.09252859823870323
240	0xbf8e4b0e8d0516f9	-0.014791597059808025
241	0x3fb5641fea1b7da0	0.08355903115761132
242	0xbfadd4de78f500b4	-0.05826468683744804
243	0xbfa05489b4fbe4f6	-0.031894973128098345
244	0x3fb4dcca9f496e58	0.0814940108188521
245	0xbfb2438c2c1c04d4	-0.07134319378748738
246	0xbf82827d0f478b27	-0.009037949589531259
247	0x3f85fcc27710fee3	0.01073600698339256
248	0x3fa4bb65aa0f3a2a	0.04049222660943415
249	0xbfae337987c6996f	-0.058986471008483636
250	0x3f9ce02a349d30fa	0.028198871098809676
251	0x3f8d963f294b4354	0.014446729133312942
252	0x3f75ebcfcb29be06	0.005351840680858816
253	0xbf73242d1fb71320	-0.00467317224997002
254	0xbfada46ba66c1e76	-0.05789505392573073
255	0x3fa239801369e723	0.03559494244559704

network.0.bias f8 [24]
0	0xbfa06d06f8c4a962	-0.032081811778271754
1	0xbf9b28ad85835a77	-0.026522361062996738
2	0xbfb4f115f1ee7203	-0.0818036761906527
3	0xbf9743af8e08b5b6	-0.02271913818747403
4	0x3fafff69dcfd4ad8	0.06249552557587429
5	0x3fb0a5f02273e4fd	0.0650320133317059
6	0xbfb60a2d1037c603	-0.08609277387565588
7	0x3fa09fa44fdcd3aa	0.032467970608571164
8	0x3f94979c8a8dadd5	0.020109601933126903
9	0xbfaaaebb1128feef	-0.05211433968042722
10	0x3f83edb0d9d17192	0.009730703017503815
11	0x3f9b471556a962a0	0.026638348974617032
12	0xbfb3844d5fa3922c	-0.0762375219815758
13	0xbfa02eff05cca40e	-0.03160855241578285
14	0xbfb8f4fa7a45a0c5	-0.09748807416110868
15	0xbfa6a05cfe05ba4d	-0.044192224510756085
16	0x3fb2cdd3f269836f	0.07345318477883976
17	0x3fb81aa25594ffc8	0.09415640439419726
18	0x3fb2f5aaa18d460e	0.07406107372414558
19	0xbf76f7cb5a71aff8	-0.005607408856217681
20	0x3f96f694ed454618	0.022425009710167115
21	0x3fb731ba08854ad1	0.09060251911186447
22	0x3fb21e18d021deec	0.07077174264292879
23	0xbfb361b3ea2c466b	-0.07570957629311585

network.2.weight f8 [24, 24]
0	0xbfc36d24a2c96fc5	-0.1517682833535884
1	0x3fa76b0e87d78ae8	0.04573865326144305
2	0xbfc06dea797b001a	-0.12835436755813207
3	0x3f9aba258df1ae44	0.026100718296602446
4	0xbf9cc540626f1d5c	-0.028096204765259855
5	0xbfbc89f687298aa8	-0.11148014831409603
6	0xbfc9b5c1469268fc	-0.20085922189611682
7	0x3fb58dbb5bf29ff8	0.08419390673464011
8	0xbfbd843ccf0f8a52	-0.11529903464501359
9	0x3fab1143049fa32a	0.05286607200088718
10	0x3fb3f2dbbd4a8805	0.07792447444310831
11	0xbfc671342914938d	-0.17532970434072262
12	0x3fc870a43a967082	0.19093754635548882
13	0xbfb0b62eddbb1d96	-0.06527989304878754
14	0x3f962c33f7ad6806	0.02165299605562867
15	0x3fc11f96e1b2490a	0.13377653141339635
16	0x3fc2c3f9658f2d70	0.1466056581397015
17	0xbf84bf6aa2e898c8	-0.01013072309167419
18	0x3fb9c5c1362e2ed2	0.100673747756612
19	0x3f9e7432101d2403	0.02974012587882059
20	0x3fbf71342c88275d	0.12282110297397027
21	0xbf8eb22683045978	-0.014988232491799577
22	0xbfc6db770535dcce	-0.17857253794111333
23	0x3fa6414f7c360f3a	0.04346702948808319
24	0xbfa062bd9c2692b4	-0.032003331481324976
25	0xbfb7829adf04b0fe	-0.09183662361892073
26	0x3fba21343e0b9cc9	0.10206915392665218
27	0xbf605b2b4e499d5a	-0.0019965978447548495
28	0x3f8f3938c4c38b6c	0.015245860581165359
29	0x3fc361764783e4bf	0.15141180507615634
30	0x3fb262211ca115dc	0.07180983494716692
31	0xbfc125fcd466dd28	-0.13397179003889303
32	0x3fbe455841aa8d8a	0.11824561694316152
33	0x3fc04cac7ded6526	0.12733989857478284
34	0x3fa673cafdcbdef9	0.04385217998600228
35	0xbfc5d7d4c2e1fec2	-0.17064914241563228
36	0xbfb109e2be886ea0	-0.06655709411318833
37	0x3fb8900bb179f2fd	0.09594796259802858
38	0x3fb6aa58c8f7eb65	0.08853678614097545
39	0xbfc16ce7a12726b9	-0.13613601082606921
40	0xbf67585fb3a3e944	-0.002849757115766101
41	0x3fc7fee21ad9239d	0.1874659186453557
42	0xbfc95d3577aa4985	-0.19815700858141497
43	0x3fc6d58fe9d1273a	0.1783923999485582
44	0x3fb1de7a9fd42190	0.06980101015154205
45	0x3fc127065a28b518	0.1340034427861745
46	0x3fc3b928d77631f0	0.15408812065687938
47	0x3fc5228a60f3f09d	0.16511659368541567
48	0x3fb9cf505392c58e	0.10081960716595104
49	0x3fc36c670cdb9cdb	0.15174568298173238
50	0x3fa56c5a97d6421f	0.041842299494536876
51	0xbfa3e048c11f6b6e	-0.03882052762465703
52	0x3fb4a560e0423bfd	0.08064847445551489
53	0xbfc86622b75d1ea7	-0.19061693146999412
54	0x3fc217f8dbcc3734	0.1413565705519716
55	0x3fbf020dae45e87b	0.12112508301462015
56	0x3fc6c3c699e86163	0.17784960284258053
57	0x3fb61dc975c08908	0.08639201283270748
58	0xbfa9bac29ba9c987	-0.05025299215494088
59	0x3fbf663f94dace03	0.12265393623493286
60	0x3f93ce44326c8597	0.019341531350737986
61	0x3fb2f27186b43150	0.07401189364117511
62	0x3fc6df15cb7c9845	0.17868301807283352
63	0x3fc4de48583fe2d9	0.16303352650699912
64	0x3ef6d7b6a43e00e0	2.1784430159766592e-05
65	0xbfa9ded33eafdabe	-0.05052814617368061
66	0xbfbe065fbf4c3ad1	-0.11728475971561216
67	0x3fc4db71c5cca5b9	0.1629469123666192
68	0xbfab17edbfee5df0	-0.05291693656834784
69	0x3f9d952ac7ee3cc7	0.028889339878841704
70	0x3f79f842a09d6069	0.006340275061880709
71	0x3fc0e076803938c9	0.13185006390489765
72	0xbfc50846b4667e35	-0.16431506928073394
73	0xbfad0d13efe14079	-0.05674040129872621
74	0x3fbe08f255ff7414	0.1173240146594739
75	0xbfbacb98a7b4428a	-0.10466913313235629
76	0x3fc6698efc1ebda8	0.17509639082480288
77	0xbfbdb50456aa1862	-0.11604334941702768
78	0xbfc5372e418a3597	-0.16574648094357933
79	0x3fa229d63bdc381f	0.03547543984142031
80	0xbfb004328c6c3542	-0.06256404808319352
81	0x3fb966652eca4d8a	0.09921867744770033
82	0x3fbde8ee0e8e5b08	0.11683547835705721
83	0x3fb9a6244390c51b	0.10019137048290754
84	0xbfaf4a22e8f147c5	-0.061112490592349945
85	0xbfb8873367fad08c	-0.09581300056999192
86	0xbfbd6d15ac6bbd95	-0.11494574985021296
87	0xbfa6fcff33e5da7d	-0.04489896305579053
88	0x3f8bca4bb3ac531d	0.013569442196549592
89	0x3fc2d1c82ded8955	0.14702703707286938
90	0xbfc913428b346636	-0.195900266619718
91	0x3fc13235ca321fe6	0.13434479115335235
92	0x3fc902af5f5ae38a	0.1953944411850695
93	0xbfb01e877fb12612	-0.06296584002952724
94	0xbf467f8d019a79aa	-0.0006865919596810617
95	0x3fb294b4f2fbaa98	0.07258158619121458
96	0x3fb3bafcd4dbd6e3	0.07707195469614762
97	0xbfc72ae68f537a20	-0.18099672315925464
98	0x3fc86d79dea5c7ae	0.1908409440180185
99	0x3fc4f84fb3d4c0a1	0.1638278606492394
100	0xbfc7be4eaa427e33	-0.1854952174517038
101	0xbfc762a1ff722a79	-0.18269753430316252
102	0x3fa574af6a276988	0.04190586252998957
103	0xbfbc59f5e0180648	-0.11074768754044684
104	0x3fc946258d8f7362	0.19745320713164022
105	0xbfbd03b9881be751	-0.11333808491681664
106	0xbfc480ba52c67329	-0.16017846147306017
107	0x3fc75fda6a4aaff8	0.18261270704294907
108	0xbf941424a7ac471e	-0.019608090146966288
109	0xbfae6cbf2d69910d	-0.059423422139646666
110	0x3fb89502a62a7228	0.09602371746809324
111	0x3fa9f596896ba8e0	0.05070181300637144
112	0x3fc1ceaf718bcda0	0.13912003559344743
113	0x3fc69842746b6c45	0.17652159390022085
114	0x3fb3feb50762e762	0.07810527258234637
115	0x3f843859865a5cfb	0.009873103535297014
116	0x3fbf6df7fb493817	0.12277173886215596
117	0xbfc5742d7460e9bc	-0.16760795767352288
118	0x3fc552a209a80452	0.16658425780772973
119	0x3fc53756bc0b21f2	0.16575130636034846
120	0xbfc894b5923a5f8e	-0.19203824653663698
121	0xbfa77dafd1220595	-0.045880789069097684
122	0x3fbcecdb63242fe7	0.11298915071910152
123	0xbfc33b03dc1173dc	-0.1502384972144729
124	0x3fc9250463f22d58	0.19644217376876827
125	0x3fc440c9d025675f	0.15822718299278457
126	0x3fb23e15cf010f2e	0.07125984481632194
127	0xbfb6541aaf4af662	-0.08722082881555474
128	0x3fa1cc5f6df43fe5	0.03476236550534376
129	0xbf91d391d73b7e04	-0.01740863681959405
130	0xbfc7aa5aeeaf3fec	-0.1848863282634733
131	0xbfb49d622f256429	-0.08052648211504788
132	0xbfad28c570706dca	-0.05695168492840315
133	0x3fbf4fb6995e71c6	0.1223100780902718
134	0xbfc69d37c7850438	-0.17667290918510203
135	0xbf5162ef9688442d	-0.001061185810730568
136	0x3fc3ca0b9a07b4a3	0.15460343380928973
137	0xbf8c29aae7274c86	-0.013751349620099395
138	0x3fb4d646da616e58	0.0813946040302026
139	0x3fc7c54c49427369	0.18570855691077817
140	0xbfb48b495fad2684	-0.08025034509514667
141	0x3fc41d58c90e5f25	0.1571455938071661
142	0x3fc3c3e6a79bc67b	0.1544159239197603
143	0x3fa992e71bcbba7f	0.04994890417389274
144	0xbfc1d4f6188578e0	-0.13931156346638485
145	0xbfc875b7c40e6522	-0.19109246323640955
146	0xbf95cfc41922a76b	-0.021300376924649294
147	0xbf9cc91526533584	-0.028110819305586357
148	0x3f9a7fcbac71ddd9	0.02587812652606467
149	0xbf86d047cbe74bd1	-0.011139450941220293
150	0xbfc9314987a4c20e	-0.1968166267702291
151	0xbfbddc18d784283c	-0.11663966428400924
152	0x3fc39fea8bb8bcd3	0.15331775495858455
153	0xbfc7ec59c52e118c	-0.1869003498833418
154	0x3fb60bd947693897	0.08611829751427745
155	0xbfb2c2db902f5597	-0.07328579206599382
156	0xbfbb7205ad5eefa5	-0.10720859034239412
157	0xbfc09239f967ca7e	-0.12946247747420964
158	0xbfc9783461d8bd35	-0.19898085382144762
159	0x3fc83e069ebcabd7	0.1893928790171617
160	0xbfc96316e294514c	-0.19833646834798413
161	0x3f85bb6f7ad7826d	0.010611411033950103
162	0x3fc1a68b9c3c8f30	0.13789506081331515
163	0x3f629e7956f1bcd5	0.002272831908662102
164	0x3fc48d6dac81d0ae	0.16056605265805984
165	0x3fc07fe1c14f5b22	0.12890264452900008
166	0x3fb4858e4c6f087f	0.08016290060098362
167	0xbfc5122ccf290c24	-0.16461715808154154
168	0x3f2bcc830ec2aa7c	0.00021208858323025828
169	0xbfb9fec4c75e22d2	-0.10154371135116527
170	0xbfa913f61e2f2403	-0.04898041838129787
171	0xbfbb5e7308a1deee	-0.10690993271588997
172	0x3fc912bcc6acebec	0.19588432026816294
173	0x3fad4b461ad12ee4	0.05721491887433475
174	0x3fa619c7f6c7870d	0.04316544425434019
175	0xbfb9ed10d2cd15e0	-0.1012735857630882
176	0xbfc8ed1111df8012	-0.19473470089633388
177	0xbfa1f433398a886c	-0.035066223882737585
178	0xbfa43fe2f77dbfbc	-0.03954991599209687
179	0x3fa0d3fdaf7db52c	0.0328673626635044
180	0x3fad13761e457850	0.05678910369418644
181	0xbfb4ae4cc15fbccc	-0.08078460427326489
182	0x3faed95c16cd6b8d	0.060252073081492254
183	0xbfbb8b2d6063ee73	-0.1075924263313313
184	0x3f92490d7e7b5b02	0.017856798977699213
185	0x3f87c37256fd8224	0.01160325363133647
186	0x3fb0e857f2b78d44	0.06604528117855063
187	0x3fc5eed71500f6f3	0.17135132337164513
188	0xbfb7f86cd0f8b8f0	-0.09363441564412134
189	0xbfc7dbe1bc61dca6	-0.1863977594218557
190	0x3fa0bf00a655ed1e	0.0327072337194869
191	0x3faa3e1c0f1f0f32	0.05125510868631834
192	0x3fb23cb8c91044a0	0.07123904141214377
193	0x3fc53348a8297f79	0.16562755785980324
194	0x3fc47f85f54033b8	0.16014170146118345
195	0xbfabb929e7c9eb76	-0.05414706186726097
196	0x3faa3558b46b384d	0.05118825151804227
197	0xbfc2d2f6c6457085	-0.14706310921872415
198	0xbfc5351f3705ea37	-0.16568365275073102
199	0x3fc2a087655718de	0.14552395294430814
200	0xbfb26f66e884cdfc	-0.07201235939719902
201	0x3fc520f46fd27313	0.1650682016378587
202	0xbfc647ae22395a9f	-0.1740625064000669
203	0x3fc8b76f320d0cd3	0.19309797233481749
204	0xbfbed1d22b241d67	-0.12038911393402928
205	0xbfc2cfa083565124	-0.1469612733168414
206	0x3f9e05b6f80914d0	0.02931867493523016
207	0x3fc86f99434e03de	0.19090572153439117
208	0xbf9fdd369dbf9451	-0.03111729944057046
209	0x3fc134bde04c9395	0.13442204906564528
210	0x3fa5cfad952e6cc1	0.04260008283673634
211	0xbfc966432d4dcf18	-0.1984333010874415
212	0x3fc40379608417b1	0.15635602200216916
213	0x3fa1ee70af0bf01e	0.035022279136654996
214	0xbfa1d607b0aa31e6	-0.03483604461243654
215	0x3fa465f559fe63a5	0.03984038089328771
216	0x3fafd85e17e7a154	0.06219762841994006
217	0xbfc9bf6018021d82	-0.20115281269339041
218	0xbfb233b9d3aff032	-0.07110177438875168
219	0x3fb8b71d9cfb6d24	0.09654412348338731
220	0x3faef38d7bec27ac	0.060451909425025846
221	0xbf961cb8fa166919	-0.021593942894107963
222	0xbfb3a46a92f33799	-0.0767275437130749
223	0x3fb2c72329844533	0.07335109485236017
224	0xbfb663732936637d	-0.08745498424685923
225	0x3f95bd4e4ae521a5	0.021229956933241607
226	0x3fc0ce393031f1da	0.13129343846584512
227	0xbfc8a42815d98d86	-0.19250966135869535
228	0x3fb09199882ad50e	0.06472167562863637
229	0xbf980edfd082bdd5	-0.02349424085758563
230	0xbfa192038c911395	-0.03431712237264787
231	0x3fc3c3628e67bad2	0.15440017655733712
232	0xbfbdc6b53e02d947	-0.11631329311317017
233	0x3fc10a809198228c	0.13313300236793102
234	0xbfb600ea3dce8237	-0.08595146187736523
235	0x3fc1b57660a2c0cc	0.13835029333632176
236	0x3fad6e4397e63a3e	0.05748187283744642
237	0x3fa1c532c3c47d65	0.03470762862911662
238	0x3f9931dc02678ca4	0.024604261061437996
239	0x3f9fb506d73f4219	0.030963999641075633
240	0x3fc0b31c0283eb3c	0.13046598551576405
241	0xbf97f65d2cc7da03	-0.023400741441912853
242	0x3fa444e6f59bf16e	0.03958818195494272
243	0x3fc840e17fd25ca1	0.18948000661177836
244	0x3fb63f192db0adf9	0.08690030446512499
245	0xbfc69555aeb93c47	-0.17643233329224214
246	0x3fb5bad46f69de92	0.0848820468908065
247	0xbfb1e8bb62915a53	-0.0699574580806737
248	0x3fbc92f6bba12a9b	0.11161748963165012
249	0x3fa6039c3b98396b	0.04299629428361381
250	0x3fb64e9503bbebf3	0.08713656750835223
251	0xbfc80916ee86e6be	-0.1877773918802656
252	0xbfb77df4f6e1ec36	-0.09176569964795153
253	0xbfca5ded8846de05	-0.2059914508260904
254	0x3f9401290f98e326	0.019535676552752033
255	0x3fb713b9eca30bcc	0.0901447489477924

network.2.bias f8 [24]
0	0xbfb72a952e07d4b1	-0.09049351095002824
1	0xbfb35851c4d23b63	-0.07556639723973783
2	0x3f611fe9ae16431d	0.0020904125273734212
3	0x3fc8722257759fbd	0.1909830977485835
4	0xbfbba3308ff50880	-0.10795882715777516
5	0x3fb29de61cda6191	0.07272184566898533
6	0x3fb1ef35edb8810e	0.07005631498077866
7	0xbf4f2ae9219ff5a1	-0.0009511602722793064
8	0x3fc9e4d7f6edc55a	0.20229625279493285
9	0xbfbc4767c8617485	-0.11046455995661304
10	0x3fc2252b1de60124	0.14175929031262868
11	0xbf910089ba858305	-0.016603614816065555
12	0xbfb247b7590aea86	-0.07140680240528682
13	0xbfb5b4965c98e963	-0.08478679428745788
14	0x3f90376e60c4c073	0.015836453110012316
15	0x3fa3274ab56c48a2	0.037409147878990426
16	0x3fba04d8f2b9c4c8	0.10163646627349288
17	0x3fbf89a3075eb7b8	0.1231939213746206
18	0x3fc874299947641e	0.19104499801940816
19	0xbfb5aef4e2fd21f5	-0.08470087568014846
20	0x3fc88b9aefa04114	0.1917604131745142
21	0x3fc0de5c3cc2e6bb	0.1317858978925893
22	0xbfc56a36220f5d5f	-0.1673038164433178
23	0x3fb0ef07b2f9f34f	0.06614730948963408

network.4.weight f8 [24, 24]
0	0x3fc2995233a19875	0.14530398865753438
1	0x3fb8cc71d6db9ba0	0.09686957831909959
2	0xbf65c149a611b4c9	-0.002655643315441301
3	0xbfb2e7de3faddce9	-0.0738505273310356
4	0xbfc6aa93258b5346	-0.17708052952971282
5	0xbfb067128fb3b04a	-0.06407276161525136
6	0xbfc4516f08d9395e	-0.15873516017968375
7	0x3fa1191213663960	0.03339439856346149
8	0xbfa510aeae1198b5	-0.041142901180863424
9	0xbfba5929aacce4d9	-0.10292301578455766
10	0xbfa99c31666913dc	-0.05001978278281857
11	0x3f8fbbf6956da161	0.01549523013609705
12	0x3f8ffaf805289040	0.015615403802321848
13	0xbfbfbbfbf0956069	-0.12396216033573783
14	0x3fc24b1b9c2ecc80	0.14291710973848026
15	0xbfbaf8f2b58d3f0f	-0.10536114628234493
16	0x3fa1ce03e1d317cd	0.034774895969846044
17	0xbfbcfefd0f75b564	-0.11326581599651814
18	0x3fb74eeed7c24c22	0.09104817168763238
19	0x3fb8415babc947c3	0.09474728530884051
20	0xbfad1a7810eb033e	-0.05684256750601556
21	0xbfc2c6291990b60c	-0.14667237995438176
22	0xbfb5902802418677	-0.08423090033604717
23	0x3f9696ed717fc9c7	0.022060117771568046
24	0x3fb721d2e3f66f1c	0.09035986009115188
25	0x3fa25a26c152080b	0.035844050501523915
26	0xbfc0ef279e00a9e0	-0.1322984239098579
27	0x3fc0e458e7756d69	0.131968606011337
28	0xbfc4b88291c2d1df	-0.16188079945790343
29	0x3f88ec1df46b69ec	0.012169107457727223
30	0x3f8ef104f4e5c1e8	0.01510814545028523
31	0x3fc3ee87bc3c4ecf	0.1557168645018607
32	0xbfa2cbf1f6414e9a	-0.036712228117406556
33	0xbfc073d1babdd399	-0.12853452318418304
34	0xbfbd3361e7ff61b6	-0.11406528390887768
35	0xbf86ff7df877d44b	-0.011229499955314767
36	0xbfc6f14c375f736c	-0.17923882201912578
37	0xbfc084882317e1b4	-0.12904454911746444
38	0x3fb3eea8b219a458	0.07786039684437307
39	0x3fc0af91db37f330	0.13035796360045415
40	0xbfc6b11761d2e80f	-0.1772793986945662
41	0x3f984919c61b1890	0.023716356960698237
42	0xbf69bd5e265b0519	-0.003142055403117749
43	0xbfc5ff910ff175e9	-0.17186177519299342
44	0xbfc0340bd020b6ed	-0.12658832228174025
45	0xbfb76a2bb636512e	-0.09146378706492861
46	0xbfc138aa819205f3	-0.13454181029014442
47	0x3fb3f89aa3ba6341	0.07801214692370896
48	0xbf857135ad9f2e51	-0.010469836579338894
49	0xbfbe3292cefd60bb	-0.11795918992482061
50	0x3fc4ebed9539c40f	0.16344995294960582
51	0xbfa8c79ac16d592e	-0.048397861587249444
52	0xbfb0f3cd24d4c126	-0.0662201132697687
53	0xbfb63b0559742490	-0.08683808740546994
54	0xbfc1841af00db4a0	-0.13684403153766755
55	0x3fba53471c36632b	0.1028332179906896
56	0x3fb99afc4936a1a7	0.1000211409324324
57	0xbfb6a6dbd012366b	-0.08848356084691893
58	0xbfc5437b5f479e51	-0.1661218848450852
59	0xbfa9eb39213b097d	-0.05062273531577242
60	0xbfb11c348243f7c6	-0.06683662586507841
61	0x3faa53740e2edd04	0.05141794846661621
62	0x3fb9dd0970ef09e7	0.10102900511905198
63	0x3f8b5d2caa41ae71	0.013361309953516117
64	0xbfc3b608d999ecdf	-0.1539927542215542
65	0xbfc076ce65af64ea	-0.12862567868322766
66	0xbfc93790564aaee9	-0.19700817311728905
67	0xbf9b9d72b33ce93d	-0.026967804136100105
68	0x3fb59af8a0d53fcb	0.08439592291438129
69	0x3fc0781c5400bbaa	0.128665486351989
70	0xbfc67f91022169ca	-0.17576801876096076
71	0x3fa7ab3edaa2f51b	0.04622837466147641
72	0x3fbcbdc563f04768	0.11227067651659939
73	0xbf9282cbe938035b	-0.0180770741553745
74	0xbfb99825ecf23dc7	-0.09997784647770579
75	0x3fc51cf6f4cf6bfd	0.1649464316713817
76	0xbfa37950efdeb1c0	-0.03803494384860384
77	0x3fbdcf0fc55d2b69	0.11644075935798316
78	0xbfc3d13cd2a25cac	-0.15482292446970314
79	0x3faa32cd1f07113c	0.0511688328147408
80	0x3fc0b57938c4f95b	0.13053813239998643
81	0x3f9cd5cfa9b5eeab	0.02815937493640656
82	0x3fb2419867ded879	0.07131340537930154
83	0x3f9a6d72d384d805	0.025808138046350865
84	0xbf855dd5e70fdd38	-0.010432883371307086
85	0x3fc024f2a12a5965	0.1261275565090713
86	0x3fc2481a50cdc7ea	0.1428254026937446
87	0x3fc45a77744fdb0d	0.15901082209867248
88	0x3fafafe14c994762	0.061888733482773586
89	0xbfc407e33a8d098a	-0.15649071082050298
90	0xbf98f94779111683	-0.024388424648597706
91	0xbfc9d41c9782fef9	-0.20178563497574212
92	0xbfc5fdda79177cca	-0.17180949127848627
93	0x3fa2d7fc493859dc	0.03680408853340442
94	0xbfbef517a5b64f83	-0.12092731281000905
95	0x3fc20e9d4bc0e911	0.14107099722770802
96	0x3f90a0e8f168d828	0.0162388226837821
97	0x3fa619d050660daa	0.04316569310597214
98	0x3fc98427fd5c6989	0.19934558745519507
99	0x3fc859fe2b2d7e68	0.19024636371885895
100	0xbfc8928dfa8c9f29	-0.1919724915871879
101	0xbfa89e1c0d523769	-0.04808128035175125
102	0x3fac5a964309aa84	0.05537862366039284
103	0xbfbf3376857650fd	-0.1218790126643547
104	0x3fc3fd13522f9b3b	0.1561607505129475
105	0xbf9230b9853c3310	-0.017763994938877536
106	0x3fc8b021a69e596c	0.19287510524436458
107	0x3fc889c6529fd170	0.19170455011738907
108	0xbfc5d0c496010f73	-0.1704335911218738
109	0x3fc4fdc662cbddf2	0.16399459671059408
110	0x3fbe5c5fcc6a8d22	0.11859701862936281
111	0xbfba27ee01ae40a5	-0.10217177907020643
112	0xbfc537a7fb40e721	-0.1657609917472707
113	0xbfb205a58cb3fe2d	-0.07039866147169312
114	0x3fc259630dc5d41d	0.14335287258623533
115	0x3fc84f461b7d5e8b	0.18991924612304376
116	0x3fc5ac32e6594089	0.16931759116642223
117	0xbfc074f8b400c18b	-0.12856968678671551
118	0x3f9bc857f51ef860	0.0271314376220676
119	0xbfa70ac44b1b3d9c	-0.045004018944037244
120	0x3f8f2472cebc9756	0.015206238683798706
121	0x3fba8f1e2347fa8e	0.10374630318981756
122	0xbfbef50041787d19	-0.12092591856388814
123	0x3fbb12824320be81	0.10575117243637956
124	0x3fa5de8cae3c29e1	0.04271354319469701
125	0x3fa84fa9d73e7342	0.04748278381814554
126	0xbfa0c60baaa130ab	-0.03276096780663925
127	0x3fa1ccd98ef4d216	0.03476600523064037
128	0x3fc5443365fdc091	0.1661438224796297
129	0xbfb649642cf72c99	-0.087057362535392
130	0x3fc83fe758d496bf	0.18945018613265138
131	0xbfc1d2f9effe3f0e	-0.13925098627486715
132	0xbfc89d1f10567a1c	-0.1922949628614824
133	0x3fb3c08a2e5622d3	0.07715667372952888
134	0x3fb3dbdc2588f68f	0.07757354656583913
135	0x3fc097d722e4e821	0.12963380054299115
136	0xbf931c989acecdb9	-0.01866377301094044
137	0x3f944e703e7fa1d4	0.019830468954667627
138	0x3fc5609ba155c0d0	0.16701074006733174
139	0xbfc1265ba4309d3e	-0.133983092470979
140	0x3f854c54751a28b0	0.010399494002985982
141	0x3fa4ec78fbeb4371	0.04086664271529273
142	0xbfa490a670297564	-0.04016609305538557
143	0xbfb2e271b18f736d	-0.07376776299447636
144	0xbf9aa6b3e3071080	-0.026026545268692747
145	0xbfc353753483f3f6	-0.15098443092566044
146	0xbfc7ccbcceb1395f	-0.1859355935325295
147	0xbfa9fe8076ec305d	-0.050769819752617386
148	0x3fc423b7d3d0c5d1	0.15734002916864978
149	0xbf64c74a4673a56e	-0.002536435192827361
150	0xbfb7ffd69c5f5608	-0.09374753301320748
151	0x3fb1ef6f6af4d473	0.07005974160422727
152	0x3fc57e79170013f8	0.16792214987813714
153	0x3fbf4439ac35e419	0.12213478521688649
154	0x3fc17b07723558ad	0.13656704975682513
155	0x3f76fbfd55a49ec4	0.005611409748133848
156	0xbfb55337e644b943	-0.08330106136120201
157	0x3fc5a7cd93d30f15	0.16918344228735607
158	0xbfb16be89b6598df	-0.06805280488842723
159	0xbfc31f94170acd09	-0.14940119862658488
160	0xbfa2de94458451cb	-0.03685439442248003
161	0x3fc6b5b2f69e3f53	0.177420015734692
162	0xbfc6a39f527b5a9c	-0.17686835792001865
163	0xbfc16389f65436d0	-0.1358501866129047
164	0x3fb05a27346a82b8	0.06387562780083555
165	0x3fba65ec7a90745b	0.10311773292819863
166	0xbfc9978b18d3f96a	-0.1999372359495724
167	0xbfbb3a2697e0d9cb	-0.10635606010405423
168	0xbf9b5393b79138e1	-0.02668600852876402
169	0x3fb6b5edcb8717a1	0.08871351450861066
170	0xbfa8525622a639c3	-0.04750317738499945
171	0xbfc5fa0df60a705d	-0.17169355882367912
172	0xbfae5fd6cf1c7881	-0.05932494428837832
173	0xbfc78412bcfe5079	-0.18371805408662903
174	0xbfc59354082cdf76	-0.16855860137161088
175	0x3fc0f43c3bf6018b	0.13245346954137135
176	0xbfbaf21a1d4db01d	-0.1052566834966346
177	0xbfc6ce9158843c1a	-0.1781789476594618
178	0xbfb08dac8ea476e5	-0.0646617744682448
179	0xbf8aa5264387e9af	-0.013010310111884886
180	0x3fc266c6465a6b0a	0.14376142916884077
181	0xbfaeb01e834ee875	-0.05993743279346201
182	0x3fc20047fc14543c	0.14063358124318082
183	0xbfbe43217f760b3b	-0.1182118354973171
184	0x3fc1b8ec7d6d5a29	0.13845592617390537
185	0x3fc204e03f9853cc	0.14077380280710228
186	0xbf08aa82d67c70a0	-4.7046773771182134e-05
187	0x3fa4128402df3718	0.039203763342454845
188	0x3f966a359746ff65	0.021889531477199315
189	0x3f9b091439e655fb	0.026401821168823485
190	0x3fc9990f1cdade40	0.19998349102910318
191	0xbfb36e7541ff3244	-0.07590420590640529
192	0x3fbf204c4776dbf1	0.12158657784208039
193	0xbfa03e21f86a7e6e	-0.03172403485700391
194	0x3fc29ec119abd6f8	0.14546979669074012
195	0xbfaa077a312cf94f	-0.05083829736985256
196	0xbfaac03a787f1e6a	-0.052247836312344045
197	0x3fbd11bbfb5b66c6	0.1135518540062562
198	0xbfc44ae9ccc57466	-0.15853617189978592
199	0xbfc69a361c5a8fc2	-0.1765811575361323
200	0x3fc4cfec6dc2f2b5	0.16259532317589778
201	0xbf827e22591af61f	-0.009029644340780739
202	0x3fb5e2e7afd56b8e	0.08549354594053524
203	0xbfbd04dbeddb7d54	-0.11335539395394295
204	0xbf89f758d012dcf4	-0.012678808069138438
205	0x3f611967cc6e3d53	0.0020873095813339986
206	0x3f9d8417ba991e30	0.028824206127209873
207	0x3fc9a8dc2bc00ccf	0.2004656995414735
208	0x3f654c1852dcdb1a	0.0025997614929126446
209	0x3fb71440e5c5912a	0.0901527939764192
210	0xbfc42a08771289d3	-0.1575327474029807
211	0xbfa001df332c57ec	-0.03126428126977018
212	0x3f93d79ba643bbee	0.019377166769967084
213	0xbfc3fcdc109db9c8	-0.15615416346868316
214	0x3f9a912439fdede9	0.025944295920892122
215	0x3fa80531db820fd0	0.04691463284055397
216	0xbfbda2d464304d06	-0.11576583333981114
217	0x3fc2093d9ce92547	0.14090700303703782
218	0xbfc73d0ac962104a	-0.18155035813481596
219	0xbfc1cdf71a581ef2	-0.13909806047762846
220	0x3fc34e7d8194b8b8	0.15083283259577285
221	0x3fbafe187675dcae	0.10543969051456045
222	0x3fad73225a2f4b68	0.05751902914894097
223	0xbfa324c83594872d	-0.037389999905157324
224	0x3fc3f6ee43dc1476	0.1559732276292924
225	0x3fae1413b628dae2	0.05874692534091765
226	0x3f7b16f6cd5308d4	0.006613697119236945
227	0x3fa1bf1c62df2a9a	0.03466118533068148
228	0xbfaaa397834d3d64	-0.05202935674480605
229	0xbf96bc60c9d6a8e7	-0.022202980345959935
230	0xbfc2ff7284f48fa2	-0.1484206341930277
231	0xbf75cd52022783c2	-0.005322761865017735
232	0x3fc27b8d91baa44d	0.14439553847958778
233	0x3fb0d44905bf2e01	0.06573921575834875
234	0x3fbd28a64edc136f	0.1139015142944808
235	0x3fa1d3d48ef64811	0.034819261981411505
236	0x3fbbf3b1a7c752d4	0.10918722482831394
237	0xbfc10d53dd13f8e7	-0.13321922583413157
238	0x3fc2cc190f440bf2	0.14685357327843424
239	0x3fad98be3dedccf4	0.057805962619477486
240	0x3fc6e579792faffd	0.17887800614641938
241	0x3fc4254d8d29a4b3	0.15738839523991074
242	0x3fa3fa8457cbab87	0.03902066776011908
243	0xbf5a5a82f49600de	-0.001608493696352346
244	0xbfbfe51272eba04a	-0.12458911233591255
245	0x3fb78e467a346acb	0.09201469882502093
246	0xbfbd8b318ee11de2	-0.11540517557397537
247	0x3fa069975bc75ba9	0.03205559726091362
248	0x3fb2d8b86b893d0c	0.0736193907298352
249	0xbfa9d0ff9b6bf5d3	-0.050422656748178384
250	0x3fa7dfb5864e1289	0.046628639835977266
251	0x3faac79a2aadcea3	0.052304094037848324
252	0x3fb2598577601020	0.071678487438533
253	0xbf8991ac15d33d58	-0.012484878936816088
254	0xbfb4854bf4f89750	-0.08015894633043996
255	0xbfbb2a2bcb496eda	-0.10611222947175794

network.4.bias f8 [24]
0	0x3fc7a802600d6174	0.184814736271402
1	0x3fb1dad1dbe7450e	0.06974517458663262
2	0xbfc3b8353b9168ee	-0.15405908020586118
3	0xbf91a90df0b2fe92	-0.017246454063523382
4	0xbf818f1b4d843431	-0.00857373552619309
5	0x3fb546a0c6fc7b80	0.08310894830763793
6	0xbfb4b19f89049377	-0.08083531470454185
7	0x3fac434f6f6df0ff	0.05520103678915866
8	0xbfc73fec5dd3e09c	-0.1816382845061114
9	0xbfc11fc7124c7474	-0.13378227609146942
10	0xbfb408ecbb53e063	-0.0782611806242826
11	0xbfbc8b1e5ef8ee54	-0.11149778193151266
12	0x3fbc06e022fa725e	0.10947991231882656
13	0xbfc372ebfc55d5f7	-0.15194463559207325
14	0xbfb0d1b03bd93519	-0.06569959126609994
15	0xbfb09642b7cf92ef	-0.06479279506272538
16	0xbfaa6f9396c1e29a	-0.05163251128482678
17	0xbfc2a91064f6400e	-0.14578442506581307
18	0xbfc07150589eeb5b	-0.12845806433855497
19	0x3fc68abe78e68bba	0.1761091318449795
20	0xbfc771dae2444c35	-0.18316207931693076
21	0x3fc076adca4a6dd0	0.1286217916248078
22	0xbfa8c81a61754adb	-0.04840166511225671
23	0x3fb55e28065e5e02	0.08346796184047636

network.6.weight f8 [3, 24]
0	0xbfc3da5b6b3e729a	-0.1551012300159485
1	0x3f98f92764140619	0.024387946589746166
2	0x3fc839bde3571117	0.18926213837233583
3	0xbfc490df3f576e3d	-0.1606711444172663
4	0xbfbe563a53c0f8f5	-0.11850323242922285
5	0x3fc3f286d1ce7347	0.15583882564978976
6	0xbf859d66c8c0f04f	-0.010554125787273131
7	0xbfc5295a186f4310	-0.1653244609174398
8	0xbfafce2af3c6cd5a	-0.06211981035030574
9	0x3fb3c42537306459	0.07721169087780434
10	0xbfb366432779970d	-0.07577914918655555
11	0x3fc4922aeb77de05	0.16071068284485093
12	0x3fc8041449e4d81c	0.18762448890783012
13	0x3fc7a2d491790fee	0.18465668776673233
14	0xbfb7d0702fb0d4b6	-0.09302426494908186
15	0xbfc065d58545be34	-0.12810772902911227
16	0xbfb81793d06af079	-0.09410976255725413
17	0xbfb507084627bedf	-0.08213855469488916
18	0xbf739f3b5ba05a83	-0.0047905272167755334
19	0xbfacd60dfe565090	-0.056320607468621664
20	0xbfb15d92acf3523b	-0.06783405992911977
21	0xbfc31610b8230914	-0.1491108798127888
22	0xbfc58b937e006b4f	-0.16832202579902364
23	0xbf5fda4ffc937b72	-0.0019441395873440429
24	0xbfb947452bd64063	-0.09874374695050529
25	0xbfc12ddde4f4605d	-0.13421224288390735
26	0xbfad2facfb29bfac	-0.05700436178165033
27	0x3fc95233995962e3	0.19782109248878674
28	0x3f70097d1d3f723c	0.003915299155747006
29	0x3fc1c60298c9d784	0.13885529003499297
30	0x3fb412538e6dd978	0.07840463855050028
31	0x3f8b2376bf24ea68	0.013251235683687315
32	0xbfc4f17d39d56d56	-0.16361966442023385
33	0xbfc9fbfdc8205e50	-0.2030026652507666
34	0x3f72cc90993e54df	0.004589619482336021
35	0xbfa022de1a9f0e5a	-0.03151601862876126
36	0x3f9fc5418161bc05	0.031025908967816224
37	0xbf813d9a5cde7e9d	-0.008418279608860596
38	0xbfc6127d6f7c74e0	-0.17243926948223187
39	0x3fc49e3eaa5cc6a8	0.16107924765087955
40	0x3fbd062a42fdf20e	0.11337532172724016
41	0x3fadd67151f12e58	0.05827669263143481
42	0xbfbd8cbc10438121	-0.11542868992865297
43	0xbfb753b2b67dd395	-0.09112088160857319
44	0xbfca4c667ddd39e9	-0.20545655389510323
45	0xbfc44e4f96090485	-0.15863985849322063
46	0xbf7a3fc98407470f	-0.006408488436550077
47	0x3fb7dbd40db75b8c	0.09319806418294102
48	0xbfc90df378102285	-0.19573825228168942
49	0xbfb13c2269274cae	-0.06732382838463266
50	0xbfc18181a833b414	-0.1367647239016213
51	0xbfc747092ff4fe1c	-0.18185534326220043
52	0xbfc8374807e99929	-0.18918705355026447
53	0x3fb86465cfcf9a39	0.09528194736012886
54	0x3fb5199a512ca4b7	0.082421917741743
55	0x3fc71e9af6b05c67	0.1806215004478162
56	0xbfc954866c960125	-0.19789200117157538
57	0xbfb45f2f99e39c82	-0.07957742220934175
58	0xbfb7944895128e61	-0.09210637702431647
59	0x3fc14b4e55037373	0.13511065627144667
60	0xbf8ec44a4a274ba2	-0.01502283133314625
61	0xbfa7bd368b17dd6b	-0.046365456084397426
62	0x3fc2e7d20e0a1d5b	0.14769960103533716
63	0x3f9de1746457de95	0.029180353760209405
64	0xbfc6cec61a5556a5	-0.17818523679550427
65	0x3fbc2c4ebbfd153c	0.11005107965055044
66	0xbfb40d9379138464	-0.07833215433085311
67	0xbfba61fb8cf1123e	-0.10305759612044427
68	0x3fc7b41931e56f4b	0.1851836675294812
69	0x3fbea9a3106a742b	0.11977595473077034
70	0x3fc1ad79588607fe	0.1381065065616553
71	0xbfbf01390516bfd9	-0.12111240743865838

network.6.bias f8 [3]
0	0xbfc31ddfff307f16	-0.14934921226903758
1	0xbfc4ac974c5dee33	-0.16151705960133853
2	0xbf8f5113fd6ba945	-0.015291362925797922
