Full_System/or_tcn225.pth (torch, 29444 bytes, 50 tensors)

tcn.network.0.conv1.bias f8 [5]
0	0x3f8280a9dfb8da20	0.009034468784290317
1	0xbfa889fbf773e9c2	-0.047927736240996235
2	0xbf98fc84b37923f4	-0.02440078111093054
3	0x3fa1ddf6a5f3d0d6	0.0348965718821163
4	0x3fe1625081c715c5	0.5432512793274148

tcn.network.0.conv1.parametrizations.weight.original0 f8 [5, 1, 1]
0	0x3fe0d3aa318e47e3	0.525837990559236
1	0x3fe0b9f222790299	0.5226984666151849
2	0x3fe2b155547d528a	0.5841471338449804
3	0x3fe0c851c01c7c95	0.5244530441449508
4	0x3feec2d62e5353c1	0.9612837700648172

tcn.network.0.conv1.parametrizations.weight.original1 f8 [5, 5, 7]
0	0x3fa500bfd8d7065e	0.041021342487067555
1	0x3fbf178920a3006c	0.12145287558360146
2	0x3fbf9b73efb8c17f	0.12346577265339496
3	0x3fc19ca53cf9b5ab	0.1375929401141723
4	0x3fbfa2ffb83a379d	0.12358091590632943
5	0x3f9d07afb9ed00d7	0.028349633906373874
6	0x3fc0bce62b0ea076	0.13076474287413803
7	0x3fb36ff099773140	0.07592681643217691
8	0x3fb63b97a899ffde	0.08684680811165843
9	0x3fb796d1fb260838	0.09214508420521461
10	0xbfa841f1b0180b7a	-0.04737811350425765
11	0xbfa67be8cfe26316	-0.04391410386705823
12	0x3fbb36558c84b962	0.10629782372118293
13	0x3fb7be6e8eda95e8	0.09274950969355411
14	0x3fa9b2ad73eaefb5	0.05019132652293427
15	0xbfbaa0858206ada5	-0.10401186394181268
16	0x3f916fe0924e5e02	0.017028340272728933
17	0xbfa5e9b4d830d8f5	-0.042798663511733816
18	0x3fa20c27c939adbc	0.03524898845065702
19	0x3f98bddb4ad09d5f	0.024161745492304983
20	0xbfbd87f28516f423	-0.11535564183482498
21	0x3fbf927f4b9b03e0	0.1233291205962952
22	0xbf76dbecf985cee4	-0.005580831224836411
23	0xbf88873f8327e07b	-0.01197671526914256
24	0xbfb52ffc8e81d008	-0.08276346663643619
25	0x3fbd5470142a9325	0.11456966869679926
26	0x3fb84b9970865f34	0.09490355488958074
27	0xbfa5b981d3785c30	-0.04243093210623561
28	0x3fc07a9527f70d21	0.12874092532556694
29	0xbfb550c5b75ee619	-0.08326373793433851
30	0x3f992d41e71a56d9	0.024586705904389248
31	0x3f9eb99c23187f71	0.030004920618125156
32	0x3fc5e8fc9bc20286	0.1711726913963682
33	0xbf8e489d949a5070	-0.014786940667626619
34	0xbfbc172aadbe5413	-0.1097284959963221
35	0xbfbeb94a73010b33	-0.12001481349674918
36	0xbf9eaf8528062950	-0.029966431205630528
37	0x3fb1110e41675d7a	0.06666649910709124
38	0x3fb51fa4be438d4f	0.08251409192194113
39	0xbfc4d32e445017e6	-0.16269472442235083
40	0x3fb8714c2ed1062c	0.09547878401738136
41	0x3fbf6133141f135c	0.12257689706082203
42	0xbfc089b8b500fb32	-0.1292029269988802
43	0xbfa5c2bc770d0809	-0.04250134423502067
44	0x3f93c14a46a697ba	0.019292030870609024
45	0xbfb1c0f3c658a4ac	-0.06935046760976843
46	0x3f8dbde346576bf3	0.01452233847060389
47	0xbfa3efd93bc6e2ba	-0.03893927435587359
48	0xbfb20a14bc6f0ca3	-0.07046632385668032
49	0x3f9771adcf3ea6cb	0.02289458825513328
50	0x3fb2890f22b7d90a	0.07240385625468462
51	0x3fb86ec9f7e55add	0.09544050504824093
52	0xbfc0390194534691	-0.1267396902317626
53	0xbfa72697dd245352	-0.04521631788717308
54	0x3f99aed177b64c5f	0.025080941135069753
55	0x3fc05315eb4e2e52	0.12753557195206838
56	0x3fb9f8a409e5710a	0.10145020715339484
57	0xbfa68fecee94d712	-0.04406681454058349
58	0x3f85818708c90190	0.01050096030769579
59	0x3f6d98a9ffff2605	0.0036128349601980436
60	0x3fb9a263d1c023fe	0.10013412352431314
61	0xbfc26ad01e35a58f	-0.14388467288089798
62	0xbfc311bd633a8076	-0.1489788755907317
63	0xbfc053b41135b96a	-0.1275544246704599
64	0x3fb4f27bae5a81e3	0.08182499891928034
65	0x3fac2c9bfca3c4f1	0.05502784213047985
66	0x3fae530afb19c8be	0.05922731700128868
67	0x3fb137754fbe2958	0.06725247570844795
68	0x3f77d2aa7f3d1f01	0.005816141132363618
69	0xbfbd724196fdb334	-0.11502466141037077
70	0xbfbd7aa24f776c26	-0.11515249672031355
71	0x3fb161cf31c28852	0.06789870228615882
72	0x3fb0f2d476af21a8	0.06620529077111448
73	0x3fbf2d9cd8534f2d	0.12178974419958584
74	0xbfbcaac451e26509	-0.11198069571618786
75	0x3fc14ae859bc6a28	0.13509849912300465
76	0xbfbdddf3904a8d14	-0.11666795990690942
77	0x3fb0c312048a7f9b	0.06547653780807965
78	0x3fc19b981c8eb133	0.13756085771945833
79	0xbf8f882ce09702ab	-0.015396452526034684
80	0xbfc1f76e2995f4a9	-0.1403634741836062
81	0xbfb415ccc96f3ac5	-0.07845764081796876
82	0x3fc3a0900e770858	0.15333748537347236
83	0xbfbfad9c5b5278bd	-0.12374284009499355
84	0xbfc065abb28cc819	-0.12810274332292762
85	0x3f9aa2e3d858e83d	0.026012001113692163
86	0x3fc482e8ba288a4e	0.1602450283981675
87	0xbfc3b1354e7018fd	-0.15384546594595597
88	0xbfb68e9f11c52422	-0.08811372932281406
89	0xbf922829b4d065a7	-0.017731334362996922
90	0xbf9f45c0edec5cb8	-0.03053952648323552
91	0xbfb2f28da251a0b7	-0.07401356900084265
92	0xbfbe1c1c155ffe54	-0.11761642000055278
93	0x3fbb9f1c06dca58b	0.10789656798865203
94	0xbfb9a83fe46588cc	-0.10022353483285257
95	0x3fafa31f410f78c1	0.0617913977546194
96	0xbfb933d151974a14	-0.09844692460982457
97	0xbfc2169f9daa5c1d	-0.14131541441449338
98	0xbfb519108d2bc92b	-0.08241370626982263
99	0x3fb18a3ee613d1ab	0.0685157119476744
100	0xbfa6dab402d61f53	-0.044637322756044505
101	0xbf8d0c9928ec370b	-0.014184185563432835
102	0xbfb23e9a61e8db50	-0.07126774683352477
103	0x3fa589cfa28ef156	0.04206704005580046
104	0x3fb4e246d6a40b38	0.08157770862821401
105	0x3fb8e3faa06d6675	0.09722868363078326
106	0x3fc0f868a504bd68	0.13258083398384746
107	0x3fa68d1f11bb5d1f	0.04404542056516391
108	0xbfb9c144fbfdee2f	-0.10060530807634714
109	0x3fc165a6336ddc4a	0.13591458808125118
110	0x3fb9c059ef2e384e	0.10059129800194563
111	0xbfa8458e7e72e7b8	-0.047405674873018666
112	0xbfa36ff3536357f9	-0.03796348946495693
113	0x3fab0378ff155360	0.05276086915788514
114	0x3fa3d84a3c201703	0.03875953659011879
115	0x3fbda3a92094bbd2	0.11577851338800763
116	0x3fc1bdebf74c906e	0.13860845160627683
117	0x3fc2728be45d9529	0.14412068033849693
118	0x3f9227ae26a09cc1	0.017729493243817233
119	0x3fb0caa49aaca1cf	0.06559208656529524
120	0x3f82a97b718c2f36	0.009112324145028699
121	0xbfa98ac830ae8801	-0.04988694757709312
122	0x3fa9e56089b2e2fb	0.050578133400852786
123	0x3f89a14b368fb2a6	0.01251467476137098
124	0xbfa20fc9773ea572	-0.0352766950666802
125	0xbf89dc4424319acf	-0.012627155642076641
126	0xbf79345ba188f33b	-0.00615344804151335
127	0xbfb1021c25e07305	-0.06643844532704797
128	0xbf9bf3de1c30867b	-0.027297468634179794
129	0xbfc45c79da73bae8	-0.1590721432362081
130	0xbfc5999caf851405	-0.16875036783508804
131	0xbfc57cc56b73e78a	-0.1678702139541282
132	0xbfa4c2efb8f11bcf	-0.040549746824175885
133	0xbfa16bf25ed4a668	-0.03402669341660386
134	0x3fb6a1f75cbc7e0b	0.08840890897817404
135	0xbfb9575cfdd06d31	-0.0989893073714725
136	0xbfb8d807369e0534	-0.09704632838658683
137	0x3f72c6d9c97f96d1	0.004584170084830767
138	0xbfb83d6a1b980dd0	-0.09468711064987834
139	0x3fa18f02340adb78	0.03429419408114759
140	0x3f53e5c47eed85d2	0.0012144488243496132
141	0xbf70c4ba79182030	-0.004093864832164271
142	0x3f900996e5f96a9f	0.015661580835834795
143	0xbf5842ae20e68e31	-0.0014807415460403978
144	0x3f929eb8552bc338	0.018183593939230053
145	0x3f6cb6c085351445	0.0035051117098725847
146	0x3f9b5fd2d8a07422	0.026732725593422775
147	0x3f7854e426ecad55	0.005940333575192487
148	0x3f66678f274a6108	0.002734927746427588
149	0xbf4671b2e4fb8f82	-0.0006849406726954085
150	0x3f56715715fb38a0	0.001369795841970091
151	0xbf84e99a66fa7112	-0.010211187617919868
152	0xbf85702e8a459355	-0.010467876047820882
153	0xbf84208962ef34d9	-0.009827683765161787
154	0xbf86958488acaa89	-0.011027369900678667
155	0xbf985441d68d7dba	-0.02375891563440089
156	0xbf9fbb64dfc03208	-0.030988289028799826
157	0xbfa3af3593c73a35	-0.038446115769705726
158	0xbfa1adb8863d13c8	-0.03452850950865344
159	0xbfb9a1375e746ef0	-0.10011621528650116
160	0xbfbcce038b48fddf	-0.11251852179065434
161	0x3f90a0a5f99384e7	0.016237824781346524
162	0x3f77ec943995fc76	0.005840853694620942
163	0xbf863bbf2339f0a0	-0.010856145155451025
164	0xbf959df74bbd7330	-0.021110404966168506
165	0xbf995008eb730b4f	-0.024719371195497882
166	0xbfae7b1ae81b2700	-0.05953296740842795
167	0xbfb6425ab74d1d5f	-0.08694998717429801
168	0x3fc325c177708715	0.14958971340188812
169	0x3fc3e38169b2df30	0.15538041745252817
170	0x3fc004a7f2379da4	0.12514209105505103
171	0x3fc0f66a6d16365a	0.13252001120092666
172	0x3fc28b23b15c3609	0.1448711982742881
173	0x3fc5d6e56ad39a07	0.17062061039105478
174	0x3fc47a7cb23275db	0.15998800946265032

tcn.network.0.conv2.bias f8 [5]
0	0xbfb8ee66f1d1f960	-0.09738772777379756
1	0xbfbd5bcd9d300bd4	-0.11468205535497528
2	0x3fc707bc4581dd79	0.17992356676016266
3	0x3fcd622175d60557	0.22955721143447747
4	0x3fc855d4397292a2	0.19011929326110982

tcn.network.0.conv2.parametrizations.weight.original0 f8 [5, 1, 1]
0	0x3fe10be30e762088	0.5327010424089318
1	0x3fdf5db8ada2abf2	0.49009530026040615
2	0x3fe5cb4b75e8518b	0.6810662558441875
3	0x3fe45195855c2715	0.634958992451376
4	0x3fe43c242e37c46f	0.6323414709751328

tcn.network.0.conv2.parametrizations.weight.original1 f8 [5, 5, 7]
0	0x3fbc8b538c26dfba	0.1115009514968496
1	0xbfc3689e87e5141f	-0.15163022647371435
2	0xbfbafb5dcc6bbc87	-0.10539804688208863
3	0x3fbcd63039dd0030	0.1126432553546699
4	0x3fb6b80c98c52cff	0.08874586801282545
5	0xbfb7b8e7bd93a81c	-0.09266517999972773
6	0xbf7121a34b02d992	-0.004182470191315695
7	0x3f74fc08f67aa84d	0.005123171816800176
8	0x3fa24d0de93b65fe	0.035744127960878544
9	0x3f99a9a25973d43c	0.025061165532822324
10	0xbfc514f4c307bf4b	-0.16470202944719356
11	0xbfc588a077fca86d	-0.16823201998460338
12	0xbfa4099cc450b1da	-0.039135836567172524
13	0xbf9094f701e3384f	-0.016193255891998878
14	0xbfc676ba351a17cf	-0.17549827187411757
15	0xbfbdb0242b925d4a	-0.11596895278704725
16	0x3fab37f909b84ab1	0.053161413609037374
17	0x3fbf9fad2b26c403	0.12353021911145849
18	0x3fab09692b064596	0.05280617380334289
19	0x3f5cfa17cd34f9a0	0.0017686111867330837
20	0x3fc120b364f546a1	0.13381044797511257
21	0x3fb7294eaa48dd9a	0.09047404916133531
22	0xbfb1a909481d865e	-0.06898553858402454
23	0xbfb13255ea17aed1	-0.06717431035184097
24	0xbfc28e55c0d372ff	-0.14496871867495284
25	0xbfb6a92504aba956	-0.08851844181086696
26	0x3f9d946fde8ceae4	0.02888655467834668
27	0xbf9d6938430f9d93	-0.02872169408138132
28	0xbfbb60d5d77bbbf4	-0.10694633971046114
29	0x3f8f08ef985798b4	0.015153762661565963
30	0x3fbb946a5e1673e3	0.10773339078009729
31	0x3fc8c38a8badeb7d	0.19346744365961036
32	0x3fc2ea2fe68ff8f2	0.14777182348183932
33	0x3fc3353d78cf6715	0.15006225966390532
34	0x3f834dea64ef98de	0.00942595596820833
35	0xbfc0865a35e1e61e	-0.1291001093957655
36	0x3fc0a683792e9bad	0.13008159081547657
37	0x3fc45eaa6389ee42	0.15913896427433555
38	0x3f9dff0dee01d797	0.02929326787167205
39	0xbfc0d2553d15ce41	-0.13141885264086464
40	0x3fa0e98375ceba40	0.03303156674461549
41	0x3fb54579f7f3deee	0.08309137633829852
42	0x3fb6ab8defee3593	0.08855521304777474
43	0x3f792dbe424cc467	0.006147139739185104
44	0xbfbeb62caff8c0dd	-0.11996726318534763
45	0x3f615a553683a97f	0.002118269378219739
46	0xbfb38f52750c025c	-0.07640567166891671
47	0x3f95041100ed6dbf	0.02052332466278783
48	0x3f998050a041dc9d	0.024903545171096487
49	0xbf9f2e37117ff27e	-0.03044973415670648
50	0x3fa8329bf8eebc01	0.04726111806609624
51	0xbfbd1e8d62c8b9de	-0.11374744092675068
52	0x3fbac420b08b95ba	0.1045551711100278
53	0xbfa76f5ad492b59c	-0.045771444748747586
54	0xbfa3ed7b9a50b74b	-0.03892122515422488
55	0xbfbc0ce792866699	-0.10957190825720388
56	0xbfc4d0c3a6a485da	-0.16262097966050143
57	0x3fbb8a634c386cb0	0.10758038149690452
58	0xbfbed09a1bcc964d	-0.12037051371279368
59	0xbfb816a47d3e5139	-0.09409549768162585
60	0xbfb58b73b8267bb7	-0.08415911908967542
61	0xbfa451cd45e8003f	-0.039686598571279756
62	0xbfc5f92e7365a1c6	-0.17166691431635978
63	0x3fa6b016bcd33541	0.04431220107071932
64	0xbfc256aeb6ec74d2	-0.14327033931559768
65	0xbfc0db574e9c743f	-0.13169375742373465
66	0xbfa6fadee1a83962	-0.04488274101832947
67	0xbfb9d52dff9ed494	-0.10090911379559692
68	0xbfb62a16015e43bd	-0.08657968076137386
69	0x3fa05e05253e295e	0.031967316433184165
70	0x3fc035b2cb6a4e13	0.126638745616774
71	0x3fcc3bb7d7952317	0.2205724527978183
72	0x3faa86236c327400	0.05180464454426925
73	0x3fba9db3527ad4ba	0.10396881831805418
74	0x3fc89e3e5097a9d5	0.19232920584847926
75	0x3fb9987ab9d3c58e	0.09998290097043691
76	0x3f99a4fdbe08a4d8	0.025043453906765517
77	0x3fc5133fdbc3152f	0.16464994650429207
78	0x3fbeaa20011a3a43	0.1197834017459423
79	0x3fb226a341a10474	0.0709020648219097
80	0xbfb4438821a88e17	-0.07915545293558811
81	0xbfb279af12a20b10	-0.07216924862772722
82	0xbfa79d4b84da1266	-0.04612194058157541
83	0xbf94d08a8d64de6d	-0.02032677162170986
84	0xbfc139d44fa12760	-0.13457731140288853
85	0xbf95920d4cdec1c6	-0.02106495649030806
86	0x3fb405dade9c27b7	0.0782143395882987
87	0xbf97aa80e26439b3	-0.023111356561509044
88	0xbfbdb83640d72a47	-0.11609210093517063
89	0xbfb46c443145a71f	-0.07977701380664513
90	0xbf9af85fa69ee89e	-0.026338095230791773
91	0x3f8c4190c1148f6a	0.013796931164115473
92	0x3fac9a94b5528ed5	0.05586685861024213
93	0x3f89d2e2c29f6bc8	0.01260926395837271
94	0x3fb4409a959d458f	0.0791107764500991
95	0xbfbd2a9ceb4cc4ee	-0.11393147225023245
96	0x3f6fa2c34bb3ae42	0.00386179107373666
97	0xbfc434574fe4dc7e	-0.1578473224742289
98	0xbfb4f4b2f16100f3	-0.0818588103584295
99	0xbf88c96bdcc4c6ab	-0.01210293071253273
100	0x3fa8dda31ea47169	0.04856595753719512
101	0xbf4ea109da4e8d1d	-0.0009347246274170915
102	0x3efa29655a2d69b1	2.494974399822888e-05
103	0x3fa38ca77b88ea18	0.038182481603559804
104	0x3fc33d3128f744ba	0.1503049325970432
105	0xbfa052bafc764ac3	-0.0318811829739807
106	0xbf91225f7931b659	-0.016732684871774903
107	0xbfa313cca5e57eee	-0.03726043248275156
108	0xbf978c5b990fc33a	-0.02299636003221226
109	0xbf98fec1637a4ae4	-0.024409314819943698
110	0xbf9f74c327471bd0	-0.03071885039551231
111	0xbfa0aab269ab9c9a	-0.03255231418534628
112	0xbf85aec9894cc62d	-0.010587286474762337
113	0xbf8be941e8d58da8	-0.013628497045550983
114	0xbf8c5d45f659b75d	-0.0138497796826546
115	0xbf901eafcd64ffa8	-0.015742060576712597
116	0xbf8fcb07d5097d56	-0.015523968876719845
117	0xbf91c9017fc85729	-0.017368338989476904
118	0xbf8fec2f20974bf8	-0.01558720415315483
119	0x3fa7988b859d6378	0.04608570104637172
120	0xbfa69e6011092d10	-0.04417705734211996
121	0x3fa6638b86f80237	0.04372821829384004
122	0xbfa7702167a66644	-0.04577736273058666
123	0xbfa78e1b35581bc7	-0.046006059896221134
124	0xbfa4f22011441925	-0.04090976916090686
125	0xbfa7a0babc4b7892	-0.04614814327736484
126	0xbfa103168a585e27	-0.033226684940185706
127	0xbfa0edf765b7b718	-0.03306553951902752
128	0xbfa174b3f1ed6d9a	-0.03409349754539477
129	0xbfa2f1f78e992db8	-0.03700231185629427
130	0xbfa1febb21c3d9a9	-0.035146568175991995
131	0xbfa236deb21a2a8e	-0.03557487415408388
132	0xbfa07a68a043e287	-0.03218390423166278
133	0x3fbc996edf8aae2d	0.1117162032848504
134	0x3fb2bdad9e3ea3ef	0.07320675958057142
135	0x3fb342a3ba0e97b1	0.07523558895499495
136	0x3fb8e2c87acee17d	0.09721043585057561
137	0x3fb93ed24f69743d	0.09861483038680859
138	0x3fb76fc630aa479c	0.09154928863634243
139	0x3fbb3785ba1fcbb3	0.10631595415161037
140	0x3fae55e249424792	0.05924899238847482
141	0x3fa38d5d7c1dfe21	0.03818790569402731
142	0xbfa23ab0d64f4fdd	-0.03560402504049851
143	0x3fa36314e456faa7	0.0378653076872884
144	0xbfa6bc0a037f0163	-0.04440337460210022
145	0x3fafa47dbcaac589	0.06180184295716191
146	0x3fc09907d851e333	0.1296701246499424
147	0xbfb480605dc44e84	-0.0800838688776882
148	0xbf840e45823b429a	-0.009792845761155623
149	0xbf98676e05821dc1	-0.023832053266714007
150	0x3fbe3cebf1fe0791	0.11811709077849587
151	0x3f9f7fcf9bcb406c	0.030760997661503017
152	0x3fbaec0d1bb110f9	0.10516435552660032
153	0xbfb2788315121797	-0.0721513678018638
154	0x3fb0d71db33df1fe	0.0657824099161601
155	0x3fc23a0c802f0b31	0.1423965097329414
156	0x3fb48ed79224a7da	0.08030459707211382
157	0xbf9c61fdc04fb01a	-0.027717556822537494
158	0xbf99c01b758dff50	-0.025146893548935012
159	0x3fbe0be8da1f09b6	0.11736922574258454
160	0x3fbb73df8e3d4dfc	0.10723683569568004
161	0xbee8f12df59f89c1	-1.1893323676963397e-05
162	0xbfbf2f9d51fc7feb	-0.12182029010409649
163	0xbfa788e509145d43	-0.04596629844507529
164	0xbfb9e19a35efa01d	-0.1010986692123201
165	0x3f9b8f73832f57a0	0.026914410478489637
166	0xbfbd794d115df393	-0.1151321570777795
167	0x3fab918d54ac488a	0.05384484919172035
168	0x3fc4b036d2e46414	0.16162762925594676
169	0x3fb76350a8fdc795	0.09135917783512888
170	0x3faa66fdb3911ec7	0.05156700913408723
171	0x3fc0cdee61432ae0	0.1312845206178599
172	0x3fbdf12bd2ac401a	0.11696123021488383
173	0xbf87adfdf5d44829	-0.011562332214939701
174	0x3fbff0698d16b73b	0.12476215071248202

tcn.network.0.net.0.bias f8 [5]
0	0x3f8280a9dfb8da20	0.009034468784290317
1	0xbfa889fbf773e9c2	-0.047927736240996235
2	0xbf98fc84b37923f4	-0.02440078111093054
3	0x3fa1ddf6a5f3d0d6	0.0348965718821163
4	0x3fe1625081c715c5	0.5432512793274148

tcn.network.0.net.0.parametrizations.weight.original0 f8 [5, 1, 1]
0	0x3fe0d3aa318e47e3	0.525837990559236
1	0x3fe0b9f222790299	0.5226984666151849
2	0x3fe2b155547d528a	0.5841471338449804
3	0x3fe0c851c01c7c95	0.5244530441449508
4	0x3feec2d62e5353c1	0.9612837700648172

tcn.network.0.net.0.parametrizations.weight.original1 f8 [5, 5, 7]
0	0x3fa500bfd8d7065e	0.041021342487067555
1	0x3fbf178920a3006c	0.12145287558360146
2	0x3fbf9b73efb8c17f	0.12346577265339496
3	0x3fc19ca53cf9b5ab	0.1375929401141723
4	0x3fbfa2ffb83a379d	0.12358091590632943
5	0x3f9d07afb9ed00d7	0.028349633906373874
6	0x3fc0bce62b0ea076	0.13076474287413803
7	0x3fb36ff099773140	0.07592681643217691
8	0x3fb63b97a899ffde	0.08684680811165843
9	0x3fb796d1fb260838	0.09214508420521461
10	0xbfa841f1b0180b7a	-0.04737811350425765
11	0xbfa67be8cfe26316	-0.04391410386705823
12	0x3fbb36558c84b962	0.10629782372118293
13	0x3fb7be6e8eda95e8	0.09274950969355411
14	0x3fa9b2ad73eaefb5	0.05019132652293427
15	0xbfbaa0858206ada5	-0.10401186394181268
16	0x3f916fe0924e5e02	0.017028340272728933
17	0xbfa5e9b4d830d8f5	-0.042798663511733816
18	0x3fa20c27c939adbc	0.03524898845065702
19	0x3f98bddb4ad09d5f	0.024161745492304983
20	0xbfbd87f28516f423	-0.11535564183482498
21	0x3fbf927f4b9b03e0	0.1233291205962952
22	0xbf76dbecf985cee4	-0.005580831224836411
23	0xbf88873f8327e07b	-0.01197671526914256
24	0xbfb52ffc8e81d008	-0.08276346663643619
25	0x3fbd5470142a9325	0.11456966869679926
26	0x3fb84b9970865f34	0.09490355488958074
27	0xbfa5b981d3785c30	-0.04243093210623561
28	0x3fc07a9527f70d21	0.12874092532556694
29	0xbfb550c5b75ee619	-0.08326373793433851
30	0x3f992d41e71a56d9	0.024586705904389248
31	0x3f9eb99c23187f71	0.030004920618125156
32	0x3fc5e8fc9bc20286	0.1711726913963682
33	0xbf8e489d949a5070	-0.014786940667626619
34	0xbfbc172aadbe5413	-0.1097284959963221
35	0xbfbeb94a73010b33	-0.12001481349674918
36	0xbf9eaf8528062950	-0.029966431205630528
37	0x3fb1110e41675d7a	0.06666649910709124
38	0x3fb51fa4be438d4f	0.08251409192194113
39	0xbfc4d32e445017e6	-0.16269472442235083
40	0x3fb8714c2ed1062c	0.09547878401738136
41	0x3fbf6133141f135c	0.12257689706082203
42	0xbfc089b8b500fb32	-0.1292029269988802
43	0xbfa5c2bc770d0809	-0.04250134423502067
44	0x3f93c14a46a697ba	0.019292030870609024
45	0xbfb1c0f3c658a4ac	-0.06935046760976843
46	0x3f8dbde346576bf3	0.01452233847060389
47	0xbfa3efd93bc6e2ba	-0.03893927435587359
48	0xbfb20a14bc6f0ca3	-0.07046632385668032
49	0x3f9771adcf3ea6cb	0.02289458825513328
50	0x3fb2890f22b7d90a	0.07240385625468462
51	0x3fb86ec9f7e55add	0.09544050504824093
52	0xbfc0390194534691	-0.1267396902317626
53	0xbfa72697dd245352	-0.04521631788717308
54	0x3f99aed177b64c5f	0.025080941135069753
55	0x3fc05315eb4e2e52	0.12753557195206838
56	0x3fb9f8a409e5710a	0.10145020715339484
57	0xbfa68fecee94d712	-0.04406681454058349
58	0x3f85818708c90190	0.01050096030769579
59	0x3f6d98a9ffff2605	0.0036128349601980436
60	0x3fb9a263d1c023fe	0.10013412352431314
61	0xbfc26ad01e35a58f	-0.14388467288089798
62	0xbfc311bd633a8076	-0.1489788755907317
63	0xbfc053b41135b96a	-0.1275544246704599
64	0x3fb4f27bae5a81e3	0.08182499891928034
65	0x3fac2c9bfca3c4f1	0.05502784213047985
66	0x3fae530afb19c8be	0.05922731700128868
67	0x3fb137754fbe2958	0.06725247570844795
68	0x3f77d2aa7f3d1f01	0.005816141132363618
69	0xbfbd724196fdb334	-0.11502466141037077
70	0xbfbd7aa24f776c26	-0.11515249672031355
71	0x3fb161cf31c28852	0.06789870228615882
72	0x3fb0f2d476af21a8	0.06620529077111448
73	0x3fbf2d9cd8534f2d	0.12178974419958584
74	0xbfbcaac451e26509	-0.11198069571618786
75	0x3fc14ae859bc6a28	0.13509849912300465
76	0xbfbdddf3904a8d14	-0.11666795990690942
77	0x3fb0c312048a7f9b	0.06547653780807965
78	0x3fc19b981c8eb133	0.13756085771945833
79	0xbf8f882ce09702ab	-0.015396452526034684
80	0xbfc1f76e2995f4a9	-0.1403634741836062
81	0xbfb415ccc96f3ac5	-0.07845764081796876
82	0x3fc3a0900e770858	0.15333748537347236
83	0xbfbfad9c5b5278bd	-0.12374284009499355
84	0xbfc065abb28cc819	-0.12810274332292762
85	0x3f9aa2e3d858e83d	0.026012001113692163
86	0x3fc482e8ba288a4e	0.1602450283981675
87	0xbfc3b1354e7018fd	-0.15384546594595597
88	0xbfb68e9f11c52422	-0.08811372932281406
89	0xbf922829b4d065a7	-0.017731334362996922
90	0xbf9f45c0edec5cb8	-0.03053952648323552
91	0xbfb2f28da251a0b7	-0.07401356900084265
92	0xbfbe1c1c155ffe54	-0.11761642000055278
93	0x3fbb9f1c06dca58b	0.10789656798865203
94	0xbfb9a83fe46588cc	-0.10022353483285257
95	0x3fafa31f410f78c1	0.0617913977546194
96	0xbfb933d151974a14	-0.09844692460982457
97	0xbfc2169f9daa5c1d	-0.14131541441449338
98	0xbfb519108d2bc92b	-0.08241370626982263
99	0x3fb18a3ee613d1ab	0.0685157119476744
100	0xbfa6dab402d61f53	-0.044637322756044505
101	0xbf8d0c9928ec370b	-0.014184185563432835
102	0xbfb23e9a61e8db50	-0.07126774683352477
103	0x3fa589cfa28ef156	0.04206704005580046
104	0x3fb4e246d6a40b38	0.08157770862821401
105	0x3fb8e3faa06d6675	0.09722868363078326
106	0x3fc0f868a504bd68	0.13258083398384746
107	0x3fa68d1f11bb5d1f	0.04404542056516391
108	0xbfb9c144fbfdee2f	-0.10060530807634714
109	0x3fc165a6336ddc4a	0.13591458808125118
110	0x3fb9c059ef2e384e	0.10059129800194563
111	0xbfa8458e7e72e7b8	-0.047405674873018666
112	0xbfa36ff3536357f9	-0.03796348946495693
113	0x3fab0378ff155360	0.05276086915788514
114	0x3fa3d84a3c201703	0.03875953659011879
115	0x3fbda3a92094bbd2	0.11577851338800763
116	0x3fc1bdebf74c906e	0.13860845160627683
117	0x3fc2728be45d9529	0.14412068033849693
118	0x3f9227ae26a09cc1	0.017729493243817233
119	0x3fb0caa49aaca1cf	0.06559208656529524
120	0x3f82a97b718c2f36	0.009112324145028699
121	0xbfa98ac830ae8801	-0.04988694757709312
122	0x3fa9e56089b2e2fb	0.050578133400852786
123	0x3f89a14b368fb2a6	0.01251467476137098
124	0xbfa20fc9773ea572	-0.0352766950666802
125	0xbf89dc4424319acf	-0.012627155642076641
126	0xbf79345ba188f33b	-0.00615344804151335
127	0xbfb1021c25e07305	-0.06643844532704797
128	0xbf9bf3de1c30867b	-0.027297468634179794
129	0xbfc45c79da73bae8	-0.1590721432362081
130	0xbfc5999caf851405	-0.16875036783508804
131	0xbfc57cc56b73e78a	-0.1678702139541282
132	0xbfa4c2efb8f11bcf	-0.040549746824175885
133	0xbfa16bf25ed4a668	-0.03402669341660386
134	0x3fb6a1f75cbc7e0b	0.08840890897817404
135	0xbfb9575cfdd06d31	-0.0989893073714725
136	0xbfb8d807369e0534	-0.09704632838658683
137	0x3f72c6d9c97f96d1	0.004584170084830767
138	0xbfb83d6a1b980dd0	-0.09468711064987834
139	0x3fa18f02340adb78	0.03429419408114759
140	0x3f53e5c47eed85d2	0.0012144488243496132
141	0xbf70c4ba79182030	-0.004093864832164271
142	0x3f900996e5f96a9f	0.015661580835834795
143	0xbf5842ae20e68e31	-0.0014807415460403978
144	0x3f929eb8552bc338	0.018183593939230053
145	0x3f6cb6c085351445	0.0035051117098725847
146	0x3f9b5fd2d8a07422	0.026732725593422775
147	0x3f7854e426ecad55	0.005940333575192487
148	0x3f66678f274a6108	0.002734927746427588
149	0xbf4671b2e4fb8f82	-0.0006849406726954085
150	0x3f56715715fb38a0	0.001369795841970091
151	0xbf84e99a66fa7112	-0.010211187617919868
152	0xbf85702e8a459355	-0.010467876047820882
153	0xbf84208962ef34d9	-0.009827683765161787
154	0xbf86958488acaa89	-0.011027369900678667
155	0xbf985441d68d7dba	-0.02375891563440089
156	0xbf9fbb64dfc03208	-0.030988289028799826
157	0xbfa3af3593c73a35	-0.038446115769705726
158	0xbfa1adb8863d13c8	-0.03452850950865344
159	0xbfb9a1375e746ef0	-0.10011621528650116
160	0xbfbcce038b48fddf	-0.11251852179065434
161	0x3f90a0a5f99384e7	0.016237824781346524
162	0x3f77ec943995fc76	0.005840853694620942
163	0xbf863bbf2339f0a0	-0.010856145155451025
164	0xbf959df74bbd7330	-0.021110404966168506
165	0xbf995008eb730b4f	-0.024719371195497882
166	0xbfae7b1ae81b2700	-0.05953296740842795
167	0xbfb6425ab74d1d5f	-0.08694998717429801
168	0x3fc325c177708715	0.14958971340188812
169	0x3fc3e38169b2df30	0.15538041745252817
170	0x3fc004a7f2379da4	0.12514209105505103
171	0x3fc0f66a6d16365a	0.13252001120092666
172	0x3fc28b23b15c3609	0.1448711982742881
173	0x3fc5d6e56ad39a07	0.17062061039105478
174	0x3fc47a7cb23275db	0.15998800946265032

tcn.network.0.net.4.bias f8 [5]
0	0xbfb8ee66f1d1f960	-0.09738772777379756
1	0xbfbd5bcd9d300bd4	-0.11468205535497528
2	0x3fc707bc4581dd79	0.17992356676016266
3	0x3fcd622175d60557	0.22955721143447747
4	0x3fc855d4397292a2	0.19011929326110982

tcn.network.0.net.4.parametrizations.weight.original0 f8 [5, 1, 1]
0	0x3fe10be30e762088	0.5327010424089318
1	0x3fdf5db8ada2abf2	0.49009530026040615
2	0x3fe5cb4b75e8518b	0.6810662558441875
3	0x3fe45195855c2715	0.634958992451376
4	0x3fe43c242e37c46f	0.6323414709751328

tcn.network.0.net.4.parametrizations.weight.original1 f8 [5, 5, 7]
0	0x3fbc8b538c26dfba	0.1115009514968496
1	0xbfc3689e87e5141f	-0.15163022647371435
2	0xbfbafb5dcc6bbc87	-0.10539804688208863
3	0x3fbcd63039dd0030	0.1126432553546699
4	0x3fb6b80c98c52cff	0.08874586801282545
5	0xbfb7b8e7bd93a81c	-0.09266517999972773
6	0xbf7121a34b02d992	-0.004182470191315695
7	0x3f74fc08f67aa84d	0.005123171816800176
8	0x3fa24d0de93b65fe	0.035744127960878544
9	0x3f99a9a25973d43c	0.025061165532822324
10	0xbfc514f4c307bf4b	-0.16470202944719356
11	0xbfc588a077fca86d	-0.16823201998460338
12	0xbfa4099cc450b1da	-0.039135836567172524
13	0xbf9094f701e3384f	-0.016193255891998878
14	0xbfc676ba351a17cf	-0.17549827187411757
15	0xbfbdb0242b925d4a	-0.11596895278704725
16	0x3fab37f909b84ab1	0.053161413609037374
17	0x3fbf9fad2b26c403	0.12353021911145849
18	0x3fab09692b064596	0.05280617380334289
19	0x3f5cfa17cd34f9a0	0.0017686111867330837
20	0x3fc120b364f546a1	0.13381044797511257
21	0x3fb7294eaa48dd9a	0.09047404916133531
22	0xbfb1a909481d865e	-0.06898553858402454
23	0xbfb13255ea17aed1	-0.06717431035184097
24	0xbfc28e55c0d372ff	-0.14496871867495284
25	0xbfb6a92504aba956	-0.08851844181086696
26	0x3f9d946fde8ceae4	0.02888655467834668
27	0xbf9d6938430f9d93	-0.02872169408138132
28	0xbfbb60d5d77bbbf4	-0.10694633971046114
29	0x3f8f08ef985798b4	0.015153762661565963
30	0x3fbb946a5e1673e3	0.10773339078009729
31	0x3fc8c38a8badeb7d	0.19346744365961036
32	0x3fc2ea2fe68ff8f2	0.14777182348183932
33	0x3fc3353d78cf6715	0.15006225966390532
34	0x3f834dea64ef98de	0.00942595596820833
35	0xbfc0865a35e1e61e	-0.1291001093957655
36	0x3fc0a683792e9bad	0.13008159081547657
37	0x3fc45eaa6389ee42	0.15913896427433555
38	0x3f9dff0dee01d797	0.02929326787167205
39	0xbfc0d2553d15ce41	-0.13141885264086464
40	0x3fa0e98375ceba40	0.03303156674461549
41	0x3fb54579f7f3deee	0.08309137633829852
42	0x3fb6ab8defee3593	0.08855521304777474
43	0x3f792dbe424cc467	0.006147139739185104
44	0xbfbeb62caff8c0dd	-0.11996726318534763
45	0x3f615a553683a97f	0.002118269378219739
46	0xbfb38f52750c025c	-0.07640567166891671
47	0x3f95041100ed6dbf	0.02052332466278783
48	0x3f998050a041dc9d	0.024903545171096487
49	0xbf9f2e37117ff27e	-0.03044973415670648
50	0x3fa8329bf8eebc01	0.04726111806609624
51	0xbfbd1e8d62c8b9de	-0.11374744092675068
52	0x3fbac420b08b95ba	0.1045551711100278
53	0xbfa76f5ad492b59c	-0.045771444748747586
54	0xbfa3ed7b9a50b74b	-0.03892122515422488
55	0xbfbc0ce792866699	-0.10957190825720388
56	0xbfc4d0c3a6a485da	-0.16262097966050143
57	0x3fbb8a634c386cb0	0.10758038149690452
58	0xbfbed09a1bcc964d	-0.12037051371279368
59	0xbfb816a47d3e5139	-0.09409549768162585
60	0xbfb58b73b8267bb7	-0.08415911908967542
61	0xbfa451cd45e8003f	-0.039686598571279756
62	0xbfc5f92e7365a1c6	-0.17166691431635978
63	0x3fa6b016bcd33541	0.04431220107071932
64	0xbfc256aeb6ec74d2	-0.14327033931559768
65	0xbfc0db574e9c743f	-0.13169375742373465
66	0xbfa6fadee1a83962	-0.04488274101832947
67	0xbfb9d52dff9ed494	-0.10090911379559692
68	0xbfb62a16015e43bd	-0.08657968076137386
69	0x3fa05e05253e295e	0.031967316433184165
70	0x3fc035b2cb6a4e13	0.126638745616774
71	0x3fcc3bb7d7952317	0.2205724527978183
72	0x3faa86236c327400	0.05180464454426925
73	0x3fba9db3527ad4ba	0.10396881831805418
74	0x3fc89e3e5097a9d5	0.19232920584847926
75	0x3fb9987ab9d3c58e	0.09998290097043691
76	0x3f99a4fdbe08a4d8	0.025043453906765517
77	0x3fc5133fdbc3152f	0.16464994650429207
78	0x3fbeaa20011a3a43	0.1197834017459423
79	0x3fb226a341a10474	0.0709020648219097
80	0xbfb4438821a88e17	-0.07915545293558811
81	0xbfb279af12a20b10	-0.07216924862772722
82	0xbfa79d4b84da1266	-0.04612194058157541
83	0xbf94d08a8d64de6d	-0.02032677162170986
84	0xbfc139d44fa12760	-0.13457731140288853
85	0xbf95920d4cdec1c6	-0.02106495649030806
86	0x3fb405dade9c27b7	0.0782143395882987
87	0xbf97aa80e26439b3	-0.023111356561509044
88	0xbfbdb83640d72a47	-0.11609210093517063
89	0xbfb46c443145a71f	-0.07977701380664513
90	0xbf9af85fa69ee89e	-0.026338095230791773
91	0x3f8c4190c1148f6a	0.013796931164115473
92	0x3fac9a94b5528ed5	0.05586685861024213
93	0x3f89d2e2c29f6bc8	0.01260926395837271
94	0x3fb4409a959d458f	0.0791107764500991
95	0xbfbd2a9ceb4cc4ee	-0.11393147225023245
96	0x3f6fa2c34bb3ae42	0.00386179107373666
97	0xbfc434574fe4dc7e	-0.1578473224742289
98	0xbfb4f4b2f16100f3	-0.0818588103584295
99	0xbf88c96bdcc4c6ab	-0.01210293071253273
100	0x3fa8dda31ea47169	0.04856595753719512
101	0xbf4ea109da4e8d1d	-0.0009347246274170915
102	0x3efa29655a2d69b1	2.494974399822888e-05
103	0x3fa38ca77b88ea18	0.038182481603559804
104	0x3fc33d3128f744ba	0.1503049325970432
105	0xbfa052bafc764ac3	-0.0318811829739807
106	0xbf91225f7931b659	-0.016732684871774903
107	0xbfa313cca5e57eee	-0.03726043248275156
108	0xbf978c5b990fc33a	-0.02299636003221226
109	0xbf98fec1637a4ae4	-0.024409314819943698
110	0xbf9f74c327471bd0	-0.03071885039551231
111	0xbfa0aab269ab9c9a	-0.03255231418534628
112	0xbf85aec9894cc62d	-0.010587286474762337
113	0xbf8be941e8d58da8	-0.013628497045550983
114	0xbf8c5d45f659b75d	-0.0138497796826546
115	0xbf901eafcd64ffa8	-0.015742060576712597
116	0xbf8fcb07d5097d56	-0.015523968876719845
117	0xbf91c9017fc85729	-0.017368338989476904
118	0xbf8fec2f20974bf8	-0.01558720415315483
119	0x3fa7988b859d6378	0.04608570104637172
120	0xbfa69e6011092d10	-0.04417705734211996
121	0x3fa6638b86f80237	0.04372821829384004
122	0xbfa7702167a66644	-0.04577736273058666
123	0xbfa78e1b35581bc7	-0.046006059896221134
124	0xbfa4f22011441925	-0.04090976916090686
125	0xbfa7a0babc4b7892	-0.04614814327736484
126	0xbfa103168a585e27	-0.033226684940185706
127	0xbfa0edf765b7b718	-0.03306553951902752
128	0xbfa174b3f1ed6d9a	-0.03409349754539477
129	0xbfa2f1f78e992db8	-0.03700231185629427
130	0xbfa1febb21c3d9a9	-0.035146568175991995
131	0xbfa236deb21a2a8e	-0.03557487415408388
132	0xbfa07a68a043e287	-0.03218390423166278
133	0x3fbc996edf8aae2d	0.1117162032848504
134	0x3fb2bdad9e3ea3ef	0.07320675958057142
135	0x3fb342a3ba0e97b1	0.07523558895499495
136	0x3fb8e2c87acee17d	0.09721043585057561
137	0x3fb93ed24f69743d	0.09861483038680859
138	0x3fb76fc630aa479c	0.09154928863634243
139	0x3fbb3785ba1fcbb3	0.10631595415161037
140	0x3fae55e249424792	0.05924899238847482
141	0x3fa38d5d7c1dfe21	0.03818790569402731
142	0xbfa23ab0d64f4fdd	-0.03560402504049851
143	0x3fa36314e456faa7	0.0378653076872884
144	0xbfa6bc0a037f0163	-0.04440337460210022
145	0x3fafa47dbcaac589	0.06180184295716191
146	0x3fc09907d851e333	0.1296701246499424
147	0xbfb480605dc44e84	-0.0800838688776882
148	0xbf840e45823b429a	-0.009792845761155623
149	0xbf98676e05821dc1	-0.023832053266714007
150	0x3fbe3cebf1fe0791	0.11811709077849587
151	0x3f9f7fcf9bcb406c	0.030760997661503017
152	0x3fbaec0d1bb110f9	0.10516435552660032
153	0xbfb2788315121797	-0.0721513678018638
154	0x3fb0d71db33df1fe	0.0657824099161601
155	0x3fc23a0c802f0b31	0.1423965097329414
156	0x3fb48ed79224a7da	0.08030459707211382
157	0xbf9c61fdc04fb01a	-0.027717556822537494
158	0xbf99c01b758dff50	-0.025146893548935012
159	0x3fbe0be8da1f09b6	0.11736922574258454
160	0x3fbb73df8e3d4dfc	0.10723683569568004
161	0xbee8f12df59f89c1	-1.1893323676963397e-05
162	0xbfbf2f9d51fc7feb	-0.12182029010409649
163	0xbfa788e509145d43	-0.04596629844507529
164	0xbfb9e19a35efa01d	-0.1010986692123201
165	0x3f9b8f73832f57a0	0.026914410478489637
166	0xbfbd794d115df393	-0.1151321570777795
167	0x3fab918d54ac488a	0.05384484919172035
168	0x3fc4b036d2e46414	0.16162762925594676
169	0x3fb76350a8fdc795	0.09135917783512888
170	0x3faa66fdb3911ec7	0.05156700913408723
171	0x3fc0cdee61432ae0	0.1312845206178599
172	0x3fbdf12bd2ac401a	0.11696123021488383
173	0xbf87adfdf5d44829	-0.011562332214939701
174	0x3fbff0698d16b73b	0.12476215071248202

tcn.network.1.conv1.bias f8 [5]
0	0xbfaf02d41a978aa0	-0.060568454977120156
1	0xbfa9e2d05084b339	-0.0505585764206899
2	0xbfa11c3fb9ac14bb	-0.03341864720827333
3	0x3fba4f50b60fd4b1	0.10277275509709473
4	0x3f8ff7f6307540a9	0.015609668115445468

tcn.network.1.conv1.parametrizations.weight.original0 f8 [5, 1, 1]
0	0x3fe14a5eb33b70a5	0.5403283596638359
1	0x3fe246debc7af0f7	0.5711511307959246
2	0x3fdf289b8c72dbd7	0.4868534919327749
3	0x3fde7c6ba9a4aa12	0.47634402815552435
4	0x3fde8d54869ec5ad	0.4773761095667293

tcn.network.1.conv1.parametrizations.weight.original1 f8 [5, 5, 7]
0	0x3fc80ccdbe5e6a70	0.1878907374892438
1	0x3fbe4ddacb7a5a3c	0.11837546794627313
2	0xbfc2fcdea01657f3	-0.14834196869622893
3	0xbfb39beed81af72b	-0.07659809852608805
4	0xbfc5981f5015c416	-0.1687049046554711
5	0x3fb7574027c30e55	0.09117508860350061
6	0xbfc165232d140e7f	-0.135898968707
7	0x3fc3f0cd47826461	0.15578618995349117
8	0xbf9e26aad1ff192a	-0.029444378916900472
9	0xbfb930cb8ccda85a	-0.09840080440122403
10	0x3fc09980a9e4f3bd	0.1296845273554065
11	0x3fa998f6755373e1	0.0499951379985999
12	0x3fababb704485b92	0.054044455788406456
13	0x3fbd2f1d3328feeb	0.11400015353228425
14	0x3fabace833829308	0.054053550994728694
15	0xbfc1f5a3b28055da	-0.14030882087597157
16	0xbfc408b9ff7639d2	-0.15651631330224675
17	0xbfc27ddb1032b9a5	-0.14446581164288577
18	0x3fa39c89aabc40a5	0.03830366334125416
19	0xbfc2e73b3a0ecf98	-0.14768162093025405
20	0xbfc29c894f0a0e73	-0.14540211066570272
21	0xbfb2e6d57bebf147	-0.07383474612646977
22	0x3fc6f631a384c9cd	0.1793882416182683
23	0xbfad6d83120385d3	-0.05747613520521679
24	0xbfb9b032e4089d88	-0.10034483020046114
25	0xbfb2f9f95a3214bd	-0.07412680103341791
26	0xbf8708ca9eb09447	-0.011247237174823023
27	0xbfbeb21c4fd84864	-0.1199052519735076
28	0x3fb26d23d6def07c	0.07197784419889958
29	0x3fa3499c173134db	0.03767097266300264
30	0x3fc08ec2196c9e85	0.12935663453503224
31	0xbfb8ea56f2c8b117	-0.09732573916761954
32	0xbfbd4ea62c830ba3	-0.11448134028164118
33	0xbfa668e4ec69da24	-0.04376902948290631
34	0x3fbe419466b1d5b4	0.1181881666869547
35	0xbfb2f311fb68456c	-0.07402145755647432
36	0xbfc09102dbc37f71	-0.12942538958213448
37	0xbfbcd68b9d5f7973	-0.1126487025462433
38	0xbfc389e1ec605234	-0.1526453403645448
39	0xbfc29c498a43df83	-0.1453945088503553
40	0x3fb2c8bc4fe1d1b7	0.07337548208471999
41	0x3fb05b83e98921cd	0.0638964123874139
42	0xbfc10996602db919	-0.13310508438321092
43	0xbfa9103e130642ae	-0.04895204527122608
44	0xbfa8e9310c28e563	-0.048654110655159476
45	0xbf86c54a1801b7ab	-0.011118487222315418
46	0x3f922681fc20cf7d	0.01772502042167855
47	0xbfa69586ed02f188	-0.044109550888126015
48	0x3fa8e142a361d8de	0.04859359974300202
49	0x3fb923318373a476	0.09819325885077199
50	0xbfb61d5ae94bb2c7	-0.0863854236192295
51	0xbfb2a8f193680c8e	-0.07289037560262754
52	0xbfc2020e4c0efa51	-0.140687739503806
53	0xbfa9b88ac127fdf8	-0.0502360688005829
54	0x3fa1bbf982d15ced	0.03463725778481739
55	0xbfc2c0da5b02bc65	-0.14651040500527582
56	0xbfb54e239208ea2c	-0.08322355571082402
57	0x3fab5df8a4faf330	0.053451318873590004
58	0xbfbbf19d72ded38a	-0.10915550283864497
59	0x3f410dc589001bcb	0.0005204405333650795
60	0x3f8999c1e1ffa71e	0.01250030013030173
61	0xbfb1206e91e22b4a	-0.06690112172706822
62	0x3f82c1a3a6ae18de	0.00915840008179852
63	0xbfba1f46093ac531	-0.10203969693499883
64	0xbfb3379a092cd33d	-0.07506716464997694
65	0xbfbd389d542c4bec	-0.1141451197147913
66	0xbfbd89070e4c2061	-0.11537212466294157
67	0x3faf9f137c3ae5c3	0.06176052943687751
68	0xbfbd83e67635a029	-0.11529388795827401
69	0x3fbf14ffafc45073	0.12141416588957714
70	0xbfc4ad1e2a1eaf41	-0.16153313690790053
71	0xbfc4a456447af68a	-0.16126516670003738
72	0xbfbfe4c9d6cfa45e	-0.12458478445445695
73	0x3f8a62e0a225d2c5	0.012883906315189883
74	0x3fac7165faa79d9d	0.05555266079664565
75	0xbf87d2f654d3f9b1	-0.011632847274538035
76	0xbfb7658ca7e25f80	-0.09139327143418363
77	0xbfc37d70c50a30fe	-0.1522656404598663
78	0xbfc5d2c3a256f7d1	-0.17049451281303488
79	0x3f3eef773bbb2da5	0.0004720369431480915
80	0x3fb5b2287d97f854	0.08474972788096241
81	0xbfc7e463e0bcb980	-0.18665741418358195
82	0xbfc5022ebf0546c7	-0.16412910773447306
83	0xbfc00218758c0d68	-0.1250639509163236
84	0x3fc2c772687ef82d	0.14671163656561373
85	0xbfb67510847ac36d	-0.08772376283992651
86	0x3f7d26ef5f4de1b0	0.0071172094802637725
87	0xbfbf4ce3de703600	-0.12226700001357216
88	0xbfb19228a5d512ea	-0.06863645599976179
89	0x3fb7a665b7115db7	0.09238277167729946
90	0xbfc5f0eada0a8ba6	-0.17141471525709767
91	0xbfc7c64798dba9b8	-0.18573851550838838
92	0xbfc4af9bb41c3dfe	-0.16160913748215927
93	0xbfa63bc75c4f6c81	-0.04342482568582629
94	0x3fb40f3f22d18d76	0.0783576450353872
95	0x3fb2291927ad5595	0.07093960970572362
96	0xbfc330c5b29cf7f6	-0.14992591115327486
97	0xbfb76d7dc8909f34	-0.091514455286071
98	0x3f9b9f74b5bcde19	0.026975463478463
99	0x3fbf850e4e6425b5	0.12312402166221299
100	0x3fc158d79324cb6a	0.13552374539139161
101	0x3fb3a3e4c432cb98	0.07671956815720049
102	0xbfc28d67f6d9f3b5	-0.14494037202157775
103	0x3fb488de08dbb5e8	0.08021342960611089
104	0xbfb71fadc5d1a905	-0.09032713012280531
105	0x3f9d5eba7d5f15f7	0.028681672956528428
106	0xbfc12f7e02a599e2	-0.13426184777490763
107	0xbfc5cbf83c7ade2e	-0.17028716042635622
108	0xbfa4949d70bc388c	-0.04019634247934886
109	0xbf557ad4464e73a7	-0.0013110230440595923
110	0x3fb14185e3b5b304	0.06740605172462827
111	0x3fb0ce6804555395	0.06564951043885821
112	0x3f2df96c0659c664	0.00022868579542349992
113	0xbfb01d09049f1601	-0.06294304240062588
114	0xbfc48d5a768bb6e8	-0.16056376255385563
115	0xbfc3472aac14e783	-0.15060933496880233
116	0xbfc564f197cd1aaf	-0.16714305793921855
117	0xbfb2638ad0718826	-0.07183139409019698
118	0x3f76e35dd3ab7124	0.005587927352021436
119	0xbf85d6a242525feb	-0.010663287781696304
120	0x3fb7810588164c1a	0.09181246349753316
121	0xbf8d2599eb6ff59a	-0.014231874940373857
122	0xbfbbc9bde956e116	-0.10854708620798123
123	0x3fa257811e6b21f0	0.03582385536498467
124	0xbfc573340a6338bc	-0.1675782252045276
125	0xbfbe47a76c727c07	-0.11828085324894753
126	0xbfa295803d9657f7	-0.036296851652124866
127	0x3f954e0b8ebaa857	0.02080553110742075
128	0xbfa9a623f47fa6c3	-0.05009567603685874
129	0x3f98a1e399ffa25a	0.024055057787253233
130	0x3fb094277f78f0bd	0.06476065504188262
131	0xbfc2f702833ae450	-0.14816314132420638
132	0x3fb6a74d2468c274	0.08849031580826666
133	0x3fab2d48daed12fa	0.053079869007467154
134	0x3fbfefa2148b81d7	0.12475026132188503
135	0xbfaac2635842b003	-0.05226431324385319
136	0x3fb2e31232d74126	0.07377732983809845
137	0xbf9b6b9d4ae48e78	-0.026777703949063952
138	0x3fa352a5139a9bae	0.03773990501695522
139	0xbfbeb7bdd05108b6	-0.11999117217877395
140	0xbfa2b605aeee1692	-0.0365449691808354
141	0xbf7908ce7a3702e0	-0.006111914207793417
142	0x3fc3c15948d7b022	0.15433803612484193
143	0xbfbd0c35a042fbb3	-0.11346755182874695
144	0xbf95d505d49f957f	-0.0213204298996934
145	0xbfc03ba71654a75c	-0.12682045545926257
146	0xbfbb84573fa5e1bb	-0.10748811057954459
147	0x3fbe257a3ae6bf05	0.11775936067601485
148	0x3faaf86ae29f7338	0.05267652527229533
149	0x3fbaee7affbc0e7e	0.10520142310638822
150	0xbf9c9bde408dd9ff	-0.027938339891500515
151	0x3fc7d7fc3311064f	0.1862788438175351
152	0x3fb78c48bdebb26f	0.09198431622253066
153	0xbf8ffc9e5a946432	-0.015618550433417953
154	0xbfa063298563ee3c	-0.032006547482492625
155	0x3fb808af26f629a4	0.09388251019678379
156	0x3f8182baac665cf8	0.008550127397752835
157	0x3fc4baef2e842db0	0.16195478221230308
158	0x3fbb37e9e02a364a	0.106321923473126
159	0x3f63fda321145de6	0.0024402795903701755
160	0xbf99ee9a20d91a94	-0.025324257140051445
161	0x3fc0b290d51794e0	0.13044939427269409
162	0x3f9e0b0b3804691c	0.02933900384332687
163	0x3f9b34f70f21abb9	0.026569233225398146
164	0xbf9b08d507895473	-0.026400879464138115
165	0xbfa100daad7a104e	-0.03320964210163933
166	0x3fc23f2659d7b552	0.14255217921110358
167	0x3fbbb03bb19050e6	0.10815785489132032
168	0xbf9d283b4c49869c	-0.028473783999635502
169	0x3f801f726c82e9ac	0.007872480331901986
170	0x3fab8566f6110578	0.053752152955449384
171	0x3fad9c8851190ade	0.05783487310374878
172	0xbf95bc30207d4ea4	-0.02122569273281151
173	0x3fa3e7758ebc6ceb	0.03887526862509979
174	0x3fa56f604574c9dd	0.04186535690168445

tcn.network.1.conv2.bias f8 [5]
0	0xbfc2d5430047fdb2	-0.14713323129397576
1	0x3fac80c7b156dc89	0.055670013807167136
2	0x3f80088954b94832	0.007828781984390163
3	0x3fb65afc73694c76	0.087325838257401
4	0xbfc84b7593d927cd	-0.18980283469346518

tcn.network.1.conv2.parametrizations.weight.original0 f8 [5, 1, 1]
0	0x3fe06f67bad67800	0.5135992669272582
1	0x3fdef25aa5cdbe46	0.48354211990133356
2	0x3fe04014d2de6d50	0.5078224295170148
3	0x3fe1eed6d1fc232e	0.5604051686542328
4	0x3fddac590b87f23e	0.46364427686765797

tcn.network.1.conv2.parametrizations.weight.original1 f8 [5, 5, 7]
0	0x3fbca6d4af3ff7f9	0.11192063597260916
1	0xbfb773e0c8a50073	-0.09161190889881414
2	0xbfc23b535783806e	-0.14243547223213987
3	0xbfc30a8e679cacd6	-0.14875965174846922
4	0xbfbf286c18dc2155	-0.12171054465227844
5	0xbfc3c1f53c6c0047	-0.154356626990195
6	0x3fc1f1afdac391e3	0.14018819982369654
7	0x3fb597a7197427ad	0.08434528705052342
8	0xbfc315cdbc5567c6	-0.14910289474465638
9	0x3f96fa8b26451ff1	0.022440122805420463
10	0x3fc0cdb7d640d8d0	0.13127801858508414
11	0xbfb3d0ff52de08f2	-0.07740779660347011
12	0xbfc13d3f543b6786	-0.1346816216744708
13	0x3fbaffba832b2dd7	0.10546460821495117
14	0x3fbe0c3585186baa	0.11737379550360907
15	0xbfa2eac3f02c265a	-0.03694736773293235
16	0xbfc11f52a0ec351e	-0.13376839501908305
17	0xbfa0c42a8ebbe1ea	-0.03274662964208004
18	0x3fc67d2ab9f8242a	0.17569479065449062
19	0xbfa6b5a25ba56f10	-0.04435450905540794
20	0x3fa65d56901f573d	0.04368086346919007
21	0xbfba1e558fa72de3	-0.10202536351351159
22	0x3fc039392cb17fe5	0.1267463176945959
23	0xbfadc9f74ca0b203	-0.05818150339505126
24	0x3fb2e112ecf31e6f	0.0737468555918157
25	0x3fbbc9f9333ef3e8	0.1085506200897296
26	0xbfafc8b514dbb9a5	-0.06207815055482805
27	0x3f8b71ae8beadb10	0.013400424618664114
28	0xbfbdb5e1a14a08ec	-0.1160565394184549
29	0x3fbb7317c19aef6b	0.10722492672624433
30	0x3fc166931ddb69b8	0.13594283063760115
31	0xbfc154ff2cf91a2c	-0.13540639587354641
32	0xbfba519cb18b8e56	-0.10280780157659683
33	0xbfaab24a060a6ff8	-0.05214148830165749
34	0x3fa7a537da94a1b4	0.04618238967151758
35	0x3fc09f4598151097	0.12986059118168633
36	0x3fa7ce454d769752	0.04649559565159102
37	0xbfc3737e1b4c5430	-0.15196205456655454
38	0x3fb32117c6bc207f	0.07472370721746023
39	0x3fa3262823a40226	0.037400488234201654
40	0x3fa42f55f0185409	0.039423642691112155
41	0xbfc08aebb1e7f01a	-0.12923952280823486
42	0x3fc423c5055e7bcb	0.15734160196458755
43	0x3fb0bba89a078596	0.06536344299776994
44	0xbf61243f3aa34318	-0.002092479223485443
45	0xbfc124a8c1b17b73	-0.13393125016861127
46	0xbfc61cd0709e929a	-0.17275434016223273
47	0xbfafbf7ef4c015d2	-0.06200787294077838
48	0x3fb5b4fbe7309d70	0.08479284662518238
49	0xbfc08ceac15315f2	-0.12930044593501538
50	0xbfc2b4b2edc52c16	-0.1461394940364193
51	0xbfa1d960babf9ce2	-0.03486158637661575
52	0x3f9e217c8a47a6cc	0.029424615802702545
53	0xbfbf01112a75ae0a	-0.1211100319539399
54	0x3fb48fe6667701df	0.08032073976119801
55	0xbfb1c0a5ed05db60	-0.06934582745257734
56	0xbf94c9330c55901c	-0.0202987648275582
57	0x3fa45090fbfe8196	0.039677172432905625
58	0x3fbaa9933554cae5	0.10415000965148698
59	0xbf8951f179c6037b	-0.012363325623256696
60	0xbf9bd4022761d5eb	-0.027175935414978907
61	0x3fc0b2121d54efba	0.13043428833213772
62	0xbfb37df04629a91f	-0.07614042008359377
63	0xbfc2a1ef3b007122	-0.14556684857314744
64	0xbf90f0ac99482c56	-0.016543099265657744
65	0x3f97b1b93602ba9f	0.023138898774670676
66	0x3f945534c81df0c2	0.01985628577630006
67	0xbfbc4b8467deded7	-0.11052730117705366
68	0xbfc3e13c9b9339d0	-0.1553111800807998
69	0xbfb7f1ef39598220	-0.09353537702691783
70	0x3fb1c0baddbf1bfe	0.0693470755933134
71	0x3fb510ee5e5706d0	0.08228959849568729
72	0x3fc60f7d0aacc1c4	0.17234766980392469
73	0xbfc2789a68389ea1	-0.14430551613735523
74	0x3fc4cf5f7ff74406	0.16257852314313953
75	0x3fbbb8a7e307d8bd	0.10828637402287007
76	0x3fbfb09a5ebfdb0a	0.12378849805086758
77	0x3fbb2d351490c41c	0.10615855934226243
78	0xbfba7d5e00a8a2f9	-0.10347545162279549
79	0x3f900679931a813c	0.01564969978665086
80	0xbf9f9f3bdfcdd190	-0.030880866560850928
81	0xbfc53b8e5bbf33ff	-0.1658800075514648
82	0xbf73e4d8487bed6c	-0.004856915336627448
83	0x3fbc0012a87eaaea	0.10937611211435763
84	0xbfbb94a7485a4bc3	-0.10773702160285752
85	0xbfbb109acc2961dd	-0.10572211727538368
86	0x3fc1bdd8542633bf	0.13860611065720538
87	0x3fc3fc485eb06acc	0.15613655684940964
88	0xbfb0e6923b3a9229	-0.06601823755279014
89	0x3fbedc741d08bad3	0.1205513544925723
90	0x3fb84937c3ad29d0	0.09486721541649179
91	0xbfbd5f23c07645a5	-0.11473296593455602
92	0xbfa8a83ed9e53a81	-0.04815861139160394
93	0x3fa939c9452469b6	0.04926899880429707
94	0xbf921793182bdadc	-0.017668054914760187
95	0xbfb6ca6271990955	-0.08902564309486156
96	0xbfc2bc697ee9b3c0	-0.14637488076132676
97	0xbf8538cc56ef057b	-0.01036224022198228
98	0xbfb4571f67898849	-0.07945438649906679
99	0xbfc00b1a8f679749	-0.12533885957889826
100	0xbfbd8e2cd40b53dd	-0.11545067002164396
101	0xbfadebbfbc80f786	-0.058439246903147654
102	0x3fa26e97009ecefd	0.03599998362133581
103	0x3fb8676526559de6	0.09532768426799229
104	0xbfa39f5722688ac1	-0.03832504553817762
105	0x3fbaddae3ddd6d53	0.10494507799505941
106	0x3fa1b7a69d1587db	0.034604269671731656
107	0x3fc018fbddbea19f	0.12576244666457811
108	0x3f84a4ffff275998	0.010080337499783806
109	0xbf8b430d410e33e9	-0.013311484859309846
110	0xbfb398d0dca3cd4f	-0.07655053507533192
111	0x3f68fc4aaf44ecd7	0.003049989574859784
112	0x3fc0368772e38cdf	0.12666409597213765
113	0x3fb020e64b29ca60	0.06300200781860488
114	0x3fae90f6f28e93c0	0.059699742421151836
115	0xbfa82e7da5128ffe	-0.0472296966557053
116	0xbfc288fb21b71ee9	-0.14480532785659442
117	0x3fbe4793a181abf7	0.11827967350988887
118	0xbfa5042200a2c754	-0.04104715593110933
119	0xbfbed93e4c649318	-0.12050237050113954
120	0xbfa16e9fff016091	-0.03404712665423049
121	0x3f94e9edec0e0c4a	0.02042361977829569
122	0x3fb8ecfb707cea1f	0.09736606117522982
123	0xbfae0b3f9b034e70	-0.05867956893203263
124	0x3fa8b9e10a27d2fb	0.04829314469308162
125	0x3fa1020196c23d13	0.03321843114201264
126	0x3f5a040df9c9c097	0.001587880752733672
127	0x3fc083caea0148bb	0.12902199197794126
128	0x3fc253ff48d12359	0.14318839126124308
129	0x3fc3f4c77f444e8e	0.15590757097435354
130	0xbfb6768362e90af7	-0.08774586834719487
131	0xbf9252b3e02b42d3	-0.017893610531987413
132	0x3fc46175d069e9aa	0.15922424961520437
133	0x3fbecf16242684f6	0.1203473890550589
134	0xbfbcabad8e1700f5	-0.11199459761610682
135	0x3f7aff9a99807a89	0.006591419129135753
136	0xbfa2df1b0af3fcc3	-0.03685841091827904
137	0xbfc5eaaf6960de83	-0.17122452397756058
138	0xbfc1769344e69038	-0.1364311300686738
139	0x3f9ca265914c1222	0.027963244431719166
140	0xbfb4aead5870bf91	-0.08079036149206177
141	0x3fc5fb361cfa8c7d	0.17172886290527237
142	0x3fc39178608563e9	0.15287689888899017
143	0x3fc88a084d88f10c	0.19171241556058083
144	0xbfc1a91367f0bfa2	-0.13797228408065815
145	0x3fb8da93d36d6fed	0.09708522712520536
146	0xbfc3ea7f04119a45	-0.15559375475568707
147	0x3fc03b153881052a	0.12680306681617398
148	0x3fc13d68c8553bd4	0.13468656331903495
149	0xbfc11461cd9edcf9	-0.13343451061312075
150	0xbfb542a88362c51d	-0.08304837424909235
151	0x3fc19cba8aff9783	0.13759547984153295
152	0x3fc264c42a722889	0.14370014259867883
153	0xbfc1fb7ca321d1e5	-0.14048727002558717
154	0xbfc28d4a362e8db7	-0.14493682523344173
155	0x3fbaa0a054e09e15	0.10401346275522656
156	0xbfc5134144d751b4	-0.1646501146448266
157	0xbfc3fdaeb6e20942	-0.1561792748435185
158	0xbfb96276f260f452	-0.09915870110940375
159	0xbfc62faf32ec503a	-0.1733302115104623
160	0x3fc375fcec1e8c17	0.15203820733322068
161	0xbfbfdcff1b3c71a1	-0.12446588911956848
162	0xbfb349ec4cc9e431	-0.07534672617647754
163	0xbfb0f9bfbd3ec645	-0.06631086702579932
164	0xbfbeb874533069e4	-0.12000205069526931
165	0xbfc8c0764ef057b7	-0.1933734784549281
166	0xbfc3619f3cba1091	-0.15141668763329055
167	0x3fb0315f58b1e337	0.0632533637562006
168	0xbfc689be5b3ab823	-0.17607860045012655
169	0xbf8e04cf594ab23a	-0.014657611763447698
170	0xbfc23fdb130352d5	-0.1425737231098966
171	0x3fbe2c29f05fbe9d	0.11786138647561946
172	0xbfb4965f5240fa9e	-0.08041949995183947
173	0x3fae5ba7a4641715	0.05929302102781101
174	0xbfa2cb68f15c4e54	-0.036708144629440526

tcn.network.1.net.0.bias f8 [5]
0	0xbfaf02d41a978aa0	-0.060568454977120156
1	0xbfa9e2d05084b339	-0.0505585764206899
2	0xbfa11c3fb9ac14bb	-0.03341864720827333
3	0x3fba4f50b60fd4b1	0.10277275509709473
4	0x3f8ff7f6307540a9	0.015609668115445468

tcn.network.1.net.0.parametrizations.weight.original0 f8 [5, 1, 1]
0	0x3fe14a5eb33b70a5	0.5403283596638359
1	0x3fe246debc7af0f7	0.5711511307959246
2	0x3fdf289b8c72dbd7	0.4868534919327749
3	0x3fde7c6ba9a4aa12	0.47634402815552435
4	0x3fde8d54869ec5ad	0.4773761095667293
