Experiment_Meassurements/not_pretrained_or_lstm_0_64.pth (torch, 15904 bytes, 14 tensors)

lstm.weight_ih_l0 f8 [32, 4]
0.1032828109204028 0.23564793165065734 0.024247338538525936 0.15190762842069064 -0.0901588216088355 -0.0442390990481895 0.2483596228587162 -0.33530999298138353
-0.28827094762404 0.06426561049466319 0.13046483762653519 -0.32035786390302073 -0.12955831085662098 -0.07998256147346522 -0.18973809358566465 0.043871310285759225
-0.19453948457773287 0.19246864610278047 -0.028215304795036197 0.017931927645716585 0.14616230036767536 0.1160422089647138 0.24647343950328268 0.23958146405852596
0.2144040331628729 0.28606156323019144 0.05025183013269269 -0.17243344399404276 0.6456594903555367 0.24625963461610872 0.916212237836155 0.7736021700139281
0.06322019568612582 -0.10127046003443015 0.31087918500951933 0.1836928042723122 -0.1772584073015796 -0.3232020902321959 0.2808039410297431 -0.16180849507381986
-0.16871049754439682 0.16972037129260564 0.10037996539407744 -0.16389180917507148 0.04189840380346871 -0.11257037148055635 -0.13971916068254145 -0.29060848798290023
-0.07313625153001066 0.1126032461893654 0.29058970334232864 0.08884050060293877 0.30297638043530234 0.32372209905448407 0.27566825285930235 0.10147978431207634
0.1519147622796453 0.20451308927850184 0.2577628517462738 -0.10164111202305345 0.22569366786441994 0.4022641906089632 0.4682677754872245 0.06108417655435199
0.013879933714527134 0.16680553117070257 -0.05469232687191135 -0.3824254259664297 0.052552756049679065 0.18343319451360973 -0.170308469197836 -0.14186131702875038
0.32473038943307636 0.17362379327609173 -0.03081685430954629 -0.15298383876468777 0.054135175061646536 -0.09719156613284677 -0.5538915328929087 -0.44911600409111546
0.1448525514166764 0.2924761285764167 -0.40682885576909955 0.28873019632160424 0.07418746304146374 0.2970003974378228 -0.12089084394978324 0.0234424361281683
0.20815125078799487 0.2928250723272568 -0.24951352940696664 -0.12165272628371454 -0.12520043447493284 -0.04666504532227953 -0.35827536991447256 0.11785007888036346
0.28655416800037636 0.21486867401582158 -0.01814409760725872 0.1530156723510079 -0.3653218232594612 -0.23426148895888393 0.2101524578277283 -0.16806327486599518
-0.24474949890029157 0.12388544807460317 -0.0012923299173216473 -0.13221085128079527 0.009034826529327744 0.1607021076054696 -0.026160381419320002 0.09948578816508014
0.06858140840960793 0.4442381353684498 0.1287074420125309 0.23562542357472296 -0.054353245892820326 0.3712199297699578 0.15948455185197535 0.2805342468674077
0.2087152761834995 0.491629072586943 0.19117259593354133 0.11831252929466436 0.19754368776734837 0.34444189296799604 0.28374538936782967 -0.118904055642452
00000000: 775f 2407 be70 ba3f 84a1 e71f b629 ce3f
00000010: ebeb 2658 4bd4 983f 7136 0a8c b571 c33f
00000020: 297f 4106 a614 b7bf 16a3 3bd7 81a6 a6bf
00000030: 3a9c e984 3fca cf3f 4a21 780b b875 d5bf
00000040: d9a8 1bfd 0773 d2bf 6901 5507 b673 b03f
00000050: 4124 7161 12b3 c03f 91b6 1e45 be80 d4bf
00000060: a9ef 06e2 5d95 c0bf 3c62 c7b5 bc79 b4bf
00000070: 9dbe 607d 5649 c8bf 15ec d1e5 4c76 a63f
00000080: 3162 057a abe6 c8bf d027 4206 d0a2 c83f
00000090: 7f8b 5d0d 79e4 9cbf fa9c 2b4b bf5c 923f
000000a0: aa5f fe3d 72b5 c23f e583 7534 f1b4 bd3f
000000b0: e3e6 ff10 718c cf3f 3bf9 6dfc 9aaa ce3f
000000c0: 2f53 4863 9771 cb3f ffd7 ad28 d54e d23f
000000d0: 08d7 f79d 9bba a93f b274 5891 4c12 c6bf
000000e0: d7ba 6d17 3ea9 e43f ee23 808a 6f85 cf3f
000000f0: b870 b653 9c51 ed3f eb61 8a56 59c1 e83f
00000100: 612b ebe0 322f b03f a514 e661 dcec b9bf
00000110: 8bdf 27cf 71e5 d33f 1518 6eed 3e83 c73f
00000120: 0c92 264b 67b0 c6bf acf3 e2d1 57af d4bf
00000130: d7e1 d317 b1f8 d13f df4c 4709 24b6 c4bf
00000140: 24f8 b83a 4e98 c5bf 0857 15aa 65b9 c53f
00000150: 678a 8a5c 80b2 b93f 439e 3e24 68fa c4bf
00000160: 0856 2e24 b573 a53f 7eef 0170 69d1 bcbf
00000170: 61c7 e044 51e2 c1bf 73e6 f457 5499 d2bf
00000180: 6e32 79b0 0eb9 b2bf e487 cefb 90d3 bc3f
00000190: 9937 1a8e 0599 d23f 365f a644 40be b63f
000001a0: 6586 5b0b f763 d33f 659d 1be5 dcb7 d43f
000001b0: d7df a474 8ca4 d13f 1554 d342 94fa b93f
000001c0: 00a6 e263 f171 c33f 4f0d 0723 7c2d ca3f
000001d0: acee 97c2 2f7f d03f 266e 11e4 2605 babf
000001e0: 112c 32b5 87e3 cc3f 331d c14d b2be d93f
000001f0: 4d40 5f67 19f8 dd3f a743 35d9 6c46 af3f
00000200: cb0f ff2a 156d 8c3f 0ec5 9536 e259 c53f
00000210: aa95 83f6 a100 acbf e0d1 6b7e a879 d8bf
00000220: 6798 18e1 31e8 aa3f c4e7 b729 bd7a c73f
00000230: 2ee0 b7fc aacc c5bf 405d 9afa 8228 c2bf
00000240: 5b79 a8f8 61c8 d43f d6d1 f6f0 4d39 c63f
00000250: e24c b315 748e 9fbf 9fca 2774 f994 c3bf
00000260: 7df0 e70c 9bb7 ab3f 3ad3 fce5 8be1 b8bf
00000270: a1cd 69bc 7ab9 e1bf 679e 6b0d 51be dcbf
00000280: 0cd4 8945 878a c23f 6e2b c6cb edb7 d23f
00000290: 883b a6e5 7b09 dabf ac69 a437 8e7a d23f
000002a0: a94a 8917 f3fd b23f b03e 79f4 0d02 d33f
000002b0: c970 26cd b3f2 bebf da44 0942 4b01 983f
000002c0: 63c2 603f b3a4 ca3f b10a 465f a5bd d23f
000002d0: c231 5b30 0ff0 cfbf 5c98 db10 a224 bfbf
000002e0: dee5 c15d 9106 c0bf ad14 0d17 7be4 a7bf
000002f0: 75ad 2fd1 fbed d6bf 4747 9f3a 6c2b be3f
00000300: d605 064b e756 d23f 759a ea13 d180 cb3f
00000310: 12bc 5ac7 5d94 92bf a9f2 427e 0496 c33f
00000320: cf86 dac8 6e61 d7bf ba34 e5cc 47fc cdbf
00000330: 78a5 c596 46e6 ca3f 49a3 9aee 1883 c5bf
00000340: 269c be9a f353 cfbf 1c44 eeeb f4b6 bf3f
00000350: 0f26 c1ae 6c2c 55bf edb2 3601 49ec c0bf
00000360: c07a bfe3 d980 823f 7229 48fc e291 c43f
00000370: e763 967a c9c9 9abf 30f7 958e e677 b93f
00000380: 619e 3b1a 8d8e b13f eac8 c2c9 656e dc3f
00000390: 9f0a 1947 7c79 c03f cd06 2e50 f928 ce3f
000003a0: 520c 154b 30d4 abbf 8f10 7f3c 11c2 d73f
000003b0: 16f2 3563 fd69 c43f 4006 ede9 45f4 d13f
000003c0: 541e b1a2 2eb7 ca3f cc84 21c9 d976 df3f
000003d0: 9986 b6f7 5778 c83f 7512 07dc ba49 be3f
000003e0: bef9 3e8f 1c49 c93f 3ddf 6a02 560b d63f
000003f0: 7870 ee6b e228 d23f b999 5806 7f70 bebf

lstm.weight_hh_l0 f8 [32, 8]
0.05291268529776429 -0.04837697820616419 -0.22210967470459095 -0.1638102609523792 -0.6327389666192321 0.019256230427586236 0.5356023490673019 0.04837089064629667
0.03428974167831426 -0.05741666171669118 -0.0754173057176969 0.03642375919715415 -0.4976308752930451 -0.2500254718893211 -0.39602147871475274 0.10501980206343861
0.16964599362948987 0.3290459429461675 -0.30321688760363164 0.07169393628015042 -0.2242647271489822 -0.12276403201639335 0.162633570367853 0.27239442181928625
0.1725255743538945 0.1653434409269627 -0.7286100113136921 0.24513143025885817 -0.2445131696826383 -0.378738230060552 -0.035458077505011745 0.4371803082137243
0.049323486051655666 0.03883846955839668 -0.25065965556680203 -0.042161670280368546 -0.17061343419601618 -0.10742539004951776 -0.12079794086724545 0.04552677402293154
-0.5669075202335463 0.07453258807175002 -0.09787538544100269 -0.3387419392656019 -0.04786135671609568 -0.1339775175068827 -0.15553307543147302 -0.07049674049089956
0.215930734258946 -0.3061433323158988 -0.22027080675532532 0.013029638257624139 -0.3602779839648719 0.08673814234057212 0.3231447115108437 0.02696227468521442
0.3327271808450912 0.08574226681011066 -0.12516265624602402 -0.10390954094266709 -0.004001945058008146 0.5425377677099373 0.6466070517959497 -0.019834324407606792
-0.09693338367893703 -0.03002543434500565 0.09938660481567635 0.16596901961581456 0.07444068457033073 -0.22734572746032433 0.3705035803905639 0.015000809636818352
-0.16080666920867207 0.1753652419301787 0.1332197943876174 0.11992526234940883 -0.3273462198983041 -0.267390244734408 -0.47820850445306023 -0.22032268044200706
0.566347710886254 0.03140726945373913 -0.07773366273638022 0.23983020534107305 -0.32853901104718236 0.030027833668879948 -0.09862102168372029 0.41626168811158104
0.03797065898783362 0.013852928275440678 -0.814676097244505 0.3086636825712902 -0.24669416932656582 -0.1916840532514559 -0.22425071203866317 0.6341395933881612
-0.019646509643638895 0.23765479650556404 -0.1632123232716015 0.14447419622536317 -0.14974548734439566 0.09486825870079355 -0.2406620865972667 0.0616275793684473
-0.5209541412139933 -0.2610849433861403 0.08796087199911189 -0.17562718903721192 0.09171742461268838 0.08187602207767371 -0.014609572335887243 0.12680697248125541
0.675384113854344 -0.2932322616054743 -0.1090370724464125 -0.22337029384825496 -0.13298661072091786 -0.03960283744108136 0.2608332502989429 0.010708247113760712
0.19303603752416348 -0.04459464600168198 -0.19684051693615348 -0.11584532802258235 -0.16839344941018286 0.09254655044079411 0.22011375733981123 0.5738112019664406
0.25175139007093056 0.10089997920465879 0.35433409304354874 0.274737148890567 0.20713191846595563 0.3011455380748727 0.25782979758468555 -0.10220942306577198
0.273657935472072 0.07646212616111546 0.1523626812813234 0.2562826694340915 0.3323526547274474 -0.011732899497547819 0.34502912746130404 -0.035481610141799375
-0.25268805731093485 0.004711979984784614 0.2002670668595539 -0.03873087311662057 0.11100631049948972 0.08952196739480514 -0.07786309478060277 -0.3785813979055694
0.07248688852077907 -0.004267795080551159 -0.23963966491372493 0.21881785196435227 0.20294177032172098 0.12998911788319784 0.1419021441286851 0.03754719549909319
-0.2549093163230543 -0.1598757099443918 0.2107857459830198 0.09235760596132857 0.06789225815696896 0.2757811192421704 0.255435396142552 -0.004462035349313667
-0.123366287181689 0.040359796794757326 0.2982896608278299 -0.11122278622918118 0.28469472078146935 0.02455303546532964 -0.07711425718206057 -0.0929472744580183
0.3995287720705225 0.043198757180833915 0.08311817476273867 -0.06514609931462867 0.1782879175804744 0.22715504915682944 -0.029356855800297454 -0.14627466561188013
0.10647569047634739 0.022896071341965824 -0.17334851206100446 0.135183328477323 0.403695699231849 -0.07143187228535236 0.13072611904245085 0.407549183498019
0.15103444188555815 0.16547103877271677 -0.5251815673483281 0.21911018877245117 -0.6281371347062233 0.19228973867246607 0.34950490001077045 0.046265883846618915
-0.09654350700926653 0.2100189950808474 0.029900248345080146 0.05401413072728043 -0.49474790411912917 -0.20010885516174956 -0.14978722883990603 -0.2835344416201596
0.47912705124128296 0.13344697780140813 -0.4278402051112538 0.27797556489142894 -0.16462331139080685 -0.10170895574761171 0.059170705642608915 0.5852724696099468
-0.07604937035584483 -0.15012124710975655 -0.6979464832275206 0.42432474120028213 -0.6333612287713721 -0.24411055744033874 0.14936448179910283 0.5615066693294188
-0.20849510953897812 0.19319314760871675 -0.5150639951201847 0.3040745313838818 -0.12108539970655853 0.052057987041854444 -0.07234965446080499 0.30822655442969554
-0.30642952052251876 -0.09881179946262417 -0.17974389323788775 -0.07717334833733051 -0.09805010923113154 0.03887048678701878 -0.04631956986320566 0.0384044521542548
0.2645195139963363 0.03352688756659575 -0.37520694545015854 -0.10552284220606861 -0.5087060155740954 0.13234076050234111 0.4993941693113479 0.3242186938536864
0.054788516870011565 -0.1621864372504224 -0.09885705859743386 -0.29777328644525053 -0.2592791601439311 -0.10017816381251084 0.37602534842209034 0.6179965918480432
00000000: f37c cb19 5f17 ab3f f5af 8c06 dec4 a8bf
00000010: 0f9f 7dfe 166e ccbf b514 c510 bcf7 c4bf
00000020: 1d1a 11ca 653f e4bf 720f b9bf e7b7 933f
00000030: 6ef4 9c89 a723 e13f 16f8 cec2 11c4 a83f
00000040: d57b 31ce 6c8e a13f 872a a378 b765 adbf
00000050: 2925 9c6d 8c4e b3bf 032b 198d 22a6 a23f
00000060: 4f43 b72b 2fd9 dfbf 5c9f 3bd6 6a00 d0bf
00000070: a5fa e578 6a58 d9bf 167c 4be7 93e2 ba3f
00000080: 619e 44bd f5b6 c53f 1675 f5b6 160f d53f
00000090: 748f f6cd e767 d3bf 980e a5a7 885a b23f
000000a0: b228 60e2 b4b4 ccbf 8cb0 a2ae 766d bfbf
000000b0: 2117 fb44 2dd1 c43f 0de8 5403 e96e d13f
000000c0: 816b c969 5115 c63f 47d8 b14f f929 c53f
000000d0: 092d 44f1 c550 e7bf f37c 177a 7760 cf3f
000000e0: a636 9d21 354c cfbf 3db8 f645 3f3d d8bf
000000f0: a2af 86a6 8f27 a2bf ddeb 8e1d c3fa db3f
00000100: 4a7c 088f ed40 a93f 74f6 28c9 a2e2 a33f
00000110: aa81 c5cb ce0a d0bf 3072 ffe5 3696 a5bf
00000120: 59a8 1038 a9d6 c5bf 26d1 05f9 3a80 bbbf
00000130: 1def 7225 9dec bebf e8af 0a0b 494f a73f
00000140: 264e 683d 1b24 e2bf c120 4154 9114 b33f
00000150: b670 8d7b 5c0e b9bf f07a bbab f2ad d5bf
00000160: dcf6 aca3 4881 a8bf a8b0 0be0 2c26 c1bf
00000170: 4955 3600 82e8 c3bf 1d0d e20a 130c b2bf
00000180: d6f5 eb48 9ea3 cb3f 0fdb 0b34 da97 d3bf
00000190: 4d8a a373 d531 ccbf 37c8 8f71 48af 8a3f
000001a0: 9a44 a663 cb0e d7bf 1a26 ab8c 7834 b63f
000001b0: 981f f427 67ae d43f 28bc fe9f ff9b 9b3f
000001c0: 9113 0ef2 664b d53f c096 d587 34f3 b53f
000001d0: baea a075 5405 c0bf 2d54 17d0 d099 babf
000001e0: af02 50f2 5764 70bf bd16 252a 785c e13f
000001f0: 5c73 9a45 01b1 e43f dffa acfa 724f 94bf
00000200: e2a9 ca50 a0d0 b8bf 2f6f 3dca fcbe 9ebf
00000210: ac03 5889 6671 b93f e815 b30b 793e c53f
00000220: 22af b871 8b0e b33f f8e8 2930 aa19 cdbf
00000230: 2904 35a6 54b6 d73f 70e3 6d96 beb8 8e3f
00000240: 916e 9d1c 5095 c4bf cdfd 7845 5e72 c63f
00000250: 7f8e 09a2 580d c13f 2943 c107 6cb3 be3f
00000260: 1bad 3b8f 3df3 d4bf 86d6 19f9 eb1c d1bf
00000270: b1e0 d2d7 f79a debf 9f61 8899 8833 ccbf
00000280: 3678 0d3c 851f e23f 0a29 5216 9d14 a03f
00000290: 9c44 4073 5ae6 b3bf 3135 4494 c1b2 ce3f
000002a0: e719 fa7c c806 d5bf be6d 4fce 9dbf 9e3f
000002b0: 4566 d42e 3a3f b9bf 6816 4110 08a4 da3f
000002c0: 75e1 1ee5 e370 a33f 6cc0 2c8f ec5e 8c3f
000002d0: 25f0 4f9b d311 eabf ced2 8651 25c1 d33f
000002e0: df8c afae ac93 cfbf d99a f061 1a89 c8bf
000002f0: 5fc7 2751 3fb4 ccbf b16d d61d df4a e43f
00000300: bf93 99f1 361e 94bf aa4d 5ded 786b ce3f
00000310: 0cbb 6033 24e4 c4bf 6cb0 f365 217e c23f
00000320: cd12 6f31 dc2a c3bf 5a62 8c44 4949 b83f
00000330: c343 a9e7 03ce cebf 9e97 d66b a68d af3f
00000340: 125b e704 a8ab e0bf 3293 549f 9db5 d0bf
00000350: 0357 908c 9a84 b63f 9a03 9aa4 f37a c6bf
00000360: cf51 2f0b cb7a b73f 5d72 26b5 d3f5 b43f
00000370: 0c24 219b 9feb 8dbf 151b dbfb 353b c03f
00000380: 51c1 2725 bf9c e53f 7791 6e3f 51c4 d2bf
00000390: 127c 3584 dae9 bbbf faf2 7cd5 6597 ccbf
000003a0: b715 ed8b b405 c1bf 8bc8 46b7 d246 a4bf
000003b0: ea92 eff1 7db1 d03f f76d 3599 34ee 853f
000003c0: 9ecf 0ea6 67b5 c83f c5ce 4e04 1cd5 a6bf
000003d0: a55e 62ef 1132 c9bf ac5a 4017 0aa8 bdbf
000003e0: 20e7 09a3 ea8d c5bf 1336 8077 21b1 b73f
000003f0: 2d4b 9606 b02c cc3f 2dc7 504f a95c e23f
00000400: 9df0 c4dc b11c d03f 02e1 d9be 94d4 b93f
00000410: 13b6 5ee7 68ad d63f 18cd 5e1f 4b95 d13f
00000420: 2e6f e277 4c83 ca3f b18b 57ef f745 d33f
00000430: a1df 238d 4880 d03f c117 6991 652a babf
00000440: eb2d c992 9c83 d13f 379f 3e9b 0593 b33f
00000450: cef8 9dce 9e80 c33f 6a10 f06c ef66 d03f
00000460: 3dc3 b211 4445 d53f eba5 081d 6b07 88bf
00000470: 2147 a70c f514 d63f 1c3f 5646 a52a a2bf
00000480: 1360 8f87 0a2c d0bf 39e5 f17e de4c 733f
00000490: 2956 50eb 59a2 c93f 4c48 c372 88d4 a3bf
000004a0: b8b3 3ed9 e86a bc3f e2f8 3b62 e9ea b63f
000004b0: c4e5 a5f5 d5ee b3bf 6f37 b878 ad3a d8bf
000004c0: 35e6 952f 808e b23f d67f c084 1b7b 71bf
000004d0: 117e d035 83ac cebf eae2 fb2e 3902 cc3f
000004e0: db16 43f5 fef9 c93f ea75 12c1 7ba3 c03f
000004f0: e5ea 2176 d929 c23f 6843 73d1 6239 a33f
00000500: 3d68 432a 6f50 d0bf a366 d1a8 ce76 c4bf
00000510: 60e2 bafe 06fb ca3f e708 2481 bfa4 b73f
00000520: af8e 6f14 6361 b13f 24f6 ffd9 65a6 d13f
00000530: 8113 2bb4 0d59 d03f 03e3 617e c846 72bf
00000540: 03d2 dfd8 ee94 bfbf 4106 9d0e 0aaa a43f
00000550: ba63 7f84 2d17 d33f 0ba1 6cb5 1879 bcbf
00000560: b36a c634 7038 d23f 494e 5d51 6e24 993f
00000570: 09fc a68c c2bd b3bf a7ad 0c80 64cb b7bf
00000580: d4a6 7620 e191 d93f 0599 a3c2 251e a63f
00000590: 1a26 4f92 3b47 b53f 30af 042e 6aad b0bf
000005a0: b2d9 a373 23d2 c63f 3efb 9fa9 6a13 cd3f
000005b0: 407b 4d3e b90f 9ebf 7aa7 84d4 20b9 c2bf
000005c0: e638 6aa8 fd41 bb3f 6585 7b56 1172 973f
000005d0: 0d5f 0eb7 4830 c6bf ba23 63f3 af4d c13f
000005e0: 2c25 6f7c 26d6 d93f 1c8e 5bf3 5b49 b2bf
000005f0: 269a 022b a2bb c03f f1ab a82b 4915 da3f
00000600: 34ea 3bba 1855 c33f 4163 fbad 272e c53f
00000610: 8f23 0793 49ce e0bf 91c0 7f7b cd0b cc3f
00000620: 8dec 5e0c b319 e4bf 4231 7a3d f39c c83f
00000630: f1a1 d5cc 495e d63f f361 1574 29b0 a73f
00000640: 5af6 3e45 13b7 b8bf 739c b405 e7e1 ca3f
00000650: 0f39 23b3 2b9e 9e3f 2db7 fd79 bda7 ab3f
00000660: 7032 fd1c f3a9 dfbf bfa4 47be 2a9d c9bf
00000670: 20e9 9c58 3a2c c3bf d215 83a4 6d25 d2bf
00000680: 5a74 ed81 04aa de3f 641b b462 ca14 c13f
00000690: 1d79 37e2 bb61 dbbf 9aee 1206 5aca d13f
000006a0: 3797 4a6d 6012 c5bf 2674 a51e 9909 babf
000006b0: da84 3b6b 9f4b ae3f fd29 8754 8dba e23f
000006c0: 7a4b 8fb6 f877 b3bf aeb4 624b 2c37 c3bf
000006d0: d440 fadc 9355 e6bf 23b0 95f5 2228 db3f
000006e0: ce13 84c4 7e44 e4bf 4d44 68c6 033f cfbf
000006f0: d66c 4116 601e c33f 062f a8d5 dcf7 e13f
00000700: c544 6cbe f7af cabf f036 6595 8dba c83f
00000710: ee6c cc7c 677b e0bf 71c7 f505 f575 d33f
00000720: 0944 c3e7 73ff bebf 3943 ae2f 58a7 aa3f
00000730: 183b c9c7 8185 b2bf 1332 c2de fbb9 d33f
00000740: 5d15 4b90 8a9c d3bf 26a0 26e7 ba4b b9bf
00000750: 8c64 8e0f d901 c7bf 734d 3bef a1c1 b3bf
00000760: 0756 84dc cf19 b9bf f247 0f1b d5e6 a33f
00000770: d55a 74db 32b7 a7bf bff0 0b94 bfa9 a33f
00000780: 3328 7141 e3ed d03f a438 45ab 6f2a a13f
00000790: f030 fcfd 6303 d8bf 648b 4184 8b03 bbbf
000007a0: 246a 85d6 5147 e0bf 7c85 24c3 8af0 c03f
000007b0: 4357 40f6 12f6 df3f 6c9e b6c3 ffbf d43f
000007c0: c75b 4e90 3d0d ac3f 7533 ec71 86c2 c4bf
000007d0: a79c a739 b24e b9bf 19e8 b9af b70e d3bf
000007e0: dd8f 569e 0798 d0bf c51a 59b1 46a5 b9bf
000007f0: 0c27 7c9f cc10 d83f 98db e0c9 a0c6 e33f

lstm.bias_ih_l0 f8 [32]
0.31494446072551746 0.12070679961757173 0.11045594454799877 0.2561360637184092 0.43525990628807976 0.2984853909571905 0.2128432639817712 0.15901494059851243
0.07827785049159663 -0.13970864835208985 -0.005071671922589709 0.21345120576853613 0.24597049701956242 0.27475887223307566 -0.05631199029518923 0.18060249666530243
0.07971698465367716 -0.0852781867398022 -0.11946628538458945 0.09519053913809161 -0.13915654308824016 0.12706599262126722 -0.049552201911180184 0.11279507171840107
0.11728195736253395 -0.21827946699326323 -0.027511353344159065 0.17427548066424403 0.178451021310465 -0.026052088095247204 0.0636044762758932 0.41247448438557527
00000000: 49d6 b7cf 0c28 d43f d325 c30c a4e6 be3f
00000010: 7781 7b3d d746 bc3f 95ca 3f84 8864 d03f
00000020: e41b b15d 4cdb db3f 90ac 1f78 621a d33f
00000030: 87e0 fcb4 723e cb3f 5116 b900 9a5a c43f
00000040: 60d2 dc67 040a b43f dcfe d115 f9e1 c1bf
00000050: 6c70 b290 08c6 74bf 13a8 087e 5e52 cb3f
00000060: e86c 3d14 f67b cf3f c5b8 a13c a695 d13f
00000070: 278a 61d9 ecd4 acbf 2a70 608c fb1d c73f
00000080: 80f5 0512 5568 b43f cc10 1c8f cad4 b5bf
00000090: e68f b3ac 5795 bebf 2099 7c3c 685e b83f
000000a0: e650 cbb0 e1cf c1bf cafd 5ecd b243 c03f
000000b0: 557e 4efd e75e a9bf b735 2e48 23e0 bc3f
000000c0: 656f 48bb 3006 be3f 96eb 0fe2 94f0 cbbf
000000d0: 3407 87ab ef2b 9cbf 3c4b f9b0 a84e c63f
000000e0: f5ad 3baa 7bd7 c63f a946 7209 66ad 9abf
000000f0: 83f2 7b09 6248 b03f 69b6 3761 fb65 da3f

lstm.bias_hh_l0 f8 [32]
0.19777543244860318 -0.2281154203781144 0.18094048026219486 0.29675504704563493 0.028466816933369353 0.2331856845495746 0.004068527465770106 0.40689765625254903
0.20617470193044635 -0.21612455055180824 -0.07955177129923822 0.19558354160093486 0.29685853658867556 0.008154834964532186 0.22268216881248476 0.4650774705707621
-0.10013572519055469 0.03742143729211709 -0.19760316975762798 -0.07119529292959066 -0.07804075251026606 -0.16410259686869938 -0.07019929186393521 0.09160936186245323
0.022827091387708005 -0.1333331924811249 0.08035981156082006 0.05900725022298666 0.3540504825647507 0.2534980134212951 0.43098936246119196 0.43280296736162394
00000000: 40d5 2893 b450 c93f a05f 1ed7 e232 cdbf
00000010: 1bd4 9fc2 0e29 c73f eef8 7ee1 08fe d23f
00000020: 960a 00bf 6726 9d3f f294 844c 07d9 cd3f
00000030: e1a4 8806 29aa 703f b01e 9b77 9c0a da3f
00000040: 6ae3 06c1 ee63 ca3f 9cc9 3d22 f8a9 cbbf
00000050: 83b0 1140 815d b4bf 61eb 67a9 e108 c93f
00000060: 38f4 8bf2 baff d23f 86c7 d06b 7bb3 803f
00000070: 42da 396c d980 cc3f 044d 8d4b d4c3 dd3f
00000080: 08cc dab0 7ea2 b9bf dd8b ad12 e728 a33f
00000090: 12f4 d887 0f4b c9bf dd00 c3ce da39 b2bf
000000a0: 356d c98f 7afa b3bf aaaf 5e5b 5001 c5bf
000000b0: b509 c2ae 94f8 b1bf 15e8 340d b673 b73f
000000c0: 825c e42b fc5f 973f 06bf 96e2 0f11 c1bf
000000d0: 8802 91ea 7592 b43f 0b86 dec3 3236 ae3f
000000e0: 6ee9 ef5a c3a8 d63f 26b5 4fbb 4f39 d03f
000000f0: 1f76 2c68 5495 db3f fa83 9b37 0bb3 db3f

lstm.weight_ih_l1 f8 [32, 8]
-0.258306317645036 0.06350841790080182 -0.17377223253418178 -0.08075747271644713 -0.134318437605802 -0.049605767782502544 -0.2234116904963048 0.21188118658795407
-0.6629226029110795 0.4616210634517323 -0.40233427040498254 0.8406074771462028 -0.07033344494773573 -0.43960945556944364 -0.8065741288083594 0.573319573942021
0.2985484345976984 -0.05220212842545306 -0.1186757776957622 0.011313963283518925 0.05463398779485815 -0.1297177481438603 0.26346302491370993 -0.6170188672706671
0.6888368611061852 0.8416934591856126 0.3420874058406608 0.2692566227061049 0.6569434364286408 -0.0869088615075021 0.8404046706032429 0.2234196196383279
0.5237219961068298 0.1289084127693783 -0.36720427178240417 0.7416735725226397 -0.7032316399067237 -0.7592283211736025 0.3587381547026151 1.2176293250868246
0.9317151162198778 0.4645888315806412 0.35026079501966706 0.0709563838021738 0.06566924223511485 -0.23020760881711883 1.0987586737437198 -0.45104267386919206
0.2772475944798869 -0.10679678276399482 -0.1796457369158152 -0.16754337408152786 -0.25098594611721436 -0.22513172618466487 -0.2555666683684684 0.03326111659898878
-0.4122475622723785 -0.2367454222664647 -0.5262574346469528 -0.6051417553434034 -0.3733371269211702 0.4289739021715566 -0.2522057654572568 -0.3349008994476923
-0.17869768688212204 0.023761981905214096 -0.11930739163888818 0.13626184214146028 0.04830391819514924 -0.006454334705994898 -0.03454756350045962 0.05041259541940627
-0.5143076476041505 0.4114493825993585 -0.22970876056917205 0.43734092103666256 -0.27071965613499094 -0.2902431741287673 -0.5378586682176237 0.5517737160498032
0.33282202229559577 -0.043854541794415114 0.0035980607129347895 0.175072869054344 0.1300233362642104 0.11403969037318282 0.2592176922116091 -0.7151561796021849
0.9700283524377886 0.6267168360674293 0.4774391432790111 0.218582089068842 0.5777503643312472 -0.0987706353558796 0.81955531508946 -0.13499297350477207
0.9344503925185037 0.3517998317307225 -0.38961201117555055 1.144337813731229 -0.9182267875706215 -1.1850118393258182 0.5558733576435103 1.6708163211440583
1.1836900180713559 0.5514576840273399 0.558949325817406 -0.045396412023230144 -0.08972345163780558 -0.2978373295753567 0.9008863787680168 -0.24954924277069776
-0.13040607120608538 0.0737855759557497 0.17212914530992682 0.1894839856334083 -0.21936401885653944 -0.11017009839145339 -0.06419982876789633 -0.019964646714056393
0.07931388651323024 -0.009903177907228137 0.14453859251404713 -0.22290983279028567 -0.5787002503094127 0.17050286179634927 -0.31079504611303377 -0.6697778330504381
-0.3074721751534844 0.052200010915248236 -0.20018380429253485 -0.17883003929024452 -0.004765890020017299 -0.007125962782956717 -0.16297280665930583 -0.03165554866670764
0.010434056871277925 0.2189447523709689 0.0505830844169746 0.3741342103533371 0.18687936618542658 -0.28679772721328006 -0.29232321483415147 -0.14748894516562258
0.1038198529939434 0.21987595849385624 -0.2111121868366808 0.14325532382161502 0.249926628375398 0.12925014844790866 0.25179357888798426 0.1658160060063418
0.14441205300023002 -0.08456953172005748 0.2084375438523017 -0.252898424441791 0.07741716660065004 0.1460739260812755 -0.043797005330695186 0.20399678571904684
-0.5998067483212934 -0.293956514562633 0.01278537242435471 -0.3453326821993024 0.385818744500922 0.08499456644994188 -0.27086986010943803 0.02903907480192501
-0.3202298128316004 0.11196583019427458 -0.09350731151101263 -0.18749838607776487 0.2906183157841743 0.23111012432162795 0.24415736906249133 0.32735807471037737
-0.0014786059638554707 0.03961675612283264 0.1987940598494619 -0.04460082143605953 0.16154960760090856 0.09231133814005293 0.25954233961635603 0.0798445788538243
-0.40714278648152663 -0.2105126832266647 -0.15706360136877395 0.0245510149255899 -0.37328036787100555 -0.21848366916150144 -0.4765916796293648 -0.2713184345052448
-0.3724122540908959 0.01950220983409206 -0.2187668617423729 0.007899026232050507 0.06424661493187084 0.033771610591976434 -0.26471145157438986 0.07697033412699683
-1.135167082924402 0.10646377072876603 -0.6467448859026764 0.5749877873097184 -0.2957884868304944 -0.31682396896528775 -0.7702724001035821 0.44715140642607953
0.4873028316736859 0.3781628273797179 -0.0911032039708242 0.3341494419773363 0.10889921538040244 0.14475314091528813 0.16647347510319443 -0.4009090550429907
0.7918941413691296 0.8290114044683093 0.45427315002705515 0.3216091000713398 0.7130201730059421 -0.0722901380973469 0.7492620224702324 0.01551437012104239
0.32137782554692385 0.29427481704510816 -0.4132259279677528 0.7068344800365371 -0.3989974518431663 -0.8292329548125569 0.22376170204840407 1.3999476992558393
1.2196404161220973 0.6684101086958403 0.3028235207241835 0.04191042085669616 -0.03943694381032675 -0.07505039398003566 1.2844646478804511 -0.4150162815588685
-0.026522921045806964 0.047033806645319115 0.08996275328751777 0.17855646092688326 -0.2964377373557136 -0.2622702541801513 -0.28783096693939264 -0.11212618141295844
-0.28435751179143276 -0.20035501145841259 -0.14172890686171913 -0.28455765877372186 -0.21455141336911002 0.11278266793107769 -0.1513780209188936 -0.47710868692537856
00000000: f4ad a838 1788 d0bf cd96 e771 1642 b03f
00000010: c2f6 d723 2b3e c6bf 6589 3990 85ac b4bf
00000020: 6924 62b8 5831 c1bf 3a3c a35c ed65 a9bf
00000030: d7e3 1c18 c198 ccbf 4437 8437 ec1e cb3f
00000040: 7208 6976 a936 e5bf 27e0 aa12 338b dd3f
00000050: 4fc3 5c3d d8bf d9bf 57b6 e3a6 41e6 ea3f
00000060: 1f94 dd65 5f01 b2bf 54b8 abb2 8f22 dcbf
00000070: d402 218c 74cf e9bf b39a 874a a258 e23f
00000080: 7e9f b7e4 6a1b d33f 26e2 bcc4 3cba aabf
00000090: a7d9 0728 8961 bebf a7ad 5372 c62b 873f
000000a0: ed6f a86d fcf8 ab3f e98b fe56 979a c0bf
000000b0: 5f6a ed04 94dc d03f cc28 fe59 9ebe e3bf
000000c0: 1c5f d799 f30a e63f b9b2 0e1f 27ef ea3f
000000d0: 2e62 1d93 c2e4 d53f b143 3021 803b d13f
000000e0: 400d d93d ae05 e53f c845 e8bd a83f b6bf
000000f0: cab0 f455 98e4 ea3f fcd0 d09b 0399 cc3f
00000100: 8630 afa1 54c2 e03f 320a 8324 1280 c03f
00000110: 6771 9058 4680 d7bf e159 4937 cabb e73f
00000120: af2d dda3 df80 e6bf 4767 3431 994b e8bf
00000130: 939b 91e0 90f5 d63f 1c60 1ee3 687b f33f
00000140: 884d 2b38 9cd0 ed3f f771 6ecb d2bb dd3f
00000150: 298c eb40 ac6a d63f 3d6d df93 322a b23f
00000160: 61bf c00f b3cf b03f 2a77 9463 7177 cdbf
00000170: 4dcf 9ef9 8394 f13f b696 5717 e2dd dcbf
00000180: e4e3 cbb1 6cbe d13f 6e14 4ab1 0857 bbbf
00000190: dca9 75aa a1fe c6bf 64bb 2bb0 0f72 c5bf
000001a0: 380f 955b 2710 d0bf 2aa9 a0cc 1dd1 ccbf
000001b0: a6c6 a54c 345b d0bf 90cd 0ae0 9907 a13f
000001c0: 9d32 7499 4362 dabf c95b 0e8b ac4d cebf
000001d0: 94bc e2d4 19d7 e0bf 3f9b 143e 525d e3bf
000001e0: e793 a067 c1e4 d7bf 8884 2af4 4e74 db3f
000001f0: a219 a0a6 2324 d0bf 3cd8 a12e 046f d5bf
00000200: b3c8 83d8 90df c6bf ab24 af9c 0f55 983f
00000210: 2a95 42e1 ed8a bebf 4f5b d82d 0771 c13f
00000220: 216a d589 4abb a83f 15cb ac47 dc6f 7abf
00000230: 902b c8de 37b0 a1bf 3502 4401 aecf a93f
00000240: 515c d14f 3575 e0bf 0e50 8eca 2f55 da3f
00000250: aee8 1fbf 1867 cdbf dc84 43c6 64fd db3f
00000260: 58fc 5e89 7853 d1bf 6a4c 311b 5893 d2bf
00000270: 83ac bb61 2336 e1bf cf3d 275a 21a8 e13f
00000280: 907b 49bd f44c d53f f87e 933d 1a74 a6bf
00000290: 141b ea22 ae79 6d3f 9aad 80ab c968 c63f
000002a0: 355d 7ccc 9aa4 c03f 0e4a 9984 b431 bd3f
000002b0: 2bfb a5cd 0597 d03f d78e 5d36 8fe2 e6bf
000002c0: d237 3de6 780a ef3f f663 5877 100e e43f
000002d0: cdab 8de8 5c8e de3f 6b61 0576 7ffa cb3f
000002e0: dac0 0155 ee7c e23f e89c a848 0849 b9bf
000002f0: 834f 7211 cc39 ea3f f646 3223 7347 c1bf
00000300: 263e 7382 04e7 ed3f 7464 0171 e383 d63f
00000310: 7c2d 8837 67ef d8bf 0bd4 d82a 354f f23f
00000320: a5a9 dd24 1d62 edbf 656f 74f9 cef5 f2bf
00000330: a77d 79ec b6c9 e13f fcfc 0ee5 a9bb fa3f
00000340: 6e7d c3f1 64f0 f23f 79cf c095 8aa5 e13f
00000350: 6739 50b2 e9e2 e13f 19b4 fdd1 323e a7bf
00000360: fff6 77ba 1df8 b6bf e076 834d c40f d3bf
00000370: 580e c7ab 0fd4 ec3f ff89 38c6 3af1 cfbf
00000380: 84d6 8369 25b1 c0bf fc7e a58b 9ce3 b23f
00000390: 63b4 e5ec 5308 c63f f0a2 b4e0 0241 c83f
000003a0: 2c38 74c3 1e14 ccbf 06a1 9689 1b34 bcbf
000003b0: b987 f764 666f b0bf fe2d dac2 9c71 94bf
000003c0: 1867 b134 ea4d b43f 2f74 e709 1e48 84bf
000003d0: 35c9 ed97 3d80 c23f f142 e534 4f88 ccbf
000003e0: 9882 2863 b684 e2bf ce15 a5ab 09d3 c53f
000003f0: 5c1d b4e7 10e4 d3bf 3732 11ec d16e e5bf
00000400: 71b5 2dc6 9fad d3bf f9b2 76b7 f5b9 aa3f
00000410: e209 5076 9f9f c9bf a3a1 2519 e7e3 c6bf
00000420: ac5e 5bdc 6585 73bf e55b af11 1d30 7dbf
00000430: 2d99 5efd 4adc c4bf 2459 85f4 2735 a0bf
00000440: eac4 3668 735e 853f 6835 88b3 6106 cc3f
00000450: 257a 9aaa 06e6 a93f 4f12 729d d0f1 d73f
00000460: 8d24 08bf a9eb c73f c5ae bcda e45a d2bf
00000470: b8c0 e46d 6cb5 d2bf 6b02 01f2 eae0 c2bf
00000480: f3d5 4819 f093 ba3f ad31 7439 e524 cc3f
00000490: 3113 2061 b905 cbbf 4957 65c1 3056 c23f
000004a0: f7cc a283 98fd cf3f f61f 4bd4 448b c03f
000004b0: 06ab aad0 621d d03f 87ac 7979 7539 c53f
000004c0: e260 641a 187c c23f 43c6 f94c 59a6 b5bf
000004d0: 7b56 0dd9 14ae ca3f aefe 8bdf 7c2f d0bf
000004e0: f2e2 b286 9cd1 b33f 8ea0 a8e7 8cb2 c23f
000004f0: cfbb 1da3 8f6c a6bf b282 9311 911c ca3f
00000500: ccb8 feeb 9d31 e3bf af87 1ffc 2ed0 d2bf
00000510: 7232 70a3 372f 8a3f 414d 1240 ee19 d6bf
00000520: e42c 741a 41b1 d83f b27d 3d33 34c2 b53f
00000530: ae18 a989 ee55 d1bf 5c4b 5252 6bbc 9d3f
00000540: 1d38 542f a57e d4bf b432 f4ea caa9 bc3f
00000550: 566e e05c 18f0 b7bf 3ade 2076 f2ff c7bf
00000560: 2258 7a90 7d99 d23f 8531 de3c 0495 cd3f
00000570: e5b3 9975 8c40 cf3f 2a9b 3d48 6ff3 d43f
00000580: 2a1d 8a10 b939 58bf 1da4 d7bf a548 a43f
00000590: 06a4 d870 1572 c93f f79d e23a ebd5 a6bf
000005a0: adec a954 a8ad c43f e48c 5c42 b7a1 b73f
000005b0: bf17 2579 579c d03f 55a8 f0be b170 b43f
000005c0: d363 2f9e a00e dabf 9305 ed60 14f2 cabf
000005d0: b4ab a2fb a81a c4bf 8a8d c1b8 e623 993f
000005e0: 19ab 0f57 d3e3 d7bf 251e e1da 45f7 cbbf
000005f0: f871 6363 7a80 debf db1f c0fe 475d d1bf
00000600: 75cd fc34 9ad5 d7bf 8ea5 bf25 63f8 933f
00000610: dbe6 5072 8d00 ccbf 38fa b15a 5d2d 803f
00000620: d4d6 0256 7772 b03f d233 0d36 834a a13f
00000630: 55e0 d84c 08f1 d0bf d86f d6eb 53b4 b33f
00000640: 167f 8af5 a429 f2bf 0a28 7dad 3541 bb3f
00000650: f7d4 b954 22b2 e4bf 5407 c3c9 4c66 e23f
00000660: 6619 5ed5 32ee d2bf 7ede 520a d846 d4bf
00000670: 1c9a ee4d 12a6 e8bf 7477 bdee 209e dc3f
00000680: dd58 5237 f82f df3f 7b29 0adc d133 d83f
00000690: e391 9d21 8a52 b7bf 5c3c 5157 b462 d53f
000006a0: 7d6f 9ea8 d1e0 bb3f 84ba 1c5b 4587 c23f
000006b0: d01e 9cb9 004f c53f 3a1d 0574 7ea8 d9bf
000006c0: 9661 e261 3257 e93f 337a c6ec 4287 ea3f
000006d0: 6c4b b4b0 cf12 dd3f dac0 b955 3e95 d43f
000006e0: 6f5c 8eae 0fd1 e63f d390 f342 9b81 b2bf
000006f0: 769f 5459 f4f9 e73f 3ba7 4d82 ffc5 8f3f
00000700: 6a8d 984c 7491 d43f 18b0 cf0a 66d5 d23f
00000710: 9cc4 9e29 4b72 dabf 9e25 ee57 639e e63f
00000720: 95a3 b69b 2c89 d9bf 9dee b58c 1389 eabf
00000730: a495 3234 39a4 cc3f dda0 068f 2f66 f63f
00000740: e2fc 41ab a583 f33f 1643 a598 9d63 e53f
00000750: 9a13 7ee7 7561 d33f b0d8 e15d 4875 a53f
00000760: 58ce d63f 1431 a4bf 1838 b2ab 8036 b3bf
00000770: 2f3c 78cd 2a8d f43f 6495 2673 a08f dabf
00000780: 55cc f119 d328 9bbf 6431 b2aa d014 a83f
00000790: 8e5e 3a8b cc07 b73f d0d1 1528 f0da c63f
000007a0: c38d cffc d5f8 d2bf fbb5 1a2d 09c9 d0bf
000007b0: c9f7 7193 d26b d2bf 44ab 312a 4db4 bcbf
000007c0: 6808 61d9 e932 d2bf f3db e6a6 3ba5 c9bf
000007d0: 9038 ef3d 2c24 c2bf 0a9b 9053 3136 d2bf
000007e0: 498e ddb3 6b76 cbbf bed1 512e 53df bc3f
000007f0: 6305 97e0 5a60 c3bf 26d9 bedf f288 debf

lstm.weight_hh_l1 f8 [32, 8]
0.0421865027795235 -0.12053348056784294 -0.13194328547571943 -0.053805867688633345 -0.19054733391618126 -0.2839270700390776 -0.11828810155038595 -0.3216633294417208
-0.0982216622277894 -0.3984397839972703 0.050022358117319726 -0.02040189572665848 -0.4837932130483353 0.09870378649707648 -0.04479657169557923 0.08277138818721981
-0.1788619279524111 -0.05230646646536581 -0.16827070227128182 -0.9597940630989464 -0.5498807978804667 -0.93687245739186 -0.15223491543270468 0.020908439277158238
-0.378321478349745 0.003645353831032389 -0.5565571741770674 -1.0878819659742176 -1.0604035871838176 -0.6450640111595657 -0.027216118259859645 0.09931797138263668
-0.37195043222537083 0.5091354257531419 -0.32444724244771833 -0.8955672201161726 -1.0416665006536396 -0.8685254615547661 0.08248638590934569 -0.6372499665181558
-0.21283931143125476 0.08976159565053989 -0.6453946538101759 -0.7677342766073396 -0.2682692788812651 -1.0753424385133286 -0.2621212000402771 -0.0054428449351946375
-0.05997804846643288 -0.447671969756591 -0.0989853808285162 -0.06156918864398138 -0.36453548253214313 -0.4083441635466055 -0.0608834251442525 -0.0669980430210371
0.5236833771865733 0.4915416518137988 0.10708564579418223 0.181330415471887 0.5737380801044368 0.1784116511458696 -0.2319551928026199 0.16166281776686
-0.16975443545923527 -0.21430717040450004 -0.01501389490552831 0.26814978144621565 -0.3271715206559503 -0.17894502188084058 -0.013315102340925828 -0.22381136723054293
0.1792857862278515 -0.5926575520739995 0.14262739543012823 -0.020285455336057266 -0.4617922205436221 0.09998971051223048 -0.2425962430747663 -0.10660368688672958
0.19457464240201514 -0.01183272158994297 -0.18164995843272758 -0.6395771379172367 -0.6865425639037118 -1.088145655596813 -0.2006448374553457 0.268554881584604
-0.3627896328530114 -0.06498965990310096 -0.7268699308133232 -0.9839601635825278 -0.7397875665624135 -0.9004962289079946 -0.08642557529873356 0.07871493026301037
-0.06958177406680902 0.42259362489987967 -0.2953463356120773 -1.3943062541942721 -1.4593458256813643 -0.9284462798644622 -0.18707007168335807 -0.8971948774148958
-0.19085519859149358 0.33166560548705604 -0.544421037826468 -0.5440462973878056 -0.6274209878999943 -1.1045052325134719 0.030783281145068012 -0.18359278707242985
-0.04844471200525973 -0.5113930590102416 -0.10950242885945051 -0.020281472476760504 -0.4395548248530289 -0.3570800905452575 0.02716145864640945 -0.3870976351251988
0.37016344625467074 0.13079670364158097 0.18718860768727402 -0.0843410582608674 0.5028426674829543 -0.283789601976229 -0.21075194960106106 0.05188216724117882
-0.16137439484551136 -0.26315416477781667 0.23222455619045604 0.1681863832865849 -0.21002791225372514 0.07630875784485268 -0.03467673480735516 -0.20649694831824728
-0.13093772367961057 -0.1253801136490138 0.1804151383729207 -0.47490989538284395 0.1489009941924377 -0.33527495785753914 -0.03109773753446941 0.4193314574811976
0.1185009593878463 0.31686733810995354 0.0050428793524188295 0.4792198689723689 0.41617484645293795 0.25314977448228637 0.25537594994885043 -0.5040030574840817
-0.2941614829726972 -0.3644139351182311 0.4351231273590909 -0.07426669387296174 0.1372008871822124 0.5715195039930073 0.21816829006816735 -0.24334078507230564
0.228910381469141 -0.4134341441796393 0.0406496406233015 0.3059477449249322 0.2709180264041846 0.4100126286780423 0.09130023635348829 -0.08527168731048416
-0.010166468058791825 -0.08260217764318244 -0.11991730262144765 0.1598827056998224 0.33050540501200226 0.29867265524021075 -0.06036435654095141 0.0025435765147960145
0.0734250069149223 0.24754854571362878 -0.1461885806719411 0.1680087555154435 0.28244734594828824 0.2569101158249554 -0.22668881778820613 0.09909308871505078
0.2537178849400977 -0.2657408248928408 -0.3050374929177289 -0.11612731275590898 -0.32705746715552375 -0.31641636666091594 -0.04312546572769165 -0.026851991275453346
-0.2109530838066951 -0.16882270745792113 -0.053724676491563754 0.04253106746843029 -0.2519420644081046 0.016695181001583445 -0.10439292463287236 0.07114924978627526
0.07380868140497866 -0.14766413558819558 0.01751974412725187 -0.0456800577757446 -0.01611250660265492 0.17884197683174374 -0.012456208296222925 0.10404939805038323
-0.25624028540709315 -0.059753198885050304 -0.26053473680783784 -0.9521062391957043 -1.030381399419436 -0.8638833196622157 -0.27127141091766177 0.3569936300084148
-0.3649001192187582 -0.013041423291001893 -0.6979722436301934 -1.050929107265541 -0.8288172563294164 -0.6897373121544963 -0.035939248481252045 0.1594611417791286
-0.26061534750655974 0.08493417187382052 -0.6743203854548567 -1.319268309473564 -1.0437998398362243 -0.894590876038514 -0.2899964674091079 -0.25056533285382515
-0.17509834194137966 0.11221412839890178 -0.5500965705335746 -0.8944881435163855 -0.5131281744428203 -1.193948923571425 -0.034835758666580674 -0.4046286283591288
0.07968000769336149 -0.11298144991897954 -0.11250474984527047 -0.05030427070324421 -0.26333454786296007 -0.4068848823492061 -0.10678389754613213 -0.22650283200623994
0.36062214615338967 0.3173608266649072 -0.10324918707522296 0.5360682165933597 0.7086284453911482 -0.006347796471218742 -0.15947420261528517 0.23134920460159988
00000000: ce94 8a23 7899 a53f e6a7 1c3d 48db bebf
00000010: c8c2 0580 84e3 c0bf 6b75 1c54 718c abbf
00000020: 5b47 c1e3 da63 c8bf 8a15 1172 dc2b d2bf
00000030: 9932 aa07 2148 bebf 1c94 11ca 2196 d4bf
00000040: f1f0 060b 0e25 b9bf 9e63 6c94 0980 d9bf
00000050: 5489 5dd0 879c a93f b689 b00b 3ce4 94bf
00000060: 6770 04cf 77f6 debf 2a0e ffbe a644 b93f
00000070: cb94 cf84 93ef a6bf 5d02 4f75 8130 b53f
00000080: f90d 8799 f2e4 c6bf 1a17 adc5 e9c7 aabf
00000090: 64a7 90f5 e489 c5bf 3bf5 fc09 a2b6 eebf
000000a0: 2a0a 739d 9f98 e1bf 9bad a0f2 dbfa edbf
000000b0: 9ee0 8b07 6f7c c3bf 1f89 9f9b 0569 953f
000000c0: dbbc 384a 6b36 d8bf 277e 926f dcdc 6d3f
000000d0: d23a aefd 50cf e1bf 7947 9ceb f667 f1bf
000000e0: d23f 78c0 69f7 f0bf a338 f847 5da4 e4bf
000000f0: d091 66c7 8ade 9bbf 4255 fe0e e76c b93f
00000100: ac06 892f 09ce d7bf 7108 5b60 d64a e03f
00000110: 05c8 e55d bec3 d4bf 5498 3896 7ca8 ecbf
00000120: 9c56 1a7e aaaa f0bf 71df a3e8 f5ca ebbf
00000130: 438b d8e9 d31d b53f 8752 b20a 5a64 e4bf
00000140: 3f40 f38c 513e cbbf 097f c1ad 9dfa b63f
00000150: 2518 64b0 12a7 e4bf e87e 4179 4791 e8bf
00000160: 2542 d4e8 522b d1bf 73a6 d645 9a34 f1bf
00000170: 8db8 70ff 97c6 d0bf f6d9 e68f 3c4b 76bf
00000180: 954f 4859 71b5 aebf 7d30 5c55 a8a6 dcbf
00000190: 03ca 701d 1b57 b9bf 4a95 5527 ff85 afbf
000001a0: af41 eda1 8c54 d7bf 467d fc8e 4f22 dabf
000001b0: e1de b9bf 1c2c afbf f2dd aba3 c826 b1bf
000001c0: 8d34 4fa4 03c2 e03f 995f ca1d 6b75 df3f
000001d0: 009b 8e02 f769 bb3f 7c65 1cc6 d535 c73f
000001e0: 9b96 50f6 0f5c e23f aacc 7267 31d6 c63f
000001f0: 94c0 9c2f b5b0 cdbf f9d8 a401 5eb1 c43f
00000200: 67fd 526a 83ba c5bf 9ec2 17d8 6a6e cbbf
00000210: 8bae d6dc 9abf 8ebf 436d 6fb3 5d29 d13f
00000220: e197 59d1 60f0 d4bf b74e 61a4 abe7 c6bf
00000230: ca00 c7c8 f244 8bbf 9336 5dd3 d9a5 ccbf
00000240: 133e 3e2e d6f2 c63f ed53 7cf8 0cf7 e2bf
00000250: 6f6a 714f 9d41 c23f 16e7 02dd b5c5 94bf
00000260: 8a0d 32f5 008e ddbf 4f27 96f8 ec98 b93f
00000270: 3ebd 11c9 640d cfbf 46c0 cf14 614a bbbf
00000280: b7af df66 d2e7 c83f fe06 0302 c13b 88bf
00000290: d0e7 644b 4e40 c7bf 47f6 5379 6a77 e4bf
000002a0: ebe8 681c 28f8 e5bf 272a 416b 0b69 f1bf
000002b0: 65b0 7de3 baae c9bf d991 65d0 0030 d13f
000002c0: 359e 1b02 f237 d7bf ccaa dc8f 29a3 b0bf
000002d0: 893f a9ba 8442 e7bf a9eb 6406 9a7c efbf
000002e0: 87ef 8bf9 56ac e7bf eb98 aa77 ddd0 ecbf
000002f0: 1330 728b fc1f b6bf c1c1 2f63 a926 b43f
00000300: 32bd 0374 1cd0 b1bf 555b 9c21 c60b db3f
00000310: c3a0 1c51 f4e6 d2bf 6cf6 2513 144f f6bf
00000320: 71b0 2d02 7b59 f7bf 168b 03f9 d4b5 edbf
00000330: fb5e f87f e9f1 c7bf b557 1408 d2b5 ecbf
00000340: 246c 1c72 f16d c8bf ae98 3160 023a d53f
00000350: 8802 17ab e56b e1bf e74b d9c7 d368 e1bf
00000360: f657 fb2d d513 e4bf f37f bead 0dac f1bf
00000370: 6166 2007 a785 9f3f 4ff8 20ec f77f c7bf
00000380: d715 74cb becd a8bf 5c36 fbf9 545d e0bf
00000390: 19ae c8e6 5908 bcbf e577 0294 aac4 94bf
000003a0: b2bc 628f aa21 dcbf 5374 bc73 66da d6bf
000003b0: 2f56 64a2 36d0 9b3f d62f ce28 35c6 d8bf
000003c0: 67a9 f505 c2b0 d73f 4a58 4846 f2bd c03f
000003d0: caad 19da cbf5 c73f bbc1 f026 6097 b5bf
000003e0: 16ed 7b81 4917 e03f 59b2 dbdc 9b29 d2bf
000003f0: 016a 8d7d ebf9 cabf 56ca 17a7 4c90 aa3f
00000400: 42fa 228a eaa7 c4bf 05b9 e190 84d7 d0bf
00000410: 8543 15c5 88b9 cd3f 7998 eca3 2187 c53f
00000420: 7e3e 30d3 31e2 cabf ff8e 5783 f888 b33f
00000430: c7fb db23 26c1 a1bf 1816 e0f3 7d6e cabf
00000440: 5920 823c 91c2 c0bf c87b d89f 740c c0bf
00000450: d1eb 81df d717 c73f 85d4 4d79 ec64 debf
00000460: f7fe 3212 300f c33f 409e ca18 2575 d5bf
00000470: 7bb3 c2d6 15d8 9fbf 6235 049c 53d6 da3f
00000480: 6e8c 1d31 1456 be3f af94 96f1 8d47 d43f
00000490: cf4b 579e d7a7 743f 4a1a 35d0 89ab de3f
000004a0: 63b9 bbd2 9ba2 da3f 5809 991c 9b33 d03f
000004b0: 95c6 4d5e 1458 d03f ea4c 1f05 cb20 e0bf
000004c0: fe13 47af 8ad3 d2bf a786 62d3 8e52 d7bf
000004d0: fb64 6fac 0ed9 db3f 53cd 5d5d 2403 b3bf
000004e0: 4a03 b775 cc8f c13f ada2 5545 e349 e23f
000004f0: 86fa 6e43 f0ec cb3f fd91 d574 ca25 cfbf
00000500: ecfa 0f75 ef4c cd3f 7e48 137c b475 dabf
00000510: a778 249a 07d0 a43f c133 afd9 a594 d33f
00000520: b061 d38f b856 d13f b3a0 c79b a53d da3f
00000530: 815b 41c9 735f b73f dff4 4584 5dd4 b5bf
00000540: 7570 a03e 28d2 84bf 3f4c 8e93 6a25 b5bf
00000550: aad0 fb7c e6b2 bebf 179f 1658 0977 c43f
00000560: d160 6b24 0027 d53f 07d6 9de9 731d d33f
00000570: 11fc 5fb2 13e8 aebf 5aff 443e 44d6 643f
00000580: 837d 6833 fbcb b23f 3696 01b6 abaf cf3f
00000590: 3d6f 84b2 4eb6 c2bf e1b3 3097 4f81 c53f
000005a0: 4227 6c08 9e13 d23f 50b4 5e20 3771 d03f
000005b0: bb76 62a1 2304 cdbf e36f 4a27 2a5e b93f
000005c0: ba97 8ef0 e93c d03f b81d 08ce e501 d1bf
000005d0: a9ab 08fa bb85 d3bf 8c80 7502 85ba bdbf
000005e0: cc1d 5671 82ee d4bf ed93 ae6e 2a40 d4bf
000005f0: 67b4 d981 8a14 a6bf e033 71a1 167f 9bbf
00000600: 4955 f8b9 8200 cbbf 1f4e ad83 fb9b c5bf
00000610: dff4 0901 cd81 abbf 8387 aecf a1c6 a53f
00000620: 76a6 c79b d11f d0bf 8c43 9ca1 8a18 913f
00000630: 0463 3ba5 7eb9 babf 7a8c f754 d636 b23f
00000640: 9996 cb30 20e5 b23f 405b 928c a8e6 c2bf
00000650: 7d4b 3e20 b2f0 913f 43d2 7364 6063 a7bf
00000660: 57f2 a803 cc7f 90bf 6079 d23c 4be4 c63f
00000670: 6c93 1dfa a382 89bf 657d cb39 fba2 ba3f
00000680: 596f 6fa7 3d66 d0bf 76d9 15a6 f897 aebf
00000690: c3f1 83e3 99ac d0bf 2438 f580 a777 eebf
000006a0: 6e9c ce34 717c f0bf cb4a b0a1 eea4 ebbf
000006b0: e9ca 8ec3 825c d1bf c60d 71cf fbd8 d63f
000006c0: e477 9607 865a d7bf 84a4 3934 76b5 8abf
000006d0: a009 fde2 c955 e6bf 6aeb 210a 9bd0 f0bf
000006e0: 0973 49c4 ab85 eabf aa1a d1fb 5312 e6bf
000006f0: cc55 bd11 a166 a2bf 6b4b 7602 3969 c43f
00000700: 1b16 98fe ebad d0bf 7cca 82f2 3ebe b53f
00000710: 4cc0 5158 0894 e5bf 1f69 3d16 b91b f5bf
00000720: 7baa fa75 67b3 f0bf 4255 7c0b 7da0 ecbf
00000730: ca91 de57 4d8f d2bf 0d96 872d 4309 d0bf
00000740: 296c 1c5a 9f69 c6bf 7157 9fab 10ba bc3f
00000750: b5ab 821f 649a e1bf 1101 6299 a59f ecbf
00000760: 496b fcc6 8b6b e0bf ba56 bd2f 6a1a f3bf
00000770: a89b 6818 fed5 a1bf 9dfa 7479 6fe5 d9bf
00000780: d121 30b3 e865 b43f eae8 7430 5aec bcbf
00000790: afe7 3a7d 1ccd bcbf 6604 0a3b 7bc1 a9bf
000007a0: 749d be25 79da d0bf 334e bbe3 660a dabf
000007b0: 9e36 b383 3056 bbbf 0287 f577 0bfe ccbf
000007c0: 094c fce8 6e14 d73f d3aa e3c8 a34f d43f
000007d0: 8ca0 d3e9 896e babf 5a31 5688 7827 e13f
000007e0: ba0c bf8f 15ad e63f 7ac4 eda3 2500 7abf
000007f0: eae7 6492 a669 c4bf 0f18 dcc9 d99c cd3f

lstm.bias_ih_l1 f8 [32]
0.13864789873519323 0.01094433820149243 0.02967776443946671 -0.1655361373086115 -0.17267045933748262 0.01615682689041623 -0.2578482686372561 0.2882368241720763
-0.19039278439425997 0.09247278215998027 -0.05297443619577874 -0.2614443608997944 0.26967917685796394 0.10045236047279715 -0.06231573365086559 0.29628545288103836
0.22023378583465328 0.06884483717262002 0.15804222884318805 0.025994607918906894 0.11591249568587308 0.13625454552880292 0.03755664552430062 -0.023718682055667666
-0.01189093642590556 -0.07311032558853663 0.1361972619277606 -0.08746393315498088 -0.016558152621474646 -0.040082257499827474 0.10411099433931544 0.4984669634189957
00000000: f406 5ddf 36bf c13f ffd4 3635 fc69 863f
00000010: e85c be0e d963 9e3f b0f8 05c4 4930 c5bf
00000020: 197e ebcb 101a c6bf 09e8 674c 6a8b 903f
00000030: a824 4806 9680 d0bf 289b 54dd 7872 d23f
00000040: a311 2f6f ca5e c8bf 03b2 25d7 4bac b73f
00000050: e845 f81d 771f abbf 7e72 f220 81bb d0bf
00000060: 1219 4173 6c42 d13f 0063 09f3 3eb7 b93f
00000070: ab09 1d0c d9e7 afbf 1ce5 9942 57f6 d23f
00000080: 512a d1e5 9e30 cc3f 20a4 27b4 d09f b13f
00000090: 435c 224e ba3a c43f cf43 899b 549e 9a3f
000000a0: 2427 2bfa 70ac bd3f 6920 7df8 c970 c13f
000000b0: c375 8ce8 9f3a a33f 0bea eece b549 98bf
000000c0: 456d 8b78 465a 88bf d315 67b9 5bb7 b2bf
000000d0: c469 e470 e96e c13f 9eec 7a4c 0964 b6bf
000000e0: 4134 f7cf 9ef4 90bf e924 3962 a985 a4bf
000000f0: 0d66 d7a3 04a7 ba3f 4f58 81fa e1e6 df3f

lstm.bias_hh_l1 f8 [32]
-0.19745809297698633 -0.0869581558131873 -0.08333934594832147 -0.268148108728906 0.044725626141854644 0.04383526629672397 -0.13581636762677013 0.3131347924575351
-0.10687308563355528 0.05435223544510101 -0.14646766337758646 -0.20624748334620294 0.15062471211223413 0.05356992945250158 0.06172925531485566 0.011627641617491084
-0.07926571819731662 0.04643153370384912 -0.1334542003691748 0.0017812784087707177 -0.1339013654591169 -0.12880115708407658 -0.14326250950315408 -0.021418949809036254
-0.017011534857578794 -0.010685099420420697 -0.23399760685343346 -0.19442215163291124 0.0786687108895241 0.15001814941253025 -0.18337539764933827 0.5382132554821045
00000000: e355 d589 4e46 c9bf 7e8e 56c3 e342 b6bf
00000010: 176d 5135 ba55 b5bf d164 5eaf 5629 d1bf
00000020: 1610 25fb 46e6 a63f 91cf 4f76 9371 a63f
00000030: 82f7 9b44 6e62 c1bf 3312 3683 660a d43f
00000040: eb64 9ed7 085c bbbf cc03 6763 0ed4 ab3f
00000050: 2d6b 10d0 73bf c2bf f157 ed49 5166 cabf
00000060: 2fe8 3eaa ab47 c33f bc54 188e 846d ab3f
00000070: 4546 9119 fa9a af3f 4259 d0a3 3bd0 873f
00000080: 1ef7 5913 c24a b4bf f1b5 85bd dfc5 a73f
00000090: 59ba 0cf9 0615 c1bf a8fb af20 392f 5d3f
000000a0: fcb0 c410 ae23 c1bf 0079 ae6a 8e7c c0bf
000000b0: 378b 8708 6d56 c2bf c224 c763 d9ee 95bf
000000c0: 04e6 78c7 786b 91bf ad8f 85c4 11e2 85bf
000000d0: b68d 6332 a2f3 cdbf a9ce 7037 d3e2 c8bf
000000e0: 202e 7df4 a123 b43f d541 c472 cb33 c33f
000000f0: 63bf e553 d878 c7bf f737 5201 0b39 e13f
