Trained_NNs_exp/LSTM_no_or_nextstep_exp0.pth (torch, 15627 bytes, 14 tensors)

lstm.weight_ih_l0 f8 [32, 3]
0.8689135011218386 0.5285951635012661 1.5178544414479787 -0.42551615470423093 -0.9143392831159723 -0.9594466810339903 -0.27465533319210617 -0.036956031666850866
1.3123357936006081 0.4864057032771099 0.411391514919147 1.2333301444577247 0.24318012187158197 -0.05508184726778082 0.3011779431624893 -0.03526345536223141
0.07788978462389175 1.3908328485872123 -0.02307972954207759 -0.32846833075780324 0.05808691974892936 0.43139837025424754 0.6096702255167267 0.7338078060804201
-0.06074909875092772 0.2581160206160581 0.9730932341294548 0.02769067444607869 -0.5256883339597576 -1.1394090523574076 -0.6716941101041587 -0.3817105166843174
0.8562404033198937 -0.24756363056223102 -0.2887627575159528 -0.4269584578187998 -0.32097089257453515 -0.25999799741735163 0.0064946094578936025 -0.008325484477895728
0.12299228037323556 -0.025168078422625195 -0.0640030764135939 -0.29174404060284553 -0.26470175178371524 -0.22404976413060126 0.6534281147369255 0.6457037387734391
-0.3713338472920148 0.43402093560967187 1.1987298302098195 -0.10293167050856843 0.7291776819116812 0.838786215786378 0.01121676000151431 0.2108445819351698
-1.0899841171494862 0.1841668710379132 1.3023561151035807 -0.06113229167789015 0.3399691335591394 -0.8728056959356885 0.7025777628972584 -0.11174678288851955
-0.7349273226231524 0.9715870381185086 -0.2624178099617397 0.8210717949791023 0.29535187283269027 0.10578238860761427 0.9575066326801293 0.35837202015354264
0.6129466172115119 0.629309684434436 2.0455959650741558 -0.3653439967935839 -0.4724522141199272 -1.2028833360315783 0.3782742268203977 -0.30301805257342385
1.028392929401767 0.7084675788468388 0.634739248716329 1.9361489005184247 0.9088519744970243 0.29324913307629746 0.4373661088831816 0.3503567793931139
-0.1058595767476212 1.3331303867045627 0.07513157406089048 -0.9029142908700254 -0.6488889991410643 0.300911894023995 0.5900349181843739 0.7766887306658359
00000000: 83e0 cbaf 23ce eb3f 89f9 8167 40ea e03f
00000010: f9b7 21bd 2149 f83f 53f5 171c a83b dbbf
00000020: 47cc cd74 4442 edbf d47e a986 c9b3 eebf
00000030: 63da 6ef6 f393 d1bf 3a52 cca6 e6eb a2bf
00000040: 3728 2ed1 53ff f43f b16f 0a63 4521 df3f
00000050: 197f 9b13 3d54 da3f c1de b963 b8bb f33f
00000060: 03e5 3cb7 8620 cf3f 099d 3c19 b033 acbf
00000070: 3d34 0ada 7f46 d33f b0aa 0c37 0d0e a2bf
00000080: f1ef a6bd 95f0 b33f 4f27 eef1 d940 f63f
00000090: 1ec2 556e 36a2 97bf 2e18 9808 a005 d5bf
000000a0: 4547 4b99 91bd ad3f 528a f2e8 079c db3f
000000b0: a10e fe21 6b82 e33f fa46 1582 5a7b e73f
000000c0: 711d cb80 811a afbf 0aa8 c70e f984 d03f
000000d0: a76f 116c 9423 ef3f 6db1 99b4 f15a 9c3f
000000e0: 4ade 4757 70d2 e0bf 3f43 8afc 043b f2bf
000000f0: 9c05 7aa5 847e e5bf adb2 6cf2 f16d d8bf
00000100: b9ba 3846 5266 eb3f b6ce 7840 2ab0 cfbf
00000110: e85c f5c9 167b d2bf 1245 4591 4953 dbbf
00000120: f0d5 a47f c98a d4bf 90b6 fba3 cea3 d0bf
00000130: 8716 8d73 179a 7a3f 0685 729c f30c 81bf
00000140: f40e dd0d 6c7c bf3f 90d1 e926 a9c5 99bf
00000150: ae2e 0a70 8162 b0bf a84b 4c32 efab d2bf
00000160: c6b7 c69d dff0 d0bf 7b08 cfa4 a9ad ccbf
00000170: ff9f e213 e2e8 e43f a9fa 1de3 9aa9 e43f
00000180: 8a17 810a efc3 d7bf 6143 0ebf ffc6 db3f
00000190: 59da 9754 ff2d f33f 3794 8ede ba59 babf
000001a0: 9314 196f 6c55 e73f 416b a430 56d7 ea3f
000001b0: 111a fd0a d0f8 863f f6a4 f98b f4fc ca3f
000001c0: 4910 852f 9370 f1bf 81a7 0eb0 c792 c73f
000001d0: 0dd9 a15d 73d6 f43f 52de f852 bb4c afbf
000001e0: 2a4d 92e5 0dc2 d53f 3acd f935 06ee ebbf
000001f0: 534c 515c 847b e63f c67c f0e9 6f9b bcbf
00000200: 134e f34d 8684 e7bf cef7 3db3 3d17 ef3f
00000210: 821c eb11 74cb d0bf eb4d 635b 3846 ea3f
00000220: 883d a88a 0be7 d23f cafd 8ffb 8d14 bb3f
00000230: 410e 22f3 e4a3 ee3f 4a19 9732 91ef d63f
00000240: b6c0 6339 429d e33f a576 3610 4e23 e43f
00000250: 9f95 d66a 615d 0040 012d 81c9 cb61 d7bf
00000260: 1858 2436 a83c debf 4b8b d298 023f f3bf
00000270: 3640 471a a535 d83f 34a1 79d4 a564 d3bf
00000280: db7d f324 4c74 f03f 198d 2d33 c4ab e63f
00000290: 002d 57af c84f e43f 9d9b fe44 77fa fe3f
000002a0: f4d4 6bbc 5015 ed3f b927 0903 98c4 d23f
000002b0: f20c 826b cefd db3f 4b38 5bd7 3e6c d63f
000002c0: 9474 19fc 9c19 bbbf ea32 4387 8054 f53f
000002d0: 1310 7da5 d23b b33f dc16 cc82 ace4 ecbf
000002e0: ff70 c1dc b2c3 e4bf d8de f3f5 2342 d33f
000002f0: 8f32 a3e8 90e1 e23f 6435 2c53 a2da e83f

lstm.weight_hh_l0 f8 [32, 8]
-0.1503568110513241 -0.39700598938228615 0.01741950471932745 -0.05189569931982355 -0.15534716603261922 -0.1088785748292239 -0.5364758348238136 0.3660182367949156
0.5271395325136278 0.6720224926999693 0.3501244262068121 0.6165971444100304 -0.8908432095289354 -0.40918676205560595 0.20742488804235842 -0.1902296991948096
0.48853640955337224 0.17577481848170282 0.35105047654762467 -0.30443320102045246 -0.12959860077166419 -0.023029239713535356 0.5697059730411654 0.2621076207052867
-0.42212301607585134 -1.5740289581861908 -0.7415353158689362 -0.3097580244568941 -0.4856518974560807 0.1679417759921425 -0.5874467079569985 0.5466982678901239
-0.7860123509845175 -0.38419459833240865 0.37401584898707174 0.16688712540738454 -1.3247353542747649 0.8492897840781591 0.10780648781417597 -0.6303998526227473
0.8782755247400796 -0.43884683088137516 -1.2398073031371382 -0.11358224020827244 -0.49127095200817494 0.4584374830609374 -0.3677903598245218 0.8216117569321019
1.0297102439976222 0.5877158536917672 -1.153114949259678 1.0065831991959906 -0.9396396274777494 -1.0069253599634238 -0.13756839935998613 1.3856252239699178
0.09180451385572301 -0.8432387723879449 0.08871592181976591 -0.30121353040723636 -0.3245055055889506 0.6491930265115791 -0.45656763707691034 0.5027822580956899
0.10905139808267132 0.9645890956671517 0.8146821270434116 0.12441219456003369 -0.7305843427669092 0.23790735339559427 -0.03666579550727704 0.4613025456172568
-0.057605262706916266 0.571335429454781 0.15035157284001321 -0.061697423377226494 -0.6648023739008118 -0.7118513448067137 0.4281946536725087 -0.20849163122132863
-0.20646630656450707 0.4572257572513105 0.1926870217472464 -0.0075203267682792604 0.14291398251814208 0.06662722447236887 0.608114632244886 -0.25429478867373306
-0.9063621900415259 -0.16173337668608656 0.1984554903216027 -1.1716438957469102 0.4088100497081661 -0.016416498663213482 0.24359226524051547 -0.45080778361394286
0.5641569135721797 1.6228548352860572 0.7980531961154337 0.5359547605288912 -0.3928573869436458 -0.6055486096591749 0.5894012425448019 -0.5846082589127609
0.5323098703993887 0.9463262830399987 -0.12033403475591066 0.858444058859082 -0.22797700530162127 -1.239407371410401 -0.1653115849838593 0.18321818333790854
1.2390009082506996 0.45051214891038366 -1.788421265046366 1.3923812056841705 -0.12044039153018408 -1.8578980683329773 0.06967174307996384 1.1647257738435994
0.4311956559712923 -0.011216253548945563 0.034631299794198524 0.05250068699353224 -0.1841530136053611 -0.3082739454576361 -0.12115891297474125 0.3700911208099848
-0.3579741803681275 0.7886878058350315 0.8157932342130311 0.3900221648322773 0.2751973578157952 0.2993385243978737 0.08663984731895955 0.27421186176613244
-0.39356652012097726 -0.1479535527339089 -0.29541699997660903 -0.35973222228388 0.1679746949348385 0.4227663634700574 0.12853716972473606 -0.24935626356694
-0.033923999293066574 -0.1679246002552029 -0.6091601212955279 0.054164999287003524 0.06919710310363274 0.3992907206783201 0.3050998711226945 -0.37704930712775997
-0.30841917584014344 -0.1795039245765623 0.1469383665977105 -0.7254395352901883 -0.3012713905685478 0.1452065755513918 0.3516283090591691 -0.009285681429850447
0.5230144861395677 -0.016274705909950313 -0.6236744655280663 0.31309653135959437 -0.3829575889228434 -0.2881932312610697 -0.2819078552800694 -0.07022555198783391
0.06654419470030545 0.02905416852081857 -0.7197510047606288 0.45489936699973216 -0.3020094939170112 -0.6271373703920732 -0.0027202837718038235 0.011051599945231713
-0.8695138087487809 -0.021020323649715903 0.40346134546846424 -1.434285604149154 -0.3082562014467109 0.935328517171843 -0.47341856960648426 -0.6371858858548056
-0.39329419545335476 0.6157399437125616 -0.04636196117006087 -0.47847975700449086 0.06922977594382977 0.42404486014170234 0.5650443438596113 -0.5133971847316897
0.2581961129117579 -0.5598426372845745 -0.2114993891191382 0.1577625099806348 0.7213017153462981 0.6833391333317331 -0.42039674616932865 1.1958910698703382
-0.14033632538126767 0.5778971768341703 0.5753508549852768 0.527713933375509 -1.174250203227818 -0.9793553001823052 0.10825651994590199 -0.20096728183613488
0.5459122114432801 -0.5628374088335087 0.14139823184565317 0.7978879775949405 -0.08410792740528085 -0.21450190515336273 -0.20233288194343374 0.4801238792390555
-0.1510143799608836 -1.7665580323872878 -0.8215960020999868 -0.8941480460643504 -1.248493146943401 0.9682430667065604 -0.4884646940291127 1.0623253898111487
-1.2560770682627682 -1.133495116202775 0.34875695709006826 1.5409950801926677 -1.651562660631412 0.25647869389597644 -0.9656693271187794 0.2788759270571417
0.7229972438981591 -0.7796024393039974 -0.9508130035453073 0.03679250088104787 -1.2012615043663555 0.46351888678598346 -0.1252972135389594 0.9676407827868606
-0.40160239104969503 0.36601893615374814 -0.06518713833129987 -0.221928334980422 0.4055082540080849 -0.04510464117848123 0.2647885376066272 0.33625838655284784
0.3958193431371666 -0.9996242446098018 -0.6483833250085758 -0.2669230900614465 0.4012718947410432 0.9382842955712819 -0.27791214896795063 0.32456123088406974
00000000: fa1f 1959 e43e c3bf 7ca2 2dcf 8b68 d9bf
00000010: 6dff 532c 6bd6 913f 156d c3b6 1292 aabf
00000020: f474 d17a 6ae2 c3bf 3769 205e 77df bbbf
00000030: d533 b55e cf2a e1bf 0f85 31c1 d76c d73f
00000040: 6f64 92b9 53de e03f 1b54 8a50 3581 e53f
00000050: 8fb2 0548 7068 d63f ca89 41ef 29bb e33f
00000060: 644b 599e c981 ecbf 9b09 3fac 1d30 dabf
00000070: a25a 4213 e68c ca3f 1083 6260 7259 c8bf
00000080: bdf7 7b37 2e44 df3f 8b6c 6b0c ca7f c63f
00000090: d61a 016b 9c77 d63f 94c3 8c64 d57b d3bf
000000a0: e4f8 f5db af96 c0bf ea7d af1d fa94 97bf
000000b0: 7586 5105 083b e23f 828a bd0a 5fc6 d03f
000000c0: 88d1 3b41 1004 dbbf c3dd 25fd 382f f9bf
000000d0: 388e 4f45 a8ba e7bf c5d1 2d52 13d3 d3bf
000000e0: 0d1c 34b2 eb14 dfbf 425b c2b9 1d7f c53f
000000f0: 762e da09 5dcc e2bf 13c6 ab5d 8d7e e13f
00000100: e160 b75f 0327 e9bf a4cd c8f0 a496 d8bf
00000110: 1073 e52b e0ef d73f f2c3 dfac 8e5c c53f
00000120: 0171 e7b2 1d32 f5bf bd29 eec4 612d eb3f
00000130: cd60 75bb 3499 bb3f 995f cd4f 3c2c e4bf
00000140: 2359 f445 d51a ec3f 11ae a504 1116 dcbf
00000150: 330e c52e 40d6 f3bf 9fd7 19c7 b913 bdbf
00000160: b664 16b8 fb70 dfbf 4777 402b 0a57 dd3f
00000170: c4be ce93 e089 d7bf 110a 41bd a44a ea3f
00000180: 2a37 e572 b179 f03f af4c 5e7a 91ce e23f
00000190: 9295 39a9 2873 f2bf 51ff 13fc f61a f03f
000001a0: a05c c11f 8711 eebf 1ae5 28c4 5d1c f0bf
000001b0: 296b 1b60 d79b c1bf 626a d75a 852b f63f
000001c0: bbb0 a228 8080 b73f 5e03 c4e0 cffb eabf
000001d0: fdb2 d92e 16b6 b63f d58d 8d1d 1547 d3bf
000001e0: 6118 78bd b2c4 d4bf 6012 3574 30c6 e43f
000001f0: a511 6a77 6738 ddbf ebf5 70d1 ca16 e03f
00000200: 6320 59dc caea bb3f 08ff 7ef3 e9dd ee3f
00000210: 7f30 8940 e011 ea3f 16e3 db42 7ad9 bf3f
00000220: b6e9 646a f260 e7bf 5aef 2787 bf73 ce3f
00000230: f6d0 2bf1 dbc5 a2bf ec35 bf1c fb85 dd3f
00000240: f4b0 cede 6f7e adbf a4bd 113d 6148 e23f
00000250: 9c00 2068 b83e c33f 9f28 4eff cd96 afbf
00000260: faa0 c6a0 0f46 e5bf ddde b178 7cc7 e6bf
00000270: 331c 768c 8a67 db3f 14eb ca90 daaf cabf
00000280: e5d1 35e9 7c6d cabf 2b20 92d2 2f43 dd3f
00000290: ec4f 62e4 f7a9 c83f d85e 6658 a2cd 7ebf
000002a0: 923c 8760 014b c23f adcf 2156 7b0e b13f
000002b0: 4ebf 36d1 ac75 e33f 0d67 39a6 5d46 d0bf
000002c0: b5e5 9147 eb00 edbf fce9 c4e5 adb3 c4bf
000002d0: 784b 5250 fd66 c93f fda7 6cab 0dbf f2bf
000002e0: 0b74 71a0 f129 da3f 1f4a 7e93 7ccf 90bf
000002f0: 041f 6206 082e cf3f 41dd d9e3 08da dcbf
00000300: 9b5a b3cc 920d e23f 6758 bba1 36f7 f93f
00000310: 0917 39db a689 e93f 5c6d 1399 8a26 e13f
00000320: f88e 3a4f 9324 d9bf 4cfb 537a a760 e3bf
00000330: 3a74 9efe 5fdc e23f d10e 2061 1cb5 e2bf
00000340: 0882 96b5 ae08 e13f a910 a00e 4e48 ee3f
00000350: 3953 df17 36ce bebf 24d9 c7ac 5f78 eb3f
00000360: 7957 01bb 592e cdbf 6010 ead2 9cd4 f3bf
00000370: b7ea 9315 ee28 c5bf 4103 bc84 b173 c73f
00000380: b56a ca9d f2d2 f33f 7554 81e8 30d5 dc3f
00000390: 7d85 cd9d 5f9d fcbf 30a8 df83 3147 f63f
000003a0: db54 bd76 2ed5 bebf d9aa 2c53 f3b9 fdbf
000003b0: a1d7 fbe1 01d6 b13f ff76 377e b7a2 f23f
000003c0: e2bb 24aa b598 db3f 1f32 6911 8cf8 86bf
000003d0: 8d6f 1198 31bb a13f db3b 4fbb 5ee1 aa3f
000003e0: 118b 7271 5392 c7bf 8ac3 7ca4 c2ba d3bf
000003f0: b16d d840 4504 bfbf c3ce 1aab 92af d73f
00000400: b795 5f89 0ce9 d6bf 3c18 9a35 ee3c e93f
00000410: f5c6 a769 fa1a ea3f 39dd aa86 1ff6 d83f
00000420: c1ec f060 d59c d13f 6831 2ec5 5c28 d33f
00000430: eeee c36e 072e b63f f07d 9de8 af8c d13f
00000440: 8016 2ea1 3130 d9bf e9d9 285b 24f0 c2bf
00000450: f93e 65b4 1ce8 d2bf eab4 814c da05 d7bf
00000460: 9b7d a6de 3180 c53f c9f9 3ca6 9a0e db3f
00000470: dce1 24ee e773 c03f 5150 89f2 e7ea cfbf
00000480: 73c8 0687 7c5e a1bf ba1d 25a5 8d7e c5bf
00000490: e3bb df5d 3d7e e3bf 0814 0dc9 83bb ab3f
000004a0: e3db cebe e6b6 b13f cd37 baaa fa8d d93f
000004b0: 2517 1f9c c186 d33f cef6 c56a 9321 d8bf
000004c0: 0655 6cc8 23bd d3bf 9dad c70e fcf9 c6bf
000004d0: 334c 885b e0ce c23f 5c7f e9f8 cc36 e7bf
000004e0: 3c97 6dcc 0748 d3bf 0f25 940a 2196 c23f
000004f0: 3e71 f005 1481 d63f ce8d 7f10 5f04 83bf
00000500: d1b7 29e0 88bc e03f 2980 8a06 51aa 90bf
00000510: e962 1927 24f5 e3bf 408d ab08 c609 d43f
00000520: 946e 0b8c 6082 d8bf 9378 cc05 c271 d2bf
00000530: 2175 ba3e c70a d2bf 839c 2141 4dfa b1bf
00000540: d6f9 f953 0a09 b13f 8703 703e 60c0 9d3f
00000550: a8b8 5642 3308 e7bf 7109 0f3c 121d dd3f
00000560: ef1f dda0 1f54 d3bf 5bde fd63 8211 e4bf
00000570: 6a5b be3a d948 66bf ab7c aaa2 38a2 863f
00000580: 9de2 7f9f 0ed3 ebbf f1e8 810a 5a86 95bf
00000590: 7a2e ff88 4fd2 d93f 851b 2f76 d5f2 f6bf
000005a0: 0f2e 0038 78ba d3bf 9d9d 0812 36ee ed3f
000005b0: 4fda 7166 7d4c debf 8403 a7a7 d363 e4bf
000005c0: 4e71 cb6a bb2b d9bf 3dc3 2241 24b4 e33f
000005d0: 71f6 0146 c1bc a7bf da77 088f 699f debf
000005e0: 6b91 96e7 0ab9 b13f c31c 960d 8d23 db3f
000005f0: 8056 35e0 d714 e23f 97fe c8ee bf6d e0bf
00000600: be42 3afd 4886 d03f 7b65 411b 3bea e1bf
00000610: b301 b277 6912 cbbf e86a 73da 8f31 c43f
00000620: efc0 be55 e714 e73f ae93 b707 eadd e53f
00000630: d617 09c1 c7e7 dabf afbe aaac 5e22 f33f
00000640: ae07 fa6b 8af6 c1bf fe82 5e38 227e e23f
00000650: 9a65 3c32 4669 e23f 02b9 af54 08e3 e03f
00000660: 12f5 c294 bac9 f2bf fc4f 2eed e056 efbf
00000670: 6e15 bf04 b3b6 bb3f f4ae 86bf 4bb9 c9bf
00000680: 7f59 d4e2 1c78 e13f 3bf8 fc98 c302 e2bf
00000690: 95a1 be56 5619 c23f 098a 345e 4c88 e93f
000006a0: f93e 8add 1888 b5bf 0f1d c865 cc74 cbbf
000006b0: f61d 6d3b 0be6 c9bf bd10 d781 59ba de3f
000006c0: ef2f 946f 7054 c3bf a26e f95a d243 fcbf
000006d0: bc66 f1b2 834a eabf 331e f45c dc9c ecbf
000006e0: b76e 36f3 d3f9 f3bf 67ab 42e2 d8fb ee3f
000006f0: 8dc3 866b 0143 dfbf 7a30 6fe8 48ff f03f
00000700: 3c1b 9744 e418 f4bf 2744 64c6 cb22 f2bf
00000710: 8e13 3db3 0852 d63f 2a97 0b75 eaa7 f83f
00000720: 7c4e ebf7 cc6c fabf 5cdb 999c 256a d03f
00000730: 2937 575c c3e6 eebf e488 966a 1ad9 d13f
00000740: da80 b41d cb22 e73f e928 96d0 80f2 e8bf
00000750: 08d6 5a64 0f6d eebf 7b57 0b78 77d6 a23f
00000760: f827 b3fb 5d38 f3bf 79be f41e 4baa dd3f
00000770: 5802 3735 bd09 c0bf 910d 8bcd e9f6 ee3f
00000780: 2b72 e383 dab3 d9bf d6cf 1fb0 da6c d73f
00000790: f1b4 40b3 1ab0 b0bf 79f8 65ce 2568 ccbf
000007a0: 1e42 4ee4 d8f3 d93f 00cf 849d f417 a7bf
000007b0: 8312 589f 4bf2 d03f 6703 50e5 4185 d53f
000007c0: 487e 79a7 1a55 d93f e268 dcfb ebfc efbf
000007d0: d2df 0563 8ebf e4bf 7f1d 9795 4415 d1bf
000007e0: fcde 2d50 70ae d93f 9b87 7ac9 6c06 ee3f
000007f0: 919e be09 50c9 d1bf d894 0c78 9cc5 d43f

lstm.bias_ih_l0 f8 [32]
0.3757880289224726 0.15630331144152815 -0.09230558009390062 0.9149214086542216 0.9352101616637739 0.6495841240156313 0.39412628425718743 0.48005976253340843
-0.15771492293527825 0.06903310878954391 -1.005017770846306 -0.3831058204339018 -0.2775743699649902 -0.5086700186481977 0.07852683496111844 -0.030979829372133054
-0.21173068418945562 -0.44531772304851536 0.20805125512129047 -0.05432350349611943 -0.016124498127491144 0.026391893816283842 -0.04103658156309578 -0.2779576466429237
0.5427303216823994 -0.14942038003056488 -0.08193367533448025 2.4687616448401095 0.7761977256704153 0.6358748764258163 -0.33624893792068217 0.2812055858280305
00000000: 13d2 9c3b e90c d83f 46ed 7235 bf01 c43f
00000010: 45da bda7 56a1 b7bf 7390 1243 0947 ed3f
00000020: f372 67dc 3ded ed3f f6bb 14a5 64c9 e43f
00000030: 4e3b 5873 5d39 d93f 8c37 0d95 4cb9 de3f
00000040: 2d91 0caa 0030 c4bf 0ea1 9760 27ac b13f
00000050: 76f0 9a83 8d14 f0bf 51ef 6a46 ce84 d8bf
00000060: a846 4d4a c7c3 d1bf 4d97 d158 0647 e0bf
00000070: 5732 04ac 551a b43f feb4 f427 2db9 9fbf
00000080: 24a3 13b6 fd19 cbbf cea4 34e8 1580 dcbf
00000090: fe9f 516c 6ca1 ca3f ea06 d74d 4ad0 abbf
000000a0: 58ea 7cc0 f082 90bf 6722 4803 7a06 9b3f
000000b0: a49a 812f bf02 a5bf 6d49 80de 0eca d1bf
000000c0: 078d c5fa 0b5e e13f 4f28 cbfe 3420 c3bf
000000d0: 47af 00f8 9af9 b4bf d5a8 f11a 06c0 0340
000000e0: 0a7d df9c 9cd6 e83f fd19 d344 1659 e43f
000000f0: b5c7 eb43 1a85 d5bf d15e a5b6 45ff d13f

lstm.bias_hh_l0 f8 [32]
0.5593779534889154 -0.12142449844600849 -0.5237397724384057 1.2854179847726672 0.8893546350394477 0.5889860126255171 0.1752980287532619 0.481748190583614
-0.017223578085690975 0.13889978406546283 -0.865449992701337 0.041236749473564344 -0.42845018590683803 -0.42967316324692145 0.17374738375404786 0.16438447767968709
-0.3127349974436051 -0.19059861637917855 0.25640828978066027 -0.47809587060046677 -0.20839444071668808 -0.11258283766228941 -0.29544909453257734 -0.27654416659782666
0.9004996902413358 -0.5061218565972901 0.1343247571453902 2.170734588106375 0.7909971505824932 0.8927626234871723 -0.04285696314173741 0.24993696155884265
00000000: 5cd3 0a98 6ce6 e13f 5341 c209 ad15 bfbf
00000010: 1199 47e9 79c2 e0bf 0e9f e472 1291 f43f
00000020: 504b 01da 9775 ec3f b2e5 c031 f9d8 e23f
00000030: 2636 4672 2a70 c63f dbae dd5c f6d4 de3f
00000040: 2180 64c2 0ea3 91bf a6c6 fdd6 77c7 c13f
00000050: c838 df2e c4b1 ebbf 5cbd c3b4 fb1c a53f
00000060: ded6 1b54 ba6b dbbf 4752 07de c37f dbbf
00000070: 049e 7eb1 5a3d c63f a359 cdf1 8c0a c53f
00000080: 746f 95a6 d903 d4bf 4576 0114 8965 c8bf
00000090: 9fff c150 fe68 d03f cc39 256c 1f99 debf
000000a0: fbef c545 abac cabf 7ab4 d995 3ad2 bcbf
000000b0: 679d a951 a3e8 d2bf c2fb db4d e6b2 d1bf
000000c0: 1ea1 f4b9 e4d0 ec3f 8709 bc76 2632 e0bf
000000d0: 9dc5 7dbb 8d31 c13f 0bb4 8118 aa5d 0140
000000e0: 5164 9f41 d94f e93f 7ffe deeb 8291 ec3f
000000f0: f603 330e 59f1 a5bf ae79 fa31 effd cf3f

lstm.weight_ih_l1 f8 [32, 8]
0.24835665400902485 0.6782003404665957 -0.14732043713728316 0.8356705788112606 -0.0943681796665266 -1.2040035668364821 -0.4577535504622931 0.3392460508976866
-0.5061022804780245 -1.2146188925453 -1.7636000743814155 0.030870070519508633 0.486835964366596 0.3823544348563172 0.048852917014819724 2.457240963522632
-0.34023808754847407 -0.3652139868754519 0.4796666994789408 0.4719383153157096 -1.768822934750467 -0.5426217417062096 -0.23205729556894056 0.3780954763693391
-0.2572885165161934 -0.29408739383351923 -1.1339504967804592 1.3313029518480377 1.3934336525794064 -0.808063521515055 -2.6917592254632488 1.193433878073387
0.23957620300297278 -1.409540747286946 -1.4148090551218102 -1.284767415721048 0.5884653687383427 1.5127961364056368 -1.154231226479523 1.482427088411203
0.3790908249119125 0.6317732853551888 -0.7904350795961343 -0.5660635361699552 0.4287976734427271 0.035950063107247465 0.06245264175739889 -0.43013263625505793
0.4905149182487294 -0.9227711926613178 -0.5510265943988543 -0.5399567065184323 -0.3382304319228601 1.1029978575270956 -0.6770192543603472 0.5777226990337692
-0.11882673564378986 0.45746978413282 0.4752658543611011 1.4923277065439853 -1.6563712386773384 -1.0256278712735942 0.2544766091656565 0.017018635712795743
0.6011557985621897 0.6822315389736047 -0.3476070922252614 1.2031743737665628 -0.06427512211609368 -1.3786478986484034 -0.3789479811381421 1.0122426005664786
-0.9081866882123089 -0.5394541596418456 -1.242581775503386 -0.013671930968196504 1.2110404136720816 1.00977652612817 0.39690893817802636 1.1175649090037538
-0.22810608208367994 -0.12757161309976187 0.008349714066959035 0.8482368370509035 -0.793426809128144 -0.7644239162932667 -0.05185604189963552 0.3250416558043534
-0.9916383659929017 -0.8839585187628487 -0.738819350688876 1.231600288119982 1.107140535621953 -0.4516907823132192 -3.604366407882424 1.2150834686127046
-2.1139658723661428 0.2993850903915913 2.5859125730412584 -0.2745135418911435 -1.5605665388673793 -0.6498273030774994 1.5542940039143789 -3.2577314154255186
-0.3064045590118079 0.44272413332373867 -1.0493763488804528 -0.8705085508503015 0.9638070847815835 0.5598415596954344 0.6407898600008325 -1.781831164344355
0.6220156280110236 -0.18874791519221248 -0.4479452431606667 0.15997175326848628 -0.710437168423822 -0.12215678533510273 0.06685174568300137 0.2893416885271175
-0.5181854105196304 0.0728669866197426 -0.012251723793301842 0.25565278298164296 -0.9759736032598119 -0.577260089316834 0.5146178907490279 -0.719299219279281
0.5569624926313618 0.16498085553477043 -0.6094022277998764 1.016257438763935 0.414117323799136 -0.52762723808736 -0.191013143888747 0.6619401207414283
-0.010097740250594857 -0.5617442806350713 0.9561650566402792 1.4835238795369985 -1.664645702755383 -1.4944549739169204 -0.3974573315742548 0.15926307223510755
-0.7158014759653349 -0.1867022914958647 -0.25193757701616015 0.22947891851063756 -0.03595286268137783 0.26159283225765223 -0.11939019029736908 -0.10384960489117244
-0.7147021002452176 0.20061289176754868 0.704865703285585 -0.9849008154668701 -0.8237602725486465 0.3698070492437219 2.929643606905505 -1.6271219779437187
1.2510906648822213 0.25129992855928984 -1.4243367994375788 0.40175559266052263 1.2251904506319151 0.3340352622567738 -0.6206921814302148 1.103012038004909
1.6704617322038586 -0.2751876705796862 -0.5581058958020296 0.682390314641789 -1.2371004283957836 -0.34874582096726203 -1.8716623659236122 2.934636275692867
0.3718107545536337 -0.1243633292867239 0.03128508621034716 1.2746585659268361 -1.242732528173601 -1.4189100976551454 -0.4673495126221689 0.3229272455869616
1.0297788786211253 0.524060691055918 0.07501969350944555 -0.42742167922702773 1.6979012271044385 0.7038459568943085 -0.15547399268476803 0.8274664154704867
0.6683029263713693 0.12499630063174799 -0.3932998404657257 0.9519063190534587 -0.868909713090688 -1.4249692248431116 0.018277202837642885 0.8494051175927794
-0.0071738860034324115 -1.2156017079970054 -1.9144034141991038 -0.8574110435619922 -0.8684032066163931 1.537667077720655 0.1581362198310956 2.629874358193931
-0.18290860321423003 -0.7661228975573429 -0.06762981269227974 0.6395526964953144 -1.5912898963438773 -1.335830964431204 -0.5373948367176706 0.3229762361462662
-1.7203282008690246 0.5729684168321598 1.8229456456291502 -0.09138276956465669 -2.7249777237414334 -1.8761219340525 1.7028996520036048 -2.039724250536532
0.42403140423011293 -1.8355469507265891 -1.5665819566180845 -1.094264987940757 0.19240644567906195 0.9476081508264966 -1.4078182499851135 0.9157919611379672
0.3715759280653705 0.5442767307969419 -0.910936663023998 -1.0545558882378667 -0.41650704180679854 0.8405781349837038 0.5911242665074431 -1.0899601368484455
0.717150545288361 -1.356437684000063 -1.116098600270585 -0.5903658598037826 -0.5472040745350027 0.42518995677069926 -0.9424517158744166 0.6829156658998752
-0.3310845822944293 0.6117611721129572 0.3643037261071255 0.9682685484978418 -1.777197128398602 -1.7083909181031656 0.2396834022593296 -0.3116563102513989
00000000: 5c3b 5b9d 26ca cf3f 4015 4e33 d1b3 e53f
00000010: 38be c465 65db c2bf 0029 c739 d0bd ea3f
00000020: 9366 7355 8328 b8bf d947 7d3e 9943 f3bf
00000030: 8342 378c d54b ddbf 17c6 7911 35b6 d53f
00000040: 3bb1 e268 fd31 e0bf 725f 4938 146f f3bf
00000050: c20f 2bb6 b437 fcbf 01dc 395d 679c 9f3f
00000060: 5727 5e08 5228 df3f 7b0f 4cbc 7e78 d83f
00000070: fc23 c9e1 3f03 a93f 16c5 45f3 6da8 0340
00000080: 38f4 b7f8 75c6 d5bf 6aff 6a7c aa5f d7bf
00000090: 0682 cff4 dbb2 de3f e6a8 80c3 3c34 de3f
000000a0: 1eb0 1247 194d fcbf 5e41 5745 285d e1bf
000000b0: ae26 a2af 0db4 cdbf 0766 715e b732 d83f
000000c0: b1b2 0441 6a77 d0bf d692 abee 53d2 d2bf
000000d0: c947 af46 a924 f2bf e016 f452 044d f53f
000000e0: 0c97 ef15 814b f63f 99ed bf07 a8db e9bf
000000f0: 4b91 900f b988 05c0 e837 441f 4e18 f33f
00000100: 9418 66da 6eaa ce3f 1ca1 3f99 7a8d f6bf
00000110: 4c53 ddd1 0ea3 f6bf 3bd0 1747 688e f4bf
00000120: 93e9 3153 b5d4 e23f b009 b6b8 6934 f83f
00000130: 3a06 9c29 bb77 f2bf cfe3 7677 05b8 f73f
00000140: fc75 cd29 0643 d83f cdc8 e29b 7c37 e43f
00000150: ee3f 0f82 3e4b e9bf b7db e946 311d e2bf
00000160: c664 02cc 6b71 db3f 3066 abf2 0b68 a23f
00000170: 972d cbeb caf9 af3f 6018 6a09 4b87 dbbf
00000180: 9c04 05af 9864 df3f 167b c573 5787 edbf
00000190: 336b 4586 02a2 e1bf c814 7849 5347 e1bf
000001a0: 8bb8 e740 91a5 d5bf eb30 da14 e1a5 f13f
000001b0: 0dae 8748 24aa e5bf 7038 5050 b47c e23f
000001c0: 0703 7bcf 6d6b bebf 968d 7058 2f47 dd3f
000001d0: 3dbb 5879 c16a de3f 6f56 6804 93e0 f73f
000001e0: 8477 c220 7f80 fabf 6ac7 4fc5 f868 f0bf
000001f0: 78a9 7d42 5849 d03f 4869 3c4f 556d 913f
00000200: 0503 d415 ab3c e33f cc1f 863c d7d4 e53f
00000210: 14c5 3dd1 313f d6bf 1667 abc5 3340 f33f
00000220: 0a5e 6f9b 5574 b0bf e34d 5619 f10e f6bf
00000230: 2ae8 7708 af40 d8bf f7d0 104c 2532 f03f
00000240: ee19 9187 dd0f edbf e04a ab5e 3543 e1bf
00000250: 5348 866d 9de1 f3bf 7676 0d83 0700 8cbf
00000260: c6b1 ade9 6b60 f33f dcd2 3f6e 0b28 f03f
00000270: cbbd 3dbf f466 d93f e040 f5bd 8be1 f13f
00000280: 66b7 4881 9432 cdbf 25aa 1441 4454 c0bf
00000290: 73cf c9a6 a719 813f f2ac 4c94 c124 eb3f
000002a0: 4e33 9f9e c063 e9bf 7650 1825 2976 e8bf
000002b0: 6b2d 1e08 e08c aabf dc1c 6184 7bcd d43f
000002c0: 9fbf ec61 80bb efbf da6c 2360 6349 ecbf
000002d0: ac8a 9b7a 68a4 e7bf 1283 f380 a2b4 f33f
000002e0: c727 89fe d8b6 f13f d727 7c74 80e8 dcbf
000002f0: 813f 250e bed5 0cc0 02a1 f95c fb70 f33f
00000300: ad61 75f0 66e9 00c0 b314 0915 2029 d33f
00000310: 2638 5cee f2af 0440 54d2 2e3f a191 d1bf
00000320: 4aad 7a9e 14f8 f8bf f180 d8a0 62cb e4bf
00000330: 01e6 b263 63de f83f 323c 037d d50f 0ac0
00000340: dd43 13de 219c d3bf 2da0 719a 9755 dc3f
00000350: eb32 bada 3eca f0bf f14a 99bf 34db ebbf
00000360: af47 99f4 81d7 ee3f 37ac bad8 38ea e13f
00000370: dbfb 89bc 5981 e43f 46a4 1d65 6182 fcbf
00000380: 5e10 7d51 8de7 e33f 7128 7845 e428 c8bf
00000390: 7386 7186 22ab dcbf fe34 4954 f479 c43f
000003a0: f6c7 87ba e6bb e6bf a5ae ffc5 aa45 bfbf
000003b0: 8295 632d 321d b13f 12fa 6500 9384 d23f
000003c0: d646 ee91 f994 e0bf bb67 7d2c 69a7 b23f
000003d0: 3548 1888 6e17 89bf 1667 827d 9d5c d03f
000003e0: 5253 78fe 2c3b efbf e2db 9c26 ea78 e2bf
000003f0: b183 56f0 bf77 e03f 95f8 dacb 7f04 e7bf
00000400: 2f69 5e01 a3d2 e13f ce74 7eb9 171e c53f
00000410: 0352 d019 3980 e3bf d8ec fc28 9742 f03f
00000420: 4028 9bf2 e580 da3f 6d0c 8284 52e2 e0bf
00000430: 1fdd 0d63 1e73 c8bf cbd4 4f0c 9d2e e53f
00000440: 8753 1ec1 1fae 84bf 9d5d 4124 cff9 e1bf
00000450: b522 fb75 e798 ee3f ab24 1789 83bc f73f
00000460: 502e 4c88 63a2 fabf 5315 659e 49e9 f7bf
00000470: b6ad 2ae0 f06f d9bf 36ea 5a7b bb62 c43f
00000480: 7b63 367f d8e7 e6bf 5010 0856 dce5 c7bf
00000490: b2be 7ac9 be1f d0bf 1ef4 0fb1 905f cd3f
000004a0: 7a04 d4e2 6968 a2bf 4d89 dadc efbd d03f
000004b0: c058 ca02 5b90 bebf 97c9 b540 e395 babf
000004c0: 72f1 5df0 d6de e6bf 0f18 a6e8 aead c93f
000004d0: 46e0 f584 428e e63f 6c7c 07b7 4e84 efbf
000004e0: 3de5 ca80 3e5c eabf 4240 952f ebaa d73f
000004f0: cac1 c4fc e86f 0740 0cf0 1d0e b108 fabf
00000500: 2600 20a5 7704 f43f e88d a94b 4c15 d03f
00000510: ed2d 4162 15ca f6bf 1a92 dd16 5db6 d93f
00000520: 875e 4d4d 619a f33f d2a1 c66f d560 d53f
00000530: 7f05 84d9 b5dc e3bf d034 65f3 efa5 f13f
00000540: b38f d014 36ba fa3f 36bd 59bf ac9c d1bf
00000550: 8395 45e5 00dc e1bf d9cb 8f36 24d6 e53f
00000560: 5c3d 9dd1 29cb f3bf acf2 eafd d951 d6bf
00000570: 01bc ac3c 54f2 fdbf 800c 6e95 227a 0740
00000580: dff8 c655 bfcb d73f 41b0 1b70 46d6 bfbf
00000590: aa80 404c 9904 a03f 668d 6361 0065 f43f
000005a0: 70e5 e280 3be2 f3bf cb49 1613 dbb3 f6bf
000005b0: 5be1 20ee 0de9 ddbf 9422 b209 d7aa d43f
000005c0: eba0 dc6a f979 f03f da89 26ed 1ac5 e03f
000005d0: bdd3 2d9a 7d34 b33f 476a 7875 e05a dbbf
000005e0: 8107 247a 9a2a fb3f 5c0d c9f4 e785 e63f
000005f0: e4d4 fa60 92e6 c3bf a87d 1fd9 9a7a ea3f
00000600: 8ec1 92d1 bc62 e53f 6c97 55ef c1ff bf3f
00000610: b7a0 1418 d32b d9bf 5217 a63d 0476 ee3f
00000620: 06d7 1cbe 1bce ebbf 461f a887 accc f6bf
00000630: ded5 cc51 42b7 923f 73b6 23a4 532e eb3f
00000640: a0d0 515c 5d62 7dbf 2cf1 ccc6 1a73 f3bf
00000650: d15f 7579 65a1 febf e07e ea48 e96f ebbf
00000660: 0816 8585 f5c9 ebbf 3d23 2fcb 489a f83f
00000670: 686a 3ec2 ce3d c43f 6141 4891 fb09 0540
00000680: 0228 7b92 8c69 c7bf ac37 b72a 1484 e8bf
00000690: 7879 bff9 2f50 b1bf fc82 7037 3777 e43f
000006a0: f108 f464 ec75 f9bf 6575 134a 905f f5bf
000006b0: a4bb 17a8 5632 e1bf 6789 e884 a4ab d43f
000006c0: 57e7 11dd 7686 fbbf b4eb 7ddc c155 e23f
000006d0: 0dce a50d c92a fd3f fcb6 b276 dc64 b7bf
000006e0: 4362 ee1e c1cc 05c0 2505 e16e 9804 febf
000006f0: ae9a 9bb4 133f fb3f d54c a7f2 5a51 00c0
00000700: 734c 699d 5423 db3f a54a ba7a 665e fdbf
00000710: 94da e23d b810 f9bf 6ed0 0501 1c82 f1bf
00000720: 0897 dd3f c6a0 c83f 7e21 2754 ce52 ee3f
00000730: 455e e66d 6c86 f6bf 6adf 60f1 2a4e ed3f
00000740: 2362 c166 e6c7 d73f a7e4 d708 b76a e13f
00000750: 514b 0da5 6426 edbf eb92 bcfe 75df f0bf
00000760: 364a c726 0da8 dabf 169b ef1d 04e6 ea3f
00000770: c5af 1070 7dea e23f fa52 5b0a 7a70 f1bf
00000780: 754e 4ab3 e5f2 e63f de79 3d00 f8b3 f5bf
00000790: 6b60 b434 8adb f1bf 8407 91f1 46e4 e2bf
000007a0: 7fb4 8b1e b282 e1bf 5abd baef 4f36 db3f
000007b0: a6ab 3780 9028 eebf b0e9 5ef4 71da e53f
000007c0: 7085 4a63 7d30 d5bf 4802 662a 8c93 e33f
000007d0: 173a 5c93 c050 d73f 5765 b152 0efc ee3f
000007e0: 1446 9041 666f fcbf 8c95 20b7 9155 fbbf
000007f0: cc85 0c1b f2ad ce3f 5fcb 074f 2df2 d3bf

lstm.weight_hh_l1 f8 [32, 8]
-0.4428265602754651 -0.2760802326534973 0.18466807013314257 0.670754997500225 -1.2121696543742912 -1.5443344234996041 -0.02488867428378671 0.37360676118621833
0.5503961946691901 -1.320928008664754 0.5489681430292676 0.34988082331783554 -2.366541017927785 -0.8611008751220492 -0.20163356662198434 -1.056852736920786
0.05573934190359333 -1.1195055482982719 0.039275956682897205 0.4304001704078005 0.5310461981482661 -0.0665433586439589 0.25599711162884237 0.2070966179826781
1.610423461241565 0.5126190909931411 1.0064169915512002 -0.37019272326978814 0.940851361599622 1.6159159670528023 0.3891287185080675 -0.7537475176930547
2.048441613826553 1.4322274896544933 1.7898322827041555 -1.442920099453848 -0.8146860513157588 0.4494944732846324 -1.121374553213822 -1.378118315162347
-0.9396601792559784 -0.8431616376624347 -0.22774080259351298 0.19657902461797427 -1.9397769185408191 -0.6474133822375836 -0.8298324688305041 0.3297125687660614
1.2539675060626312 0.28564762097332136 0.6500681932197755 -0.6575262044413777 -1.0401687189582043 -0.7339182522199883 -0.5536757519430968 -0.9439773377340194
0.02310218965542362 -0.2718375288137442 0.005775667233127845 0.7877176567818143 0.6188377176325263 -0.2757544162809049 0.7397821074933726 0.25307763146280815
-0.28809067908893393 0.22903615340998834 0.2726037066945803 0.31361705685684865 -0.4193475688494958 -0.6590459386831093 0.13903349560675288 -0.20743706076685833
0.4870489476392689 -0.7130831285271092 0.17563698024629074 0.7875260758412732 0.030054847855033828 -0.3917619023968545 0.047542730232656434 -0.479739360386212
0.6402386797629743 -0.9495450960818477 -0.021532086675380892 0.05554681278140221 0.94063676613807 -0.4764246490089135 0.8106141247567752 -0.2329792325361537
2.5652532941878325 1.6925484635647035 0.465209893394665 -1.0973932663304289 0.3774143364309455 1.6437194335745902 0.6747092028189923 -0.6989371464862912
-1.6749676233294828 0.7370006234015857 -0.48985565695449146 0.4933107443475224 0.3879697913906565 -0.8534314208461267 0.08994047170877928 1.1512157575503812
-1.593561267784644 -0.4940179894313685 -0.2738842999853122 1.3673542794604092 -0.9833079939069604 -1.9160820957624858 -1.6175916774592896 0.9513641662337327
0.05532674269809911 0.17322817771038673 0.3881645843298634 0.21169486422824244 0.6070802619384029 -0.7396884095609089 0.3809721478437498 -0.13000035496096357
-0.49484367800564744 -0.40955789764580475 -0.5115667734507194 0.2884083776881248 0.7458793615878544 -0.2201100816784218 0.04315606726934231 0.5411892421446983
-0.24473087640982233 0.19504050225009795 -0.3173555890905208 0.3741193586956779 -1.0394792683198226 -1.2722405590066537 -0.2582728995251003 -0.031111315851582957
-0.19779048949453298 -1.3234818888340532 -1.2742207282159708 -0.11590106476247575 -1.742015763369507 -0.52071854935376 0.053614801699226916 -0.5495221518753419
-0.008220041001922149 0.3918695637404078 -0.31713647932999633 -0.22551821311696046 1.6640659648138998 1.2984454836435815 1.360476576211195 -0.6753976733459304
-1.9973641853073485 -0.010851691224459654 -0.7333730215014888 0.15744461107876687 -1.044562923427918 0.6147705616357352 -0.07553453169810628 0.32343215524939684
-0.02933561134873296 0.378291780091779 -0.5670864994182719 0.14497714363067707 -0.9463562931998402 0.06663153011407776 -0.5260240321577789 0.17820055563845358
1.6590115756478563 0.10015630322135267 0.2577345615961345 -0.6160347982625974 -0.6738482889690944 0.01767117859067042 -0.13913756673765562 -0.1389359863345821
-0.4120417077458424 -0.6518493666985177 -0.558355863739789 -0.07270705198965857 -0.05714707453099311 -0.452077117302721 -0.64326922396447 0.45607158426695504
-0.08072659251681656 0.7496930293776337 -0.36659155418638817 0.1698438036659528 0.021322361689903823 0.18489935196076002 -0.2601755274902064 -0.8590329162986942
0.01791303747810865 -0.056068564629520326 -0.21084487214627454 0.27600886446058565 -1.216905491976527 -1.090062639481075 0.29964743465333793 0.2068056229036224
1.428585249154084 -1.7437610004484227 0.3874581960033169 -0.8522765836385375 -1.632809381352764 0.16384585992895884 -0.02324279011019279 -0.47125549767373853
0.24346022561387914 -1.3680552511887873 -0.12093696499173295 0.0785645725819519 0.6690367561474183 0.12644319313734184 0.27743252900878973 0.0736260740469
-0.8618935945973767 -0.4406511175702881 -0.23322043992341113 1.8439598534508304 1.2128893005327546 -1.7678222277639506 0.5634752945972628 0.9926908133385278
1.7733360795826434 0.8903475808047857 2.0634272306148453 -1.42114458122656 -0.6203873485661435 0.6182518234996358 -1.6034741406858288 -1.8358321184816677
-0.908808116855625 -0.787460356078085 -0.22304946314028623 0.15018383816677391 -1.613076300124717 -0.9163571516707583 -0.5786827254260997 0.27339221055576535
1.5259887860417725 0.08849448673737959 1.0736663625145162 -1.2204337492491646 -1.583447301156241 -0.9366883440811304 -0.9219102045232781 -1.2589925328458627
-0.4914513737925848 -0.10475931150231388 -0.16225520709257218 0.9422071552896761 0.8708269997626673 -0.30670700576076626 0.5260941109798996 0.7280741029894463
00000000: 1cbb 8b36 4557 dcbf e967 946c 4cab d1bf
00000010: 0c2c eb0c 34a3 c73f 7f8b 3c2f d376 e53f
00000020: f9db eb01 0c65 f3bf f748 3003 98b5 f8bf
00000030: decf 5ba8 6a7c 99bf 9bfe 3655 2ce9 d73f
00000040: ff4d fe7a d89c e13f 4d5e 5968 8522 f5bf
00000050: e568 9ba3 2591 e13f 3a73 6989 7264 d63f
00000060: 9b23 a50e adee 02c0 0a99 266c 238e ebbf
00000070: c668 35f3 20cf c9bf b534 5c6a dee8 f0bf
00000080: 732a 27f5 dd89 ac3f 241b 5aa6 7ee9 f1bf
00000090: 73be f16a fa1b a43f 8109 0628 ad8b db3f
000000a0: 34c8 b698 54fe e03f 294d 244d fc08 b1bf
000000b0: e73e 94b5 4162 d03f f884 ac58 2482 ca3f
000000c0: f9e5 2b64 4bc4 f93f 81dd e326 6067 e03f
000000d0: 299e 0db4 481a f03f 7c4c ead1 3cb1 d7bf
000000e0: 53f5 8e50 741b ee3f 4b37 79b3 cada f93f
000000f0: 6e4c fb23 7ce7 d83f ebd9 3d1d b31e e8bf
00000100: 3d34 595b 3563 0040 bdf8 475f 67ea f63f
00000110: 47a1 f82c 27a3 fc3f 5553 de62 3316 f7bf
00000120: f012 5d7b e811 eabf 1f60 9f77 84c4 dc3f
00000130: 6deb 8971 26f1 f1bf 2241 5aca c50c f6bf
00000140: ec40 6839 b211 eebf 0c10 601d 2efb eabf
00000150: 964d 8d51 9c26 cdbf e429 e860 8029 c93f
00000160: 12b2 aa85 5309 ffbf 5c80 f644 9cb7 e4bf
00000170: 8a26 59d2 fc8d eabf 6d8b fbbe 021a d53f
00000180: 2892 4c3b 4010 f43f fbad 90f5 0c48 d23f
00000190: 518f c1cf 5bcd e43f dad6 0a65 740a e5bf
000001a0: 97f6 63f4 87a4 f0bf 521d 6721 427c e7bf
000001b0: c4e1 e535 b6b7 e1bf c572 37f6 0f35 eebf
000001c0: 16e6 24b4 19a8 973f bb26 053c c965 d1bf
000001d0: 8cd2 0fde 39a8 773f 3682 cba8 fb34 e93f
000001e0: 5b6a d8c1 84cd e33f 10dc e9d9 f5a5 d1bf
000001f0: 2233 bb86 4bac e73f 7ad7 9e85 6c32 d03f
00000200: b00a 3ee3 1370 d2bf 5aaf 3f82 0e51 cd3f
00000210: df61 41d1 5672 d13f 7dbf aa46 4d12 d43f
00000220: 8367 772f 97d6 dabf 1494 2682 e716 e5bf
00000230: eefb 567e d9cb c13f 316b fc2f 4c8d cabf
00000240: 2f5c 6a59 cf2b df3f 394e 8bb5 93d1 e6bf
00000250: 5121 10c7 457b c63f 1689 8fe2 6933 e93f
00000260: d397 7eb2 b2c6 9e3f 3a3f a783 a012 d9bf
00000270: f10b 064f 8557 a83f 829d ddb7 0cb4 debf
00000280: 0beb e6d3 d57c e43f 76f5 b765 ac62 eebf
00000290: a772 57e0 810c 96bf b618 96c0 a170 ac3f
000002a0: 814d 7f46 b219 ee3f 9919 a0cf bd7d debf
000002b0: 4331 7008 8df0 e93f 30ea 3174 43d2 cdbf
000002c0: aef1 e384 a385 0440 b87c 9eb2 ad14 fb3f
000002d0: 86f7 79b7 ffc5 dd3f 43d6 db3d ec8e f1bf
000002e0: 05cc 0076 8e27 d83f 470a b0bf ac4c fa3f
000002f0: a45e 0dc1 3797 e53f 26c8 436f b15d e6bf
00000300: 90f1 c0d9 aacc fabf 8986 d454 8295 e73f
00000310: 2554 988a cb59 dfbf d03b 6f3a 6792 df3f
00000320: c7f6 763f 7fd4 d83f b236 3d69 4f4f ebbf
00000330: 1076 93b8 5606 b73f 9c19 d536 616b f23f
00000340: e2ea 9419 3a7f f9bf e393 0fa1 fd9d dfbf
00000350: 05c9 d403 5287 d1bf e83f 85e1 aee0 f53f
00000360: 7239 7753 4277 efbf 2a04 1cb3 45a8 febf
00000370: c882 8fcf a7e1 f9bf 12ed 9143 9371 ee3f
00000380: cf0f f76c c953 ac3f 3e82 0147 572c c63f
00000390: 7161 ca44 b0d7 d83f 03b5 4b3b d118 cb3f
000003a0: 5d52 e295 336d e33f 606b 0907 87ab e7bf
000003b0: 0440 eb00 d961 d83f 1e4b 8304 daa3 c0bf
000003c0: bea9 6ad1 84ab dfbf 8843 0d54 3236 dabf
000003d0: 561d 3648 c15e e0bf c006 8469 4875 d23f
000003e0: 89ff 1865 3ede e73f 2f13 2a31 912c ccbf
000003f0: 4373 1753 8d18 a63f 11ac fe19 6c51 e13f
00000400: 9634 4063 5753 cfbf 7ca0 4751 16f7 c83f
00000410: b72e 16d1 8d4f d4bf e07f 9952 92f1 d73f
00000420: bddb 6403 b5a1 f0bf dd40 99ea 185b f4bf
00000430: 4dd1 390e 8b87 d0bf b4e8 7810 a5db 9fbf
00000440: 765f ebe1 3251 c9bf c23f 5658 fb2c f5bf
00000450: 982a 3946 3563 f4bf 18f6 b932 b1ab bdbf
00000460: ba9d cceb 4bdf fbbf 86a3 7cf2 b9a9 e0bf
00000470: ac68 c237 6673 ab3f ae6d d77a af95 e1bf
00000480: 6545 333a abd5 80bf 8e05 2414 6414 d93f
00000490: 8ad1 c5cd f64b d4bf 9aae fee2 c7dd ccbf
000004a0: bc32 14a2 03a0 fa3f 9935 7ec5 6ec6 f43f
000004b0: 72d1 1c16 83c4 f53f a016 da94 db9c e5bf
000004c0: 458c e125 34f5 ffbf 17a0 5257 6939 86bf
000004d0: 5fc3 e3b2 ca77 e7bf 19e3 c11f 2527 c43f
000004e0: ffca ab9c 87b6 f0bf ef9b 1850 33ac e33f
000004f0: c6ae 5c27 3b56 b3bf 5057 51c8 1cb3 d43f
00000500: dd65 678d 270a 9ebf 86bf f5b9 ee35 d83f
00000510: b125 2096 9225 e2bf 21d7 476d 9c8e c23f
00000520: f806 35fe 8c48 eebf 69ef b892 c30e b13f
00000530: 06e3 e059 30d5 e0bf d74f 4c9b 46cf c63f
00000540: d17c d1b8 4f8b fa3f a5ef d2ee d7a3 b93f
00000550: c6ac 461a b97e d03f c98b f79b 8eb6 e3bf
00000560: 68cf 7249 2a90 e5bf 33cb 83b8 6418 923f
00000570: 7b41 6481 42cf c1bf 42b3 c586 a7c8 c1bf
00000580: fbce d62e e45e dabf 246e fc33 f3db e4bf
00000590: ea59 c91d 0dde e1bf 9af1 7bea ed9c b2bf
000005a0: d16a 58a0 6142 adbf f972 85dc d4ee dcbf
000005b0: 1e6c ee56 a995 e4bf 4aef c3de 4630 dd3f
000005c0: 8ff9 c67a 7faa b4bf 53ea 663c 7cfd e73f
000005d0: 331a 0e6c 3c76 d7bf a635 1617 71bd c53f
000005e0: 73c7 8678 87d5 953f 288d dc2e c8aa c73f
000005f0: 1f8f 7241 b7a6 d0bf bb17 3699 327d ebbf
00000600: f6de 8f98 cb57 923f 4abc d5d6 04b5 acbf
00000610: efe2 32fb f6fc cabf 7dea 9015 21aa d13f
00000620: a5ca a5e4 7178 f3bf 3d9a b285 e570 f1bf
00000630: 07a6 0a6f 6c2d d33f e9fe 7f4d 9b78 ca3f
00000640: 08a3 ca34 7cdb f63f a075 4fef 71e6 fbbf
00000650: 9ab0 1976 1dcc d83f daf8 bb8a d945 ebbf
00000660: 9e31 d8ba fc1f fabf 8c6c fdb0 e6f8 c43f
00000670: ba74 903d f5cc 97bf 0a69 a4d1 0c29 debf
00000680: d8b6 7165 b429 cf3f 69a1 2fe7 8de3 f5bf
00000690: 7459 8495 b9f5 bebf 8e1b ddcd ce1c b43f
000006a0: ed33 6fc5 bf68 e53f 23d1 a961 4a2f c03f
000006b0: df1d bc5d 74c1 d13f 3610 2a8c 28d9 b23f
000006c0: 06af 2de0 a194 ebbf 5841 babe a033 dcbf
000006d0: 8c69 1dd9 2ada cdbf 1255 1b0c dc80 fd3f
000006e0: cf4d 779c fe67 f33f 6035 d6f5 ff48 fcbf
000006f0: 52c6 4c57 fd07 e23f 0984 4a86 1fc4 ef3f
00000700: 29fd 29a7 955f fc3f ff22 b435 ba7d ec3f
00000710: 3855 c922 e681 0040 4f17 b419 02bd f6bf
00000720: 1c33 9e91 36da e3bf 13f2 530c b8c8 e33f
00000730: 2da3 2380 d4a7 f9bf db33 dd7f 915f fdbf
00000740: 067f 87c2 f414 edbf 7b0f 880f e032 e9bf
00000750: 32f8 c982 e28c ccbf cf32 a858 3939 c33f
00000760: 3ed0 2f18 29cf f9bf 3836 bc3b cc52 edbf
00000770: 4be3 8ea2 9184 e2bf b45c d40a 427f d13f
00000780: 62cb a137 736a f83f 60d1 691e 93a7 b63f
00000790: c30a 9dc7 bc2d f13f 735b ff89 e586 f3bf
000007a0: 017d 56d6 cc55 f9bf 64ee 8bd5 59f9 edbf
000007b0: 3ad6 48d4 4980 edbf f0b2 a75a d524 f4bf
000007c0: eddb 8076 f073 dfbf 289a da98 81d1 babf
000007d0: 36be 0854 c7c4 c4bf e1d7 c09e 8f26 ee3f
000007e0: e78a 8e95 d0dd eb3f ae94 cc6b 16a1 d3bf
000007f0: 10dc 2851 c3d5 e03f 45ef ac0f 624c e73f

lstm.bias_ih_l1 f8 [32]
-0.457381907108172 -0.17851077494370762 -0.246017839773017 0.7839229626112897 1.5937232132755117 -0.5257553000793715 0.8594198001771126 -1.3142395577705999
-0.5506540089549613 0.062454962383625766 0.0399611638292929 1.2349548398752381 -0.8081005388798697 -0.3491614278805921 0.11899536662730163 -0.6529208329544632
-0.06801497564929201 0.003441018287147145 -0.07966656773130663 -0.4555845038065559 -0.020535911204375173 0.22862361305372889 0.18092503682380495 -0.14934847571680032
-0.3382184633599512 0.8356959134384351 0.3765583025091642 -1.932831845050259 1.9688113464335855 -0.6913986512074597 1.6447423907263021 -0.9432322748510718
00000000: 09f3 33c3 be45 ddbf a1f4 2eea 70d9 c6bf
00000010: ee61 0738 837d cfbf 27f7 df9b e515 e93f
00000020: 484f 7ee9 e37f f93f 2244 71c7 fcd2 e0bf
00000030: 2d75 e9f3 5d80 eb3f 67bf fb0e 2007 f5bf
00000040: 63ee fb27 f59e e1bf eb37 d2c9 18fa af3f
00000050: db89 8327 ca75 a43f 29d1 9401 60c2 f33f
00000060: fcce 4ba9 f5db e9bf 4465 712c a958 d6bf
00000070: b32f 0af8 7a76 be3f f553 0d3b bae4 e4bf
00000080: 4e4c 0df0 6d69 b1bf e475 43a0 5630 6c3f
00000090: 6f93 fd36 0765 b4bf 8677 1ae8 4b28 ddbf
000000a0: 68be 10ac 5d07 95bf 2f5e 94de 8943 cd3f
000000b0: 8ac9 1736 8d28 c73f 2c9f 74d1 d91d c3bf
000000c0: 0833 c20d 5fa5 d5bf 3dce 335b 05be ea3f
000000d0: ca1a 94fe 8719 d83f ff87 b215 e1ec febf
000000e0: ccd0 8e53 4080 ff3f d6e7 6d10 f01f e6bf
000000f0: a93a a865 dd50 fa3f 908b a073 f52e eebf

lstm.bias_hh_l1 f8 [32]
0.04373086636568263 -0.2208587864921125 -0.3316108950420503 0.3020168605405998 1.669888880544869 -0.2654276038076226 1.0223055202569584 -0.9878383407254472
-0.31505141549608306 -0.19691244287386062 -0.11121485645467251 1.0192771386870045 -0.46858183724619074 -0.8709444123061176 0.1785023255571916 -0.9546428932802152
0.24429117511434686 0.03745797144704777 -0.11007332446047387 -0.6905199929525986 -0.1936772749778853 0.21293767209320785 -0.18738645891635536 0.06851320179524935
-0.47325889312555036 0.7448091567191277 0.1203134177877505 -1.9361192571807093 2.1587498274159955 -0.41028941449972 1.658136614734219 -0.9929763034986406
00000000: a892 bb61 e463 a63f 8e49 82c8 1945 ccbf
00000010: 3afc 4ce7 1c39 d5bf b132 b786 3e54 d33f
00000020: e74e 1e67 ddb7 fa3f f3cc 730f c4fc d0bf
00000030: e761 8008 5d5b f03f 8ad2 e426 5f9c efbf
00000040: cc4e 8769 cd29 d4bf 26cb 284b 6d34 c9bf
00000050: e559 4dab 9378 bcbf cb89 838b f54e f03f
00000060: fc34 9eac 3efd ddbf 8ea3 efd0 c6de ebbf
00000070: 3898 4309 2ad9 c63f 3bea bf40 6f8c eebf
00000080: c9a4 e8e7 ee44 cf3f 61dc adf4 b02d a33f
00000090: 5d40 b8f0 c32d bcbf e1e5 5e62 bd18 e6bf
000000a0: cb13 01bd 6aca c8bf 7e04 dda8 8a41 cb3f
000000b0: b626 618c 47fc c7bf 490a 0ec9 148a b13f
000000c0: 48fc 20ab df49 debf fad6 3b03 7ad5 e73f
000000d0: 7f1a ab32 dccc be3f 8cf3 ab2f 58fa febf
000000e0: 90fa 27a1 1e45 0140 58f6 4a88 2e42 dabf
000000f0: 8456 4942 ba87 fa3f 2559 a73d 76c6 efbf
