Trained_NNs_exp/LSTM_derivative_2_exp0.pth (torch, 15613 bytes, 14 tensors)

lstm.weight_ih_l0 f8 [32, 3]
0	0xbdb5383e0aa73ece	-1.9299201703605068e-11
1	0x3eb01c9a6400ed6b	9.603339918968697e-07
2	0xbf00745ab7f9cbc4	-3.1384485734607263e-05
3	0xbbd127e529101821	-1.4531562107655717e-20
4	0xbc6c37d7896eb104	-1.2237664259233193e-17
5	0xbc0d0b0fc77a1cf3	-1.9680444287038527e-19
6	0xbb42fde653c74430	-3.141929050885727e-23
7	0xbdaded0e9462e3fc	-1.3608770913178457e-11
8	0xbead19a7fd5c61e3	-8.672541251557473e-07
9	0xbc75b80c7e0b5d0c	-1.8838178081955407e-17
10	0xbd52cd71439e81fc	-2.671997311208077e-13
11	0xbe2a08c536fe082c	-3.0307866701905786e-09
12	0x3d45bbabfd356b99	1.5442291424493745e-13
13	0xbd3d1bd0edeb52c7	-1.034147230399764e-13
14	0xbd02c8d03f01de74	-8.34196160311008e-15
15	0xbcb6549e33091fb7	-3.098984809134658e-16
16	0xbe542bced1388cff	-1.8785823631178946e-08
17	0x3e2c3686c7a08abc	3.284424785109908e-09
18	0x3cd2a2ca6f82b9e7	1.0345003421643049e-15
19	0x3e51d9ed059ff820	1.6625293454413095e-08
20	0x3c93922967982e67	6.790035299666387e-17
21	0x3a1f94995f566a3e	9.965037770376819e-29
22	0x3d7b6815ae178b85	1.5578837525970642e-12
23	0x3e5125a07f65dcd4	1.59693697930841e-08
24	0x3c8f657af06a8173	5.446408454820957e-17
25	0x3abf604d7248d18c	1.0138191105525299e-25
26	0x3a57c9395d257cb5	1.2008877044777715e-27
27	0xbce1a492ba714bea	-1.958751371771812e-15
28	0x3bc662a74961c8e3	9.48057088448453e-21
29	0x3bca1bcab3974137	1.1057405995298088e-20
30	0x3ea0400f49ce1285	4.842946911142755e-07
31	0x3ddd04f227ebaf39	1.055716711795279e-10
32	0xbe9fd312a7480ec6	-4.7422205476397343e-07
33	0x3e80bae2ad805503	1.2464837229111277e-07
34	0xbde88007728c2201	-1.7826178838062448e-10
35	0x3ea9dc9ef9d33818	7.707417243542286e-07
36	0x3e3a9d8a468e2986	6.1968786568184095e-09
37	0x3d55b404b0b0191d	3.084209732630649e-13
38	0xb9b20120acea62cd	-8.876856936455713e-31
39	0x3e804a40ed44d375	1.2137035433073055e-07
40	0x3e56094fab12bb0a	2.052297060479527e-08
41	0x3e52c9aa33bdce17	1.7497458800831752e-08
42	0xbb502e986004ade3	-5.354178824381873e-23
43	0x3bb681ac31374b6f	4.7659438920852385e-21
44	0xbc77f483e1179cab	-2.0777769537813156e-17
45	0xbc8cbf4db84a16de	-4.986858089886303e-17
46	0x3a0db57257d962d0	4.6872183838074205e-29
47	0xb9fdeb0f90aa4ac2	-2.3601303268556395e-29
48	0xbc574c5f54b3f4e8	-5.052019920817461e-18
49	0xbdad974b5adacb9c	-1.3456425938120437e-11
50	0x3def1e2688f00e7e	2.264116155573618e-10
51	0x3ee6a573a314127d	1.079859530018459e-05
52	0x3cf6ddca33fb1a03	5.077353343028536e-15
53	0xbe8a6060e4d842ed	-1.9652007880778087e-07
54	0xbd4597e9a2e88718	-1.5343039733255347e-13
55	0x3de8a1bcbbff550b	1.792198316824323e-10
56	0xbde3a802242a903f	-1.4301827958301448e-10
57	0xbd21f22f517356a0	-3.1878561156013904e-14
58	0xbee04924a2d623f2	-7.76563418970926e-06
59	0xbe204461451291a2	-1.8937407549916482e-09
60	0xbd02224f4a0309e0	-8.053123659384875e-15
61	0xbd6e67c5e3fb028b	-8.641724014109537e-13
62	0xbc9555aa9e95a9a3	-7.401938331888704e-17
63	0x3d2e207535372090	5.3515926712680415e-14
64	0x3ef2ba01d4741911	1.785906831932536e-05
65	0x3be94e322d88e539	4.286910513248975e-20
66	0xbd00f45927dfa5af	-7.529304028643771e-15
67	0xbdebbca4ade596ba	-2.0181242002920116e-10
68	0xbd7df3c9a1fdb2ef	-1.7025908745164465e-12
69	0x3d8eba4d71221c23	3.493340065008909e-12
70	0x3d0492fb99b23e24	9.136758734958099e-15
71	0x3d87a08bcdd365b2	2.6860940624660115e-12
72	0x3aaef1bc514be082	4.9993180228421273e-26
73	0x3db0376a3213a851	1.4748788240876573e-11
74	0xbaa13c8ba9bfb777	-2.784707747146171e-26
75	0xbb941f230eaeafbc	-1.065230152919392e-21
76	0xbbb6cccba1dc6834	-4.828084026208428e-21
77	0xbd2152d5a74933d4	-3.0772846658581735e-14
78	0x3e3ff1ca47d94b93	7.437656821662883e-09
79	0xbdb880f2803a9e09	-2.2285985569392838e-11
80	0x3e35b340c735bf8f	5.052473206617533e-09
81	0x3cb1c1b40f234d1d	2.464230727017309e-16
82	0x3aeab75ce4a5786e	6.905991654303829e-25
83	0x3eb46e0ec978c8e2	1.2177177150072368e-06
84	0xbcf59b4471d9f920	-4.797609672587008e-15
85	0xbd32444a7157e360	-6.489657133875876e-14
86	0x3d50a1ca6339abf4	2.363548566063144e-13
87	0x3e837d5ea25adaac	1.4520976881144917e-07
88	0x3e6669141ed0a353	4.17427406879103e-08
89	0x3e403c500825bcba	7.56028862146127e-09
90	0x3cb928ab4cb0879d	3.4914937363495245e-16
91	0xbb42f16695343610	-3.133851760362151e-23
92	0xbcb3e163a7ca34b7	-2.75896345646906e-16
93	0x3ecfe10ed925b00e	3.8002887744938905e-06
94	0x3ef629fc6083dec1	2.113724443206125e-05
95	0x3d322ab54a361119	6.454154105083074e-14

lstm.weight_hh_l0 f8 [32, 8]
0	0x39462b2a285dd11a	8.539038744955513e-33
1	0x3eb24f669736d123	1.0913705324857712e-06
2	0x3e71bdcdd27ac4ce	6.60919466887323e-08
3	0x3a5a14e0ca39a4b1	1.3167820226861185e-27
4	0x3db1b5f1595bb53a	1.6107800496983928e-11
5	0xb93b39ec06d5a8ca	-5.243586503887957e-33
6	0x3dc89614b227aacf	4.472213421585141e-11
7	0xb9a05262daf9f642	-4.0236395064225716e-31
8	0xbeccdb14f2fa3a7f	-3.4398780355889974e-06
9	0x3ec4eaf3c17db0e2	2.4935939215068023e-06
10	0x3dc49bc0d2b143cb	3.748648122518368e-11
11	0xbf00db0f5b966500	-3.214970224547399e-05
12	0x3d632e3f6f1b8cb3	5.451470152093208e-13
13	0xbaba55548e5d4cbf	-8.508755073166603e-26
14	0xbe81c6fce27437b7	-1.3245117822701109e-07
15	0xba68d3de0c4062cf	-2.506947645233968e-27
16	0xbde021572a6b26c7	-1.1736291557457054e-10
17	0x3e6251199487e3b1	3.411769228587525e-08
18	0xba2ab65d8c14c20e	-1.6857872295130446e-28
19	0xbeb5e9ea64102a86	-1.3061602575104873e-06
20	0x3d87dd274d226934	2.7130091598727414e-12
21	0xb9c1eaa822b0d2c0	-1.7667159271908757e-30
22	0x3ed3c13d9a827075	4.7099223722501685e-06
23	0x3d78d25e1043804b	1.4109530068004987e-12
24	0xb921caa92aa3bbd0	-1.713272975487127e-33
25	0x3e598874e60dae92	2.3779490712829975e-08
26	0x3d2a8c2587992da1	4.715774021499709e-14
27	0x3e1f27e0e452c6cb	1.8135048057815248e-09
28	0x38b4eccebee22f49	1.5742242681050197e-35
29	0x3da9dfefb7c8ae8b	1.1766474724463845e-11
30	0x3ed565d31a59f063	5.101621729172113e-06
31	0xb9756c012d42de32	-6.60113041768166e-32
32	0x3b5bda90414b3369	9.216037313626057e-23
33	0xba149e0b7daa0d5c	-6.505692604300165e-29
34	0x3efd4df8e5c57578	2.7947024464727047e-05
35	0x38d507eb209864ce	6.328765742205539e-35
36	0x38c3a4e26c07036c	2.9557126373437175e-35
37	0xbdc554fc80c5741f	-3.880264173896927e-11
38	0xb8cb94ae5c44e9e4	-4.149895370309712e-35
39	0x38f3e83a6ef79f82	2.396235010042866e-34
40	0x38bc9613e53beb49	2.1505897536807837e-35
41	0xb9a84af6439d5b52	-5.988642539761235e-31
42	0x38d026febf6cf564	4.860663390629202e-35
43	0xbeadcf4619efe2f8	-8.883971992493702e-07
44	0x3892707719bad804	3.468050136618777e-36
45	0x39c5db6b44d79050	2.155277008092785e-30
46	0x3ef16ab87942ef79	1.6610028595861568e-05
47	0xbcc1f0ab53c21b6c	-4.979381974887034e-16
48	0x394162173e08ccb2	6.695752428373459e-33
49	0x3a4e790887e556e0	7.692412761649096e-28
50	0xbe936eb581f680b3	-2.895661754490864e-07
51	0x3a2d69e737ac0415	1.8562644528884415e-28
52	0xb8c1f75a25d35e5b	-2.7032562288144435e-35
53	0xbe8cbac72e534e3c	-2.140522134321421e-07
54	0xbe446f95b8e09ecc	-9.516197410003953e-09
55	0x3ca3ad61d0f77db0	1.3653851527134953e-16
56	0x3de609715cc794e5	1.6033944865383163e-10
57	0xbe18411566e110c1	-1.4117821595076362e-09
58	0x3db216228954c702	1.6449543622368974e-11
59	0x3dcf57f780670947	5.701371323863525e-11
60	0x37c99fdf475be82f	5.8830968420143466e-40
61	0x3dce8731fb2837b6	5.553030205336435e-11
62	0x389844d821477c10	4.564477079739745e-36
63	0xb813c4e25b4b15d9	-1.4524025375392237e-38
64	0xbe49d64372d2ce38	-1.2031275165676457e-08
65	0x3ea69d1907144749	6.739396793151057e-07
66	0x3934ec338ad7e47f	4.029558024895666e-33
67	0xb949241676e086d1	-9.683948535284042e-33
68	0x3df1a936b769dbd3	2.5700124616424023e-10
69	0xbddd350beca7501f	-1.0625522264429107e-10
70	0xbe934185427204e2	-2.8693586035667363e-07
71	0x3d845f9cf1204f60	2.3161974801650914e-12
72	0x3cd8db5536b7ba1b	1.3798278635511974e-15
73	0x3dbcfd3bf8798e3e	2.6365520469706524e-11
74	0x3d802aadd513529c	1.8379427013765126e-12
75	0x3e01c117d53f79d6	5.167172614228014e-10
76	0x393a64900bce2961	5.0830728073441504e-33
77	0xbe1aee2b64fffb32	-1.5675526605915767e-09
78	0xbe03d40dfa4a79b6	-5.770805956201852e-10
79	0x39b8965c397a0b41	1.2122496890136436e-30
80	0x3e9dd6e1643d5b4e	4.4464136216475443e-07
81	0x3e6187f9110b1f50	3.265430071269188e-08
82	0x3cf00d388e2d294e	3.564180998463674e-15
83	0x3eb9921cafcf0057	1.5241354838074945e-06
84	0xbddccf0c50ecdf4b	-1.048057372063029e-10
85	0x3d71a01fd0847e23	1.0018928521205576e-12
86	0xbdb95efba77910f2	-2.3074815033595118e-11
87	0xbed009dd77577596	-3.823884858059585e-06
88	0x393a36141949c201	5.0481020051821135e-33
89	0x3da6129243644c21	1.0037431047779423e-11
90	0x3efdd49205e822c9	2.844844163444013e-05
91	0x3e6ccfd6f9a638c9	5.366629736706141e-08
92	0xb8f2823e7d4ffc50	-2.227911668766326e-34
93	0xbed15ef5bd86476c	-4.1415541648536775e-06
94	0x39805dde85f26773	1.0086743269696402e-31
95	0xbda6ae5a842c5457	-1.0314155892569938e-11
96	0x38d3ac8a916df013	5.920425824177263e-35
97	0xbe00904377796500	-4.820621531714069e-10
98	0xbe8751d9cd77b856	-1.737455252859983e-07
99	0x38d6b0aac35a082c	6.828055295242235e-35
100	0xb8678041c4de1056	-5.525059383629583e-37
101	0xbb34751f9ec73656	-1.6922058743768742e-23
102	0x38ddab2b1222b348	8.928077366102455e-35
103	0x38d3fa4a0b5c92df	6.011818105229957e-35
104	0xbdc2b293bf55e90d	-3.401067614773984e-11
105	0xbd9549ca64ee65bb	-4.840386405103645e-12
106	0x38d13e61415a1b39	5.189078638879559e-35
107	0xb9e9df209d13b103	-1.0204543503196405e-29
108	0x3dba8d0e2d57cd77	2.4147991621884125e-11
109	0x3dd442a203b62980	7.370648616435567e-11
110	0xba2fcba5fb3e32b6	-2.0065782429144605e-28
111	0xbc8f45be54b54559	-5.424902795890088e-17
112	0xbc118bb3b386a7c3	-2.3778872173479893e-19
113	0x3e10d8850b8a42a8	9.805534562787307e-10
114	0x3e9203aff811c0d5	2.684355351950428e-07
115	0x3a245ef5ed16d52b	1.2855870556930854e-28
116	0xbeb58172c34cae61	-1.2818370695538868e-06
117	0x3e607b2151602a63	3.0698212125162746e-08
118	0x3e21c1d3cd62a4e3	2.0672029462190966e-09
119	0x3cd1f8252835e514	9.97497471951185e-16
120	0x3ea001e63934c7c1	4.770582670342325e-07
121	0xbdd5229242668939	-7.688884303564267e-11
122	0xb84bf0e5ba006e09	-1.6422246972174822e-37
123	0xbcc181b25c9f7519	-4.859065326547623e-16
124	0xb7d3f74c4179245a	-9.167940942850096e-40
125	0xbde2d4f6bd0bfdc1	-1.3702003292695126e-10
126	0x3df5374505e0277e	3.0873193400706104e-10
127	0xb891a76d04d3494f	-3.320349725856389e-36
128	0xbbd573407651c8b6	-1.8169028128333865e-20
129	0x3e11433792cc04f1	1.004813630900958e-09
130	0x3c7826e0b3a3ff81	2.0948404622221977e-17
131	0x3d4346e011e328d1	1.3697030379176055e-13
132	0xbe12e453bb99eaa4	-1.0996534641248438e-09
133	0x3e1d550305249a95	1.7073516112817979e-09
134	0xbb0e31729f9b16c5	-3.121899083397215e-24
135	0xbee5d18c561b328f	-1.040389423980742e-05
136	0xbc84dfbc4351f943	-3.621055957674947e-17
137	0x3ba933915e15779f	2.668305919676815e-21
138	0x3ec7707b164cfd32	2.794191617999349e-06
139	0xbc03f2bf9e836735	-1.351745076063984e-19
140	0x3e2e0bcc9091b5c9	3.4978252556132355e-09
141	0xbc171fdd7aa7ce1c	-3.1339505173404603e-19
142	0x3b747935e16705a7	2.7096423047532813e-22
143	0x3cdfff2e7c3485ee	1.7761793734417569e-15
144	0x3b3b3065e11ec168	2.249025880228805e-23
145	0xbdcc203820e40919	-5.116063485298545e-11
146	0x3e485bcd2f3f5daf	1.1342856855098927e-08
147	0xbf0056dc7958162a	-3.1164744694261594e-05
148	0x3d51507be58bb8a3	2.4605228806322155e-13
149	0x3d057e3efa2efcd1	9.544875315469531e-15
150	0x3e9e0142e9e019b0	4.4710825786199845e-07
151	0x3d9588f2bec7c013	4.896481641104315e-12
152	0x3bf0fb29b41c7a5e	5.753422198778354e-20
153	0xbb1236bd595b7254	-3.7665310893607624e-24
154	0xbd61835a279eaef5	-4.977520803363159e-13
155	0x3ec803374ab86cc8	2.8625205084183127e-06
156	0xbd361ed5cc84d336	-7.858762462953303e-14
157	0x3c2e1af6c74854c5	8.160065516163621e-19
158	0x3c81bc8182963e62	3.07676647482127e-17
159	0xbea83ef04a2166e5	-7.225827583043488e-07
160	0xbe30c96fc076a50a	-3.90849575570362e-09
161	0xbe60ed3aac67cd13	-3.152839194225631e-08
162	0x3e2ca8dce5e5cdab	3.3364189598433062e-09
163	0xbe160e3214a5910c	-1.283796252106258e-09
164	0xbe93b8e6b9b2f125	-2.9388473317037273e-07
165	0xbde424c70beb14f5	-1.4656443243008683e-10
166	0x3e003ad435f66e14	4.723493644183e-10
167	0x3dbc2bebaf53d915	2.5621889122489758e-11
168	0x3e83521c1b28ee11	1.439507407318719e-07
169	0xbeda330c36e0a1e4	-6.2464249435474564e-06
170	0xbe25f8c7ce30838d	-2.55785402712363e-09
171	0x3bfb1af62fbb2fd0	9.183639297944323e-20
172	0xbe8701d063f35108	-1.7141614880886955e-07
173	0xbe99e77178470d2b	-3.86000799570447e-07
174	0xbea123e8d3a3cc14	-5.108198941880331e-07
175	0xbd70b9f0952c4ae8	-9.507816259190205e-13
176	0x3bf3f022539c5da1	6.755265218739946e-20
177	0x3d051bcc4de967fc	9.374095360779271e-15
178	0xbacc4a448cf3ea2c	-1.8282054123027308e-25
179	0xbd55c987812ce16e	-3.096150732911296e-13
180	0x3c76f77853066e91	1.9920419266706568e-17
181	0x3cfb10b5b57595aa	6.0096977742315085e-15
182	0x3cceea4cf8081254	8.580701968907692e-16
183	0xbd4305681cae56b6	-1.351531855219715e-13
184	0x3bc4655b850a050d	8.638011388375486e-21
185	0x3c88c0f7ee81a84e	4.294096872697904e-17
186	0x3a39955fef24e8de	3.2290910551483065e-28
187	0xbb75e22c7b29345f	-2.8962559485622796e-22
188	0x3ed12c7295396bc9	4.094510888198512e-06
189	0xbc92ab5612294fe0	-6.477208383662865e-17
190	0xbe55ece53a153511	-2.0419594575373844e-08
191	0xbe98a6f6abeb747a	-3.6734642698354673e-07
192	0xbe36ebdd316b9dd8	-5.336791250870294e-09
193	0x3b344baf33519754	1.6788161661887082e-23
194	0x3ea2d67b31afacd9	5.614107040341153e-07
195	0xbef312464b9eaefa	-1.818789016964828e-05
196	0xb91020023e048f62	-7.763921561814372e-34
197	0x3953894767a608f3	1.505017631636158e-32
198	0x3dc88611a249439a	4.460836239090829e-11
199	0xb9509779c6b422f6	-1.27817822125212e-32
200	0xb9bb97a68e508825	-1.3604096224654905e-30
201	0xbe3c0b89133f056f	-6.529749452896203e-09
202	0x3dc4c7066dcd9f7d	3.779394655342183e-11
203	0x3f0394a1fa8c4a12	3.734702415249617e-05
204	0x3df63765656f4285	3.2329103754701115e-10
205	0x3b47fb662230af13	3.9674935873273314e-23
206	0xbd47bd7fdaa7661d	-1.6868449498729694e-13
207	0x39c1a134f11f928d	1.7384240259034708e-30
208	0x3d95bfedb6d9acf3	4.945313999481802e-12
209	0x3b6156866f2b3f1b	1.147331855941064e-22
210	0x3dac40f96af6e691	1.2848343346402065e-11
211	0x3ebbf4eb2a6c7836	1.6663499679613e-06
212	0xbea278462a85fa9f	-5.504435494489631e-07
213	0x3d9e2603f48953f6	6.854974765673131e-12
214	0x3da0a0b316f59e82	7.561417392813402e-12
215	0x3ebf1dcf7f9dbc7e	1.8546847954900067e-06
216	0x3923859c42a6e7a2	1.879892090700838e-33
217	0xbdc1720390841b67	-3.173293751423371e-11
218	0x3935d835c43464a2	4.207111227591396e-33
219	0xbc4fe8615c878891	-3.4594436275828087e-18
220	0xbd836f3e5bfea9fe	-2.2094519952404585e-12
221	0xbdc164ed12a3aef1	-3.1639942688347076e-11
222	0xbe698139d793cbc8	-4.750637123433246e-08
223	0xbd42f727a1d4c696	-1.3475761654051123e-13
224	0xb8f2f44ce04c156e	-2.2815406352835582e-34
225	0x3b837266e0a4856f	5.147546880566616e-22
226	0xbcff38abfe4af839	-6.932537746077091e-15
227	0xb8b42c6fe603deb1	-1.517691660085948e-35
228	0x3ddf06a0bbb140f3	1.128715306316323e-10
229	0xbdcb931301fed5cb	-5.015773928958926e-11
230	0xb8db7b9b7eb2f427	-8.270316755682559e-35
231	0xb8eb73e5a784d16b	-1.6522506648761413e-34
232	0x3db6890d1955c688	2.049578699765798e-11
233	0x3d32469347008d86	6.49282752862159e-14
234	0x3e8a247c8eaa3164	1.947769939402449e-07
235	0xb9ec5ac1cbd23318	-1.1183885997398602e-29
236	0xbdb8704aa8e769f1	-2.2226812887175746e-11
237	0xb9bbf95e476e64d0	-1.379229360833351e-30
238	0xbdd2557bfb1bd13d	-6.669842350055571e-11
239	0xbc8058f2fbbfd94b	-2.8358318527438384e-17
240	0x39286ad52de79646	2.3513019404951746e-33
241	0x3a60a216b5489abb	1.6795198546436018e-27
242	0x3c7a67ff60324f47	2.2903762632110114e-17
243	0xb9b6d3c997cf3ca7	-1.1254725282268323e-30
244	0xb8ab93c22076a92e	-1.0373382511316344e-35
245	0x3ec36f235fc8cf95	2.316729249574347e-06
246	0xb9ae0af2eff99c10	-7.406114465110461e-31
247	0x39199d3e6821eb10	1.2332804825863715e-33
248	0x38124785a7f5fcf2	1.3429569790521646e-38
249	0xbe31fa89da9be7fb	-4.185984373142444e-09
250	0xb80cf36063fbee4e	-1.0634803756961014e-38
251	0x3dc56ad8aa750d35	3.895796645971188e-11
252	0x37948f16832df5e4	5.900125637379606e-41
253	0x3dcd97821faa96c5	5.3827223891931583e-11
254	0x3dad43baa6e9605b	1.3307984242362105e-11
255	0xbb3680fd84e72ac1	-1.8614763644011072e-23

lstm.bias_ih_l0 f8 [32]
0	0xbe8aa0ff5a1bb6a9	-1.984007385528201e-07
1	0xbd70e7e67a61e973	-9.609869133582794e-13
2	0x3e478344c300e44f	1.0948985801436764e-08
3	0x3cb5046cc3570830	2.916734158696115e-16
4	0x3e3720c01e0dbd13	5.3848911726004685e-09
5	0x3e5545cc7fc8eca9	1.981170071246103e-08
6	0xbd283d20c5f170e6	-4.305672499352633e-14
7	0x3a079391e83c1730	3.7197071673279443e-29
8	0xbeeea9e417e00ed8	-1.4621561373224566e-05
9	0xbc0de88f4dca18e3	-2.0266744990294625e-19
10	0x3e4876fbab51b5ed	1.1392299862333428e-08
11	0x3e62bceb1dc3b65f	3.4902175123863345e-08
12	0x3d44accd5375b00a	1.4690476764900936e-13
13	0xbe5435b743a30fad	-1.8821868710103714e-08
14	0xbe4fb44f51879feb	-1.4763481590845504e-08
15	0xba304553f47b7483	-2.0536652353688288e-28
16	0x3d7b1f7beeca539d	1.5417631865414012e-12
17	0x3ddd1cb129447dd3	1.0590912375992564e-10
18	0x3d8759e5fea61eca	2.6547201845179387e-12
19	0xbce58a4626a5841c	-2.39143515198804e-15
20	0xbc6845ae7e212ff2	-1.0526386098369331e-17
21	0x3d5e8caddaec4a34	4.3413490145860426e-13
22	0xbcd5351b84cec816	-1.1772500281982894e-15
23	0x3d9ca7a71c4be4dd	6.51536848962995e-12
24	0x3e9e968a5edbc10b	4.557974467708575e-07
25	0xbd82b473c7a8f58f	-2.1264999829106023e-12
26	0xbe308a11275c7b01	-3.850861509686219e-09
27	0x3db4ba3c2dc2e9b2	1.885153392771322e-11
28	0x3e38eeda44b13994	5.805170631593759e-09
29	0xbe6704072b04ce79	-4.2870145990778266e-08
30	0xbd1d84ad21bedc58	-2.6217487542634034e-14
31	0xbc3cf2f267ccefcf	-1.5693290478944443e-18

lstm.bias_hh_l0 f8 [32]
0	0xbe8aa0ff5a1bb6a9	-1.984007385528201e-07
1	0xbd70e7e67a61e973	-9.609869133582794e-13
2	0x3e478344c300e44f	1.0948985801436764e-08
3	0x3cb5046cc3570830	2.916734158696115e-16
4	0x3e3720c01e0dbd13	5.3848911726004685e-09
5	0x3e5545cc7fc8eca9	1.981170071246103e-08
6	0xbd283d20c5f170e6	-4.305672499352633e-14
7	0x3a079391e83c1730	3.7197071673279443e-29
8	0xbeeea9e417e00ed8	-1.4621561373224566e-05
9	0xbc0de88f4dca18e3	-2.0266744990294625e-19
10	0x3e4876fbab51b5ed	1.1392299862333428e-08
11	0x3e62bceb1dc3b65f	3.4902175123863345e-08
12	0x3d44accd5375b00a	1.4690476764900936e-13
13	0xbe5435b743a30fad	-1.8821868710103714e-08
14	0xbe4fb44f51879feb	-1.4763481590845504e-08
15	0xba304553f47b7483	-2.0536652353688288e-28
16	0x3d66d5cf8e6ce45b	6.490153711112297e-13
17	0x3e4c9c666289e5f0	1.332300588015769e-08
18	0xbd7338a341ea6f7f	-1.0926010595257409e-12
19	0xbe60b03ae505168a	-3.108456481325241e-08
20	0xbd29cedc6621a197	-4.584430705473944e-14
21	0x3cc972003bf5ca7e	7.062493943527569e-16
22	0x3e436dabd3e073d1	9.047055212673328e-09
23	0x3d9236ec2a6d52ce	4.141507157116321e-12
24	0x3e9e968a5edbc10b	4.557974467708575e-07
25	0xbd82b473c7a8f58f	-2.1264999829106023e-12
26	0xbe308a11275c7b01	-3.850861509686219e-09
27	0x3db4ba3c2dc2e9b2	1.885153392771322e-11
28	0x3e38eeda44b13994	5.805170631593759e-09
29	0xbe6704072b04ce79	-4.2870145990778266e-08
30	0xbd1d84ad21bedc58	-2.6217487542634034e-14
31	0xbc3cf2f267ccefcf	-1.5693290478944443e-18

lstm.weight_ih_l1 f8 [32, 8]
0	0x38f614713a59f3c8	2.657765595210936e-34
1	0x3ca3f435d204e6d8	1.3845831588155797e-16
2	0xbebf1ea68aade2d6	-1.8548803761548615e-06
3	0x3e13997e5b668d31	1.1408459572890825e-09
4	0x387bd36aac4a0fce	1.3083650123944719e-36
5	0x399080dd93d51c5c	2.034198762176786e-31
6	0x3d0025b5d1c39eef	7.170844182330425e-15
7	0xbdc69500728c27a8	-4.107648797355407e-11
8	0x3be34b6a05f8be58	3.2686301001957314e-20
9	0x3e0a5d6f8ea148f5	7.673220091091231e-10
10	0x3adbb91394c474f4	3.5831079573416866e-25
11	0xbe12f0e1a44bb746	-1.1025079887086636e-09
12	0xbe68cb7c375d03a4	-4.61840334157567e-08
13	0xbb8f478a5013addd	-8.2796025968415785e-22
14	0x3d6bc18c0ead5675	7.888741991818083e-13
15	0x3e6cb78ed015a5d7	5.3489623406628635e-08
16	0xbeb1f8118c3cfa36	-1.0710369204438767e-06
17	0x3c67be4e14353e98	1.0297049189889712e-17
18	0x3cb85fd8e7b1a521	3.382627991387284e-16
19	0x3d61a5d7aa9f51de	5.01581270655509e-13
20	0xbe6bea03ae7624bb	-5.199409774520025e-08
21	0xbd61743dda15e5b3	-4.960744713867975e-13
22	0xbe90b6a14ea346ef	-2.4904905039395785e-07
23	0x3e452564c76c6bf4	9.846905719244132e-09
24	0x3d95c9dd2a98669d	4.954138371718154e-12
25	0x3bf49df22de57dad	6.985303385455614e-20
26	0xbe418874c324d9be	-8.164454089019876e-09
27	0x3e8f9544c5263daf	2.3531228749956888e-07
28	0x3b916ddc0a7743a1	9.22690925758973e-22
29	0xbe230c604dd31f48	-2.2175191531962906e-09
30	0xb947bd37af868b33	-9.143980628347946e-33
31	0xb8ba6e0aa6659974	-1.9883609200023023e-35
32	0xbe150340417882bf	-1.2231000707752828e-09
33	0xbea0286628eabd88	-4.815402279891048e-07
34	0xbdd2e3f0edfe470d	-6.872285683086162e-11
35	0x3a614fbec2d82eef	1.748015249546173e-27
36	0xb9c084b398ddb409	-1.628836588705271e-30
37	0xbda78786a4fba9b9	-1.0699931527365594e-11
38	0x3bff6760604644dd	1.0640026163517402e-19
39	0x3cd84e3345b17dd1	1.3492246127171442e-15
40	0xbc7cbe09d98065e3	-2.4930004062163602e-17
41	0x3a758e8459201e49	4.3533423042225246e-27
42	0xbdd1748d5db729b6	-6.350194626115161e-11
43	0xbe32e6b375ffdec9	-4.40077294049786e-09
44	0xbc9681f213bf3b86	-7.808892440302391e-17
45	0x3dc404dd986c58ae	3.6414360288318097e-11
46	0x3a126b40179a5c67	5.811994792896597e-29
47	0xbbb07243bb17d7b8	-3.48264922897155e-21
48	0x3e2c19b8750c6eb4	3.2713253567723546e-09
49	0x3e1499b7240ee2d3	1.1991040523648014e-09
50	0xbe65792df4435b0d	-3.9997245100743325e-08
51	0x3e9a7333c7500f54	3.9413584512780443e-07
52	0x3e81fc42adba8875	1.3400161590510814e-07
53	0x39d3c8d7c59b3130	3.901813010291422e-30
54	0xbee0486a79cb2367	-7.764279695081454e-06
55	0xbe49e0ca2fdd4abb	-1.205042243391856e-08
56	0xba715e509a83968c	-3.507523963540313e-27
57	0x3e8001d27b107ebd	1.1926232226874672e-07
58	0xbdee7d0fa85e8843	-2.218331804573701e-10
59	0x3de8c609a7316557	1.8025155291672934e-10
60	0xba92b26f036b1bcb	-1.510332151477317e-26
61	0x3db942400decde0c	2.2972735580433768e-11
62	0xbd914757ea246ea2	-3.928718165438531e-12
63	0xbdc2c7f7568a75d3	-3.416265431794396e-11
64	0xb8d96e04327cf966	-7.652487496539649e-35
65	0xb9c18c0413e0095b	-1.730261597384159e-30
66	0xbeccf45e8b1221dd	-3.4516534346865712e-06
67	0x39cc4bfadc7ca92d	2.7902795715374715e-30
68	0xb86ace2ef25370f8	-6.301920158978227e-37
69	0xbd5276e4bb171f33	-2.623952988096548e-13
70	0xbcfa61ec11123b2d	-5.8580936416735525e-15
71	0x38b73b79b82e9788	1.7478059531736255e-35
72	0x3dd72b02387a5299	8.428470258484119e-11
73	0x3b897c811a1a03ff	6.7461793340316275e-22
74	0x3ae65ea2d33b28fb	5.7824246872818e-25
75	0xbe23749bc18ee00a	-2.2649184858038606e-09
76	0xbdab00750422168d	-1.2278990436550722e-11
77	0xbdacfb8aa5bd0ca7	-1.3179753451219545e-11
78	0x3d6cb9d698655c69	8.16440055881609e-13
79	0xbc763d362989df1c	-1.9289351106417425e-17
80	0xbb33f2bcdc3d1ef8	-1.6500759563523382e-23
81	0xbc281e0f0741f207	-6.537038926233845e-19
82	0xbb4ed7ac7709a659	-5.102459531677459e-23
83	0x3ede0e578631c1d5	7.1659143002643175e-06
84	0xbee2d22ca6ff83b2	-8.974549217501341e-06
85	0xbc33adc2ec66a4d9	-1.0667874757214888e-18
86	0xbe947c63247cf3d7	-3.0526351623203114e-07
87	0xbe13568a8d46083d	-1.1256227522070506e-09
88	0x3c4902b4ddef40af	2.7116516834001473e-18
89	0x3c816328e10cb21e	3.0162231246597703e-17
90	0x3b487be4512761df	4.0505301803971175e-23
91	0x39f715a05a949e4f	1.821044225523562e-29
92	0xba64bf00d8c1f074	-2.0948214383765996e-27
93	0x3e716948c0825473	6.486202164459633e-08
94	0xbaf3317d07afa15a	-9.922710798994533e-25
95	0xb8b9a05c7ca72476	-1.9279169051320691e-35
96	0x3dccd0517bea5997	5.2411893826227646e-11
97	0xbcc68fa3e7e0d4ae	-6.261961714059579e-16
98	0x3c01cc5bb3553621	1.20605797476763e-19
99	0x3cf37804cd33fa12	4.322947170500908e-15
100	0x3c975ba5d84bcef8	8.103933962239462e-17
101	0xbd9a23e6cfacde3c	-5.94360259353717e-12
102	0xbe989af6ea2b23f5	-3.666479903406005e-07
103	0x3a49fdec7007b940	6.561275227620646e-28
104	0xbd10294cccd91f64	-1.4354142876865946e-14
105	0xba860cb2cbe9156b	-8.90576381679742e-27
106	0x3e06e121ba402e39	6.65878786572901e-10
107	0x3e1ea135da3e3d4d	1.7828848197895641e-09
108	0x3912767dee356dd1	8.88954327439401e-34
109	0xba311331b9684166	-2.1551651508670307e-28
110	0xbbe07c3e3f9da521	-2.792722656578138e-20
111	0xb9630cffe6c4dc4a	-2.935237374157406e-32
112	0xbd7731196b860b20	-1.3183008677875124e-12
113	0x3a11c2bae90f02af	5.604277558167876e-29
114	0x3eaf73fc8822dfb0	9.373745941875912e-07
115	0x3e891691ab64c2cc	1.869213598986607e-07
116	0x3ef33ddcaad172d9	1.835026585116331e-05
117	0xbe882bde7c384e78	-1.8009069267852388e-07
118	0xbea05bfbe2a5a5cc	-4.875454966805057e-07
119	0xbe4f0e74c02285fd	-1.4461795320576593e-08
120	0x3d9018d165194dd7	3.660021573722303e-12
121	0x3b8ec0b5d78d1dca	8.140191681498739e-22
122	0xbc9b56955d8385d2	-9.484849237068327e-17
123	0x3de9b292689ede16	1.8697425926129952e-10
124	0xbdd32bf0d9adb35b	-6.974603396529616e-11
125	0x3df9c7fc3dbd1298	3.751657298525822e-10
126	0x3ddeb06e69ab56fc	1.1164660378263844e-10
127	0xbbcf0eb1ef6daf53	-1.3153321619307901e-20
128	0x3c3a081cb9e5dbc1	1.4111806518512765e-18
129	0x3e2ed29d863a0880	3.588236417902764e-09
130	0x3d2f3743b68c9f63	5.545053655292127e-14
131	0x3e572c9f17c393b7	2.158275112873324e-08
132	0xbd7f907afa340dae	-1.7942270736481563e-12
133	0xbf00db917ca794b9	-3.215348950273131e-05
134	0x3bd0746192e212c9	1.3937600071610722e-20
135	0x3ec0be5090d5170b	1.9959708256492296e-06
136	0xbc1505e62e2eeed0	-2.8491536826528176e-19
137	0x3ed843e487a3522b	5.7852758976362755e-06
138	0x3d204403c12e72db	2.88936559849132e-14
139	0xbd2d151bcc79ca82	-5.1660818600767494e-14
140	0x3d44297beadfdc57	1.432599609121837e-13
141	0x3cf3a8ed3c227a69	4.365368048667511e-15
142	0x3c901b455405c897	5.58807396695215e-17
143	0xbd1018e7b491fd16	-1.4297261635132337e-14
144	0xbe195ccb0ff6b2d5	-1.476290256581755e-09
145	0x3d485aefe960830f	1.7305426965875703e-13
146	0x3ebd3afd28e27f5a	1.742269123229632e-06
147	0x3d5810c77f65d9bc	3.4199195074119256e-13
148	0xbda24c3c5d8fb9c3	-8.320874305372602e-12
149	0xbd9b923a0e366348	-6.2689647067813445e-12
150	0x3eb44a5f4bd1619c	1.2094090344941423e-06
151	0x3d0dfd09a2426b10	1.3317537406417928e-14
152	0x3dfdc0d9b92c0b41	4.3296782233433084e-10
153	0xbd935904675285ca	-4.399162990841536e-12
154	0x3c9c8900df0e876f	9.900125700213824e-17
155	0xbc2a88379c486a47	-7.191539721743429e-19
156	0xbd830459ff41afd8	-2.1619823936253966e-12
157	0xbd7291043036a6bd	-1.0553816400092559e-12
158	0xbdad187b67131aa2	-1.3231162017646559e-11
159	0xbb236c0e571ce54a	-8.032789729633689e-24
160	0xbc25016943d50e05	-5.693555562443582e-19
161	0xbc482b9ba85fc0c1	-2.6205539364127677e-18
162	0xbe9be8fc107b580b	-4.1589284237081275e-07
163	0xbce0d004f006ea27	-1.8665708247801383e-15
164	0xbd1106232b295c8d	-1.5120326440018722e-14
165	0x3cbc7bbca01e5f10	3.952858449751447e-16
166	0x3e920b1453912ce5	2.688658074553019e-07
167	0xbed85739ff97b67e	-5.803281959410759e-06
168	0xbd0a471b8da15f4c	-1.1669671530937012e-14
169	0x3d74e3b9f32846d1	1.1874337883047517e-12
170	0xbbd23a97ff6e4f7b	-1.5440463477912328e-20
171	0xbca0f67c4ab7af31	-1.1770330573642467e-16
172	0xbea3fe6724e0bb2f	-5.958605215956258e-07
173	0x3dee1c6e2563e9b3	2.1908676495827613e-10
174	0x3c30b3b67f90f6b1	9.054174214383485e-19
175	0xbb6748528713ddcf	-1.540707222507828e-22
176	0xbd7b69403a1825e1	-1.5581427007414154e-12
177	0xbc1637f045e5d0bf	-3.0111696048937926e-19
178	0xbdf7967859b9ea7d	-3.432472862592523e-10
179	0xbc0224f2553c4ee1	-1.229507131101861e-19
180	0xbdd20252f0e9ed41	-6.551664439133016e-11
181	0x3d8e5190925a15c0	3.446827149545888e-12
182	0x3b68059af83c2ca5	1.5896357251852202e-22
183	0x3ad428b3e7e3acaa	2.6054890550675537e-25
184	0xbd601a893813d362	-4.576934400284274e-13
185	0x3d29fe924d638dc8	4.617536556839489e-14
186	0xbdc3a5d89eba75f0	-3.5739206595071915e-11
187	0xbdbd13e39229a538	-2.6446006092639115e-11
188	0x3c74bb7c15b1c3bb	1.7982457652223416e-17
189	0x3c8d83765dda6505	5.1197804470226413e-17
190	0x3d53e605317e899f	2.82774930497492e-13
191	0xbe6d6e9394b97d2d	-5.482125916828798e-08
192	0x3d86393134db9c64	2.5265088744660873e-12
193	0x3c9436d1c0b42a2b	7.013187972357881e-17
194	0x3eac87d539e1a522	8.502780593059107e-07
195	0xbcdee71fa5953cf2	-1.7154514831959911e-15
196	0x3c64163bb77467ee	8.711282001005478e-18
197	0x39bc646d39851bf1	1.3998480551025194e-30
198	0x395f2912560bf13c	2.4005126737515564e-32
199	0x3d8c2abc9781b8ab	3.202210357681931e-12
200	0xbea07db837c0a89e	-4.914728459805191e-07
201	0x3e09f178fe2bcd9f	7.55048020931019e-10
202	0xbb01b9a224665ea0	-1.8327355218825984e-24
203	0xbbacd6738db4427d	-3.053310327732469e-21
204	0x3a8d40058e751f7d	1.1814015161008828e-26
205	0x3ed6a360bff4beb5	5.397366293721503e-06
206	0x3d633f17f763fddf	5.470172779887669e-13
207	0x3dcf8a728d12aa35	5.737239991604618e-11
208	0xbb7e23dfd7d0128d	-3.989013563530377e-22
209	0x3c35572e1c852ae2	1.156873390174428e-18
210	0x3de1ee302489ba7b	1.3046099120190493e-10
211	0x3c43ab3b3807f4c1	2.1325034141173398e-18
212	0x3dc482bfa709f9ba	3.730881305274891e-11
213	0xbd583c2fb5bf498c	-3.4440152768502493e-13
214	0x3e73f4b20f391438	7.43413044952323e-08
215	0x3eb7b0c1f1b6882f	1.412061414331644e-06
216	0x391b10a989d56e95	1.3031365351536678e-33
217	0x39d32526402d1b0e	3.775708169454721e-30
218	0x3e0bb8f1f4fb738e	8.068292509485902e-10
219	0x3ec70cff77b5e177	2.7478662880076255e-06
220	0x38bb2176b1e08838	2.041088321600436e-35
221	0x3c2852dfc17972a4	6.592959344137192e-19
222	0x3932d501d18510f5	3.6269226337062294e-33
223	0x3ee50465463b0428	1.002176777065336e-05
224	0xbdb297ef9bd2339e	-1.6910689635776415e-11
225	0x3c87a4583c5a7a72	4.1012282755267644e-17
226	0x3e951137bdabcd29	3.139265893202563e-07
227	0x3ca30bd394e237a5	1.3215954184249387e-16
228	0x3c96ee916a766d73	7.956103265815961e-17
229	0x3db0367d2424b5d5	1.474549844983567e-11
230	0xbd0565cac62a43af	-9.502454528554132e-15
231	0xbe0667a822bdc795	-6.520686815873176e-10
232	0x3c824cd8c34fecb8	3.174575626671586e-17
233	0x3c9e4301de2aedae	1.0499152676082555e-16
234	0xbcb97ada74f06c5a	-3.5360458847294882e-16
235	0xbba5df3d65a6e4f7	-2.3157913171712443e-21
236	0x3c700ee45f52d46b	1.3928244135847514e-17
237	0xba5ebdb9d6ccab18	-1.55202978100061e-27
238	0xbdcc9675c6602ce2	-5.200078631320601e-11
239	0x392169d31f0078a6	1.676847277493649e-33
240	0x3947d520b4bf5388	9.179956752841668e-33
241	0xb98b9b56479e1975	-1.7013995017158359e-31
242	0xbe66454144b40f5b	-4.1482089397177824e-08
243	0x3ea8cc943d3d02b8	7.390718743464268e-07
244	0x3ef20864c887f103	1.719740660809187e-05
245	0x3e290424ed28a456	2.9122676295425918e-09
246	0x3da7804bc4e27210	1.0687088499441201e-11
247	0x3e34b645d6df3961	4.822389027991498e-09
248	0x3defc5168693e12f	2.3115626365188424e-10
249	0xbda8d2fb55dd6022	-1.1288715347287733e-11
250	0xbdef82d4e7fd16a7	-2.2927314560279009e-10
251	0xbe2752898f1b24df	-2.7150860386767572e-09
252	0x3ceb483124343ce3	3.028910437862669e-15
253	0x3a66649f75d8a123	2.2611210419134155e-27
254	0xbaea7a4cde482ea5	-6.844334187892537e-25
255	0xba90fca45861d120	-1.3721894575116657e-26

lstm.weight_hh_l1 f8 [32, 8]
0	0xbdc437048fd2e733	-3.677071319129966e-11
1	0xb98d077169721e9f	-1.789054829128628e-31
2	0x39f5b8b540485a01	1.7135254516072862e-29
3	0xbdce20c589dde565	-5.480253857776161e-11
4	0x3dd5fbbcaf4d0a2a	7.997495359120436e-11
5	0xbb92a41efe1c5afa	-9.868515064149571e-22
6	0xb8d2b6e4ad2681f0	-5.631667970828307e-35
7	0x38eeb6f09088d179	1.848568240915642e-34
8	0xbe28330fd897d324	-2.817187987010538e-09
9	0xbd22f08144ef7404	-3.364326149696408e-14
10	0x3bb61a68a73f470e	4.6805260589050435e-21
11	0x3a402e49a95a5789	4.0846110706928705e-28
12	0x3a65b8c1ebb03d04	2.1933320985959726e-27
13	0xbe2e34e0e3a0266e	-3.51650600045596e-09
14	0x3a9eb5cbef1f0659	2.4807455985219776e-26
15	0xbe85e79a100197e1	-1.6320269225210626e-07
16	0xbb706cb5610dfaeb	-2.173783351697998e-22
17	0x3e03228dfceaaa60	5.569011864795356e-10
18	0x3d2e73cf79b5f964	5.409430161383554e-14
19	0x3e7e9bfb773c060c	1.1402854998775852e-07
20	0xbe910972c29bbb72	-2.5386970268954995e-07
21	0x3e83ebae9e92370c	1.484202834283865e-07
22	0xbe616a0d60acdfe8	-3.2436599259365766e-08
23	0xbbb0d056a49d7a22	-3.5604653151504955e-21
24	0xb8917596696ee902	-3.2837343194762735e-36
25	0xb9c448f69703f9ae	-2.000256681502396e-30
26	0xbb1015042319076c	-3.3256991695058765e-24
27	0x3d05b9a10264a968	9.647888291690827e-15
28	0x3c3fdbe906266999	1.727081174169309e-18
29	0x3ee56aa16bfe145c	1.0212195206591393e-05
30	0xbb95fa6ccf94f749	-1.1635174282740403e-21
31	0xb8f5a202e830715a	-2.6039604252374013e-34
32	0xbdd66d8083ef0a2f	-8.159165095590379e-11
33	0xb9e071323eaf3adf	-6.485293708999837e-30
34	0xbc61d104f6d2b2aa	-7.72666739485934e-18
35	0xb8c74eb1787290b1	-3.5069071007841043e-35
36	0x3983c2533561c02b	1.2177474562576294e-31
37	0xbd2065797fed2e03	-2.912583097101368e-14
38	0x39739778a4778177	6.037153927505526e-32
39	0xbcc5302db9be93b7	-5.880906238858525e-16
40	0xbc75a148a4196185	-1.8761047111580823e-17
41	0x3e242d3a191eb36b	2.3488732703297682e-09
42	0x3a98fa3864545c6f	2.017660159591608e-26
43	0xbc7447f0984d76fc	-1.7590976364200203e-17
44	0x3918ec7ac527f4ea	1.2000348305738446e-33
45	0xbc98cda5d7c8a9b7	-8.605377456420157e-17
46	0xb9da0c61c30062f6	-5.137134538658566e-30
47	0x3e0d5de96faa79a4	8.546876256487732e-10
48	0x3e749285ab8c0d87	7.663798385839225e-08
49	0x3e174cb7753e0184	1.3562195437598714e-09
50	0xbd00953242b9bba6	-7.364241734910244e-15
51	0xbbe1a8359238ebd7	-2.991223573249109e-20
52	0xbd3e758a08b73857	-1.0821259437814146e-13
53	0xbd685cdd21985f62	-6.924309785407871e-13
54	0xbe060f0701df0f59	-6.419926844846712e-10
55	0x3dc4d11dbbae2cbe	3.7865647648695104e-11
56	0x3962e42350fb11af	2.9106446567503984e-32
57	0xbededf06bfd1ec81	-7.360266860985334e-06
58	0xbcae41df1c7f1b8d	-2.0995226847679252e-16
59	0x3e41db76333e4679	8.315440426322563e-09
60	0x3cf655001f3b5f78	4.958707469430795e-15
61	0xbcd951213b3bd30b	-1.4053710040508069e-15
62	0x3e1d83581be67308	1.7178863744727905e-09
63	0xbdeb70b2d6d07d49	-1.9965394216989681e-10
64	0xb8d3e03b9d434807	-5.981188992460922e-35
65	0x3e54c090ddad2de7	1.9327002091866866e-08
66	0xb9a36acabeb48a39	-4.78669855351222e-31
67	0xbdd00dd1291be391	-5.840401276945302e-11
68	0x3dd4d63370c97323	7.580355457636352e-11
69	0x3d04806b0f8d3a16	9.104554273778346e-15
70	0xbce6944d396d6505	-2.506806245882507e-15
71	0x3e58134de51f6780	2.242197034278265e-08
72	0x3a72118f0367e290	3.6489223804142915e-27
73	0x3e29377df0bc44da	2.935617865014628e-09
74	0xbdfb9ecc57319cd4	-4.0192834407388264e-10
75	0x3a56164dc2e2dd7c	1.115114794636489e-27
76	0xba748b6c48b2174c	-4.148953176293965e-27
77	0xbe47c90a05f73c53	-1.1075897698047516e-08
78	0x3a99d7480da97dfe	2.087414767847151e-26
79	0x3bf3af8611ae5d66	6.66975409147777e-20
80	0x3be39260cf30d63f	3.3155901413884313e-20
81	0x3e045005cf512f7c	5.911741362363464e-10
82	0x3e2a28d890f7d84d	3.0453729605316465e-09
83	0x3b8712d3df86615f	6.107516620987321e-22
84	0x3dc9d53734f4fc0e	4.698972341408059e-11
85	0x3b4543207a56edf1	3.517538293629015e-23
86	0x3dc1c5655c7a95ad	3.232540238944075e-11
87	0x3e0d879fa0b48bdd	8.594296953012475e-10
88	0xbc6cec9284102d62	-1.2543833443650656e-17
89	0x3de0edde15285112	1.231759230886846e-10
90	0xbaf42f174e5c5239	-1.0434857253710568e-24
91	0x3ed016581ca1127d	3.835506911246801e-06
92	0xbc711fee79b110a3	-1.4853337826346367e-17
93	0x3e9b1a3b54f0df18	4.0385824190716603e-07
94	0xb8da0336c37ae60e	-7.827868344217091e-35
95	0xb8f5ce8fb129a696	-2.6249077071150377e-34
96	0xbde5df7546e2390e	-1.5914617145111743e-10
97	0xbf002fe9aeba4297	-3.087455646977771e-05
98	0xbebe0ffe563531a2	-1.7918631208423668e-06
99	0x3de31b6048204df7	1.39021270244891e-10
100	0xbc345b17ed7d50c7	-1.1034919645596344e-18
101	0x3d321a4b17397e9e	6.431373937755688e-14
102	0xbd0faf95356d73a9	-1.4071353191136379e-14
103	0xbeaae27fb59f2689	-8.012283203514445e-07
104	0xbc834190d4bd3664	-3.3404036821102753e-17
105	0x3e26451bc8047f8c	2.5925639969391013e-09
106	0x3a99196f6d0899dc	2.0275098694589265e-26
107	0x3c740b53e130e08e	1.738561434739876e-17
108	0xb9525b4c3e0275f8	-1.414143498660405e-32
109	0x3c86f18493af7473	3.980050527501289e-17
110	0x3d15f636eb38711a	1.950597505281795e-14
111	0x3e0d705cc2f411cd	8.567852034676384e-10
112	0x3e76f2177a8d197c	8.547928466188684e-08
113	0xbce87c2aec711b28	-2.718384402263946e-15
114	0xbe33b3e58686b8c8	-4.587397219400172e-09
115	0x3d90f9e758584aa0	3.8599378731394485e-12
116	0xbcddf5e11b63aba0	-1.663139965195115e-15
117	0xbd67fb1bf5fccab0	-6.815780409198261e-13
118	0xbe081f9b06f382c2	-7.020850688169398e-10
119	0x3dc4c88d4e15e529	3.780479554464904e-11
120	0x395141170e53c94f	1.3292196903387636e-32
121	0x3a6c94aaf95fdd4a	2.8859166186388973e-27
122	0xbe081841f8ebc630	-7.012497126746579e-10
123	0x397827bfe4e330bc	7.443417810524187e-32
124	0x3cecdfc71954ca5e	3.205672589477058e-15
125	0xb9af58dba0b0eb73	-7.727657084466042e-31
126	0x3e8f4e75ac3a1a1c	2.332514751244123e-07
127	0xbdebd25cafb06daf	-2.024297048081974e-10
128	0x3c3cb923db8a3249	1.5570879759831057e-18
129	0x3e139c58d74920ac	1.1414947573481173e-09
130	0xbc3008f375e173f3	-8.692571896647679e-19
131	0xbd31a8f1297afd39	-6.274067431132175e-14
132	0x3ebebd940aa0815f	1.8322789778827586e-06
133	0xbbf886d278c0d534	-8.309951930119157e-20
134	0xbc813c6e4ce074db	-2.9899794530917036e-17
135	0xbd79b6b83abd3b83	-1.4616573831924606e-12
136	0xbd67bccd7c3d87c5	-6.746606248117335e-13
137	0x3ea09202b59692e7	4.938350272499631e-07
138	0xbc8dd383f4e565d2	-5.174026528108218e-17
139	0xbd0adc6c92c89a38	-1.1928694342612579e-14
140	0x3e661d4fbc428dd3	4.1191462269993436e-08
141	0xbca810857cb18142	-1.6698126805748842e-16
142	0x3c93b6c909345eda	6.839669478438402e-17
143	0x3c1001191aa3caaa	2.168985654546008e-19
144	0xbc87238eebac1710	-4.0139592249338335e-17
145	0x3d48a8217d1ce4e9	1.7519682414037952e-13
146	0xbd51564f0b2cd17b	-2.463756290243012e-13
147	0x3ec67cde6d82eaf4	2.680750963516215e-06
148	0xbe5c16f95f12bf61	-2.61606114034381e-08
149	0x3d39f1d226a87467	9.217378114066236e-14
150	0xbc72bd74299d04b0	-1.6254405590492328e-17
151	0x3c913bd9fa287898	5.979173690124719e-17
152	0x3bc36d191524106c	8.22730046483653e-21
153	0x3c956a92c4fa0e09	7.430272377905558e-17
154	0xbd227cc16f1047aa	-3.2840088988086615e-14
155	0xbeed41e999004021	-1.3951049169264096e-05
156	0xbe86fff94b58408d	-1.7136259138116781e-07
157	0x3bd1390ebdd45007	1.458834781267698e-20
158	0x3e6fd77d9f07340b	5.930990088255793e-08
159	0x3cdd49a6cb0fa0f9	1.6257940167666645e-15
160	0x3bf62a773d92a06a	7.510092932033983e-20
161	0xbdf1fc31d5a8b5b4	-2.617181659404626e-10
162	0xbdad84b0a122a2e6	-1.3423377891416388e-11
163	0xbc058f0597cf7aa6	-1.4608729192540656e-19
164	0x3cf35606a620eb87	4.293463130526964e-15
165	0x3e49cb71eaa7ce1c	1.201159645790286e-08
166	0x3b7ec6bfdc542598	4.0732180005731534e-22
167	0x3cb365d66ac95879	2.691985939139322e-16
168	0xbeb6d8c8f90bce87	-1.3617763878177417e-06
169	0x3c8c521e357320f3	4.9128710560709144e-17
170	0x3ed731a09c42fccf	5.529846422713121e-06
171	0x3c7a9eac67f67af8	2.308901178616046e-17
172	0xbcb9b9a99251a5e4	-3.570094734650622e-16
173	0x3e686f257921a07e	4.5512179928248205e-08
174	0x3ba6f5b1b7430f7f	2.4309573454553058e-21
175	0xbe4c44758b9892a3	-1.3163042533625643e-08
176	0x3dc0d68e6090f73d	3.062834367273399e-11
177	0xbe728df9629050b4	-6.912122131635533e-08
178	0xbc9e718c080686f8	-1.0562225732516655e-16
179	0xbaabc3863fa50f13	-4.4854785111054036e-26
180	0x3ea480b26a53d3bf	6.110287428517043e-07
181	0x3c0bb22d8c02e2a6	1.876754468170785e-19
182	0x3df920487cba3aec	3.656329655080996e-10
183	0xbc3706abc124b45e	-1.2482451197438685e-18
184	0xbd5e5a62b5058121	-4.3134304876063005e-13
185	0xbcb9ba9b6a3ae8bc	-3.5706068579767327e-16
186	0xbce0ccd8de49be4c	-1.8651951258872702e-15
187	0x3d80b009af2c1d74	1.897165904004593e-12
188	0xbc8ac0e2ed045859	-4.6409859659550195e-17
189	0x3c8c0de08f9f1115	4.8666292834595815e-17
190	0xbbd6970bcadb7427	-1.9134494342917816e-20
191	0x3d0630ae70b264a9	9.854411396471583e-15
192	0xb8d54aa4139f6c70	-6.40719761501575e-35
193	0x39a8e39ec8a691c8	6.135647116085811e-31
194	0x39e2145e3ad9a06f	7.131130151579768e-30
195	0xbdcb6475687eabcb	-4.982651536319513e-11
196	0x3dd62cbf6ea754d2	8.067143798755469e-11
197	0xb8d066221e968e5c	-4.934881953742743e-35
198	0xbce30810c651f1c4	-2.1129216111663665e-15
199	0xb8d1284b48f1f1fe	-5.163116880310622e-35
200	0x3ee35c1e8d2a61a0	9.231491650483353e-06
201	0xbe59bf5130884d3f	-2.39790720908644e-08
202	0x3d1dca8324fc61f4	2.6459779794671343e-14
203	0x3a48d2300f1b451d	6.265712856290248e-28
204	0x39d3f9f760804c64	3.939656345214437e-30
205	0x3ab597d8fed75265	6.977124627333575e-26
206	0x3dcdef456437d1ac	5.445081584167596e-11
207	0xbcc427af4c729465	-5.594141426400633e-16
208	0x3b286644e5754f15	1.0091392035208111e-23
209	0x3e0265f3bff64f83	5.354595655103329e-10
210	0xbe3b0b97f31908c8	-6.2969716537990306e-09
211	0x3aeb4b05998d2529	7.055089152673136e-25
212	0x3a96122b8666bc8f	1.7828792945103475e-26
213	0x3b440288b288255e	3.310359992644843e-23
214	0x3db5c596aca02413	1.9801364358176205e-11
215	0xbc163b9e26f826ca	-3.0131173653989347e-19
216	0x3eb140b67ec0e8ed	1.0283461007302967e-06
217	0xbd96520a54966a3b	-5.075087331011218e-12
218	0x3b84b3ac2bb91a32	5.479732974693881e-22
219	0x3ed20b2945387c97	4.301929112964602e-06
220	0x3c6fb2e31eb1ef70	1.374715362148388e-17
221	0xbb653acceba0fb6f	-1.404862994443068e-22
222	0xbd59f090cf80ec8a	-3.686254449605133e-13
223	0xb8f524ab84600ac4	-2.545025197802174e-34
224	0xbdd48a41ea9c5401	-7.472433319043893e-11
225	0xbef81b7158b925c4	-2.2990415841561145e-05
226	0xbd2b18fc822d0fff	-4.8135012374109994e-14
227	0x3dc9f3fa760d2af4	4.720830562960977e-11
228	0xbdd52c892eb22ab2	-7.703044770968666e-11
229	0xb8cb512a7fc35b6d	-4.110213570740327e-35
230	0x3ce60965102f8417	2.446564989759015e-15
231	0x3dcd39e38d61dd70	5.316201790657591e-11
232	0x3c57b92428782921	5.1441507257380194e-18
233	0x3e1c7b6a00f2fcd5	1.6578756178621895e-09
234	0x3a98d7b53edf356c	2.0067700009621535e-26
235	0xbc88808ab3d2755e	-4.250439658418651e-17
236	0x393e6af893456c0c	5.858265867009236e-33
237	0x3ca6b6f6fe1d1c7a	1.5761493713286567e-16
238	0xb9d945b3d0b1387d	-4.9840774357935555e-30
239	0x3e0de59f4d781320	8.701161136552591e-10
240	0xb8e6ed8f3b5448d3	-1.379926806587904e-34
241	0xb9a6985f99808ad3	-5.570149004961447e-31
242	0xbdf8bb159a44b9f6	-3.5988048155104075e-10
243	0xbdb267bed5adb8eb	-1.6739482504052917e-11
244	0xb8bc3089f8d15f96	-2.120750192908471e-35
245	0xbd686a4c8ddeb2b4	-6.939225904737497e-13
246	0xbe02c8d4e93b0c9c	-5.467008672687213e-10
247	0x3dc50e668144414d	3.830109854129737e-11
248	0xb96e3dbd776ff17d	-4.659390339817032e-32
249	0x3d004f219c39476a	7.242698264109368e-15
250	0x3c11d9e523d97516	2.419282310493241e-19
251	0xbdfb81a0dbce76b2	-4.002702299874839e-10
252	0x3cde8ae5a2f4bbec	1.6954530266194066e-15
253	0x3bd77de14a420fe3	1.989825989904012e-20
254	0x3d6ffea113c6a0f2	9.093425132895777e-13
255	0xbe53005c41964ca7	-1.7696439957143713e-08

lstm.bias_ih_l1 f8 [32]
0	0x3c3d6f015de36f42	1.595599444940736e-18
1	0x3d018f7967710329	7.798404690481192e-15
2	0xbd41b65b7650b8e0	-1.2585369618951862e-13
3	0xbee2f5eec8d9e006	-9.04115429566089e-06
4	0xbbc1afee65ed4656	-7.490833878002121e-21
5	0x3d0dd7cc364f9050	1.3252936428351543e-14
6	0xbe215c12ac6ef372	-2.020930398259639e-09
7	0xbd158217ccc3073e	-1.9103097465582172e-14
8	0x3c3e91499eb6669a	1.6570691000786973e-18
9	0x3d2d8c40e44c0857	5.2487552384515586e-14
10	0x3e578be505511749	2.192935285121109e-08
11	0x3ef49a9ab016b458	1.9649432038516427e-05
12	0x3ed7d1a626fefafc	5.678878196079285e-06
13	0xbcc567e6423614ee	-5.941318886310781e-16
14	0xbe776514b657004f	-8.71525976586459e-08
15	0x3d063a8241368227	9.871459218744888e-15
16	0x3d3ac6b8b9a23809	9.512837160420528e-14
17	0xbeb4ae5cbad8d060	-1.2326897648297914e-06
18	0x3ef75aff3fef239a	2.2273499776823484e-05
19	0xbd23362a85082a33	-3.4126632716996506e-14
20	0x3d642023d9ffc985	5.720024504222522e-13
21	0x3ddcabcfade890ad	1.0430499127355788e-10
22	0x3df259e7ac8c9200	2.670449803554426e-10
23	0xbe03303bbd2daef0	-5.584562763242585e-10
24	0xbac112603e88fc98	-1.1032379940461492e-25
25	0xbd9a90d522945254	-6.040352714799621e-12
26	0xbd76b59a619c447c	-1.2908791928538241e-12
27	0xbee93ee4506d1f53	-1.2038074158518248e-05
28	0x3d584ec2369f5dc4	3.4543249627225655e-13
29	0x3c32b872ec577a8a	1.014840533061746e-18
30	0x3dc67743a90b39e3	4.086519068490077e-11
31	0xbd1c6d13169733c7	-2.5247424163320612e-14

lstm.bias_hh_l1 f8 [32]
0	0x3c3d6f015de36f42	1.595599444940736e-18
1	0x3d018f7967710329	7.798404690481192e-15
2	0xbd41b65b7650b8e0	-1.2585369618951862e-13
3	0xbe9789423ae33d14	-3.5071621596896095e-07
4	0xbbc1afee65ed4656	-7.490833878002121e-21
5	0x3d0dd7cc364f9050	1.3252936428351543e-14
6	0xbe215c12ac6ef372	-2.020930398259639e-09
7	0xbd158217ccc3073e	-1.9103097465582172e-14
8	0x3c3e91499eb6669a	1.6570691000786973e-18
9	0x3d2d8c40e44c0857	5.2487552384515586e-14
10	0x3e578be505511749	2.192935285121109e-08
11	0x3ef49a9ab016b458	1.9649432038516427e-05
12	0x3ed7d1a626fefafc	5.678878196079285e-06
13	0xbcc567e6423614ee	-5.941318886310781e-16
14	0xbe8f318385267b23	-2.3240903830337896e-07
15	0x3d063a8241368227	9.871459218744888e-15
16	0xbd729364287a4683	-1.0559089697358962e-12
17	0xbe544c3d26f9e090	-1.8903806907393395e-08
18	0xbea95461bfdfff84	-7.548813980573368e-07
19	0x3d8394010a1f734e	2.225776923087111e-12
20	0x3d7b1dc041bd35e5	1.5413783589710828e-12
21	0xbdc2a44bafd5791f	-3.390920008259056e-11
22	0x3d409837751a33bf	1.179116979219155e-13
23	0xbde1e3df1b3feb7b	-1.3016777727293698e-10
24	0xbac112603e88fc98	-1.1032379940461492e-25
25	0xbd9a90d522945254	-6.040352714799621e-12
26	0xbd76b59a619c447c	-1.2908791928538241e-12
27	0xbe835bef080a4c16	-1.4423665463790746e-07
28	0x3d584ec2369f5dc4	3.4543249627225655e-13
29	0x3c32b872ec577a8a	1.014840533061746e-18
30	0x3dc67743a90b39e3	4.086519068490077e-11
31	0xbd1c6d13169733c7	-2.5247424163320612e-14
