Trained_NNs_exp/LSTM_no_or_nextstep_exp0.pth (torch, 15627 bytes, 14 tensors)

lstm.weight_ih_l0 f8 [32, 3]
000000 22 08 58 24 4d 1c d4 3f d1 e2 54 47 0b 13 d0 3f
       0.3142273764534612 0.2511623570058364
000010 ec 6c f1 4e 01 12 e0 3f 75 d6 9d 7c 99 ce d1 3f
       0.5021978895050814 0.2782348362883121
000020 21 20 04 7c 15 2a ce 3f f1 5d 19 e3 30 32 d7 3f
       0.23565929942583444 0.36243841340680577
000030 a3 fb e4 f9 5f 2b e0 bf 56 cb 58 25 da c1 c0 bf
       -0.5052947884322417 -0.13091589759423056
000040 27 78 37 58 f5 9f e6 3f 34 e4 da 0b 3a d5 cf 3f
       0.7070261691076255 0.24869466379985428
000050 1c fe 7b 98 9a ae d4 3f ae 8b 03 36 c5 91 d9 3f
       0.3231569756607955 0.39952211642065094
000060 48 c2 b7 e5 32 e4 ac 3f 0e e1 72 87 23 d5 e2 3f
       0.05642851881191696 0.5885179181559879
000070 8a 5e d8 0f a2 b6 bf 3f fc be 7f 14 bb 3e c3 bf
       0.123880509251075 -0.15035189152649042
000080 84 8c 22 99 74 bb d1 3f b6 bb 27 53 70 c0 d1 3f
       0.2770663733919678 0.2773705303251818
000090 a1 97 53 64 1c 34 bf bf e5 68 ba ca 7b 59 da bf
       -0.12188889932039483 -0.41171164319679426
0000a0 56 6d 1b 5b af 00 ea bf d9 c2 75 59 5f df b6 3f
       -0.8125836162029525 0.08934589323122157
0000b0 c9 ea 42 7d be 8e ad bf f2 e7 ae 49 4e 72 c6 3f
       -0.05772967604703678 0.17536333654226116
0000c0 3a d7 87 ef 30 a0 d7 bf 6c 5f 89 02 64 a8 c9 bf
       -0.3691522921720779 -0.20045137523515721
0000d0 7e d3 91 c0 a9 f5 d4 3f 38 c0 b9 b0 52 76 c2 bf
       0.3274940853655649 -0.14423593167475857
0000e0 a3 d3 e1 0e 71 08 e0 3f 37 29 01 f1 49 d4 d6 bf
       0.5010304728190146 -0.3567070821342386
0000f0 d4 28 eb 19 3a 2d cf bf 87 78 84 ec 39 f1 c5 bf
       -0.24356771722370374 -0.1714241413946562
000100 83 26 ee 56 68 ab e7 3f 55 38 96 62 ea 25 d0 3f
       0.7396737764222084 0.2523141825448694
000110 02 73 19 6a 2f 2b e4 bf 27 75 28 6b 2c 9e df 3f
       -0.630271632409489 0.49402914490367994
000120 4c 08 0c ad 4d 7c 8e bf 2b 5d c0 39 91 74 d7 3f
       -0.014885527461505309 0.3664897026041724
000130 a1 95 bb ce a4 77 a4 bf 16 b0 a6 6f e6 e1 bb bf
       -0.03997530959695018 -0.10891571260316399
000140 c8 72 80 69 f5 77 b8 bf 21 d1 12 fd c9 23 d8 3f
       -0.09558042360044816 0.3771843882962163
000150 e2 f8 93 23 88 3f cd bf 78 ca 1d 2f 56 d5 e0 bf
       -0.22850133645255882 -0.5260420723191848
000160 52 51 6b d1 23 7f e1 bf a9 2b 58 93 11 71 8c 3f
       -0.546770009061712 0.013887536343664868
000170 87 14 6d a7 36 b3 e3 bf 5e f4 04 f9 7f 50 82 3f
       -0.6156266469994457 0.008942603861777861
000180 18 8c 8b 1e 67 69 bc bf 8a 7b 12 d3 71 d0 e0 bf
       -0.11098331924181115 -0.5254449007514819
000190 57 1e ea 09 12 c7 cc bf bf 74 4c 5a 2b 1e bf 3f
       -0.2248251484308976 0.12155409769589463
0001a0 d9 77 aa ee c0 27 dd 3f 5c 51 00 69 67 09 d7 3f
       0.4555513697358698 0.359948971309924
0001b0 c6 88 34 42 80 fc c2 3f 91 ea 80 f6 68 aa c8 bf
       0.14833071930576675 -0.1927005008345373
0001c0 33 6a bb 4c 48 d1 df 3f b6 fe e2 4d 73 48 9b 3f
       0.4971485852562722 0.026643563870264862
0001d0 72 e8 ea 8a 68 6e e2 3f 23 1e 08 a4 8e fe de bf
       0.5759775841936643 -0.48428693789216676
0001e0 12 fe 6b 2f 77 e6 c8 3f 47 bc 2c ad f7 d6 e3 bf
       0.1945332509567242 -0.6199911482161803
0001f0 28 5f 5b cf 08 37 d7 3f bd 2f eb 19 3a 05 d8 bf
       0.3627340340585641 -0.3753190281975057
000200 2e 36 53 aa 61 93 d1 3f 90 6c fa b1 15 f7 d6 3f
       0.2746204531984827 0.3588308561390443
000210 1e 91 83 c3 a3 fe a4 3f 8b fa 85 76 70 87 a3 3f
       0.04100524675030413 0.0381426949197606
000220 02 c5 1b 32 75 45 e1 3f f2 99 87 1b 05 bc 45 bf
       0.5397287348443174 -0.0006632828654432028
000230 e8 d8 eb 09 b1 8a e2 3f 1c 93 b2 33 57 d6 b3 bf
       0.5794301217818232 -0.07748932850024598
000240 0f 3c ab 1e 22 91 e2 3f c9 f0 4e 58 f9 c2 c4 3f
       0.5802164649011291 0.16220013439113348
000250 ca 72 db 78 b1 aa eb 3f 82 57 14 0b 49 f6 c4 3f
       0.8645865784161171 0.16376603165616294
000260 3e cc 99 d2 eb 1c 88 bf 9f 20 25 d9 64 51 e1 3f
       -0.011773912777448211 0.5411857834924553
000270 cb 80 5a 9e b4 40 92 bf f8 62 51 1d 56 33 b9 3f
       -0.01782495705140334 0.09843958106774753
000280 ef bb 14 c5 0b c6 ea 3f 9e 80 d9 7b 71 11 d1 3f
       0.8366755341756952 0.2666896542996343
000290 72 98 b0 1f 63 2b bf bf 3e dc b1 76 a1 7e f2 3f
       -0.12175578616788288 1.155915702487405
0002a0 f4 b8 46 be 3b 08 d9 3f 1a 8d 0a b6 3f b8 e6 3f
       0.391127525154743 0.7099913173191539
0002b0 6c 81 5c 4b 82 6b a2 3f 59 64 1e 46 bf fe e0 3f
       0.03597647828996994 0.531097065878508
0002c0 e0 c6 ef ec d5 ff bf 3f 5c 15 b3 6d 65 41 8f 3f
       0.12499749216638234 0.015261452112450051
0002d0 02 08 0b 67 d7 7b b3 bf 84 c1 7c 0b fa 67 b0 bf
       -0.0761084200449034 -0.06408655910923328
0002e0 b7 9f d9 68 67 61 e8 bf cf 0b 5d bf 62 68 db 3f
       -0.7618901298383126 0.42824619949186354
0002f0 6e 03 29 5b af 04 e7 bf 77 9c 0f 87 8a c3 ac 3f
       -0.7193218975518059 0.056179360377250846

lstm.weight_hh_l0 f8 [32, 8]
000000 06 aa 47 25 47 b6 b4 3f 0c e8 38 a8 4b a8 c3 bf
       0.08090634021906604 -0.15357347215632478
000010 c6 6e 03 73 d3 87 e2 3f e9 9b 66 f2 5a 5f ea bf
       0.5790803190570493 -0.8241400465384433
000020 57 cc de 83 c1 5a ba bf 64 76 b1 f6 6d 26 d6 3f
       -0.10294732541551475 0.3460955533135801
000030 63 a8 a8 5e 82 ec c1 bf 64 35 cc 2e 8e b4 e5 bf
       -0.1400301897240893 -0.6782904542939545
000040 7b 53 9a ed 2b e1 b2 bf 78 2e d4 74 fd 3f e4 3f
       -0.07374834586000915 0.6328112870991864
000050 14 40 82 90 2c b7 e1 3f dc 5b 54 bf df b5 db bf
       0.5536101171910581 -0.432975708813897
000060 bf f0 7b e3 07 66 c3 bf e2 8a 2e 5c 84 0a e2 3f
       -0.15155123336433537 0.5637838173318779
000070 86 e7 e6 66 84 6f dd bf 74 e3 5e 32 ea 05 c5 3f
       -0.4599314694311193 0.1642430063200454
000080 a3 3f 25 aa 6b 7e a7 bf c2 7c 86 c5 16 63 b8 3f
       -0.04588638736697639 0.09526197740932488
000090 5f b5 f3 ae cf a6 b7 3f 22 9d d9 75 81 4b ba 3f
       0.09238908788002707 0.10271462561796743
0000a0 c3 25 1c 72 ec ab c9 3f 3e d9 51 37 96 56 d2 3f
       0.20055919238829575 0.2865348377448703
0000b0 71 4d c3 1d 7c f5 a1 3f 73 02 b6 38 82 83 dd 3f
       0.035076025612989954 0.46115165270024433
0000c0 19 ed 95 93 03 fe c3 bf 2d 7b cd db 27 19 84 bf
       -0.156189391196542 -0.009813605685562965
0000d0 03 97 15 a0 c7 ce e0 3f 2e 33 13 21 ab 20 e0 bf
       0.5252416731497934 -0.5039878507610405
0000e0 38 2e 68 8f 2d fd de bf 02 62 82 41 a4 cf f1 3f
       -0.48420275692544434 1.11319375600408
0000f0 d4 62 0d e5 3b 04 e1 bf 8c 03 ce c2 6a 30 d9 bf
       -0.5317668412854695 -0.3935801412954383
000100 b1 ef 5f 85 35 8f ca bf 47 42 5d 39 86 12 d1 3f
       -0.2074953938716795 0.26675563432676025
000110 48 ce f0 7b 1a 28 b7 bf 51 7c 69 91 a5 4f d5 bf
       -0.09045568014044492 -0.3329862518348295
000120 60 a0 4d 43 2a 6b a5 bf 42 6f 35 c2 49 8a 90 3f
       -0.041833229747511025 0.01615252731185924
000130 e6 f0 89 9a a9 ec b8 3f 68 96 79 d6 37 97 d8 bf
       0.09736118338509278 -0.3842296213609644
000140 4f f6 c7 ba 16 5a b8 3f ef e4 01 22 da f4 cb 3f
       0.09512464580617429 0.2184097925235515
000150 03 bc 3e d1 2d d3 a3 bf d8 83 bd 36 ee 55 d4 bf
       -0.03872054270993177 -0.3177447828839468
000160 12 89 cf 8a 66 d3 a9 3f 30 f7 a6 89 6b bd a0 3f
       0.050440983242667894 0.03269516043972798
000170 74 cf 2a 7c 3e cc ca bf 16 c3 e2 6a 5b c4 95 bf
       -0.20935803473332337 -0.02125685539130292
000180 e0 6a ce 14 20 97 b8 bf 6b dd 23 48 01 7c b7 3f
       -0.09605598934141879 0.09173591624482007
000190 ed 33 ee c9 73 72 d3 bf 62 50 48 63 41 a4 d4 bf
       -0.30386061401151104 -0.32252535529665327
0001a0 cb 94 37 ac 43 0f c4 bf 51 9c bb f0 71 c8 c8 3f
       -0.15671583088911797 0.1936170983746899
0001b0 40 c0 06 81 8f a2 d4 bf c3 b3 07 e8 39 57 c9 3f
       -0.32242190933448356 0.19797443227380826
0001c0 07 f9 bf 42 88 88 bb bf 81 9b 24 5a e5 a0 d5 bf
       -0.10755206708561015 -0.33794530680682305
0001d0 49 9d d7 d0 3c 6a c1 bf 8b 42 7f bb 9b 6a c1 bf
       -0.1360546130883711 -0.13606592803127557
0001e0 f1 50 06 b5 90 98 a7 3f f7 c6 ba d8 9f 91 8c bf
       0.046085855577219344 -0.013949631501734212
0001f0 a0 63 2f dc 03 c6 37 3f f1 4b 86 9b 14 79 c2 3f
       0.0003627547668521528 0.14432008356069972
000200 76 1e 3e b5 88 0d a3 bf 59 00 c8 03 f4 05 c9 3f
       -0.03721263134417267 0.1954941767180596
000210 f5 41 55 3a 15 e1 b5 3f f7 8b 8c 53 0e f5 d7 bf
       0.08546574281832149 -0.37433202895243717
000220 d4 13 f9 f2 b9 56 a7 3f d1 b5 a6 82 3d e6 d3 bf
       0.04558354464510442 -0.31092775114924814
000230 82 3f f4 7b bd f8 d2 bf 19 23 fa 69 2d ea c2 3f
       -0.2964318953026962 0.1477715270487117
000240 88 bd 94 a0 1a f3 ce bf e0 52 91 fe 1d cd eb 3f
       -0.24179394570226642 0.8687887165093251
000250 d6 d8 02 ed c0 6b d6 bf a2 17 d0 7e 39 b0 dc 3f
       -0.35032675881974507 0.4482558954626886
000260 c3 5a 2b 44 f9 25 d6 3f 69 d8 53 bf f4 88 da 3f
       0.34606773049510425 0.41460913357094015
000270 49 d0 29 9a 47 ba e4 3f 41 6d 6f 8f 48 b0 d4 3f
       0.6477392207148195 0.3232594872221917
000280 79 c7 2d d4 42 55 3d bf 78 47 4f 3b 0b 3f d3 3f
       -0.0004475868374164065 0.300722892684568
000290 83 56 f7 10 8e 61 a2 3f 34 1e fd fb 7b 42 d0 3f
       0.03590053517443172 0.25405788048053357
0002a0 04 bf b2 2d 22 ff ce 3f 7b 1a b6 5a dc 3c ca bf
       0.24216105681761502 -0.20498232297196126
0002b0 ee dd f1 cb 20 59 d4 3f 08 e2 2f dd eb 63 c2 3f
       0.3179399482391706 0.14367435741566248
0002c0 7f 34 b8 e4 14 1f bb 3f d4 53 de 7c e8 a1 cb bf
       0.10594301780675329 -0.2158785447797117
0002d0 02 b2 ee 4d ad fa b6 3f e0 18 75 d9 3a 5f d6 bf
       0.08976252701422285 -0.3495623706443336
0002e0 49 00 54 4f d4 d1 bb 3f 3a 13 83 31 3c 6f d6 3f
       0.1086704915687743 0.3505392535701507
0002f0 c9 83 2e fa 9a 38 c5 3f 2b 92 fc bc c5 39 a9 3f
       0.16578995910552255 0.04926889354672811
000300 f6 ad 71 e5 a8 16 be bf 16 c0 20 42 ee 25 b2 bf
       -0.1175332603613056 -0.07089127649737778
000310 af 9e 5f de 12 9a 9e bf 65 e5 8e c9 3a 73 dd 3f
       -0.0298846195436499 0.46015805896202827
000320 11 89 83 6d ee 12 d5 bf 46 39 c9 d3 99 a3 bd bf
       -0.32928047842700986 -0.11577760143811586
000330 f5 30 19 17 1b 25 cb 3f 87 2b 3e 9c 5b 14 d4 3f
       0.21206987979747507 0.31374254472819313
000340 77 83 70 ec 41 43 d9 bf a9 29 14 dc a2 53 e8 3f
       -0.39473007287784107 0.7602094934857649
000350 eb 50 db 9e c7 33 b0 3f 74 d7 d7 13 d0 0b a5 3f
       0.06329009655320632 0.04110574953294491
000360 c8 bd 02 c2 d0 a9 b2 bf bf 70 51 d3 52 2e d9 bf
       -0.07290367828931388 -0.3934523643163281
000370 37 9b 32 4c 8c 5e b2 bf 49 24 0d 5d 52 63 d0 3f
       -0.07175518856329864 0.25606211745304513
000380 1b 13 dc 81 37 99 c9 3f 7c 25 29 64 16 b9 d1 3f
       0.19998830643466978 0.2769218423969375
000390 12 54 0c e1 a1 94 ab 3f 39 cf 25 f6 1b 0c d0 3f
       0.05386834976358314 0.2507390884195391
0003a0 45 94 94 60 2a d2 b9 bf 4d 9d 09 4e e1 67 d9 bf
       -0.10086312158507933 -0.39696533795218586
0003b0 fc ad 04 c0 ee b0 c4 bf 2b a4 11 69 1b ce a7 3f
       -0.16164955497639244 0.046494347167773085
0003c0 ff 37 32 39 5e a2 bc bf 76 48 f5 82 8c 6e b3 bf
       -0.11185253998175425 -0.07590559193821086
0003d0 53 f0 d7 c2 cd 40 b2 3f af fb 0a fc f4 d0 d3 bf
       0.07130132681771899 -0.309628721366546
0003e0 7e fe 8a d0 44 be c3 3f b4 21 94 88 df 86 c4 3f
       0.15424404318581603 0.1603660027397048
0003f0 bd 80 e4 a4 2b 64 c6 bf 94 c2 c5 ae f1 0b b9 3f
       -0.17493196059604613 0.0978385020914721
000400 a0 72 1b d0 b8 df d5 bf 94 f7 74 93 6a c4 98 bf
       -0.34177990267725455 -0.024186768770270442
000410 e9 67 fa 3b 1f 2c b3 3f 78 27 14 d9 9f eb ac bf
       0.07489199842748885 -0.05648517155539329
000420 85 7b 88 b6 ec d7 c1 3f 56 84 11 92 49 2c d0 3f
       0.1394019976878235 0.25270308746809655
000430 ab 6a 12 63 2e 0b c2 bf eb 9e 56 8a 8a a4 d3 bf
       -0.1409662231206615 -0.30691779622655585
000440 4c ff 45 e3 ad c1 c4 3f d0 b4 71 e1 6c cf be bf
       0.16216062161765377 -0.12035255912788334
000450 fd 7b 30 b9 73 6a a5 bf 77 8e 6e b4 3e 74 c8 bf
       -0.04182778964626974 -0.19104751405858497
000460 ca 93 db 8e d8 16 77 bf a8 ff e2 b6 66 fd a9 bf
       -0.005637021951518892 -0.050761422944105405
000470 db 2b e7 f4 e5 2f cd 3f 51 63 88 07 eb ab 96 3f
       0.2280242391410344 0.022140190443767086
000480 46 a3 80 7b b6 91 b4 3f d2 3d d0 80 ce a5 b0 bf
       0.08034840121457618 -0.06503000874385315
000490 24 2d 7c 6d 1a b7 c4 3f ee b3 d4 02 2b 87 de 3f
       0.16183786722135907 0.477000000729105
0004a0 1e f4 51 1a e6 8a c8 3f 67 61 f0 cd 2f 6f b0 bf
       0.19173885617411285 -0.06419657495314866
0004b0 f5 6f 7f a6 5e f9 d8 3f 0e ab 74 58 fc a1 b5 bf
       0.39022032031584725 -0.08450295600475163
0004c0 94 f5 99 33 36 ab c1 bf d4 d8 c5 11 02 47 df bf
       -0.1380374671897867 -0.4887089894831551
0004d0 c2 dc 01 ac 64 2b dd bf 94 c9 0b 0e b7 1e d9 bf
       -0.4557735137709181 -0.392499698368874
0004e0 7d c5 63 aa 07 7e b5 3f 45 a6 cd 9f 40 fc c7 bf
       0.08395431432633944 -0.18738563349625018
0004f0 60 10 59 45 d4 82 c4 3f 4a 37 ab 88 41 ba d3 3f
       0.16024258981827 0.30824316355289183
000500 ed a4 05 20 42 47 ca 3f 7e f0 1d 7e 9a 4f bf 3f
       0.20529963077141336 0.12230840281512376
000510 c5 55 c8 c6 1d 1a b5 3f 67 a6 57 06 0e f7 cd bf
       0.08242975333299458 -0.23410201368033087
000520 8c 20 49 a2 ca c8 c5 bf eb 09 76 33 3c 06 e2 3f
       -0.1701901714716353 0.5632611279582397
000530 70 49 b0 51 55 3d c5 3f 98 f8 f3 23 25 9a c1 3f
       0.16593424309446503 0.13751663451688922
000540 b7 8c 4a 75 b4 4b d1 bf 00 c8 69 e6 7d a6 a1 bf
       -0.2702456612989396 -0.034473356606113725
000550 7d 7d a8 8a eb a0 c5 3f e4 0a b6 95 ff b1 b4 3f
       0.16897339125078395 0.08084103970581286
000560 8b 2a 20 cf 12 11 a6 bf 6c 79 d2 48 a4 42 6c 3f
       -0.04309901026143333 0.003449746006096868
000570 91 69 a6 0c 8d a0 d6 3f 1a 18 06 00 0b ba b0 bf
       0.3535492538009289 -0.06533879042226012
000580 06 00 14 da 8e 33 cc 3f b9 dc 46 f4 fb f1 df bf
       0.2203234257540318 -0.4991445432201079
000590 1f e8 e4 4d 6a 26 b2 3f 04 37 11 31 5d 80 90 3f
       0.0708986702128702 0.01611466991408063
0005a0 15 ab ae d2 f6 6c cb 3f 3b 14 01 b9 ef 87 d8 3f
       0.2142628220293196 0.38329690043275705
0005b0 ba ef 87 25 29 ae ad bf ae 56 3e 17 f8 53 c5 3f
       -0.057969365912839035 0.16662503371178644
0005c0 f1 55 48 18 40 b7 bc 3f ee 5e fd 15 7a 2e 87 bf
       0.11217117874942752 -0.011319116397927566
0005d0 c7 68 24 2e 23 91 a3 bf 2e d8 58 81 89 75 d4 bf
       -0.03821668565997665 -0.3196738970904133
0005e0 23 fc c4 44 5a 65 c1 bf 86 78 50 fb 1e 0a de bf
       -0.13590553624996557 -0.4693677381745903
0005f0 6a 25 b7 a5 99 fd c9 3f 4d cb 7e a0 57 51 c1 bf
       0.20305176345417958 -0.1352948697727591
000600 c3 9b 9f d1 ff 7a c5 3f 90 07 d1 b7 88 aa b2 3f
       0.16781614051362057 0.0729146431704335
000610 71 2c 2f 03 dc 32 e1 3f c4 d3 f4 bd 9b e2 e6 bf
       0.5374584257309732 -0.7151621542058071
000620 f6 23 e4 e9 2a 7a ce bf b3 48 d2 7e d1 b5 d1 3f
       -0.23810326023547618 0.2767223108759353
000630 b4 4b f5 7a fb d7 e0 bf 21 6e b2 1f 8b 98 eb bf
       -0.5263650323416784 -0.8623710269052404
000640 a7 68 44 75 05 d3 e1 bf c4 c3 85 c3 36 2b e3 3f
       -0.557009438550513 0.5990251368331134
000650 77 3c 4b 68 3d d1 e4 3f c3 a9 ee bb 83 c7 e0 bf
       0.6505419766416612 -0.5243548079063703
000660 d5 1d 23 b5 5c 89 c6 bf e6 a0 2a 56 0c 0c dc 3f
       -0.17606695980633327 0.43823536314677225
000670 84 fc 4d 7a aa f3 cb bf e3 e3 0a fd 49 99 d1 bf
       -0.2183735940161321 -0.27498101912675404
000680 28 24 f6 48 ad 61 d4 3f fd e8 cc 04 ff 72 d5 3f
       0.31846172452111654 0.33514380902091984
000690 c9 a0 4a cd eb 57 d1 bf ab 68 07 a9 68 47 d8 3f
       -0.270991278152462 0.37935844904644495
0006a0 6f 92 61 25 87 8e b7 3f 75 64 c4 92 b2 7d e3 3f
       0.09201855337739472 0.6090939394517948
0006b0 48 c0 33 1e b8 b4 8a 3f cd 37 27 ea 85 b1 b4 bf
       0.013040007039734416 -0.08083378759985678
0006c0 05 c8 78 84 ed b9 d4 bf 62 1a d7 09 4f 2b b5 bf
       -0.3238481324834768 -0.08269208898773564
0006d0 07 20 17 13 8c 16 ca 3f 49 27 5b 9d 01 d6 e6 bf
       0.2038130849089159 -0.7136238168106753
0006e0 b6 e3 cf 9c 26 34 d4 bf 65 4e 2b b1 46 e1 ec 3f
       -0.3156830340736251 0.9024995289168599
0006f0 93 03 5f 21 a6 94 c7 3f b3 67 48 87 fd 12 e0 bf
       0.1842239058442173 -0.5023181574099368
000700 3f 96 54 38 67 cc d9 bf 0a 6a 37 ea 87 d5 c0 bf
       -0.403100781450437 -0.13151644646025346
000710 39 8e 0f b5 33 ed d7 3f 8c c5 7a 91 14 4b bf bf
       0.373852660004761 -0.12223938514468652
000720 2b 0a 8b ab dc b2 de bf d0 eb 01 5b ef e3 be bf
       -0.47966686966188615 -0.12066551181662466
000730 dd d1 c7 34 29 4c b2 3f b2 24 3c a6 b5 38 d9 bf
       0.07147462404811429 -0.39408627733116497
000740 e8 4c 8a 76 32 c9 ce bf 38 f9 9d 3f 9d d5 d7 3f
       -0.24051504886720143 0.37241297924619543
000750 98 f9 1b b9 0e 9e d5 3f 99 76 36 3c ab 91 e5 bf
       0.3377720649440561 -0.6740318466215341
000760 0b f9 99 98 96 b2 cf bf ee db 4e a9 90 ab a2 3f
       -0.24763758136027322 0.036465187709317934
000770 87 14 96 7e 6d 0f 7f 3f 3a 4c 7c dd 6f 5c b9 bf
       0.007583072388461016 -0.09906672627794047
000780 59 c8 f6 ae 8e 38 c8 bf c9 1e d6 a4 5d 5a cf bf
       -0.18922599356807515 -0.24494524525311182
000790 cf 3a e3 b6 36 ac a5 3f eb 7b c8 74 83 ff c0 bf
       0.04232951147570462 -0.13279765322019385
0007a0 80 2e 74 ec 6d 46 db bf 64 b3 1f e0 40 7b d1 3f
       -0.426173668777416 0.27314779173939585
0007b0 12 55 6c 5f cb 3e 92 bf c1 ad af fc 27 30 cc bf
       -0.017817666720550802 -0.22021961057849462
0007c0 f6 66 53 7f b8 ec c6 3f 82 a5 6c a6 80 d9 d3 bf
       0.17909914223746853 -0.3101503014791761
0007d0 7e 6c 95 76 3b 44 d5 3f 38 c2 f2 92 94 19 c5 bf
       0.3322895677608314 -0.1648431508561019
0007e0 bd 8f 92 54 09 02 c2 3f f9 82 73 44 c3 90 c9 3f
       0.14068714742199787 0.19973030893654434
0007f0 f4 fa 05 34 1d 39 da bf 9e 7b 28 30 40 c6 c8 bf
       -0.409735966495574 -0.19355013228866097

lstm.bias_ih_l0 f8 [32]
000000 6e 1a 86 14 e7 b2 d9 3f 0a 30 a5 ed 3e b4 da 3f
       0.4015443516185887 0.41725133140130366
000010 3a fb 33 13 38 15 cc 3f 2a ac be 20 23 3c d7 3f
       0.21939755380295783 0.3630454845212535
000020 62 29 bc 63 d5 25 cb bf d4 ce d1 4b c2 12 ce bf
       -0.2120920884120308 -0.2349474783146578
000030 e5 df 1a 70 61 30 d0 3f db 8d e1 5d df 4e a7 3f
       0.2529529185080704 0.045523624620525026
000040 c9 ef df d6 e6 f9 b3 3f 17 db a1 26 8f 69 c8 bf
       0.07803194757428779 -0.1907214106210737
000050 ec 26 f1 c4 84 a2 b0 bf 1a c1 0d bf 56 15 b3 bf
       -0.06497983749536801 -0.07454435505292559
000060 c0 78 ff 6a 52 95 c6 3f 89 10 9d 8f 04 2d d4 bf
       0.1764319441271649 -0.3152476694560922
000070 73 42 f9 d7 f3 b1 c9 3f e8 5c aa ff c6 92 d5 3f
       0.20074317975606312 0.3370835777981953
000080 15 9d aa 23 8f 36 d7 3f d6 e7 f3 4e 25 65 de bf
       0.3627050255112903 -0.474923445799161
000090 59 aa 46 fe 20 bc c1 3f 18 06 98 41 d0 8c a5 bf
       0.13855373779127225 -0.04208994675355998
0000a0 42 27 96 de ee 3d b6 bf 75 6c 87 83 03 15 c0 3f
       -0.08688252386323561 0.1256412880164565
0000b0 d1 24 97 e5 da 4b d8 bf 77 b6 fc 30 dd f0 cf bf
       -0.3796298257917217 -0.24953808681441433
0000c0 69 0a a8 d5 22 b0 de 3f 6d 54 5d 9d 1e 31 ca 3f
       0.4795004927147262 0.20462401088539953
0000d0 fa 65 e2 6f 0d 22 65 3f 2b 0a 91 54 d6 9e 8b 3f
       0.0025797140543317694 0.013486551719442982
0000e0 7e 20 c5 36 21 42 dd 3f 70 bc 88 2c 9f c6 cd 3f
       0.45716123913417295 0.2326239554836067
0000f0 a8 04 44 f7 f3 b4 ac 3f 01 9b 0c 42 36 ec 63 3f
       0.05606806176548079 0.002431970570245468

lstm.bias_hh_l0 f8 [32]
000000 c5 f4 93 0d fb 92 c0 3f 74 e3 e5 0d 06 5f c2 3f
       0.12948549426065462 0.14352489164937376
000010 96 8e 1a 50 72 f1 aa 3f d9 68 13 d9 48 80 c2 3f
       0.05262334087208591 0.1445399341526528
000020 fb d3 31 f8 04 a2 d3 3f 6e e1 b4 c1 a4 4b aa bf
       0.3067638801360883 -0.05135836472112741
000030 33 91 46 67 1c db d0 bf 55 4e b3 31 17 30 d2 3f
       -0.26337347112191195 0.28418521741443686
000040 64 1a 24 96 b7 e4 c4 3f f5 f4 33 57 90 02 e1 bf
       0.16322989302735202 -0.5315629676039452
000050 07 7b de d1 51 eb d6 bf b5 75 e1 3c a2 e2 82 3f
       -0.35811276907945494 0.009221332056933965
000060 f7 c1 f6 dc 46 dc d9 bf d4 18 eb 6a 75 a5 a1 3f
       -0.4040696294642027 0.034465474416309455
000070 1f 80 fd f7 05 3e 9c bf c1 86 bc 48 5d a4 c7 bf
       -0.0275803501712063 -0.1847035031469684
000080 53 4a 8a 1b 60 a5 bd bf 6f b0 36 99 33 a9 85 bf
       -0.11580467865341264 -0.010576632607659257
000090 07 bd 30 14 40 bd 65 3f 66 08 b2 f5 ca b4 b6 bf
       0.002653718141594322 -0.08869617937492222
0000a0 fc f4 53 b9 54 51 81 3f 8f 5c 7e 84 3e d0 c8 bf
       0.008455907731781391 -0.1938551089230924
0000b0 55 ad 34 d4 84 9b d4 bf eb f8 ea b3 59 95 cc bf
       -0.3219921181032153 -0.22330781254817764
0000c0 ee ba f7 07 aa 40 e2 3f 0f 5f a8 be 2e 53 d0 3f
       0.570393577157885 0.25507706278720915
0000d0 a9 22 d6 d5 e6 ed c3 3f 94 4a 2e ce 34 6f e0 3f
       0.15569768372758588 0.513574984261441
0000e0 63 4b ad 33 a5 04 8a bf cd af cd 35 8a fc a2 bf
       -0.012704172744326397 -0.03708297640591205
0000f0 57 d7 1c 62 c6 c7 da 3f f2 77 37 94 fa ad c7 3f
       0.418443294346948 0.1849969123567799

lstm.weight_ih_l1 f8 [32, 8]
000000 9a 08 0a 34 8a 36 e2 bf 55 7d eb ea f3 d1 cd 3f
       -0.5691576973333838 0.23296975107858012
000010 3c 8b 78 ec c7 04 c6 3f 51 62 f3 4e 6f dc a4 3f
       0.17202090307645246 0.04074428404573339
000020 d0 d2 7e 97 33 87 e4 bf c4 68 75 8b 42 b6 cb 3f
       -0.6415040930647482 0.21649963197234545
000030 bd 2d 5d ae e8 76 d8 bf fc 79 4e 64 7e 08 d1 bf
       -0.38225762393696155 -0.2661434154087201
000040 af f6 d5 aa 6c e4 d8 bf 65 6b 0b 70 f9 ab c7 3f
       -0.3889419239347757 0.1849357411473093
000050 3d b4 45 96 ab 0e f1 3f 15 13 54 f9 27 1f 00 c0
       1.0660816068659777 -2.0152129629881395
000060 4d b7 d4 d3 f3 7f e3 bf 10 ec d1 d4 60 1c da 3f
       -0.6093691956827826 0.4079820707626718
000070 46 37 b8 d6 53 66 f4 bf 55 53 87 16 4d 18 f9 bf
       -1.27498229861108 -1.5684328918479953
000080 43 b1 ac 50 63 06 c1 3f 43 56 7d 5d 79 56 d0 3f
       0.1330074447554442 0.25527795915454393
000090 c7 53 3d b7 4e 12 d0 3f 9d 0b 1f a0 e3 ed d8 bf
       0.25111740011680833 -0.38951960217326037
0000a0 14 d0 46 63 19 6a 8f 3f 9d ad 1a fd 09 89 d8 3f
       0.015339086858922747 0.38336419789512793
0000b0 c3 e1 2e 3a 2f dd dd bf 1f 94 97 81 42 93 bb bf
       -0.4666250293917324 -0.10771575607175564
0000c0 91 02 0a e9 78 4e d8 bf df cb e7 13 c7 02 c9 3f
       -0.37978956945156833 0.1953972670740702
0000d0 ed 67 32 a9 d0 da ec 3f 02 2f 3f 2a 77 ce e5 bf
       0.9017108254076881 -0.6814533066876438
0000e0 25 18 61 a0 fa b1 de bf 9b 4c af dd 8d a4 d8 3f
       -0.4796129766658644 0.38504358910467723
0000f0 4d 21 75 8a fd a9 ce bf bc 2b 16 67 4d 9d e2 bf
       -0.23956269512769737 -0.5817019475374461
000100 67 43 7d 9d 13 4d bd 3f 8b 47 12 7c 5f aa e0 3f
       0.11445734591440059 0.5207974837560284
000110 b8 1a c1 9f ae 80 bf bf 3e 18 8b 88 37 9e ca 3f
       -0.12305728340389066 0.20795339743762215
000120 e8 01 b6 e2 dc ef e3 bf 83 1f 66 df ca 2f eb 3f
       -0.6230301311443869 0.8495840419063686
000130 11 0b a4 06 5b 2e db bf f5 24 80 19 e4 5a d0 bf
       -0.4247043194629195 -0.255547547247786
000140 d8 81 5a 80 fb 78 c4 bf 8d 27 3b 39 2b f4 c2 3f
       -0.15994209067595366 0.14807644171224546
000150 ec 4b 90 e3 3b a2 a8 bf a5 99 6b 2d 3a af d3 3f
       -0.04811274674297991 0.3075700229223009
000160 17 f8 46 72 a5 df d2 3f 9b ce c8 7f a4 28 df 3f
       0.29490028533825935 0.48685562590547143
000170 f9 bf 5e 0d 1a f8 d0 3f 9c 64 41 91 07 80 d0 bf
       0.2651429300849482 -0.2578143042097254
000180 6b 72 a0 ff 9d 85 b3 3f bb b3 9c 89 60 18 e4 3f
       0.07625758639228201 0.6279757201897306
000190 7b 6b e5 7f 54 a9 dd 3f 29 31 17 02 12 71 d0 bf
       0.46346008767948604 -0.2569012661376911
0001a0 be b8 86 de 3b c1 de 3f a5 e7 d9 1a ee e5 ae 3f
       0.48054405909614306 0.06034797742627455
0001b0 c9 a2 b8 f6 9b 47 e1 3f 36 e1 d5 94 1c 25 e1 3f
       0.539991361501131 0.5357802302305916
0001c0 93 56 50 3f 32 47 c2 3f 69 91 0c 53 15 27 d0 bf
       0.14279773799414794 -0.252385455229407
0001d0 1e c5 67 ca 41 a3 d0 bf 4c 79 c0 45 1f 6d cc bf
       -0.2599644161810647 -0.22208014398433773
0001e0 b5 28 25 66 a6 3e b2 3f bf ca e7 09 bb e8 d5 bf
       0.07126846307542929 -0.34232974974944946
0001f0 aa e5 6c eb b8 dd 91 3f 48 b4 df 83 68 f3 da bf
       0.017447366112923447 -0.42110646131806506
000200 56 36 b8 d7 99 9c c8 bf 29 9c 3e cd d4 21 d0 3f
       -0.19227908166105817 0.2520648960439212
000210 46 23 4f 37 d9 92 c1 3f 02 38 ba 55 88 e9 be 3f
       0.13729396057740412 0.12075092404322166
000220 8a 75 a8 30 74 60 c1 bf f1 26 a2 9e 4e a3 e0 3f
       -0.13575603843575507 0.5199349497135853
000230 ba 4b 63 18 b7 4f c3 3f 95 f5 5f 04 fb af 82 bf
       0.1508702153283517 -0.009124718733796647
000240 79 b4 eb f3 be a0 c0 3f 13 5f 8f e7 1f 6b d7 3f
       0.1299055758494523 0.36591336835179894
000250 ea 6d 01 c1 8c 30 bb bf 71 7b 8c 13 a0 99 9a bf
       -0.10620956146288277 -0.02597665900531915
000260 b5 03 c9 6c 98 6b cf 3f 4d 68 37 87 b3 67 93 bf
       0.24547105132844896 -0.018950276496845487
000270 a0 bb ac 15 01 cd e5 3f 46 9e c4 3b 34 a3 c6 3f
       0.6812749312720037 0.17685559194909412
000280 00 ed 81 39 7e 95 e1 3f 9a 1c a6 d7 85 7a a6 3f
       0.5494986651605416 0.04390352494652312
000290 9c 31 4e 40 50 0b af 3f 8e 3b c2 3a f3 5e d1 3f
       0.06063319001177378 0.2714202951255452
0002a0 bb 75 b3 73 5e a3 ab bf 27 4f f3 b8 93 3a cf bf
       -0.05398078119626911 -0.24397512942106767
0002b0 6d 18 cc 0b 78 f5 d6 3f af 0a 1f fd 79 e9 d6 3f
       0.3587322344977853 0.35800027579186183
0002c0 f2 4d c5 2a 2f 8f d2 bf 32 3b e4 04 a3 4b b1 3f
       -0.2899892728503054 0.06756037587568356
0002d0 ae f1 02 4c c5 aa cb 3f 24 1c d2 c8 55 72 b1 bf
       0.21614900790690456 -0.0681508651051535
0002e0 05 32 25 c7 53 14 c4 3f 1b b6 08 07 be cf cc bf
       0.1568703386677869 -0.2250897917123645
0002f0 11 83 83 e5 25 37 cc 3f dc 31 15 df 54 a5 bd 3f
       0.22043298441624207 0.11580400892598369
000300 58 1f a1 82 77 5a e1 3f 11 a8 05 5b 53 8f e1 3f
       0.5422933150630156 0.548745801713496
000310 4a 54 01 9c ea f2 ef bf f1 33 ac 3a 77 f1 e1 3f
       -0.9984028861023344 0.5607257982206858
000320 3b 24 c4 60 3e f4 e1 bf a3 68 00 3a 5d 72 cc 3f
       -0.5610649003948603 0.22224011737927638
000330 ff 79 93 65 68 ac ca bf 69 af 93 fd 1f e5 c8 3f
       -0.20838646850366158 0.19449233895954457
000340 89 30 57 18 74 0e db bf 0b 51 b6 d8 de d0 dc 3f
       -0.42275717141161145 0.4502484432535005
000350 56 a1 76 54 c3 99 b7 bf a0 df f0 75 d5 ce bb 3f
       -0.09218998729796132 0.10862478379647067
000360 ad 2a c7 2e 83 e8 c6 bf 2f 24 1e 07 02 26 df 3f
       -0.1789707163246325 0.4866948194035698
000370 e9 dc 59 dc db a6 d7 bf 2d da c5 65 8e 08 d2 bf
       -0.3695592548242091 -0.28177223147159475
000380 75 58 d3 6d f1 63 e0 bf 61 a1 03 ce 05 28 e3 3f
       -0.5122000832586894 0.5986355804171063
000390 d2 e2 71 2d f0 5e 9c 3f 8d 55 4a b8 ac e3 d1 bf
       0.027705910466894697 -0.2795211600981354
0003a0 4d aa 8c 7d ea 86 b6 3f 21 d9 0d 0f e9 25 dd 3f
       0.08799615445301719 0.4554388663303986
0003b0 1f da 3e 3e dc 18 e0 3f 2a 60 b7 73 8f 63 cf bf
       0.5030347076161127 -0.24522584104738715
0003c0 4c f9 27 13 17 56 cb 3f bb 46 b3 3d 54 08 c5 bf
       0.21356476245268607 -0.16431668293676246
0003d0 62 6d 67 34 31 c6 dc 3f 34 4c e7 72 12 79 c0 bf
       0.4495966922529161 -0.12869482622645168
0003e0 a2 06 90 20 bd f7 c1 bf 60 a3 14 24 37 1b d0 3f
       -0.1403728875157429 0.25166109584329455
0003f0 de 21 63 a6 72 70 d4 bf 1e d5 86 ee ea 5b c5 bf
       -0.31936327217820615 -0.16686760565577513
000400 73 b1 66 be dd 35 df bf f5 ed 04 56 69 4e e3 3f
       -0.48766273111211617 0.6033217124999611
000410 de ed 08 bf 5d 6e e0 3f a6 ff f5 91 a8 49 b6 3f
       0.5134724360609046 0.08706143916606254
000420 82 ce 88 40 65 af de bf 69 d3 3f 5b 3b 77 e8 3f
       -0.4794552927225838 0.7645546705449365
000430 14 b3 b4 81 b8 67 e1 3f e7 39 e0 ea 4a 8c bd 3f
       0.5439112218205957 0.11542194589876652
000440 2c df 1d ac 6d 0d ac bf d3 3f 41 8e 6d d9 e0 3f
       -0.05478995061906597 0.5265414980331066
000450 23 51 ec 69 35 65 e5 3f d9 14 aa 37 fa ae de bf
       0.6686045712290575 -0.47942977367376965
000460 3c 79 28 15 8d 28 e0 3f 1c 24 e7 60 5e a2 d2 3f
       0.5049500859493388 0.29116019690678896
000470 2e 07 d3 a9 71 2e e7 3f fe d1 1d b4 a6 be d0 bf
       0.7244194332963383 -0.26163642491817984
000480 8a 60 4e 8e 01 39 e0 3f de 9c 86 1d 7d 4d e1 bf
       0.5069587497155379 -0.5407090737034215
000490 a8 dc 51 aa 73 b9 c4 3f bb 95 76 5c c4 6f d3 bf
       0.16190954033274818 -0.30369671849834007
0004a0 2a 5f 8e 10 62 84 e6 3f a2 a7 e1 20 3c 69 c5 3f
       0.703660042129717 0.16727401357212296
0004b0 1c 69 83 e5 5d fa d1 bf 02 a9 31 15 fe 53 79 3f
       -0.28090617574129495 0.006183617125410603
0004c0 77 3f 9b ef 98 d1 dd 3f ec 11 5e 5c 67 1d e5 bf
       0.4659178104311574 -0.659839325337598
0004d0 75 38 c9 b3 f8 3a c0 3f 95 ef d8 cf a5 2f bf 3f
       0.12679966715444704 0.1218207962455707
0004e0 a1 8f 05 28 79 35 d9 3f 4a 6b ee 09 7f 66 d7 bf
       0.39388874920245526 -0.3656308743463127
0004f0 75 eb db 45 73 a7 e0 bf 40 60 59 60 cf dc dd bf
       -0.5204407085833355 -0.4666021767529891
000500 5d 41 9d 7c 51 a1 d6 bf 60 c0 66 9a 9d 1b e1 bf
       -0.353596088117248 -0.5346210494663062
000510 18 59 7e cb 9f 80 e0 3f 7c 2b 6c 39 11 3b e3 bf
       0.5157011961444224 -0.6009603616270023
000520 0e 52 82 7c b3 93 e0 3f 65 ca d6 80 5b 36 c7 3f
       0.5180299217050235 0.18134635725944573
000530 3a 90 56 26 9a 37 de 3f fe 9a 0e 1c ac 5e c6 bf
       0.47214368576010524 -0.17476416940663592
000540 a2 76 a3 b4 69 05 b8 bf 23 cb 2c 06 5d 06 c7 bf
       -0.09383259449119888 -0.17988169480812485
000550 15 26 02 29 ef 95 b3 3f 85 ef e8 b2 af 06 cd 3f
       0.07650656462842449 0.22676655040583796
000560 31 f6 25 44 71 a1 c3 bf 9a fe e7 64 11 9d d5 3f
       -0.15336433246186368 0.3377116666233434
000570 5a 29 16 c3 8b 66 b4 bf 04 2b fc 5a 2d 32 70 3f
       -0.07968972695213009 0.003954102677890207
000580 19 e3 2a 70 da 67 b2 bf 65 ac 8d 40 be 04 bf 3f
       -0.07189717520203621 0.12116612506876974
000590 88 b9 65 3f ba ee b3 bf 8f 3e cb a3 2f 0b 98 bf
       -0.07786144302165188 -0.023480171558559134
0005a0 43 d6 56 e9 e4 71 c1 bf 48 60 43 5d 37 67 86 3f
       -0.13628827470317803 0.010939056905428526
0005b0 95 25 1a 73 06 11 cb 3f 17 5a f1 f9 33 64 b5 3f
       0.2114570676824711 0.0835602269374721
0005c0 a5 29 88 e7 c1 67 de bf b3 16 af 3a f4 15 d8 3f
       -0.47508285151038826 0.376339967068229
0005d0 11 43 6d c2 f2 d9 aa bf 55 b0 b4 be 89 92 d7 3f
       -0.0524440634095581 0.3683189737664681
0005e0 bc 69 a8 77 e3 7f b4 bf 84 1b 43 d0 cc a6 dc 3f
       -0.08007642432531886 0.44768066728686784
0005f0 4b 5e 4c 77 d4 84 c9 bf 72 bf 0c ba 0f f4 c7 3f
       -0.19936614823449114 0.18713566383803087
000600 af 0b 80 6b f4 1f de bf f9 a4 a2 dd 5e 4b e9 3f
       -0.4707003640943936 0.790450508958343
000610 60 a6 45 de a3 11 e7 3f 15 7d e2 48 e5 98 e3 bf
       0.72090333378328 -0.6124140189676007
000620 f8 dd 52 a5 e5 21 e1 bf 0d 2f a9 9e 11 9c c1 3f
       -0.5353878239611154 0.13757534262764928
000630 62 08 0d f0 f6 a6 b6 bf 0d 0a 3f 33 24 ae 78 bf
       -0.08848517761819744 -0.006025449187236476
000640 45 71 3b 39 73 2f d1 bf 19 ec 4c 18 7c 24 af 3f
       -0.26852112378198384 0.06082523152004899
000650 c8 f9 f3 67 df 15 ed 3f 13 32 2e b5 99 38 03 c0
       0.9089200048763866 -2.4026369242403773
000660 77 1a d9 67 1f 2c b8 3f 04 cf ad 48 1a 9d de 3f
       0.0944232586417487 0.4783387861018442
000670 93 1c 37 96 b9 23 f0 bf 77 9f c2 0e d4 90 ff bf
       -1.0087219112190595 -1.9728584839412784
000680 87 80 b6 bc 1a 46 d1 3f 0d 8a 48 63 64 5b c6 bf
       0.2699038355731393 -0.17466406677074567
000690 19 73 e8 ad 46 f6 b7 3f 23 31 26 0d 32 18 9b bf
       0.09360162492562231 -0.026459486057818126
0006a0 4a 42 1d 05 d9 03 91 bf 03 d6 28 16 8e 50 e1 3f
       -0.016616240441466958 0.541083377151779
0006b0 70 0b e1 bf f6 73 ac bf 16 04 ed fd 60 24 b7 bf
       -0.05557223408006606 -0.09039884757386604
0006c0 85 86 23 81 83 9d ee bf fd 14 71 13 fd 41 c3 3f
       -0.9567277452699307 0.15045131158164074
0006d0 2b bc 46 b5 ee c5 dc 3f f8 02 e7 8e 51 6e dc bf
       0.4495808382297947 -0.4442333121806281
0006e0 b2 a6 02 34 4e cc d8 bf b2 e0 a3 18 b2 58 f1 3f
       -0.38746981696258864 1.084154220820022
0006f0 61 6e ba 8d ad f2 c4 bf b0 4a be 36 8e c9 d5 bf
       -0.16365594311070011 -0.3404269728281788
000700 de 96 4b 1a f9 8c c3 bf 77 66 f6 b5 da e3 e3 3f
       -0.1527396562952878 0.6215642503695581
000710 19 dc 92 61 e0 1d b4 3f f1 a5 11 9d 87 49 ca bf
       0.07858087904138279 -0.20536894959813837
000720 65 a0 14 a1 bc b1 eb bf b4 d7 9c 44 2e 73 e2 3f
       -0.865446390734189 0.5765601482478275
000730 c6 e4 83 91 1e 1a d7 bf 0c 8a 9d ea 8a c9 d9 bf
       -0.36096920214147266 -0.4029261866727729
000740 5a 4a 3b f9 ae ef e3 bf fd 44 c6 c1 5d c3 57 3f
       -0.6230082385830642 0.0014503875346217325
000750 1a 60 9b 85 8a 61 d9 3f 30 d2 14 e0 5b 98 a4 bf
       0.39657843635132084 -0.040224906066587685
000760 8a c8 06 3a 41 aa 46 3f d6 d1 a1 be c1 c0 ea 3f
       0.0006916826715068919 0.8360298846515046
000770 fb 81 25 9d 2e cb c9 3f 81 81 f7 d3 76 ea d0 3f
       0.20151312516374262 0.26431055736431835
000780 e8 54 57 09 7a 81 d0 bf 5b c4 99 38 48 ab e5 3f
       -0.2579026309225143 0.6771584611398213
000790 d0 a7 f7 f5 bc 74 de 3f 78 4c 39 cc 14 e0 b5 3f
       0.4758751298928674 0.08545045839245968
0007a0 7e 11 1d 6e cd af b6 bf a2 19 6a d6 3b 86 d1 3f
       -0.08862003267592475 0.273817977322688
0007b0 d7 65 ed 6b be 48 e1 3f 25 be 5b 1b a0 6c ba 3f
       0.540129862590386 0.10321999233178099
0007c0 ab b1 b5 82 b8 39 b8 bf 8a b3 87 5f bc 54 ce bf
       -0.09463074866443459 -0.2369609323935971
0007d0 d8 40 c2 db e8 3c ab bf f9 56 cd 1b 7d 5e c0 bf
       -0.0531990783939606 -0.1278835664513094
0007e0 84 df 42 bd 30 a3 c8 3f e2 ad fb 18 ce 79 d1 3f
       0.1924801754118982 0.2730593914008904
0007f0 85 6d 97 44 fa 00 d6 bf a3 76 9f 08 99 46 ca bf
       -0.34380966852560163 -0.20527947350540385

lstm.weight_hh_l1 f8 [32, 8]
000000 5c 99 8a 0b cc b8 d8 3f be dc 97 f1 a0 5e ab bf
       0.3862791168889055 -0.05345633458267106
000010 af 52 e0 35 d0 2f d5 3f 49 b9 39 fa 97 79 c2 bf
       0.33104329358438184 -0.14433574407616792
000020 7f a2 d2 43 9f cf ca bf af 40 9f 1b 7a 4b c6 3f
       -0.2094611245313622 0.17417837475523387
000030 7d 83 02 58 c9 b6 de 3f 5b b4 0b 7d 07 81 c5 bf
       0.4799064025374305 -0.16800016027210316
000040 d5 cc e9 10 63 17 a0 bf 4b 34 4f a7 d5 3f d1 3f
       -0.03142842847310027 0.26952115382011205
000050 32 05 96 ff c8 f8 d9 3f 42 00 9f 3f 0b 81 cc bf
       0.4058096404988475 -0.2226881085061923
000060 63 65 37 40 ab 8d db bf e1 c7 50 ca bc 77 d5 bf
       -0.43052178641445077 -0.3354331947076599
000070 1a 9b bd 88 90 e4 e2 3f 0c dd 59 4f 50 3a b0 bf
       0.5904009505000858 -0.06338979661255822
000080 2d 4c f6 82 e1 8a d7 3f 34 26 8c d6 cc ea da 3f
       0.36785161771075786 0.4205810637655276
000090 f8 48 6f 13 25 8e e0 3f f9 65 55 c2 6f 70 97 3f
       0.5173516635498165 0.022889848934346067
0000a0 d0 1e 81 fe 66 c6 d3 3f 5a aa 27 5f 17 f7 bc bf
       0.30898451665823945 -0.11314531396025398
0000b0 f9 c2 f4 6d d4 4b c7 3f fa 7c 4c 64 76 27 94 bf
       0.18200164193105886 -0.01968178736853774
0000c0 eb 2c cf 72 fe 5b d8 3f 27 27 b5 67 99 90 b1 bf
       0.38061486446231524 -0.06861265928196457
0000d0 61 3a 09 ac 06 bd d1 3f fb aa f5 4b 9c 94 d6 bf
       0.27716223526377887 -0.3528204671662675
0000e0 de c3 25 74 65 71 b0 bf b9 91 49 5d 2d 1b d2 3f
       -0.06423029027588664 0.2829087649354523
0000f0 41 50 57 bf 22 80 c1 3f 35 7d cb 8c 4e 23 b5 bf
       0.13672289221597292 -0.08256998956084234
000100 f7 79 a9 07 e5 27 d2 3f de 82 8e e9 7a a5 c2 3f
       0.2836849760841739 0.1456750526822565
000110 f3 d5 f7 b9 eb c8 d9 3f 6c 75 ba 1f 29 8b d2 3f
       0.40288823281238634 0.2897436914298257
000120 9c af d6 49 4f ff e1 bf f9 4e b6 15 b1 56 cb bf
       -0.56241573735814 -0.21358312187350473
000130 35 37 64 0d 48 41 e0 3f b0 45 f7 8f 60 6c d7 bf
       0.5079689275314424 -0.365989819137293
000140 1d 8f 5c 87 a4 03 c7 bf 29 25 c7 4b 4e cb e4 3f
       -0.17979866609049902 0.6498176078831978
000150 75 f9 6a 8c de 09 b6 3f 34 82 30 9f 2e 2b 46 3f
       0.08608809402628544 0.0006765344281838893
000160 16 8b fb 13 20 6f c5 3f 43 b5 ec 4e e8 71 d4 3f
       0.1674537751742597 0.31945235927090126
000170 59 02 97 b4 8c 9e db 3f 60 55 5c b6 aa 4d c9 bf
       0.4315521014760058 -0.19768270401315657
000180 f8 44 8b 2f 12 27 d1 3f da 05 0c f9 22 d1 c8 bf
       0.268009706906994 -0.19388234291549972
000190 2e 3f 75 2b 6a 71 c4 bf 2c b1 d0 0b a8 8e e2 bf
       -0.15971114274952342 -0.5799141150251095
0001a0 c6 5c 34 f7 d5 09 e2 3f 13 5e c6 0e dc db dc bf
       0.5637006595815357 -0.45091916506632507
0001b0 21 a2 70 26 49 db c4 3f 41 ad b4 e3 a8 15 bc 3f
       0.16294206978751993 0.10970550116751544
0001c0 f1 89 c9 a3 45 c3 93 bf a2 d7 82 58 0c 87 c5 3f
       -0.019299591180592605 0.16818384477454368
0001d0 48 0d e1 33 80 07 b5 3f 33 c6 e3 17 ea 87 d7 bf
       0.08214570299701507 -0.36767055829031675
0001e0 2a 0a db 76 eb 89 d8 3f 16 7f ec 94 3a f9 c6 3f
       0.38341795546526447 0.17948086043997397
0001f0 d5 66 15 a7 13 38 bf 3f 4d 7c 8c 47 49 60 94 3f
       0.12194941357793294 0.01989855288695379
000200 05 05 3c b4 83 d1 d7 3f c2 4d 77 63 10 f0 93 bf
       0.3721627483465258 -0.019470459052014062
000210 e7 a9 e1 b8 a4 20 b6 3f f5 ef a1 6f 12 0f c3 3f
       0.08643559945782152 0.1488974614220521
000220 b9 35 c0 5a 28 14 dd bf 19 07 e4 5e 0a 73 d9 bf
       -0.45435532438645115 -0.39764651552842306
000230 0f f9 bd 69 f9 9b b7 3f 73 12 99 c4 e4 85 db 3f
       0.09222372848123349 0.4300472183133827
000240 90 ef 97 2c dd 05 ca bf 70 a4 99 8c 90 1d cd bf
       -0.20330395390908196 -0.2274647413753743
000250 22 7b cd 77 2c 3a c1 bf b0 f2 d2 0d 21 0b d6 3f
       -0.13458782052745116 0.34442926740647817
000260 a1 40 72 18 72 14 cf bf ae 98 a1 b7 aa d5 b4 3f
       -0.2428114528052037 0.08138529761490318
000270 fd ea 1e 2e dc 51 d9 bf 62 99 2c 94 3a 36 e5 3f
       -0.3956213426969695 0.6628697294261594
000280 6a c5 95 7e 76 87 d0 bf d7 65 f7 db bb dc ce 3f
       -0.25826799737759265 0.24111126175448191
000290 15 10 3e 3a 64 95 cd 3f 20 38 5c bb 0d 18 e2 3f
       0.23112156719082635 0.5654362353686828
0002a0 70 6f 11 94 e5 34 8f 3f 59 66 f0 c0 00 f1 ba 3f
       0.015237611371212018 0.10523991308618842
0002b0 0c b9 da d2 33 e4 c0 bf e4 20 aa 0a e4 42 bb bf
       -0.13196418567299195 -0.10648942242017118
0002c0 42 3a ec f4 89 1a d0 bf 47 be 83 a9 5d f3 ee bf
       -0.251619805509936 -0.9672077475388016
0002d0 56 8a b8 70 d5 eb d4 3f e7 20 2c 22 d9 2b b9 bf
       0.32689414985558096 -0.0983253200939803
0002e0 6b b1 56 af 5d ec e0 3f a1 dd 8a c5 a8 6d e3 3f
       0.5288532661993889 0.6071361406565537
0002f0 95 a7 90 29 b2 92 ce bf b9 f8 d6 c3 bd 5e c0 3f
       -0.23885180501502803 0.12789127409445714
000300 01 63 26 52 7b 83 b9 3f 30 a7 77 7f 52 f8 d2 bf
       0.09966250186552018 -0.29640638778674866
000310 85 5e 74 6a d9 57 da 3f 3a eb 52 78 6e 46 f7 3f
       0.4116118945689567 1.4546951961662686
000320 12 62 d4 68 a1 04 e5 bf e3 bc a6 0b 1e a9 ac bf
       -0.6568152472928566 -0.05597776310184501
000330 a2 6e a2 a5 a4 f2 c2 3f f9 40 55 47 11 fd da bf
       0.1480298813593111 -0.42169601408114904
000340 d7 9c c9 0c a1 0b da bf 40 e7 8d 8d 15 85 da 3f
       -0.4069597840193188 0.4143728144041354
000350 8a 6a 8c 6a 9d 2f cf bf 03 69 46 7d 53 81 cd bf
       -0.24364059164584645 -0.23050922028489404
000360 6e 9d 9d 22 bb e7 cf 3f 4b b9 38 71 65 ef d6 3f
       0.2492593688032047 0.3583615880660502
000370 2b d9 60 d1 07 38 a3 3f b2 08 30 14 dc 84 91 3f
       0.03753685408485049 0.017108381969600024
000380 b3 bc 21 61 62 f1 e0 3f 73 ab f0 cf f0 22 c1 3f
       0.5294658562760531 0.13387880471540434
000390 dd 3a ac d3 31 53 c4 3f ca 20 b4 71 a3 19 e3 bf
       0.15878889880737904 -0.5968796940587933
0003a0 20 0a f0 c9 2d 4a db 3f de 3d 36 c4 26 8d 9b bf
       0.42640251846765587 -0.026905637479613158
0003b0 fd c9 20 ac 37 e5 e1 3f bd 12 a2 03 a6 2e 54 bf
       0.5592306482197383 -0.0012318249924031931
0003c0 bc a0 43 30 57 aa b1 3f 6e da 36 86 da e8 b1 3f
       0.06900544098209854 0.06995931412425602
0003d0 59 fd 1d b9 5f 60 b3 3f bd ef 4b 19 ea 62 c5 3f
       0.07568929929219816 0.1670811294096647
0003e0 06 57 70 99 d9 9e bf 3f 13 77 c0 07 b1 8a d0 bf
       0.12351760860505231 -0.2584650588704431
0003f0 7d 63 90 7e 65 c6 bc 3f c4 9f 95 fb 5c dc bc 3f
       0.1124022897714791 0.1127374757976432
000400 e3 3a 6e 0a ac 82 d4 bf 3d c1 a6 6f a5 3e a9 bf
       -0.3204755880223457 -0.04930607784206351
000410 7b ca 79 34 96 e9 cb 3f bc bd 13 0a e8 25 c6 3f
       0.21806600153248099 0.1730318116383226
000420 b7 f0 64 19 ce 88 d5 3f 3f 34 69 83 04 f1 b6 bf
       0.33647491912757793 -0.08961513717913848
000430 21 be 47 60 d3 77 c1 3f da 35 aa be 3b d4 d3 3f
       0.136469289790953 0.30982869739167784
000440 37 e9 a9 08 4d 41 d1 3f 11 6f 95 85 e4 e5 c0 bf
       0.269610651455554 -0.13201576731341239
000450 b8 cd 47 60 55 50 94 bf 7b f4 1a 2c 88 ef c0 3f
       -0.01983769798421317 0.1323099341733814
000460 6e 22 4b 8a 65 a6 e4 bf 76 9b 61 4e dc 86 df bf
       -0.6453120900196845 -0.49260623602315634
000470 4d 69 20 7d 45 f8 b6 bf 01 1e b5 38 5b c8 af bf
       -0.08972582154129789 -0.06207547251920787
000480 b9 65 3d c8 55 f4 bd bf 10 4b b7 fd 37 8c da bf
       -0.11700950754802521 -0.4148082711882788
000490 e4 37 f2 dd 60 6a d6 bf af fb d1 ed 2f e8 bc 3f
       -0.35024282144956786 0.11291789585264554
0004a0 f1 0b 16 f3 42 89 c8 bf ed a6 96 48 b1 b9 d8 bf
       -0.19168888921203078 -0.38633377159804533
0004b0 c5 f0 7f 2f ee 84 a9 3f a8 2b 2a d7 ca f0 31 3f
       0.049842303560554004 0.00027375175628979254
0004c0 30 45 91 59 97 47 c1 bf c1 24 ae a8 18 34 de 3f
       -0.1349972903576968 0.4719297072666216
0004d0 3b 8a 16 3d ab 7f d4 bf 7e ce 97 c6 44 87 a7 3f
       -0.3202922913134533 0.04595389293890849
0004e0 21 5c 1b 33 38 50 c5 bf 61 9a b1 3c 13 36 dd bf
       -0.16651060576870783 -0.4564254849159735
0004f0 d7 e4 62 14 99 74 df 3f cb 81 e0 af 84 93 d7 bf
       0.49149157515382796 -0.3683788030193937
000500 23 b3 b6 35 50 16 c3 bf 0e 99 6c 2d 31 cc b2 3f
       -0.1491184484742912 0.07342822417249215
000510 20 83 2f 08 4e 9b 90 bf b7 e6 d4 c1 19 e2 91 bf
       -0.016217440843209308 -0.017464067893547788
000520 5f d5 0b b4 84 51 a5 3f a6 50 11 b0 92 9e cf 3f
       0.0416375608237256 0.24702676388790684
000530 09 39 16 39 15 d4 cb bf ba 8c 85 95 8b 8f be bf
       -0.21740975654069697 -0.11937782669478994
000540 e5 35 42 f6 58 d8 c4 bf 5b 66 11 ae 3a 64 b5 3f
       -0.1628524019655934 0.08356062650400402
000550 5e 89 3e 08 32 72 e2 3f 51 0d 96 81 21 45 cc 3f
       0.5764398728390849 0.22085970714042927
000560 63 31 e5 62 d9 4c d4 3f 55 b9 31 ea 5e 70 b8 3f
       0.3171905008100763 0.09546464173920317
000570 db ec f6 f4 99 fd d9 bf 71 25 d7 21 02 7d ab bf
       -0.40610360071486945 -0.053688112860593835
000580 9f 5d df 71 ef cd c6 bf b8 a4 7f 9e 96 eb b6 3f
       -0.17815964756185296 0.08953229302973653
000590 2b 28 a8 dc b9 81 bf bf 96 77 b1 4a 95 f2 d4 bf
       -0.12307321202402537 -0.3273061017442783
0005a0 1e 57 05 c3 58 24 da 3f 50 cc 62 c7 ef 63 d6 bf
       0.4084684280872909 -0.349849648201773
0005b0 dd 5c b6 23 db a8 d3 3f ac b9 6c 32 d0 29 db bf
       0.30718115317854516 -0.4244270794323721
0005c0 ce 9e 71 9f 14 68 c0 bf 22 64 c9 07 12 ab d1 bf
       -0.12817628655760988 -0.27606631050508856
0005d0 2a 44 67 df b3 ab b7 3f f1 e5 9b 98 b4 2c e0 3f
       0.09246372417625595 0.505457208694848
0005e0 77 1f a6 0d dd 24 d9 3f c8 88 c7 72 eb 19 e3 3f
       0.39287496884252654 0.5969140283380279
0005f0 d3 98 7b 56 78 34 d3 bf 5c 22 18 67 4e 74 d1 3f
       -0.30007751889787676 0.2727237707881949
000600 99 58 c3 a0 05 ca c1 3f 8b 0b 00 42 8c 75 b7 3f
       0.13897772168883618 0.09163738833744454
000610 b6 c4 85 21 1c a4 9d bf 78 8f a0 31 d4 0f b1 bf
       -0.02894634203534415 -0.06664777957536028
000620 f5 e8 2d 30 38 65 d0 bf f9 08 5b 30 5e a2 b1 3f
       -0.25617794709218283 0.06888378792340068
000630 17 d3 2b 52 fe 97 a8 3f 4a 68 6a f7 e6 0a bc 3f
       0.04803461793009072 0.10954135456486927
000640 79 66 7d 41 03 7b 97 bf 14 45 f9 0b ef 9d c1 3f
       -0.02293019377916614 0.137632256361521
000650 98 87 18 52 f0 89 d4 3f 2d 90 c6 6e c4 62 e4 bf
       0.3209191133229239 -0.6370565570437116
000660 80 1e 6a f1 b5 ef d3 bf fe 00 8b e5 aa 47 d2 3f
       -0.31150578094136705 0.28562424103076
000670 b0 ed d2 3f 22 a0 d2 3f 4d ea 6d 3c e0 d4 ca bf
       0.29102379067236495 -0.20962145758297127
000680 ec ec e0 62 4f ee e2 3f 16 2e d1 12 63 e1 d9 3f
       0.5915905886862709 0.4043815311203799
000690 c5 6d ed 37 6b c6 d1 3f 4f 58 5f 24 9f aa 86 bf
       0.27773552381196637 -0.011067622468470399
0006a0 56 49 81 d6 1f dc ca 3f a6 82 ba ea 82 ce a5 bf
       0.20984266256216227 -0.04259118190134829
0006b0 11 07 dd e4 a8 77 a2 3f 6e a6 51 6d 66 89 c4 3f
       0.036069181382584976 0.1604431184562602
0006c0 21 67 bb d7 74 e0 ac 3f f7 10 61 9b 65 fd 43 3f
       0.056399966558912114 0.0006100412490544206
0006d0 75 48 13 26 cb 4c d1 3f 76 6d cd 1b ff 42 c4 bf
       0.2703121063069667 -0.1582945714716108
0006e0 35 f9 e2 cc 53 ca e2 3f 31 45 e5 73 f4 cd e0 3f
       0.5871981622401906 0.5251409782014546
0006f0 4b 6f bd 3e 6f 16 d5 3f 62 c6 b8 19 5a df cd bf
       0.32949429633093946 -0.2333786607355704
000700 70 d5 ed 80 d4 17 db 3f 53 9a 4b 50 5e fe aa 3f
       0.4233294734070432 0.052721926976847876
000710 a0 bc 31 63 c8 18 b1 3f 17 f0 b4 8b bc 28 d3 3f
       0.06678440496192417 0.29936135905495703
000720 df 3a 97 6f 70 07 df bf 81 76 ea b8 98 b6 d9 bf
       -0.48482905290158657 -0.40176981027784825
000730 f8 10 b1 39 ff 88 e9 3f b2 fa 01 7e f8 a5 ee bf
       0.7979732634344421 -0.9577600918854243
000740 a0 da a2 dc 4d d5 a0 bf 3b 7e eb e8 c9 b1 e6 3f
       -0.03287738149940833 0.7092027234284112
000750 91 6c 95 b9 c9 86 c9 bf c7 f9 70 e8 d9 68 c9 bf
       -0.1994259029550887 -0.19851230477975276
000760 a3 66 14 21 a1 0f aa 3f c8 5e 16 16 d0 33 a1 3f
       0.050900492942856056 0.03359842557546028
000770 fb 4c ab 20 3d ce ce 3f 6c 0a a1 41 81 3e d1 bf
       0.24066890807316796 -0.26943999680603414
000780 48 5a 0d 41 f0 ca dc 3f cd 94 8e 41 a9 e1 c4 bf
       0.4498863826060284 -0.16313663197539655
000790 ff 6b 55 6a f0 c3 c4 bf a7 5b c4 df ed 37 c0 3f
       -0.1622295874793451 0.12670682359813876
0007a0 1e 00 79 b3 99 d5 b5 3f 30 dd f6 46 3c 6f e1 bf
       0.08529053336769762 -0.5448285470983247
0007b0 24 f3 e8 96 8e 67 d6 3f 43 f3 b7 f1 3a 8e b9 bf
       0.35007061707783493 -0.09982651139575886
0007c0 d9 19 63 46 88 81 95 bf 1d 6e 95 39 b0 19 c3 3f
       -0.021001939102257203 0.14922144710259114
0007d0 79 c0 b2 ee c1 69 c4 bf e6 5a 6d 81 6b a3 d7 bf
       -0.1594774642485424 -0.3693493617951574
0007e0 4d 34 69 ee fd 2f e1 3f 7f 56 8a 89 3c f3 d4 3f
       0.5371083885635329 0.3273459761779591
0007f0 48 fa b8 18 f6 15 c2 3f 6d e7 98 26 0d 1d cf 3f
       0.1412952061381978 0.24307407745964885

lstm.bias_ih_l1 f8 [32]
000000 5d ba e1 82 3c 3b cd 3f dd f4 69 af 29 ef e9 3f
       0.2283702506133122 0.8104446817448224
000010 6a c9 8b f4 c3 0e 9e bf 22 51 83 66 96 6b e0 3f
       -0.029353200722604646 0.5131332399564921
000020 4d 84 7b 3d c5 cf d7 3f 34 26 b6 08 02 d0 ba bf
       0.37205630306386156 -0.10473644936259846
000030 37 9d e3 fd 5e e4 d4 bf 3f 95 dc a3 11 80 d8 3f
       -0.32643866342410227 0.38281670572390064
000040 2e 77 b5 47 4c 84 cc bf be 7a 73 22 95 a0 d9 bf
       -0.22278741361054116 -0.4004261814533655
000050 39 8e d0 ff 45 48 c1 3f 1b 5d a8 90 e7 93 99 3f
       0.13501811018896762 0.024978273586467297
000060 55 58 cb 74 4e 5e c9 3f 86 82 36 74 c5 dc c1 3f
       0.19819050505492677 0.13954990553340368
000070 9a 72 c9 94 cc eb ca bf 2e f3 da 91 92 95 de 3f
       -0.21032101883874504 0.4778791832321073
000080 dc 2f 64 27 53 49 c9 3f 8c a9 fe 8d d8 8e d8 bf
       0.19755019591718692 -0.383718622843525
000090 85 33 1a 74 0b cf cd bf 20 57 c2 9b c4 2b d1 bf
       -0.23288100403842918 -0.268296386822259
0000a0 65 1b 97 80 7c d4 bb 3f d0 80 4d 12 11 8a b9 bf
       0.10871103419695556 -0.0997629804310265
0000b0 9e 28 9a ea 89 da 82 3f 1f 0b 82 83 69 d0 c9 3f
       0.009205892059317041 0.2016727344635791
0000c0 ea e3 37 26 de 2e 6e 3f 69 12 96 56 15 85 f0 3f
       0.00368445766957536 1.032491052844444
0000d0 0d 65 b3 44 5d ed df 3f da 26 93 c6 3f 0e e4 3f
       0.49886256894167574 0.6267393949903763
0000e0 28 80 fd 3e 27 a2 ea 3f 51 2d 45 2c 68 bc c2 3f
       0.8322941046026289 0.14637472306854218
0000f0 2e e5 a9 11 aa 3a d1 3f 07 0c a4 32 cd 10 8c bf
       0.2692055866715063 -0.013703921420988875
