Trained_NNs_exp/LSTM_no_or_nextstep_exp0.pth (torch, 15627 bytes, 14 tensors)

lstm.weight_ih_l0 f8 [32, 3]
0.11444973399149214 0.21563320637988528 -0.2669834217094108 0.3674523127621172 0.221509864316973 -0.20170959698887747 0.7848070768467672 0.9772181992300567
1.6192233413893018 -0.48784180379374975 -0.040084387976710815 0.26629590962710836 0.14922448821231035 0.09779824473855245 0.5184819363476757 0.12412496741192412
-0.5477188236054187 0.5552586839512099 1.1227003456322389 0.4601319811192832 1.1434689198309063 0.856030234688779 0.07740739788338567 -0.053125185028919844
0.08430433879858383 -0.20037147525030471 -0.16153092412600117 1.0252452685327582 -0.1323092563966155 0.3870773894878246 0.32821793795710924 0.017014585063019463
0.5404326329074702 0.22414275509121723 -0.46942899253160353 0.5344608377689612 0.25174566593636616 -0.00970573505650033 -0.03529772571368891 -0.09710371002615535
-0.43454425726700163 0.12020243708294807 0.7065616640275783 0.3564057530134406 0.43630315210550075 0.03450183452332175 0.09027978165166445 0.05775787766632494
-0.2316293087772718 -2.325826152862213 -0.23660690297063763 0.02686429189863534 -0.5785252503037775 0.23650415456910778 0.06546002944071945 -0.15971572043233215
0.5459579702616175 -0.17023190254052245 0.07728823634595158 -0.47887915164573136 -0.0324103831529426 -0.4981179085086257 -0.01650908042517259 -0.14342926228646966
-0.33609965169103445 -0.14992719708531366 -0.005607127296804094 -0.5983588049780899 -0.5565242679051938 -0.30184161646753566 0.2845279466776785 0.17142025935871413
0.13196842012496268 0.16085263773002814 -0.23080236466614415 1.0943357656494694 0.3362616348469864 -0.2899994221864933 0.7713497547016118 1.1797204202606852
1.4978677549362862 -0.22500410993914038 -0.362137986990943 0.42912020941145473 0.5762916666577604 0.27821109501540947 0.18104064036732465 0.8712328686824846
0.15592964232496226 1.1658898084249787 1.1407023757349268 0.5551117817572804 1.1573935120273287 -0.0717742899686908 0.505185602803005 -0.44656933556545686
00000000: 0684 87e8 934c bd3f 25a7 aa70 de99 cb3f
00000010: ea3a 34a2 4116 d1bf 68c8 89b4 5684 d73f
00000020: 46cc 7d6b 6f5a cc3f 0ca4 2dbd 9ed1 c9bf
00000030: 3a3d 17bb 231d e93f adf8 d719 5f45 ef3f
00000040: 85fd 02bc 56e8 f93f 889c 3ad4 cc38 dfbf
00000050: 275b e1de f085 a4bf 520c baff fd0a d13f
00000060: cf2d 51bc c919 c33f 161f c246 4e09 b93f
00000070: bbc2 056e 6797 e03f 47ba a663 a7c6 bf3f
00000080: 643e 59a0 e986 e1bf 8a7e 0cdc adc4 e13f
00000090: 7e2c 3ba3 94f6 f13f 9010 b068 cd72 dd3f
000000a0: b5a8 ea10 a64b f23f 2f04 cc84 9964 eb3f
000000b0: 77aa 60a2 f8d0 b33f 0219 9668 3933 abbf
000000c0: a302 0d1a f894 b53f a72b a0c2 c5a5 c9bf
000000d0: 76f8 349a 0bad c4bf 86a1 2b95 6767 f03f
000000e0: c83c 977c 82ef c0bf bdc2 373e e0c5 d83f
000000f0: 3720 5fcf 8501 d53f 844b 9a79 456c 913f
00000100: 96eb 8060 394b e13f 5245 60b5 b5b0 cc3f
00000110: f4ea ade6 1f0b debf 02bc 669d 4d1a e13f
00000120: d0cf 86da 991c d03f d3e1 35b5 99e0 83bf
00000130: 6b7f 2023 8b12 a2bf 5ff2 e1ea c9db b8bf
00000140: a616 68b7 92cf dbbf e7b6 2b40 96c5 be3f
00000150: 9e62 f334 279c e63f 8022 5313 5acf d63f
00000160: 68d4 5b0e 64ec db3f cbfd db75 39aa a13f
00000170: 5c15 af65 931c b73f 7693 53c7 7092 ad3f
00000180: f729 ff78 07a6 cdbf 30cc f5bd 4a9b 02c0
00000190: 5624 228f 2249 cebf 9712 8a1c 5082 9b3f
000001a0: c7e0 be62 4783 e2bf 8008 9fa4 c445 ce3f
000001b0: 5da1 a40d fdc1 b03f 2bfc f491 9071 c4bf
000001c0: 3a74 68d9 7c78 e13f 1cde 12b3 28ca c5bf
000001d0: 66ac 786f 29c9 b33f 3c7f c3bd f4a5 debf
000001e0: e9ab 62ff 1798 a0bf 862c a6ef 29e1 dfbf
000001f0: 3577 0da2 c1e7 90bf 4fa7 67db e35b c2bf
00000200: 6170 0d1d a882 d5bf 4c95 217c d030 c3bf
00000210: db19 d4c5 7ff7 76bf faf1 545d c125 e3bf
00000220: 2aa9 42fb 0bcf e1bf 9730 d37f 5f51 d3bf
00000230: 95d5 71b4 b435 d23f 56a4 e85b 19f1 c53f
00000240: f84f 4558 57e4 c03f a14d 43b9 d196 c43f
00000250: a14f 0a90 ee8a cdbf e5eb 4438 6682 f13f
00000260: a74e 2485 4f85 d53f ba97 89bc 598f d2bf
00000270: cd12 47ae e5ae e83f 9b16 f784 22e0 f23f
00000280: dcf2 d22d 44f7 f73f b6bc d346 efcc ccbf
00000290: e2fb b0ce 442d d7bf 4364 5e9c b476 db3f
000002a0: c813 a838 fb70 e23f 1f6f 9ee8 35ce d13f
000002b0: 7af1 cff6 562c c73f 0c21 c6c0 23e1 eb3f
000002c0: d69f 21a5 80f5 c33f c1cc 5e12 7ca7 f23f
000002d0: 2804 6422 5140 f23f a8b2 88c8 79c3 e13f
000002e0: cb28 2c0f af84 f23f 1df1 1bc4 cc5f b2bf
000002f0: d15d 4eff 7a2a e03f 069b e98c 9794 dcbf

lstm.weight_hh_l0 f8 [32, 8]
0.1988040676144998 0.8417676039848385 0.4247106791351605 0.2782779133362944 -0.0701054470725401 0.13515454080905911 0.3163962435279772 -0.8228851911911379
0.5927446554328961 -0.3454472022601612 0.4395832052245275 0.23282793020079354 0.17517597063819157 -0.05516386999931977 0.5728371338306428 0.09032043867348395
-0.42922483953468865 0.21769064812305722 0.17077041504803533 -0.7649188555782399 -0.8947974841694529 0.6004569476597595 0.04537872038907481 0.5860283669550083
-0.11406617378901833 0.929607581587598 0.804714879112384 0.1651759927679189 0.9246457536552389 0.4752458838812118 0.24322526149827106 -0.12581926505639598
-0.4717253383345195 -0.2700881781714764 -0.07265943350010001 -0.2643783530579141 0.4627683783147579 -0.06045758737341244 -1.1940246191772614 0.1526602465560219
-0.5088398861612142 0.7530788172197056 0.5920641580969606 -0.8038964544196925 -0.07501439248690309 0.8622778580208896 0.7294773819954747 1.0459253340295198
0.22575874913440294 -1.3839386242002238 0.3325166063417859 -0.38928706264991336 -0.6464536645114427 -0.07372383207022484 0.0655958982289676 1.1840425384353979
0.7869875239184456 0.5043861988981241 -0.404472251323702 -0.830206077943461 0.3570624325176028 -1.203780625613574 0.23745402334794297 -0.7539787798920473
0.13279466949991783 0.47539242574606694 0.2991056783120178 0.33975859378881385 0.18334948519759586 0.051820034450162776 -0.26206808412915866 -0.9874070006099933
0.5296794350391851 -0.4700721149715327 0.24875725033593402 -0.032736893448085745 0.8785109340698674 -0.46531441356067543 0.05597563864254408 -0.11136491714778034
0.04380339336772368 -0.41199218273614524 0.0907600117622048 -0.19787646696020733 -0.5723565153238821 0.619272695591854 -0.11653821963582837 0.18081330094777576
0.19797335856718926 0.49435838503809815 0.220828732048488 0.6043851799245221 0.5974582379150746 -0.34312492615585166 0.40116819694828515 -0.15677306240314598
0.3629776326467055 -1.1369555728379228 -0.12489656310358621 -0.07808034030086876 0.24756232328420785 0.08704288105219087 -0.6449773740341651 0.5702067450995986
-0.0024770089836152406 0.3958579848904917 0.616303419340097 0.2510874277401442 -0.06693906794288326 0.8379243563466017 0.5817412747029412 0.6604701219788536
0.4654889158007349 -0.1638372146224505 -0.25423291699495765 -0.3096986744807875 -0.22155684290969566 0.01725395559308712 -0.6415179913947315 -0.3723310782933479
0.31285183781500026 -0.03880498171972998 -0.9157402178160949 -0.6799979625635851 0.48417358734171434 -1.2253861771690122 0.53190018844999 -0.6720169003350772
-0.17935938596459533 0.6886541789373524 -0.10951834969606579 -0.07312382638002718 0.28709770092394443 -0.19393356348663301 0.0967152650688534 0.23616857928010934
0.29039318884377896 -0.015526862007076772 -0.08530468723015526 0.5987028423453686 -0.06717917523683761 0.7957063302723696 0.8313526880205586 -0.061341766646581336
0.03728901196113305 0.16707000477016168 0.15783252688654698 -0.011284609444627653 -0.3221672489394831 0.04152781115588563 0.3584275788566822 0.00980694238352749
0.4549805799251733 -1.0104371374871064 0.05837062144296949 -0.11077169016983264 -0.0075181756450556836 0.3185284647506128 -1.1926066258241808 -0.15199039832723826
0.22286665228568855 0.5307739781581017 0.7401301239837861 -0.021272351338897093 0.3500590763532039 -0.3600541451016335 0.8425941499621071 -0.7525522848922546
-0.32832176888007036 -0.1136417028265779 0.06954512295738796 0.08012414504826793 0.32475767503244873 0.14059246899282996 0.2886633457364825 0.4604792703028306
0.18943934355376124 -0.26798291186340295 -0.4483822669492874 0.12281675458343322 -0.07678946294798426 0.2884772074095638 -0.09307362623778691 -0.07159082366396086
-0.18111838991387774 0.2474214673664959 0.3083830314268201 -0.5534679294908226 -0.5472307127415322 0.17489249276862062 -0.05005373552114203 0.16012346493950985
-0.01448413393822134 1.034088622383943 0.1608214116197948 -0.39741667088653476 0.23917916664007888 0.23614337654480425 -0.591889676999077 -1.0395793315601076
0.9738482268174394 0.08081868621593132 0.5587815697852123 0.270006890689531 0.28374124369489295 0.6821103569483448 -0.5943577353441972 0.5826725895555044
0.8434727261522862 -0.5466821599745035 0.01326556964171389 -0.6174723985426159 -0.6529232507745754 -0.3385921813699492 0.1674581394468337 0.6558176732074406
0.3013620997175644 0.3819635357049283 0.2623996102820908 0.27931707391301624 0.5022652095333128 0.4580818775045303 -0.43162588408023833 -0.7659574032907864
-0.34510508108376664 -0.6683382116463511 -1.0261494580438923 -0.4542092723009768 0.19972469739956072 0.6942535888337541 -1.0544314670677657 0.32961372306310655
-0.20344179653685657 -0.0004225321964600492 0.04103916193249347 -0.2405100194255003 -0.36341410749644315 0.42914944554022283 1.1073414905404513 1.1721438524457377
0.2240954815941645 -1.6236535344365859 0.4811446534484443 0.13302175171659952 -0.9986664038099647 0.39590128513447753 -0.28313710069995374 1.1261376052100422
0.9456017524923587 -0.34841308250545555 -0.47006897595361413 -0.3850181913467335 0.10283557032372004 -0.7482401893917862 -0.4127471550713163 -0.05580329854602394
00000000: 82a7 5b64 6972 c93f 244f 3e9d c2ef ea3f
00000010: 0c70 49b3 752e db3f db9f 3e2a 4ecf d13f
00000020: 5ab1 723a 6ef2 b1bf a924 5776 be4c c13f
00000030: 1bea a107 d63f d43f a8ea 1053 1355 eabf
00000040: 88d1 bea3 c3f7 e23f 09ef 0c95 ce1b d6bf
00000050: 59da 9398 2122 dc3f 4d65 e73c 4ecd cd3f
00000060: c4d1 778c 2a6c c63f 60c0 2253 703e acbf
00000070: 6495 778a ae54 e23f 2153 4382 3d1f b73f
00000080: 63ab 1b76 6b78 dbbf 92b2 2a83 49dd cb3f
00000090: 67b9 e011 cedb c53f 57ac 991b 377a e8bf
000000a0: cba0 6155 2ea2 ecbf 4d59 1b7d f136 e33f
000000b0: 68c4 0230 e13b a73f 9733 d38f bec0 e23f
000000c0: 93f1 00d6 7033 bdbf 4d09 2166 58bf ed3f
000000d0: 958d 0c6b 39c0 e93f bae2 82a7 7c24 c53f
000000e0: 6bb4 0ab1 b296 ed3f ce04 35b6 6d6a de3f
000000f0: 881a d95f 0122 cf3f 75de 4f7e d81a c0bf
00000100: cdd7 3579 bf30 debf f517 12ed 1f49 d1bf
00000110: 1cfa a002 cf99 b2bf 7ddc 092f 93eb d0bf
00000120: a207 9f42 ff9d dd3f 6fb3 2001 4cf4 aebf
00000130: 59c3 1f8f b91a f3bf a2bf 2df7 5e8a c33f
00000140: 14cf be95 6a48 e0bf a09b 68bf 3819 e83f
00000150: 8420 8588 30f2 e23f 3c4b a30e 85b9 e9bf
00000160: 0ee7 75aa 2434 b3bf 0878 08bc c797 eb3f
00000170: d2f3 5af3 e057 e73f 436f fb33 1cbc f03f
00000180: 73b8 28a6 a9e5 cc3f 75c7 a9d3 9c24 f6bf
00000190: 245a 67bb f347 d53f 0396 b548 14ea d8bf
000001a0: 9297 6e98 bfaf e4bf da6a ada7 90df b2bf
000001b0: 3729 a58d e4ca b03f 1a72 ba96 d6f1 f23f
000001c0: 2adf b275 002f e93f 3947 9a86 ee23 e03f
000001d0: 68c9 e494 dfe2 d9bf 98a4 3656 0c91 eabf
000001e0: 9bc5 9263 1cda d63f 7a19 2979 af42 f3bf
000001f0: e8a0 4ab8 e464 ce3f 5b75 301b 9820 e8bf
00000200: 51ea 4a6d 6aff c03f 1d1c 565a d46c de3f
00000210: 0b79 9924 8c24 d33f e7e7 36d4 9abe d53f
00000220: 08c0 54f5 fe77 c73f eb69 7bd2 2788 aa3f
00000230: 4b3f aa36 b9c5 d0bf 92c3 ee90 d698 efbf
00000240: 026d 5b49 22f3 e03f 3e1d 245a a915 debf
00000250: edf8 6a0f 47d7 cf3f 53de 76dd e3c2 a0bf
00000260: 9245 60f6 c21c ec3f eb6e 261b b6c7 ddbf
00000270: 6254 afc2 d6a8 ac3f 9b4b 1245 6982 bcbf
00000280: 74b7 effb 656d a63f 34cd c375 145e dabf
00000290: 76a1 4d52 0c3c b73f a0fd 1e1d 0454 c9bf
000002a0: befe 5e9c be50 e2bf c9ed dbf8 14d1 e33f
000002b0: 1be8 11e2 72d5 bdbf 0252 20e7 e324 c73f
000002c0: f93e 43e6 3057 c93f 0c7d 0f5a 91a3 df3f
000002d0: ed2b 15ab 1d44 cc3f 10d0 be96 1f57 e33f
000002e0: e645 12bd 601e e33f fa08 1240 c2f5 d5bf
000002f0: 9ba4 855f bdac d93f de27 f5c3 2311 c4bf
00000300: 1f6a 5989 063b d73f 4e80 a553 f830 f2bf
00000310: e8a6 e99d 38f9 bfbf 2183 0dbc 12fd b3bf
00000320: 261d 1d49 1fb0 cf3f d301 7837 7148 b63f
00000330: d65f 0497 a7a3 e4bf 0f2a 4537 223f e23f
00000340: f0e5 7212 aa4a 64bf 97c4 bdba bc55 d93f
00000350: 6f51 cff2 c1b8 e33f e729 a500 d111 d03f
00000360: 16b0 a333 eb22 b1bf e4f9 60bd 46d0 ea3f
00000370: b7a3 b2e0 9f9d e23f 3e4c bc3c 9222 e53f
00000380: 18f0 8005 92ca dd3f 80e8 552b 9ef8 c4bf
00000390: 76d7 0324 5a45 d0bf 2c9c a063 1ad2 d3bf
000003a0: 8746 4081 f95b ccbf 8feb fe5b 05ab 913f
000003b0: 5cc0 1abd 5087 e4bf 627a 23bb 45d4 d7bf
000003c0: c82b fab6 c305 d43f dbf4 d01e 3fde a3bf
000003d0: 8cdd e46d be4d edbf d5d4 5116 8bc2 e5bf
000003e0: f40e ce36 b3fc de3f f894 3e89 2e9b f3bf
000003f0: 4f20 448b 5305 e13f e38c 2996 2981 e5bf
00000400: 046b 7994 3ff5 c6bf e644 197d 7409 e63f
00000410: 99a9 4102 6509 bcbf 3450 dc3a 3eb8 b2bf
00000420: 8968 0e09 cf5f d23f 47cb 62a4 d0d2 c8bf
00000430: 6fa4 7ee4 54c2 b83f bfe8 2ca2 c53a ce3f
00000440: f42b 4450 cd95 d23f 083c 3d24 8ccc 8fbf
00000450: bf59 d929 87d6 b5bf c6a8 fcdc 9228 e33f
00000460: f24d 9d88 a732 b1bf 19ae 371f 6d76 e93f
00000470: 00ae cff3 709a ea3f f479 4023 3068 afbf
00000480: 9916 bf9d 8b17 a33f 39b1 50c7 8c62 c53f
00000490: 6683 9c32 db33 c43f 573b 1aa4 621c 87bf
000004a0: 4864 8261 639e d4bf dbf6 931d 2243 a53f
000004b0: 5c21 4b3a 7af0 d63f 2af1 7c86 a915 843f
000004c0: bbff c5dd 661e dd3f 53bc c221 c02a f0bf
000004d0: b61c 4a0c c1e2 ad3f a521 9a92 885b bcbf
000004e0: b76a 56e8 60cb 7ebf f0bb bc36 c562 d43f
000004f0: 3586 6eaf ea14 f3bf 5c8d 0fdf 6b74 c3bf
00000500: 07d0 77fb e486 cc3f 3d38 b8b5 19fc e03f
00000510: e46e a95e 25af e73f ce03 3d55 6bc8 95bf
00000520: f4b7 262f 5e67 d63f 5d0c 808a 200b d7bf
00000530: e36b bc01 88f6 ea3f ca8d 8487 e814 e8bf
00000540: cce7 f94e 3903 d5bf 4e16 1a65 9f17 bdbf
00000550: 7cc2 b28c b5cd b13f 702e 9a16 0483 b43f
00000560: 53eb 586a d4c8 d43f 38ad 311c effe c13f
00000570: 1d7f 5fd3 7579 d23f 47f1 9b0b 7e78 dd3f
00000580: 74ce 9164 8c3f c83f 48c5 95cc a126 d1bf
00000590: 74d3 2989 4bb2 dcbf 3832 5638 eb70 bf3f
000005a0: a7fb 0968 79a8 b3bf 83ca dd1a 6976 d23f
000005b0: 5fb9 cf54 acd3 b7bf 1096 54b6 c653 b2bf
000005c0: 2030 b12c e32e c7bf 626e 55b3 81ab cf3f
000005d0: 6ca6 a72e 8cbc d33f 8988 1160 02b6 e1bf
000005e0: cfee d2fb e982 e1bf 08ea 6090 e062 c63f
000005f0: 933d 36aa a4a0 a9bf 0a63 9efa ec7e c43f
00000600: feb6 9a8c dba9 8dbf 2be0 e482 a08b f03f
00000610: 48a8 b3c7 cb95 c43f 74f1 1555 466f d9bf
00000620: 2845 4d45 6c9d ce3f 39a6 b637 f239 ce3f
00000630: 1da2 b19e c2f0 e2bf 0a5f eaef 1da2 f0bf
00000640: 0d5a aec1 c329 ef3f 15ff 338e 88b0 b43f
00000650: 8eb8 fae2 89e1 e13f 1832 4dfb ca47 d13f
00000660: 248a 8c08 d128 d23f 9364 6b19 d9d3 e53f
00000670: c5b1 6d83 fa04 e3bf 2754 8dfc 40a5 e23f
00000680: 898b bc83 bafd ea3f 50b5 cc95 6b7e e1bf
00000690: 0518 319e fa2a 8b3f f78a bd79 55c2 e3bf
000006a0: 6dfe 1b4d bfe4 e4bf 2a93 6a8a 7eab d5bf
000006b0: a6c3 2fb0 446f c53f 9e12 5258 75fc e43f
000006c0: f59c a242 8449 d33f 2180 872f 1772 d83f
000006d0: 2e43 29bc 27cb d03f b5ee 6ab8 54e0 d13f
000006e0: 3fa7 1b7d 8e12 e03f 4f6c b1a6 3651 dd3f
000006f0: 59d4 0e2c c29f dbbf 956a a819 b982 e8bf
00000700: 910b 3c9f 3316 d6bf c505 36d1 0663 e5bf
00000710: ceb4 b1b1 1b6b f0bf 5da6 84c4 c311 ddbf
00000720: 166e c431 9490 c93f c97d 654d 5337 e63f
00000730: a3de ae87 f3de f0bf 229b 3728 6418 d53f
00000740: dcf4 617b 610a cabf 3d18 1ef7 e9b0 3bbf
00000750: e1ea b5c4 1503 a53f 0f7c e545 08c9 cebf
00000760: 4b8b a63e 2d42 d7bf 4a46 6c3c 2f77 db3f
00000770: 8a00 f6b5 abb7 f13f ea63 87e9 19c1 f23f
00000780: 596c 5026 29af cc3f 050a e720 7cfa f9bf
00000790: 6134 cdf1 12cb de3f 42c4 a354 db06 c13f
000007a0: 8d49 ff3e 13f5 efbf 7634 0658 7256 d93f
000007b0: 8998 f212 eb1e d2bf 29c4 92dd a804 f23f
000007c0: c5d6 3f9b 5e42 ee3f be01 b762 664c d6bf
000007d0: 5d70 a52f 9c15 debf 2dc1 0c57 23a4 d8bf
000007e0: 20e8 6793 6e53 ba3f bbb2 df68 95f1 e7bf
000007f0: 1218 230b 736a dabf bf37 87fc 3f92 acbf

lstm.bias_ih_l0 f8 [32]
0.13991821294653403 -0.20646678722102293 1.2715853424738528 -0.3292134863527341 0.13955575208032803 0.5992593075295798 0.42896051496442944 0.23886804366783898
0.24181325126961462 -0.10636120313407095 0.32755597341748244 -0.0376195629618395 0.21889261759438772 0.47146300567342386 -0.42600594915714235 0.33778128469187485
-0.1943402532471632 0.24652264159494405 -0.09753025665184811 -0.015037338816790159 -0.20859698388108586 -0.25402897200763386 0.38259171325206 0.26547451873819455
-0.35634849474879815 -0.32465942200183623 0.5088598316809911 -0.2048223907174699 0.05000356349973967 0.7283030630007034 1.0354168152699574 0.12059680867114028
00000000: 232d 5c0a d7e8 c13f b388 69f1 806d cabf
00000010: 74f8 3fdf 6958 f43f 6d60 5271 d511 d5bf
00000020: 35ac 937f f6dc c13f 8a38 f5da 212d e33f
00000030: f20a c3cd 1674 db3f 7872 ce61 3a93 ce3f
00000040: 64a1 f892 bcf3 ce3f f927 06e1 7c3a bbbf
00000050: 8800 5c54 adf6 d43f a9c9 3811 df42 a3bf
00000060: 68ad f35c ac04 cc3f b709 a92b 732c de3f
00000070: e301 e274 ae43 dbbf 3cf5 bc64 359e d53f
00000080: 2018 ff33 24e0 c8bf 23d9 afcd 0d8e cf3f
00000090: 40af b02e bef7 b8bf 07f2 7e73 e5cb 8ebf
000000a0: dd20 e853 4eb3 cabf 2898 c0bb 0242 d0bf
000000b0: 64d8 08f4 617c d83f 7bb8 f9d5 88fd d03f
000000c0: d231 bbea 69ce d6bf 7983 f54f 38c7 d4bf
000000d0: 6a2c ea69 9448 e03f 5d5e cfbe 9e37 cabf
000000e0: 1066 d42b 119a a93f cd44 a539 424e e73f
000000f0: ce01 f538 1191 f03f a698 3eb5 6edf be3f

lstm.bias_hh_l0 f8 [32]
-0.36706042438779246 -0.3520093164527234 0.705973171113804 -0.19953130879699577 0.23916165709611628 0.42678333245412603 0.8708585335031677 0.6106638276727749
0.21559554474343381 0.3986567763734364 0.09070888290506172 0.010231995107447963 0.039964429487426484 0.26610218782457 -0.24938081587656896 0.355692512728005
0.04998196593689656 0.23077289187416442 -0.2811133345448526 -0.0518246019723164 0.019783095648104616 0.3534260032325001 0.33117494078340604 -0.0066594158853176665
-0.18084597660221807 0.043228732940256025 0.7122543645042994 0.23418241018171343 0.5097872860484608 0.761664620736636 1.1489277688847777 0.009251441946227042
00000000: 59b1 9901 eb7d d7bf 1050 8315 5287 d6bf
00000010: be30 390c 5597 e63f 8cd4 e7ee 3d8a c9bf
00000020: 9dad d763 d99c ce3f 5293 d709 6b50 db3f
00000030: 05d6 1ab7 12de eb3f 4c8d 16de 8e8a e33f
00000040: 9d0d eb82 a298 cb3f 8d92 36b6 9783 d93f
00000050: dfaf 8885 b238 b73f b1e3 df22 83f4 843f
00000060: 0cb8 4dbb 3776 a43f dd6f 8678 d107 d13f
00000070: d246 38e8 b5eb cfbf 7b53 6687 aac3 d63f
00000080: 8571 2d7a 3c97 a93f 9591 b353 f789 cd3f
00000090: cfbc 95c8 c2fd d1bf 8dd9 3215 c188 aabf
000000a0: b5fb 4913 0542 943f 0d22 5c19 889e d63f
000000b0: 86d8 fa60 f831 d53f cea5 0157 e746 7bbf
000000c0: 9652 8f01 f625 c7bf 77ab 7394 1322 a63f
000000d0: d855 3faa c9ca e63f 8ab3 8370 b0f9 cd3f
000000e0: e1d4 2f6d 2d50 e03f e8b0 927b 8e5f e83f
000000f0: cc38 8d15 0262 f23f f191 cc84 6bf2 823f

lstm.weight_ih_l1 f8 [32, 8]
0.12086331277386336 -1.1312948577846895 -0.599059681014484 0.11192975786888164 -0.3135959880069364 -0.7976103432455255 -1.5307884863120218 1.9584653980212432
0.34565425421161144 0.5257289886650394 -0.07782474155699994 -0.4585291083787013 -0.547545561464888 0.26302096440740413 0.3771703876896385 0.02309516662276095
-0.5966559940131466 0.15599159944837157 0.0012179790179648342 -0.5851450498567956 0.0813336098819834 -0.38790231938897474 -1.3189358772717805 -0.38056656206388234
0.40258206752056286 -0.646528267325218 0.9212235814943757 -0.5542754626716412 -0.39808659543317587 0.8898588280869665 0.48787150828622167 -0.26628198695179256
0.3953047589463553 -0.2814360627770545 -0.38666473026445075 0.5864344981211894 -0.4209520414857668 0.7713283915906266 -0.07803573384419799 0.6636396962662149
0.5106492460115203 -1.922519346994709 -0.05792501226805044 -0.12827908260488052 -0.7889437093817517 0.581046219572874 -0.6926391991777948 -0.667313410863253
-0.24726340632638108 0.1721962325559921 -0.9563729974671228 -0.1971362005001133 -0.48981332258704574 -0.5060911117263339 -0.03515766340907034 0.24889686277111797
0.22875901167664878 -0.6554575744444557 -0.0532580936892788 -0.12482208090073746 -0.6937551836945621 -0.4822193704772092 -0.11471139702093905 0.19018601961496412
-0.20969258667532928 -1.2716910218168458 -0.36081475490536913 0.4680731941756352 0.10254217650781063 -0.3765256045073205 -2.1307572489112903 0.47036400543866486
0.66253190208697 0.4692471731300554 0.31312677090068164 0.07519043019231507 0.4151538265947365 0.32316235171625524 0.7386651335217362 -0.20925084426230256
-0.4125656905609399 -0.379993500128527 -0.8663785866414849 -0.1396516412927507 0.013115236637157347 -1.5913427078113747 -2.3381097398002266 0.22625162470586818
0.33476698990442627 -0.4317049519948415 0.5468409656031755 -0.021910093300719743 -0.2608563178434489 0.4778080108202223 -1.435871708580399 -1.0262058020649774
0.1827307518656664 -0.9324673932386216 -0.8194815398721973 0.683430775312888 0.15425139455520873 0.870495824030633 -0.7883081176793458 0.6910875526534127
0.9396322313168475 -0.6539733209263038 0.03164752430504693 0.6248494400283596 0.17173610807988374 0.727663717955805 0.7287009648365244 -0.4537438579536515
-0.6141465626393828 -0.3393100915792815 -0.9473298402812244 -0.01037004596390601 -0.5086602632676681 -0.15463798828607203 -0.46547685935313005 0.3820771226370747
0.27490507679229503 -1.0129412822484547 -0.39489897877277336 0.4827980894428015 -0.07665694680921305 -0.4484202980303756 -0.16539754402281512 0.6733759397543856
-0.6849273862470316 -1.2265852078547048 -0.8006829848853872 0.426604918101769 0.13925293850427184 -0.34377102500924644 -1.7774425800964528 0.5293296032202789
-0.04899080878520842 0.6765680974878614 1.373710546408558 -0.04784533755303872 0.029502345886427587 0.316354852245331 1.464820757261754 -0.48678406324955403
0.9024658575306496 0.6756701977715284 0.38406383406776445 -0.10635272367129525 1.296697072693313 0.21071168363907838 1.0149877671964416 -0.24487060344258507
0.4550038764253197 0.2704484214938252 0.8830414740116989 -0.3247132393718247 0.2786487001650393 -0.20306157482194864 -1.0471532111394604 -0.07927283857505744
0.287600247317721 -0.8712305113513183 -1.2738498707144645 -0.11647491931046867 0.08383257586582668 0.08958173632095755 -1.034056179665601 0.5426522091726598
1.1932869456247746 0.7364889910630447 -0.36300410260849214 -0.12380251341624406 0.6212933194707333 0.7488660922752913 2.0775742557896604 0.6132114340931143
-0.3275386234624235 0.308311781199813 -0.3897739862258425 0.025045633477515764 -0.40827041652401536 -0.3532205340068031 -0.42476144799059484 -0.20002587809905237
-0.4625893982609822 -0.0012960969671597187 -0.29095619423910263 -0.4787962838434702 -0.5779178103098275 -0.07761099910337527 -0.08808471243273565 -0.003146887431706725
0.10860549965010916 -1.530099822572179 -0.6821951341141175 0.2589934517888886 -0.22663433443508318 -0.7556951481601641 -2.663992635832853 1.56138953147396
0.02661570908301024 0.41961974679024056 -0.0738997344699483 -1.0597665218945544 -0.6704608195120297 0.5199909821551032 -0.16212012744362062 0.08849198783928437
0.40836449036269695 -1.2773817088685249 -0.6449135982082339 -0.16518053580127165 0.05537283586659579 -0.8105635426394103 -2.959645773628011 -0.2947315067818478
0.5878081362223554 -0.34956886214289706 1.3944307533166433 -1.0491982469166052 -0.212310909042894 0.27875226531614516 -0.2315769278663637 -0.010629233063383066
0.8407358257806476 -0.45193303952163927 -1.0228239084781763 0.6941655385535298 0.13746383328756615 1.0323133249806105 -0.26217267567346825 0.8555900215868203
0.8552438569141203 -2.6423236611979237 -0.011757952728932267 -0.3928871394515427 -0.3271410900113776 0.18492268243729756 -0.25355468553366417 0.5951962018737431
-0.49912748280643005 -0.23859224486181582 -0.865064944361189 0.35593091052630876 -0.6333680361432101 -0.6707833981335103 -0.48979084781779186 0.44704359668965044
0.4154322149058942 -1.2284099035180547 -0.29148865648561695 0.36741951165709785 -0.09991751483315923 -0.9314932326659829 -0.4362907455793813 0.9134806417903598
00000000: ec63 a6e7 e5f0 be3f 6617 05a3 c819 f2bf
00000010: 9de6 4935 7f2b e3bf d3fc 7eb9 6da7 bc3f
00000020: e561 29e8 f411 d4bf 941b 6620 0686 e9bf
00000030: 0bdb 5c11 1c7e f8bf f194 2dd0 df55 ff3f
00000040: 20fa 6305 331f d63f 1604 9c99 c5d2 e03f
00000050: 6195 ce7f 52ec b3bf 3409 3079 8a58 ddbf
00000060: 0df9 f144 7e85 e1bf 17b3 12e2 55d5 d03f
00000070: 8662 0944 8f23 d83f 6f99 5c65 42a6 973f
00000080: 78f6 a74f ce17 e3bf 2f6e 0a61 88f7 c33f
00000090: 0aee 2803 93f4 533f a6a3 911c 82b9 e2bf
000000a0: dc3c 828a 47d2 b43f 475d f43f 64d3 d8bf
000000b0: 3174 a681 5c1a f5bf 6dfe 80da 335b d8bf
000000c0: 8b3d 7d93 e7c3 d93f 503e 830c 5cb0 e4bf
000000d0: 9050 5ae0 a97a ed3f 89cc 24e5 9fbc e1bf
000000e0: 6122 1733 407a d9bf d117 9638 b979 ec3f
000000f0: 3754 2f6b 4939 df3f c132 5e9a c30a d1bf
00000100: 362d e854 ac4c d93f 89b7 6267 0c03 d2bf
00000110: 9728 c06c 1dbf d8bf 61a7 d547 12c4 e23f
00000120: 5469 d7d4 e0f0 dabf ec74 0be1 b8ae e83f
00000130: 94ba c75c 26fa b3bf f54d f950 893c e53f
00000140: d716 6b16 3d57 e03f 1550 94a5 a3c2 febf
00000150: ec93 9fe2 58a8 adbf 8840 46f0 726b c0bf
00000160: e4be c5e0 063f e9bf 2df5 d03d ee97 e23f
00000170: 27ae 8cae 192a e6bf 52e0 7aa7 a15a e5bf
00000180: cbad d5c9 53a6 cfbf 4a44 a9b1 860a c63f
00000190: d5c2 5c8b 9b9a eebf 4dba 004f c23b c9bf
000001a0: 6f03 6afa 1959 dfbf fb25 b5fc e531 e0bf
000001b0: 506a 176d 2f00 a2bf e3e7 d636 dadb cf3f
000001c0: b382 e8ac f947 cd3f 08f1 c429 82f9 e4bf
000001d0: 5f17 4915 a544 abbf b28e 4903 57f4 bfbf
000001e0: 78c1 2c12 3e33 e6bf eaa0 6ca2 aedc debf
000001f0: a2f3 aee2 b95d bdbf 328b 33f7 0358 c83f
00000200: c3f9 fde8 34d7 cabf 701f 55af d858 f4bf
00000210: 75e6 0ec5 9617 d7bf 5297 4745 e9f4 dd3f
00000220: f9cb 8f3e 3440 ba3f edcb 5dd9 fe18 d8bf
00000230: b74f de74 ca0b 01c0 c4c6 24a1 711a de3f
00000240: 90a5 801a 7633 e53f e060 954b 2508 de3f
00000250: 1250 21de 440a d43f 17ee a516 ae3f b33f
00000260: 4b27 025b e191 da3f 71dd fa24 b1ae d43f
00000270: 8a7b e50f 25a3 e73f 5c2c 624e bbc8 cabf
00000280: 114c 1aed 7967 dabf 73a7 ef41 d051 d8bf
00000290: 618e f295 5fb9 ebbf f2b0 17e0 1ae0 c1bf
000002a0: dab4 7c43 29dc 8a3f 6f72 6cc5 2376 f9bf
000002b0: 5635 17e1 72b4 02c0 2aa8 6330 d0f5 cc3f
000002c0: 33df 5a86 d26c d53f b8b3 95ce 0da1 dbbf
000002d0: 4f1e ec9f b87f e13f 8f31 b778 996f 96bf
000002e0: 11ed 85b2 deb1 d0bf bc56 0f0d 6894 de3f
000002f0: daab d99c 54f9 f6bf 395a 6dc6 566b f0bf
00000300: 8e46 9ea5 b863 c73f e47a d1db c5d6 edbf
00000310: 68a8 ad59 3139 eabf 978f a137 aade e53f
00000320: cb0e 7d7b 82be c33f 3784 f00e 1adb eb3f
00000330: de54 13f2 d139 e9bf f335 aaa4 631d e63f
00000340: 6cbf f89c 7711 ee3f 37b8 3a75 59ed e4bf
00000350: 0272 c7b3 1a34 a03f 1f10 bb40 c4fe e33f
00000360: fd69 dfe3 72fb c53f f263 e36b 0549 e73f
00000370: 282b 91af 8451 e73f d1fe aaad 230a ddbf
00000380: 3795 2fb1 16a7 e3bf 344a a2ac 41b7 d5bf
00000390: 630c 51ab 8650 eebf 0317 2f02 e43c 85bf
000003a0: e14c 70e3 f146 e0bf 6936 3477 2dcb c3bf
000003b0: e5da fd73 5fca ddbf 44aa 919a f373 d83f
000003c0: 16f2 9476 0b98 d13f 1d68 00eb 0135 f0bf
000003d0: 0e62 c35d 0646 d9bf 7199 2ef5 29e6 de3f
000003e0: 3d89 8e27 ca9f b3bf 59cb b90c ebb2 dcbf
000003f0: cb56 3529 bf2b c5bf 3911 e5b2 4b8c e53f
00000400: b71a 82d6 ecea e5bf a3e4 97cf 17a0 f3bf
00000410: 1d7c 51ec 319f e9bf afd4 e3b6 7e4d db3f
00000420: 2ab6 5f50 0ad3 c13f ff88 6e2f 5800 d6bf
00000430: 9683 80a1 6770 fcbf 1958 d4a2 44f0 e03f
00000440: 7cf9 12c3 5215 a9bf 1446 8723 72a6 e53f
00000450: b6eb efe8 b7fa f53f 19de 1c20 2f7f a8bf
00000460: b12f f3ea dc35 9e3f 64c6 146c 283f d43f
00000470: 1b0f efe3 e76f f73f aebb f757 7827 dfbf
00000480: 3939 fb13 00e1 ec3f 29f0 491b 179f e53f
00000490: 506f b979 8094 d83f aa3c 029e ee39 bbbf
000004a0: 6196 006e 45bf f43f 5ab6 0eb7 99f8 ca3f
000004b0: 322e 1fd0 633d f03f f5d2 c480 eb57 cfbf
000004c0: c432 3394 c81e dd3f 0888 64e5 064f d13f
000004d0: 498a 7c31 e041 ec3f 8288 eb09 1ac8 d4bf
000004e0: 4008 925b 61d5 d13f 909e 77f3 ebfd c9bf
000004f0: 04ed bbb9 23c1 f0bf e315 2489 394b b4bf
00000500: 9b45 23de 0a68 d23f 2800 31cf 1ee1 ebbf
00000510: 21b8 eb66 b061 f4bf b521 3ee1 4cd1 bdbf
00000520: dee3 ae3b 0d76 b53f a741 d123 d4ee b63f
00000530: 4f3f 1e7e 7e8b f0bf 8ef5 6f2a 685d e13f
00000540: f43b 630d b417 f33f a15a 4f5c 5191 e73f
00000550: 7a1b 418f 753b d7bf f90d 4982 85b1 bfbf
00000560: da33 0b87 a2e1 e33f 73fb ec05 b6f6 e73f
00000570: 6906 5d40 df9e 0040 6ad2 de95 6d9f e33f
00000580: 7fab fc8e 64f6 d4bf 8f61 4e56 61bb d33f
00000590: a4fa ea96 0ef2 d8bf 812d c602 90a5 993f
000005a0: c346 b93d 1a21 dabf 986e 754c 2a9b d6bf
000005b0: 4d28 eea3 4a2f dbbf a401 65ae 729a c9bf
000005c0: 9676 4090 109b ddbf 2882 8785 393c 55bf
000005d0: 21d6 b4ba 069f d2bf 5b75 232b 99a4 debf
000005e0: 00d0 e17d 4d7e e2bf 4c79 f57e 50de b3bf
000005f0: 1919 2d3f b88c b6bf 9cd6 4e53 80c7 69bf
00000600: a2b7 29ed 91cd bb3f af01 99f3 497b f8bf
00000610: c255 d0e3 8ad4 e5bf 75ee 5345 5993 d03f
00000620: 0853 4697 5a02 cdbf 3e00 6397 a72e e8bf
00000630: db7e fd5e db4f 05c0 70f5 df96 73fb f83f
00000640: 9c17 4900 2641 9b3f 9512 4ec8 0cdb da3f
00000650: 5c44 bbce 17eb b2bf aaec 8ebd cdf4 f0bf
00000660: 7db6 a13f 6a74 e5bf 5a46 d220 c4a3 e03f
00000670: d964 b232 5ac0 c4bf 394e ba31 69a7 b63f
00000680: c226 bdd0 a422 da3f 2095 81cd 2770 f4bf
00000690: 009a a1d7 21a3 e4bf 4fe2 99c3 a224 c5bf
000006a0: 0e82 440e d459 ac3f dbea 5ef4 22f0 e9bf
000006b0: bfd0 6bc3 5aad 07c0 4aa5 ae89 e1dc d2bf
000006c0: 33ba 2c02 53cf e23f 9ea2 a613 565f d6bf
000006d0: 8b81 209f 964f f63f 0970 d819 84c9 f0bf
000006e0: 662d 76fd 002d cbbf 2400 cebd 13d7 d13f
000006f0: feda d811 50a4 cdbf 113f 1c83 c7c4 85bf
00000700: beb5 89d1 4ee7 ea3f 598c 2e8e 78ec dcbf
00000710: cdb0 479a 7c5d f0bf d91f c3a5 9a36 e63f
00000720: 972b 2d36 6a98 c13f 9344 20fa 5a84 f03f
00000730: f607 fbe6 6fc7 d0bf 7dfa 2f53 fe60 eb3f
00000740: 34a2 715d 285e eb3f 2756 7296 7a23 05c0
00000750: a269 82b3 8d14 88bf cfa7 bd19 1025 d9bf
00000760: c8b4 b12e e1ef d4bf 2fab ade4 8bab c73f
00000770: 7556 876e 3d3a d0bf 5809 b8e7 d80b e33f
00000780: 100f cc65 b4f1 dfbf 5f5f 61d0 308a cebf
00000790: d350 9ead 9cae ebbf d624 1671 92c7 d63f
000007a0: 8023 320b 8d44 e4bf 90dc b5be 0e77 e5bf
000007b0: 5b7b 50b6 bb58 dfbf d0c4 eabe 5c9c dc3f
000007c0: 3471 2e00 7196 da3f ba14 9b24 91a7 f3bf
000007d0: 5caf b009 c0a7 d2bf 8eb0 9e20 cd83 d73f
000007e0: 1f8a 81ba 3194 b9bf e7dc 57e5 cace edbf
000007f0: c6e5 f304 30ec dbbf 1499 40c1 3b3b ed3f

lstm.weight_hh_l1 f8 [32, 8]
-0.3979032874821212 0.1028335791606445 -0.2579684001747458 -0.10108542720740596 -0.40446356629626107 0.5573369504415931 0.7009368910161544 0.1406244987299138
0.7751870396677333 -0.011175410867092424 -0.898702633362346 1.2286236836672757 -0.0617368912327039 -0.5296038034883198 0.29468373379581486 0.35684034465395337
0.7264424503624541 0.6268387014674113 0.48711732243437483 -0.15204547172317975 -0.499050915840168 -0.27139600771065964 0.1573772105064377 0.12122500626283216
1.367163276887883 0.7823970110345108 -1.2004115983909545 0.20608132904986678 2.2403207359839348 0.3490782797037655 0.9774547056922271 0.9739268360915766
-0.12424096151273079 0.006305040965354584 -0.4364153036931873 0.08559451295900929 -0.08838175571478381 0.06839986457011962 -0.25610109408136933 0.4633382339797234
0.7280977802341051 0.010542722451895596 0.127182597360136 0.2084967895920418 1.1427246688724035 0.9998119716542672 -0.17584153559575996 -0.6906494507604695
-0.6429733253123582 0.41871485815698534 0.9441475478279263 -0.6199747652636778 -0.30786816065956846 0.7365316633868986 -0.4531326021498707 -0.7381272754494064
-0.9845182314820746 0.45185971445687984 0.24891502425370926 -0.3271036633166396 -0.5430058919536125 0.7307795660552692 -0.20549274877596227 -0.4756103942467928
0.08751268787555622 -0.7347444577377413 0.3547278529797345 -0.4983385406639556 -0.8878454548571825 0.4282570773868059 0.2713630464761634 0.2822356374122145
-0.010390500108500515 0.5904741918230921 -0.21392653566170194 0.24520110391174021 -0.0208092131999091 0.11183231850843971 0.1338545815706412 0.05585751028955416
0.5781985018122677 0.32074645168615085 0.12232063600861384 -1.0080213297667042 -0.1817243795887332 0.1804499844904647 -0.26571805123041026 -0.5948072739370857
0.1555841873669906 0.5760723786556803 -0.5559856607939491 0.34359796081533067 0.8015111802893726 0.7105388071905957 -0.08399254656003409 0.4798524095775762
0.11901015961936039 0.24709245476473995 -0.027772700141037766 -0.8278163809441206 0.7399280509862495 0.12318392000885542 0.0030654664859352345 0.121273767277705
-0.7646936310943946 0.49366082108880166 0.4618938134754716 -0.2825170996658917 0.4039852562619532 1.4285458268976288 -0.656792431075809 -1.2784281534861182
-0.5461858138700804 0.8604719189908506 0.6032015078415671 -1.0138304930074886 -0.4738902889588254 0.9514039755409098 -0.2640830626287786 -0.43144053359800427
-1.1316178956267395 0.7510442253651214 0.05989247305169309 -0.07554099341991938 -0.16106450277461676 0.41671854890035115 -0.47844462553218653 -0.3768103471128155
-0.43421564150075925 0.4452374829713255 0.1384921630672036 -1.0905139349929367 -0.37324717215309644 0.5044815565381424 0.06426888847392417 -0.33568473356567047
-0.3222194277838615 -0.45220861278531105 -0.2811407213126544 0.425294163506663 0.7219029650005968 0.03794001808112796 -0.19698015328562157 -0.027568825888838182
-0.07329283872679655 -0.8815329605363181 -0.446551884518977 0.1769451684781175 0.5470165358853203 -0.12352267433888767 -0.2664413668014928 0.1434969019126899
0.45000461516989365 -0.08799374956322224 -0.30458657898646574 -0.40787423361788755 0.19590333158709497 0.21644890815841894 0.052602188292608244 0.14350132878646632
-0.25849446837053236 -0.9634541622603519 0.21566750214396585 -0.17997507010587188 -0.4528356482590777 0.28528380355344896 -0.2626548028991721 -0.13604262937931816
0.18935537616823106 -0.22618507880297262 -0.2732222966574962 -0.5806705928405975 0.33705081033877254 -1.1268175689502185 -0.32151553151145656 0.6166430425841642
0.04111492699849218 0.5239838559557469 0.32338969548692303 -0.35857129354267353 -0.5997095617604326 0.6600266817858983 -0.3139154788095762 -0.660117701184889
-0.4975221562333827 0.6367497560213425 -0.2718936063805304 0.2669417631100745 -0.04961001087968627 -0.6501047010623815 -0.19286593546651803 0.23597937020146195
-0.36761803825377515 -0.9676868613065663 0.10594059909394708 0.12031995341602794 0.10622758257470051 0.31953626228376075 0.5670768635540981 0.3490767558207337
0.6064708691589418 0.6050358683725343 -0.3733812334130829 0.9572819469214134 0.005519026910324705 -0.7070192853726087 1.1257010111985413 0.39822315582567347
0.11708881012273518 -0.15870906779269775 0.2879303930250212 -0.3021424133122416 -0.034928456413378134 -0.06300705620118802 0.43192420196568343 0.2968929722442011
1.7131425388038233 0.7638071889369121 -1.4120238655074488 0.3500786444881764 2.128378280530898 0.9121682226127347 1.3240025703622855 0.6779500028412669
0.18719299635967157 -0.4080524532439583 -0.4099230104617017 0.560828460997893 0.20030051491403794 -0.02953427098042132 -0.21863382621802105 0.5305260368252687
-0.0635275418533775 0.20382650987211562 -0.5582295034843211 0.36186825406272277 0.491168049705163 0.6027222852737223 0.4493602756704696 -0.10295151790399343
0.0778327343603098 0.707168063126169 0.8560875945206637 -0.8395434005276027 -0.626855236343405 0.5955648959822268 -0.3048882386876861 -0.4561276532561772
-1.3035724613324704 0.2956915844476482 0.1729084965343042 -0.43827801689774815 -0.32999928221555275 0.4184857361352944 -0.04472239455441526 -0.2182454287249005
00000000: e238 ad59 3f77 d9bf d0f3 6c2b 4d53 ba3f
00000010: f1b9 89e4 8d82 d0bf 4e3f f50b bce0 b9bf
00000020: 3d9f 6a27 bbe2 d9bf eff7 df4c b4d5 e13f
00000030: 762d ef33 136e e63f 15db 87cb fbff c13f
00000040: b3fd f40c 55ce e83f d156 8c41 22e3 86bf
00000050: f2d9 6306 2cc2 ecbf 6d12 c74e 71a8 f33f
00000060: 4433 9a51 fa9b afbf b539 faac 83f2 e0bf
00000070: 893c d429 19dc d23f 7fa7 8be2 78d6 d63f
00000080: 7573 d73c 043f e73f ae6d 5509 100f e43f
00000090: 31ed 4a22 ee2c df3f 5d29 47dc 3976 c3bf
000000a0: b5a1 a440 73f0 dfbf bc76 585c 8d5e d1bf
000000b0: c763 21ba ef24 c43f cf33 5b1d 9a08 bf3f
000000c0: 1069 a899 e6df f53f 3934 dc74 6509 e93f
000000d0: 7440 cdca e234 f3bf 25ee 4a7c df60 ca3f
000000e0: 2ed0 2c47 2dec 0140 5095 c46c 4c57 d63f
000000f0: 189f 4817 4f47 ef3f edb8 b69c 682a ef3f
00000100: 6851 8572 41ce bfbf 9e2e f08b 50d3 793f
00000110: 7183 3574 3aee dbbf 1541 e0a1 85e9 b53f
00000120: a9a9 5bce 2fa0 b6bf 7226 614d a782 b13f
00000130: bd27 e3d7 f563 d0bf c879 7b68 55a7 dd3f
00000140: 62a9 4cb7 934c e73f c931 2241 6c97 853f
00000150: 831c 24f4 8447 c03f 4135 4fd6 05b0 ca3f
00000160: fe3a 92a9 9948 f23f 7df0 0cad 75fe ef3f
00000170: 43c3 54b6 f981 c6bf d087 80e0 cc19 e6bf
00000180: a257 8dcb 3c93 e4bf c58b 8867 39cc da3f
00000190: 11a0 10eb 7436 ee3f 84e3 a451 d5d6 e3bf
000001a0: 22cd 60a8 1cb4 d3bf 00e3 d6d9 aa91 e73f
000001b0: 740b bfe2 1f00 ddbf b4e7 8a17 bd9e e7bf
000001c0: 2600 d160 2c81 efbf 7b38 fe01 45eb dc3f
000001d0: 988c 5390 72dc cf3f 5931 1634 44ef d4bf
000001e0: 023c 6fe4 4d60 e1bf c65b 19d4 8b62 e73f
000001f0: 5569 c71d 964d cabf 7b5e 3b94 6670 debf
00000200: 181b 6944 3b67 b63f cad3 1ccf 0683 e7bf
00000210: f2ce e173 dcb3 d63f 4d3c 9f55 c7e4 dfbf
00000220: 6771 10df 3a69 ecbf 330a 6a5f 9068 db3f
00000230: b050 7d1c 035e d13f 0fe0 1c10 2610 d23f
00000240: 02a2 3d51 9d47 85bf 0964 e021 2ae5 e23f
00000250: 70f0 34d9 f161 cbbf 1c3c 1ff1 bf62 cf3f
00000260: f5ad 98a8 024f 95bf bb2d a1f6 0aa1 bc3f
00000270: 6b01 229d 2522 c13f f8f6 db07 5b99 ac3f
00000280: 0828 fc24 9a80 e23f 3734 1320 1c87 d43f
00000290: 366d 48bb 6750 bf3f 794b 50f9 da20 f0bf
000002a0: 8b18 9c95 be42 c7bf e5a1 f92e fc18 c73f
000002b0: 2874 ff48 8601 d1bf 3f72 9f43 a908 e3bf
000002c0: 020b 42c2 2eea c33f fa8f 4e57 2f6f e23f
000002d0: 70f5 c470 a2ca e1bf 0625 2b4d 82fd d53f
000002e0: 3214 57c6 faa5 e93f c784 6de1 bbbc e63f
000002f0: 4946 9518 8980 b5bf 1bb8 82e1 e6b5 de3f
00000300: ebf6 7427 7377 be3f 00c6 26be b9a0 cf3f
00000310: 8d3a 4f5b 7270 9cbf 3cf0 67c7 787d eabf
00000320: 7520 8c97 7dad e73f e4c3 d43b fb88 bf3f
00000330: 55fd bac9 bf1c 693f 8809 5230 cc0b bf3f
00000340: 3651 20c7 5e78 e8bf 7125 798e 2398 df3f
00000350: 1d85 c611 ab8f dd3f bd0c e899 c214 d2bf
00000360: 6b85 edf9 e4da d93f 2ecd 75de 52db f63f
00000370: cf63 778f 7104 e5bf 0123 5814 7174 f4bf
00000380: 728e 03ac 5a7a e1bf 6525 e667 fc88 eb3f
00000390: 367a a23f 6d4d e33f bc79 b252 a638 f0bf
000003a0: db16 3eef 3754 debf 6471 07c0 e671 ee3f
000003b0: 8bc2 5aa5 bce6 d0bf d038 7ec1 b89c dbbf
000003c0: 2190 d45d 1b1b f2bf 075f 39e6 8d08 e83f
000003d0: cf31 11ea 39aa ae3f a0f3 3e90 a756 b3bf
000003e0: 5253 fbf9 c29d c4bf 2d78 ca46 84ab da3f
000003f0: afe4 e634 d69e debf 7d36 6925 a91d d8bf
00000400: 3113 ea66 30ca dbbf 3c2c 145b c57e dc3f
00000410: c11e 9077 1cba c13f eb07 6abd be72 f1bf
00000420: c235 6e1b 48e3 d7bf 2487 5881 b624 e03f
00000430: 8e51 2506 ed73 b03f f795 1bd2 db7b d5bf
00000440: d4eb 1d3c 3e9f d4bf df79 b864 fcf0 dcbf
00000450: 1b26 e7a6 35fe d1bf f935 dc02 0538 db3f
00000460: 1004 323f d419 e73f b876 bcc1 df6c a33f
00000470: e451 294a a536 c9bf 6ea3 5396 003b 9cbf
00000480: edd2 5cc9 51c3 b2bf 792f 7b9c 8435 ecbf
00000490: a679 fe5a 4e94 dcbf 9d3c e6a7 23a6 c63f
000004a0: 08f5 7fd2 2881 e13f 5a98 9996 2e9f bfbf
000004b0: 62b1 2d17 600d d1bf d76a 6542 1b5e c23f
000004c0: 620a 4d28 e0cc dc3f 475f a024 c286 b6bf
000004d0: 7508 e3b4 587e d3bf e445 9187 9c1a dabf
000004e0: bd08 2c41 5c13 c93f f2cc e50a 99b4 cb3f
000004f0: e55e d48c acee aa3f 6603 0965 405e c23f
00000500: 404b f661 2c8b d0bf 244e c3d2 9dd4 eebf
00000510: 1259 4222 fe9a cb3f 7c9a 1950 6c09 c7bf
00000520: ad15 ef5e 42fb dcbf 9acb 95ff 1642 d23f
00000530: 9ab6 2517 56cf d0bf fee3 054a d869 c1bf
00000540: 2c6f fb05 cc3c c83f 4ea6 26f6 a1f3 ccbf
00000550: 2ca5 2b5f 797c d1bf 40fa bf7e da94 e2bf
00000560: 6fb3 df8f 3d92 d53f cc30 f3db 7107 f2bf
00000570: 5bdb 3fe1 b593 d4bf b68e a630 8abb e33f
00000580: d101 ac05 040d a53f f3c7 9eca 79c4 e03f
00000590: f3b3 7eb1 6ab2 d43f 7536 c302 d5f2 d6bf
000005a0: 6f81 5b1b d230 e3bf 2940 9846 f01e e53f
000005b0: f97f ccf2 3017 d4bf 8d31 4328 af1f e5bf
000005c0: b0b2 832b 67d7 dfbf e91f 3b06 4160 e43f
000005d0: 0456 d970 b466 d1bf 6ba3 9fe7 9215 d13f
000005e0: 2b9e 90bc 7b66 a9bf ba3d c15f a8cd e4bf
000005f0: 86aa abba d4af c8bf e3e1 c56e 9234 ce3f
00000600: 9a0e eece 0d87 d7bf 3294 c26f 4af7 eebf
00000610: b359 6d50 ec1e bb3f ae63 fad8 49cd be3f
00000620: 1d6b 1719 bb31 bb3f e844 1939 4873 d43f
00000630: 340f e960 7e25 e23f 18ce 8208 4657 d63f
00000640: 8e75 a098 3568 e33f d424 722e 745c e33f
00000650: e1c1 9c66 7ae5 d7bf 8984 e2bf 0da2 ee3f
00000660: 1592 5e81 1e9b 763f f621 8ae8 e69f e6bf
00000670: f5bf 4210 df02 f23f d8fe b1f9 7c7c d93f
00000680: 4f67 3442 88f9 bd3f c3c7 df27 9450 c4bf
00000690: f847 6499 736d d23f 2747 fa21 4d56 d3bf
000006a0: 8c8d fd83 24e2 a1bf 6424 cdfd 3a21 b0bf
000006b0: dbc8 7268 a5a4 db3f 7cde 8c61 4b00 d33f
000006c0: 04c8 9826 0869 fb3f 1fe1 1dc6 1b71 e83f
000006d0: 7a6a 3856 a697 f6bf deb3 4642 b067 d63f
000006e0: e52c 2331 eb06 0140 ff4e 9269 7b30 ed3f
000006f0: 506a b851 1d2f f53f d9d7 5034 c4b1 e53f
00000700: 3cd8 b3aa f0f5 c73f 4d10 6f09 881d dabf
00000710: 5fe5 f3b8 2d3c dabf dfdc 5487 4ef2 e13f
00000720: 9ec0 7680 72a3 c93f 2d71 e35f 3b3e 9ebf
00000730: 8bef b376 31fc cbbf a4e9 3abd 11fa e03f
00000740: a8d0 a74a 5743 b0bf 05b2 fab0 fc16 ca3f
00000750: 4b14 a41e 04dd e1bf a93d 2a77 d928 d73f
00000760: c5b8 941d 4c6f df3f cb45 fa3e 8049 e33f
00000770: d913 089a 51c2 dc3f 3ca1 78da 075b babf
00000780: e0c2 a298 d8ec b33f c4e1 fcea 1ea1 e63f
00000790: 2b48 9fcf 1165 eb3f 7dd6 1a1f 8add eabf
000007a0: 167b 6db6 320f e4bf 3275 dc1c de0e e33f
000007b0: 5850 86f5 4983 d3bf 2a56 620a 3231 ddbf
000007c0: 1a3a 16cc 6edb f4bf b0ec 3965 9cec d23f
000007d0: e95d e898 dd21 c63f 8a6b 483d bf0c dcbf
000007e0: fa6e 344f b51e d5bf eec9 a265 78c8 da3f
000007f0: 9c21 058c dae5 a6bf 40fe 6f59 77ef cbbf

lstm.bias_ih_l1 f8 [32]
0.4210821835726433 0.007805217109640773 0.7534045308102907 1.1930986171161093 -0.2823291654231098 0.006194851684438087 -0.3940053409369258 -0.39005866826779034
0.26780359813162447 0.03308042880285443 0.24382071353163534 -0.3505725128638849 -0.05399437509255705 -0.4927123095434991 0.0629338138412108 -0.056565581285922095
0.10780955678734884 0.2323158984340229 -0.1925096026579831 0.06638391665334924 -0.25210297251120717 -0.10114574494140624 0.24117900046152127 -0.38486770034599294
0.2075325261124501 0.7509620861521711 0.3734491671306901 1.2080835118093631 -0.1337877651894812 1.2069876532884336 0.027058413689864908 -0.10141190509627294
00000000: 7ddb d7af 02f3 da3f 01dc 9503 5df8 7f3f
00000010: 29a1 8fd1 e31b e83f 0caa 5693 ee16 f33f
00000020: 32c0 0c59 ae11 d2bf dc32 36d6 c55f 793f
00000030: d17f 712d 6237 d9bf 72d0 eea1 b8f6 d8bf
00000040: 387e eeb3 b123 d13f ee1b b1ff eaef a03f
00000050: 4b56 5a63 8435 cf3f 8a1f 68b1 c76f d6bf
00000060: d787 6196 26a5 abbf 7cdc f435 9988 dfbf
00000070: 92b3 4230 6e1c b03f 488f 67f3 29f6 acbf
00000080: 2911 9938 6899 bb3f dcb7 0e01 87bc cd3f
00000090: b77e ca97 27a4 c8bf 9bab 014f 89fe b03f
000000a0: cc3d 8a81 7422 d0bf 4624 a702 b0e4 b9bf
000000b0: ff6a bb17 f4de ce3f 0675 9122 aca1 d8bf
000000c0: c02e 4102 6d90 ca3f 80e7 11a4 e107 e83f
000000d0: 38dd e255 97e6 d73f c0ed 6060 4f54 f33f
000000e0: f8ff 0b1e f51f c1bf 33cb 1849 d24f f33f
000000f0: 15b8 8467 33b5 9b3f af44 d06f 21f6 b9bf

lstm.bias_hh_l1 f8 [32]
0.5481612068789873 0.08158226233740973 0.48925934169083685 0.8609404672671858 -0.24809089859659486 0.4095698371056143 -0.20502608506782122 -0.05603113475364966
0.033391868036479 -0.011107117102226402 0.09649952837996238 -0.3842600769786062 0.4539896377201438 -0.31485301547341554 -0.24384887890801293 -0.376443572042175
-0.18516755943573932 0.2711548513187719 0.005375720460429372 -0.1053369942870534 0.04996338337377215 -0.3568433115860469 0.08040083390988403 0.2136145456007092
-0.03774994730762941 0.30672630379752674 0.7798360400673305 1.2087521137923858 -0.2830894892109228 0.9619848128362761 -0.11398565405324902 -0.297580707058161
00000000: 8165 0f5f 898a e13f 0841 ac3c 93e2 b43f
00000010: ccc6 f469 0650 df3f 8de5 d605 d38c eb3f
00000020: 212d f44b 71c1 cfbf 7dfc f267 6436 da3f
00000030: faba 1875 4b3e cabf 553e a6e6 1cb0 acbf
00000040: 738a 562a bd18 a13f a5bd a705 54bf 86bf
00000050: 33ab 786e 31b4 b83f 0405 f293 b797 d8bf
00000060: 28c7 ae8d 2a0e dd3f dd56 2043 8d26 d4bf
00000070: 42c0 09a8 7036 cfbf d779 adc7 a617 d8bf
00000080: de3f 0712 92b3 c7bf 2d37 a4e0 995a d13f
00000090: aca5 1ef9 d904 763f dc96 8581 5df7 babf
000000a0: 30fc 2cf3 cc94 a93f fabc 4354 85d6 d6bf
000000b0: eecd 3628 2695 b43f 7e08 a7af b857 cb3f
000000c0: f556 390a f653 a3bf 9c88 e85c 67a1 d33f
000000d0: 429a 0ab6 6af4 e83f c058 db74 0c57 f33f
000000e0: 0025 8060 231e d2bf f32c cc5f 94c8 ee3f
000000f0: 2933 5ff0 292e bdbf 1a10 2ff3 8f0b d3bf
