Trained_NNs_exp/TCN_derivative_3exp2.pth (torch, 30562 bytes, 52 tensors)

tcn.network.0.conv1.bias f8 [5]
-0.15057766870470926 -0.03963877389449841 0.15527044064867807 0.09288962874113488 0.07104285943426017
00000000: 751d 4c09 2146 c3bf cc91 0f8b 884b a4bf
00000010: fa8f 4fdc e6df c33f 6cac 945d 9dc7 b73f
00000020: ca6c e265 dd2f b23f

tcn.network.0.conv1.parametrizations.weight.original0 f8 [5, 1, 1]
0.45187825903180484 0.5686079308183134 0.6744684257675423 1.6744358964321284 0.5259291587876673
00000000: 4329 14ca 92eb dc3f 628c 6342 0932 e23f
00000010: f965 dbce 3e95 e53f 7cca 664b 7dca fa3f
00000020: b22f 2063 69d4 e03f

tcn.network.0.conv1.parametrizations.weight.original1 f8 [5, 3, 7]
-0.1674701661572801 0.0014165258005060372 -0.03555046469096655 -0.20624738632712508 0.10408562239335888 0.010493719631299815 0.11051658801449889 -0.17820300042417042
-0.0957052365713811 0.10483132290445875 -0.16988376185171328 -0.007965236670958723 -0.06873395538341129 -0.01308173725287836 0.06742992595442561 0.028237073064109122
-0.00877152837933665 -0.0361080281588146 0.07644862801153506 -0.018079352079018358 -0.1027865777367704 -0.15903709318811582 0.08022922891486768 -0.09401076772696751
-0.023619062216721158 0.20554828673461306 -0.19781741300470335 0.10362889145386081 -0.022777202112378766 0.1764223511888546 -0.18584109204125313 0.14402335902531477
-0.11756089300399475 0.030775490411783287 -0.12159866856891345 0.08191950745299073 -0.17919940855458413 0.09096615459675589 0.10904500278052637 0.049382776938485154
-0.18931368985247654 -0.04706788011358925 0.0019028017414867435 0.23729794578965296 -0.04975854663252526 0.00450199264405849 -0.22171545320642033 -0.39882122014435667
-0.008758555664248883 0.4282652170654053 -0.16634073468951716 -0.0574891993483072 0.12317292492845706 0.03444289754638629 -1.3336071691566709 -1.3088827948520037
0.060648119496812765 -0.1314869528390279 -0.22424165433241766 0.03850345602647916 -0.1073416764459722 0.07639552277923971 0.14835641251437628 -0.1185563282421652
0.10283574838996715 0.1271447243064956 0.11936559036055384 0.15647855276473416 -0.0749513281762623 0.020233106998650385 -0.028578948419605142 0.038461656482428164
0.21225059371553823 0.19502331536489162 -0.04166658325579161 -0.22439479646678637 -0.21341803672421122 0.1270712839281055 0.11105864344203675 0.14760230759425308
0.22006663799552392 -0.19431414377377867 -0.2745324700073028 -0.5022431098943451 -0.07826469997064113 -0.08884110713261405 0.25028360188578863 0.13512621272399344
-0.12470370428748487 0.16693309457052596 -0.06374159494042379 0.0071496913857219445 -0.22379273797248167 -0.27278119839934467 -0.2461900564019713 -0.1401375977762457
-0.043401141929748886 0.04906564295849549 0.05413854394956741 -0.13364669409145316 0.33621274492318676 0.21267411831866923 0.396564057281588 0.10455942412897595
0.27649568503799166
00000000: 0ec1 5993 a96f c5bf bbde 2cff 5635 573f
00000010: 9e1d 69a6 ab33 a2bf 9a8a 9479 5066 cabf
00000020: d3cc 29f8 5aa5 ba3f 27e2 0935 bb7d 853f
00000030: 3d12 30ab d04a bc3f 3279 6f1d 5bcf c6bf
00000040: 5149 216d 2380 b8bf c997 78bf 39d6 ba3f
00000050: d024 a348 c0be c5bf c2a7 0df8 1350 80bf
00000060: f618 7f6a 8c98 b1bf dc66 680d 99ca 8abf
00000070: 35f7 be6e 1643 b13f d464 61e5 2dea 9c3f
00000080: 2295 339c cef6 81bf 1a5c 2160 c07c a2bf
00000090: 6f34 2225 2392 b33f c525 a6c7 6483 92bf
000000a0: 7be1 d89d 3850 babf aa03 0cd5 535b c4bf
000000b0: 4566 5f1a e789 b43f 12f3 dbf4 1611 b8bf
000000c0: 7ecc 216f 982f 98bf 3a12 a300 684f ca3f
000000d0: 8c9e b7bb 1452 c9bf 920e b74b 6c87 ba3f
000000e0: df0e ab28 e852 97bf 03dd 51f2 0195 c63f
000000f0: 4df9 4812 a4c9 c7bf 76d8 6f80 5b6f c23f
00000100: 589f bd7e 7818 bebf df0e 5933 9c83 9f3f
00000110: b199 bd20 1721 bfbf fa3e 6a45 adf8 b43f
00000120: 732c 9a97 01f0 c6bf cc33 09d3 8e49 b73f
00000130: 140e bc90 5fea bb3f 4277 df07 b348 a93f
00000140: 18fd 4c55 6e3b c8bf f750 8ffb 4719 a8bf
00000150: 847e 07d0 ed2c 5f3f 8a8a 4972 c75f ce3f
00000160: 4764 f7c4 f379 a9bf 88de c472 ae70 723f
00000170: da0a 4506 2c61 ccbf 0d22 5e70 4986 d9bf
00000180: 82eb 1a71 01f0 81bf 40db 5383 b268 db3f
00000190: a0f6 bd37 a74a c5bf 0ffe 256e 396f adbf
000001a0: d504 52c4 4288 bf3f 2f19 15dd 7fa2 a13f
000001b0: 1dd3 9378 7456 f5bf a1fb e215 2ff1 f4bf
000001c0: e9fc 9a33 450d af3f 40ac 2581 90d4 c0bf
000001d0: 1e1c e155 f3b3 ccbf fa59 d598 b9b6 a33f
000001e0: cc50 d57d be7a bbbf e3cc e52f a88e b33f
000001f0: 4558 f3c9 57fd c23f 56b0 8820 b559 bebf
00000200: e2d0 3190 7153 ba3f d0ae 6040 4746 c03f
00000210: 99c6 dd4a be8e be3f 5a31 533d 7d07 c43f
00000220: 2a0e 4f9f 0230 b3bf 5035 6cd3 fcb7 943f
00000230: 96dd 43c3 cc43 9dbf 70e9 7b09 3fb1 a33f
00000240: 044c 4807 072b cb3f e58f b924 86f6 c83f
00000250: 1be1 d688 5255 a5bf 8bd4 1bfc f7b8 ccbf
00000260: a4b2 0d40 4851 cbbf 53b0 5d30 df43 c03f
00000270: 588c 85d9 566e bc3f bc39 f7e5 a1e4 c23f
00000280: 3bd3 90c2 242b cc3f b54d 542e 49df c8bf
00000290: 1bc6 17a3 f091 d1bf c766 7424 6012 e0bf
000002a0: b11e cec6 2709 b4bf 6fcd ac71 4abe b6bf
000002b0: 5dc5 3483 a504 d03f 9aae 3dd4 d04b c13f
000002c0: 56d4 9afb 94ec bfbf 4476 e64a 105e c53f
000002d0: dbfb a981 5e51 b0bf 65c7 d9aa fe48 7d3f
000002e0: 1c49 568d 3da5 ccbf 18b0 8545 3f75 d1bf
000002f0: fb65 6ce0 2783 cfbf 05ca b15f 07f0 c1bf
00000300: e307 65aa ac38 a6bf c357 bac7 211f a93f
00000310: a0d2 6e17 0cb8 ab3f f9af 2bba 551b c1bf
00000320: ee61 fc75 8284 d53f 5c31 71cf e738 cb3f
00000330: 8fc8 3236 4e61 d93f 1c5f 1f0b 68c4 ba3f
00000340: 654a 2ef5 1ab2 d13f

tcn.network.0.conv2.bias f8 [5]
-0.04570761778256265 0.10155367925912609 0.02183610854422122 0.12357389577373108 -0.11705425044506215
00000000: c7bc 1b27 fd66 a7bf f2d7 3403 6cff b93f
00000010: 1900 4770 345c 963f fdcb fcf0 89a2 bf3f
00000020: 2af3 8471 44f7 bdbf

tcn.network.0.conv2.parametrizations.weight.original0 f8 [5, 1, 1]
0.5550151705028785 0.6094863949018842 0.4459443265554343 0.6313243822003652 0.5494785622008765
00000000: d0ff c22c afc2 e13f b1bc ae9c e980 e33f
00000010: 031c 9912 5a8a dc3f a3f9 d630 cf33 e43f
00000020: 0f30 d010 5495 e13f

tcn.network.0.conv2.parametrizations.weight.original1 f8 [5, 5, 7]
-0.08330741708377438 -0.03838004299109252 0.09446328978262308 0.12311810695680205 0.036205029721575216 0.12528539238192563 -0.03134390473216247 -0.08286918499471442
0.08203137928347354 -0.14972850456566644 -0.14941631756986773 0.1611582137273709 0.08979802953136479 -0.00854998083377217 -0.039725863275111274 0.11458975738607977
-0.14742542606479742 -0.033057803277971226 -0.007816608129248545 0.11635101956869941 0.07123125267843461 0.06927206083800397 0.09573206622057437 -0.07981258144581062
-0.07737641511590305 0.04342413959177723 -0.0900348788821896 0.011694515250043168 -0.12540280714537286 -0.09133215724668657 -0.008682590040379124 0.13197743288933314
-0.12855273819500782 -0.08309049600939263 0.08637236103211766 0.07391466845665205 0.1676131008773939 0.05066295977276026 -0.10365263064684846 0.1500103091997923
-0.13195168248678696 0.16592478245017286 -0.0018430004777499893 -0.08948746516143767 0.007985097730729553 -0.03589741070607102 -0.10339187544868284 0.07239874138580792
-0.07498565489819431 0.11939436886734445 0.1315086108754237 0.13095921157554177 -0.06305649255436434 -0.1662355255410385 0.07562534036353262 0.1365782565501753
0.07039141251979732 -0.05504198559141245 0.035045725094455 0.09787178056882548 -0.15379380589202013 0.1674776254092777 -0.011629450053198098 -0.07842370217255502
-0.15140932020067543 -0.022619388992293113 -0.051123444336519844 -0.014197490036462776 -0.10373836658693257 0.08813241535828543 0.10048066784723075 0.1342414779136206
-0.13256099701730684 -1.536144e-318 -0.1730160000056527 1.536144e-318 -1.536144e-318 0.2406157647664203 -0.2405710949313411 -1.536144e-318
-1.536144e-318 0.02293625501828354 -1.536144e-318 0.23874279227813633 0.1014389077124003 0.12950639194048585 0.0008904690140280734 -0.058374012468857026
-0.05831504680895978 0.11138035974794865 0.30186282069298104 -0.02295117975481705 0.04808471532677013 -0.10588606451632902 0.022895313384025347 0.24182694614444572
0.18817959742876716 -0.558699171792871 0.25017063938121525 -0.039626682173765575 0.06689651366437631 -0.30592439964157275 0.05426853214864636 0.1405437012468558
-0.04011883100929831 -0.12886306297933486 -0.16219378455343744 0.03567475984628522 0.15451288339644448 -0.12104083892210811 -0.017114103981199523 -0.06852663391615021
-0.11836241253972819 -0.11677065073453438 -0.1621718039581439 -0.0765408498603815 0.08251763030134099 0.009718890253448114 0.010627580249771543 -0.03992816501848724
0.11020149775853431 -0.029216230007450307 0.07926790222396402 -0.16583764660877706 -0.15455057088493412 0.12908764768366784 0.1420627381533046 -0.13426608233828374
-0.08191121339462494 -0.0905558768469341 -0.06470337750445553 0.09477316019892587 0.1681206352549859 0.01560212203916344 -0.164590044254195 -0.09092160900974348
0.1040602985334139 0.051170241565382 0.09275178955480529 0.05405919963108336 0.09643715660421714 0.03664262283992928 -0.05389419795853167 0.12446388344167587
-0.04078344195700636 -0.15746390421238157 -0.1437314239022757 -0.05948120087944262 0.009916046389904561 -0.062074172065027716 0.07134480199774217 -0.03278888657051305
-0.08668678235613878 0.04393854660794984 -0.06893811409074667 0.1588406424738778 -0.06241711235928455 0.031975384369656586 -0.09052368665986536 -0.12599871601524362
0.019833714072946516 -0.0056883263784777574 0.12998247977585006 0.15531290447977486 -0.027057382579480836 -0.02835411258398655 -0.08526638388843394 -0.04576984866923127
0.09619227668314358 0.1374128838043354 0.0290951827089478 -0.12961326221492775 -0.1411128053009242 0.14623693174994692 0.06539001133206657
00000000: 4d98 e387 a253 b5bf 7c7f ee8a 8ca6 a3bf
00000010: c8f7 4904 bf2e b83f e9c5 ec12 ab84 bf3f
00000020: fcb1 3535 7789 a23f f533 790b 5a09 c03f
00000030: e7d4 81eb 4e0c a0bf 4902 6637 ea36 b5bf
00000040: b4ae 442b 0200 b53f 28bb 31bb 4d2a c3bf
00000050: 40c5 b9ea 1220 c3bf 536d b814 d5a0 c43f
00000060: b41b 15f0 00fd b63f 9df4 7f00 a782 81bf
00000070: 4dd9 24c7 f256 a4bf 8606 6e1c c155 bd3f
00000080: b209 c61b d6de c2bf ccb8 e9cf f3ec a0bf
00000090: 7804 3f62 2702 80bf bf60 e72f 2ec9 bd3f
000000a0: 3cfd b41c 363c b23f 5064 d353 d0bb b13f
000000b0: 268b 988d e581 b83f e17c 1eeb 986e b4bf
000000c0: dd8e 67d4 f0ce b3bf 8ba7 ce56 b03b a63f
000000d0: 0d5f 4c9c 860c b7bf 7f02 5544 4bf3 873f
000000e0: 5b0b c2fd 320d c0bf 1399 7254 8b61 b7bf
000000f0: 1adf 2482 2dc8 81bf 9bec 08f3 a2e4 c03f
00000100: 71ed 2d87 6a74 c0bf a500 f832 6b45 b5bf
00000110: b147 e9c1 7f1c b63f ff4b b75b 12ec b23f
00000120: a424 5399 5874 c53f 3165 afd6 7ef0 a93f
00000130: e6c7 c592 fa88 babf ecb8 09ae 8933 c33f
00000140: 1e6a 77f0 cae3 c0bf 8915 1cf5 053d c53f
00000150: fe19 d2b1 1a32 5ebf 4f33 4588 a6e8 b6bf
00000160: 4eeb deac 7d5a 803f 63c0 fc39 2561 a2bf
00000170: 0c65 b9d3 e377 babf 170b 8652 b988 b23f
00000180: 88f6 7487 4232 b3bf 409f 9c1d a190 be3f
00000190: 4e19 6d2f 46d5 c03f bfd7 697d 45c3 c03f
000001a0: 5b4b 5265 7824 b0bf bce9 d0a8 3447 c5bf
000001b0: c738 9cab 2e5c b33f 4c25 9d74 657b c13f
000001c0: 2118 b1ee 2b05 b23f 2a46 0b90 762e acbf
000001d0: 8c63 4a66 83f1 a13f 9690 be00 200e b93f
000001e0: c219 51f3 83af c3bf 34e8 f825 e86f c53f
000001f0: 600d 315d 2ed1 87bf 59f7 0f64 9313 b4bf
00000200: b026 496f 6161 c3bf e4db e87f 8929 97bf
00000210: e2ec f722 da2c aabf 0b99 22db 9213 8dbf
00000220: 57d2 d4fb 988e babf 416b ae91 d88f b63f
00000230: 70ba 48de 19b9 b93f 33ee b322 d32e c13f
00000240: e40d 753d c2f7 c0bf 87be 0400 0000 0080
00000250: fac0 da66 6325 c6bf 87be 0400 0000 0000
00000260: 87be 0400 0000 0080 6b72 4954 7fcc ce3f
00000270: 20e8 8b9c 08cb cebf 87be 0400 0000 0080
00000280: 87be 0400 0000 0080 1bf4 c804 9a7c 973f
00000290: 87be 0400 0000 0080 b4c2 7eb2 1f8f ce3f
000002a0: 42ae 2a77 e6f7 b93f acf0 005b aa93 c03f
000002b0: 6f8e 8ca5 cb2d 4d3f 26e6 fad4 32e3 adbf
000002c0: 8a81 d145 78db adbf 55be 885a 6c83 bc3f
000002d0: 714c b06f b851 d33f d664 ce99 8380 97bf
000002e0: 4b2a 884f 8f9e a83f bb24 3360 591b bbbf
000002f0: d23e dd78 de71 973f 76b0 7d74 2ff4 ce3f
00000300: 6e91 5de0 4416 c83f a5e2 e415 dde0 e1bf
00000310: 5ff3 a3b6 cb02 d03f 777a f8cf f249 a4bf
00000320: 67a8 6742 2120 b13f 4793 e0ee 4394 d3bf
00000330: 718b 8fc5 15c9 ab3f 11cc 4104 56fd c13f
00000340: f901 4796 748a a4bf 0a4e 94b8 957e c0bf
00000350: fbbf 2214 c4c2 c4bf c236 aa4d f643 a23f
00000360: 42cb 7f02 14c7 c33f a59e a64c 88fc bebf
00000370: 862f 9913 5c86 91bf 0828 9323 f68a b1bf
00000380: 0d0d efc2 ff4c bebf 3697 096e aee4 bdbf
00000390: d0b1 2ab1 0bc2 c4bf b358 f55e 2e98 b3bf
000003a0: 7ad8 7c1b e01f b53f d6f5 555e 7fe7 833f
000003b0: 95f8 ddac e9c3 853f da2b e3e5 7671 a4bf
000003c0: dbd6 d754 2a36 bc3f fae0 9301 dcea 9dbf
000003d0: d4a8 acb7 e64a b43f c3ad 5002 2b3a c5bf
000003e0: b6b3 c327 50c8 c3bf e338 8fac f185 c03f
000003f0: b8a0 2c9f 1c2f c23f b86f 4d88 a12f c1bf
00000400: a1a1 b41e 22f8 b4bf cfa7 8481 ab2e b7bf
00000410: 6787 528a 6690 b0bf eecb 97c7 0d43 b83f
00000420: edf8 191b fa84 c53f bc52 405f 01f4 8f3f
00000430: b0d3 a85c 4911 c5bf eb50 3279 a346 b7bf
00000440: 9754 031b b2a3 ba3f 157d 1a64 fc32 aa3f
00000450: 7c8a c8ce 94be b73f c947 edbc a5ad ab3f
00000460: e8fd bb01 1bb0 b83f e46c 7965 d2c2 a23f
00000470: 5f22 5a33 0598 abbf 8547 ea74 dddc bf3f
00000480: 83e9 d83a 91e1 a4bf 8942 72f7 c627 c4bf
00000490: 3dad 8892 ca65 c2bf ed0d 02e9 5174 aebf
000004a0: 5e21 9a37 dd4e 843f dc21 e495 2fc8 afbf
000004b0: d7e4 5127 a743 b23f 0137 fc76 b4c9 a0bf
000004c0: de0f 37df 1a31 b6bf 8209 6ef9 1c7f a63f
000004d0: 77b9 77a1 eda5 b1bf 32b8 59e2 e354 c43f
000004e0: 0978 96c0 22f5 afbf b916 4adc 135f a03f
000004f0: 53ac b771 8f2c b7bf a1cd 4fd6 b920 c0bf
00000500: b9c1 3405 4a4f 943f 318a 3b7c a44c 77bf
00000510: 5b5a d811 44a3 c03f 7c96 b112 4be1 c33f
00000520: b64a 2d35 eeb4 9bbf bb73 0549 dc08 9dbf
00000530: ccbe 3f8a 04d4 b5bf 3ebc 5a46 256f a7bf
00000540: d15c 7b9a 0ea0 b83f b18c fed0 be96 c13f
00000550: 7405 d3a8 20cb 9d3f 78a5 2bd9 2a97 c0bf
00000560: 7d3a e801 fc0f c2bf 0dad aa4b e4b7 c23f
00000570: f802 2858 66bd b03f

tcn.network.0.net.0.bias f8 [5]
-0.15057766870470926 -0.03963877389449841 0.15527044064867807 0.09288962874113488 0.07104285943426017
00000000: 751d 4c09 2146 c3bf cc91 0f8b 884b a4bf
00000010: fa8f 4fdc e6df c33f 6cac 945d 9dc7 b73f
00000020: ca6c e265 dd2f b23f

tcn.network.0.net.0.parametrizations.weight.original0 f8 [5, 1, 1]
0.45187825903180484 0.5686079308183134 0.6744684257675423 1.6744358964321284 0.5259291587876673
00000000: 4329 14ca 92eb dc3f 628c 6342 0932 e23f
00000010: f965 dbce 3e95 e53f 7cca 664b 7dca fa3f
00000020: b22f 2063 69d4 e03f

tcn.network.0.net.0.parametrizations.weight.original1 f8 [5, 3, 7]
-0.1674701661572801 0.0014165258005060372 -0.03555046469096655 -0.20624738632712508 0.10408562239335888 0.010493719631299815 0.11051658801449889 -0.17820300042417042
-0.0957052365713811 0.10483132290445875 -0.16988376185171328 -0.007965236670958723 -0.06873395538341129 -0.01308173725287836 0.06742992595442561 0.028237073064109122
-0.00877152837933665 -0.0361080281588146 0.07644862801153506 -0.018079352079018358 -0.1027865777367704 -0.15903709318811582 0.08022922891486768 -0.09401076772696751
-0.023619062216721158 0.20554828673461306 -0.19781741300470335 0.10362889145386081 -0.022777202112378766 0.1764223511888546 -0.18584109204125313 0.14402335902531477
-0.11756089300399475 0.030775490411783287 -0.12159866856891345 0.08191950745299073 -0.17919940855458413 0.09096615459675589 0.10904500278052637 0.049382776938485154
-0.18931368985247654 -0.04706788011358925 0.0019028017414867435 0.23729794578965296 -0.04975854663252526 0.00450199264405849 -0.22171545320642033 -0.39882122014435667
-0.008758555664248883 0.4282652170654053 -0.16634073468951716 -0.0574891993483072 0.12317292492845706 0.03444289754638629 -1.3336071691566709 -1.3088827948520037
0.060648119496812765 -0.1314869528390279 -0.22424165433241766 0.03850345602647916 -0.1073416764459722 0.07639552277923971 0.14835641251437628 -0.1185563282421652
0.10283574838996715 0.1271447243064956 0.11936559036055384 0.15647855276473416 -0.0749513281762623 0.020233106998650385 -0.028578948419605142 0.038461656482428164
0.21225059371553823 0.19502331536489162 -0.04166658325579161 -0.22439479646678637 -0.21341803672421122 0.1270712839281055 0.11105864344203675 0.14760230759425308
0.22006663799552392 -0.19431414377377867 -0.2745324700073028 -0.5022431098943451 -0.07826469997064113 -0.08884110713261405 0.25028360188578863 0.13512621272399344
-0.12470370428748487 0.16693309457052596 -0.06374159494042379 0.0071496913857219445 -0.22379273797248167 -0.27278119839934467 -0.2461900564019713 -0.1401375977762457
-0.043401141929748886 0.04906564295849549 0.05413854394956741 -0.13364669409145316 0.33621274492318676 0.21267411831866923 0.396564057281588 0.10455942412897595
0.27649568503799166
00000000: 0ec1 5993 a96f c5bf bbde 2cff 5635 573f
00000010: 9e1d 69a6 ab33 a2bf 9a8a 9479 5066 cabf
00000020: d3cc 29f8 5aa5 ba3f 27e2 0935 bb7d 853f
00000030: 3d12 30ab d04a bc3f 3279 6f1d 5bcf c6bf
00000040: 5149 216d 2380 b8bf c997 78bf 39d6 ba3f
00000050: d024 a348 c0be c5bf c2a7 0df8 1350 80bf
00000060: f618 7f6a 8c98 b1bf dc66 680d 99ca 8abf
00000070: 35f7 be6e 1643 b13f d464 61e5 2dea 9c3f
00000080: 2295 339c cef6 81bf 1a5c 2160 c07c a2bf
00000090: 6f34 2225 2392 b33f c525 a6c7 6483 92bf
000000a0: 7be1 d89d 3850 babf aa03 0cd5 535b c4bf
000000b0: 4566 5f1a e789 b43f 12f3 dbf4 1611 b8bf
000000c0: 7ecc 216f 982f 98bf 3a12 a300 684f ca3f
000000d0: 8c9e b7bb 1452 c9bf 920e b74b 6c87 ba3f
000000e0: df0e ab28 e852 97bf 03dd 51f2 0195 c63f
000000f0: 4df9 4812 a4c9 c7bf 76d8 6f80 5b6f c23f
00000100: 589f bd7e 7818 bebf df0e 5933 9c83 9f3f
00000110: b199 bd20 1721 bfbf fa3e 6a45 adf8 b43f
00000120: 732c 9a97 01f0 c6bf cc33 09d3 8e49 b73f
00000130: 140e bc90 5fea bb3f 4277 df07 b348 a93f
00000140: 18fd 4c55 6e3b c8bf f750 8ffb 4719 a8bf
00000150: 847e 07d0 ed2c 5f3f 8a8a 4972 c75f ce3f
00000160: 4764 f7c4 f379 a9bf 88de c472 ae70 723f
00000170: da0a 4506 2c61 ccbf 0d22 5e70 4986 d9bf
00000180: 82eb 1a71 01f0 81bf 40db 5383 b268 db3f
00000190: a0f6 bd37 a74a c5bf 0ffe 256e 396f adbf
000001a0: d504 52c4 4288 bf3f 2f19 15dd 7fa2 a13f
000001b0: 1dd3 9378 7456 f5bf a1fb e215 2ff1 f4bf
000001c0: e9fc 9a33 450d af3f 40ac 2581 90d4 c0bf
000001d0: 1e1c e155 f3b3 ccbf fa59 d598 b9b6 a33f
000001e0: cc50 d57d be7a bbbf e3cc e52f a88e b33f
000001f0: 4558 f3c9 57fd c23f 56b0 8820 b559 bebf
00000200: e2d0 3190 7153 ba3f d0ae 6040 4746 c03f
00000210: 99c6 dd4a be8e be3f 5a31 533d 7d07 c43f
00000220: 2a0e 4f9f 0230 b3bf 5035 6cd3 fcb7 943f
00000230: 96dd 43c3 cc43 9dbf 70e9 7b09 3fb1 a33f
00000240: 044c 4807 072b cb3f e58f b924 86f6 c83f
00000250: 1be1 d688 5255 a5bf 8bd4 1bfc f7b8 ccbf
00000260: a4b2 0d40 4851 cbbf 53b0 5d30 df43 c03f
00000270: 588c 85d9 566e bc3f bc39 f7e5 a1e4 c23f
00000280: 3bd3 90c2 242b cc3f b54d 542e 49df c8bf
00000290: 1bc6 17a3 f091 d1bf c766 7424 6012 e0bf
000002a0: b11e cec6 2709 b4bf 6fcd ac71 4abe b6bf
000002b0: 5dc5 3483 a504 d03f 9aae 3dd4 d04b c13f
000002c0: 56d4 9afb 94ec bfbf 4476 e64a 105e c53f
000002d0: dbfb a981 5e51 b0bf 65c7 d9aa fe48 7d3f
000002e0: 1c49 568d 3da5 ccbf 18b0 8545 3f75 d1bf
000002f0: fb65 6ce0 2783 cfbf 05ca b15f 07f0 c1bf
00000300: e307 65aa ac38 a6bf c357 bac7 211f a93f
00000310: a0d2 6e17 0cb8 ab3f f9af 2bba 551b c1bf
00000320: ee61 fc75 8284 d53f 5c31 71cf e738 cb3f
00000330: 8fc8 3236 4e61 d93f 1c5f 1f0b 68c4 ba3f
00000340: 654a 2ef5 1ab2 d13f

tcn.network.0.net.4.bias f8 [5]
-0.04570761778256265 0.10155367925912609 0.02183610854422122 0.12357389577373108 -0.11705425044506215
00000000: c7bc 1b27 fd66 a7bf f2d7 3403 6cff b93f
00000010: 1900 4770 345c 963f fdcb fcf0 89a2 bf3f
00000020: 2af3 8471 44f7 bdbf

tcn.network.0.net.4.parametrizations.weight.original0 f8 [5, 1, 1]
0.5550151705028785 0.6094863949018842 0.4459443265554343 0.6313243822003652 0.5494785622008765
00000000: d0ff c22c afc2 e13f b1bc ae9c e980 e33f
00000010: 031c 9912 5a8a dc3f a3f9 d630 cf33 e43f
00000020: 0f30 d010 5495 e13f

tcn.network.0.net.4.parametrizations.weight.original1 f8 [5, 5, 7]
-0.08330741708377438 -0.03838004299109252 0.09446328978262308 0.12311810695680205 0.036205029721575216 0.12528539238192563 -0.03134390473216247 -0.08286918499471442
0.08203137928347354 -0.14972850456566644 -0.14941631756986773 0.1611582137273709 0.08979802953136479 -0.00854998083377217 -0.039725863275111274 0.11458975738607977
-0.14742542606479742 -0.033057803277971226 -0.007816608129248545 0.11635101956869941 0.07123125267843461 0.06927206083800397 0.09573206622057437 -0.07981258144581062
-0.07737641511590305 0.04342413959177723 -0.0900348788821896 0.011694515250043168 -0.12540280714537286 -0.09133215724668657 -0.008682590040379124 0.13197743288933314
-0.12855273819500782 -0.08309049600939263 0.08637236103211766 0.07391466845665205 0.1676131008773939 0.05066295977276026 -0.10365263064684846 0.1500103091997923
-0.13195168248678696 0.16592478245017286 -0.0018430004777499893 -0.08948746516143767 0.007985097730729553 -0.03589741070607102 -0.10339187544868284 0.07239874138580792
-0.07498565489819431 0.11939436886734445 0.1315086108754237 0.13095921157554177 -0.06305649255436434 -0.1662355255410385 0.07562534036353262 0.1365782565501753
0.07039141251979732 -0.05504198559141245 0.035045725094455 0.09787178056882548 -0.15379380589202013 0.1674776254092777 -0.011629450053198098 -0.07842370217255502
-0.15140932020067543 -0.022619388992293113 -0.051123444336519844 -0.014197490036462776 -0.10373836658693257 0.08813241535828543 0.10048066784723075 0.1342414779136206
-0.13256099701730684 -1.536144e-318 -0.1730160000056527 1.536144e-318 -1.536144e-318 0.2406157647664203 -0.2405710949313411 -1.536144e-318
-1.536144e-318 0.02293625501828354 -1.536144e-318 0.23874279227813633 0.1014389077124003 0.12950639194048585 0.0008904690140280734 -0.058374012468857026
-0.05831504680895978 0.11138035974794865 0.30186282069298104 -0.02295117975481705 0.04808471532677013 -0.10588606451632902 0.022895313384025347 0.24182694614444572
0.18817959742876716 -0.558699171792871 0.25017063938121525 -0.039626682173765575 0.06689651366437631 -0.30592439964157275 0.05426853214864636 0.1405437012468558
-0.04011883100929831 -0.12886306297933486 -0.16219378455343744 0.03567475984628522 0.15451288339644448 -0.12104083892210811 -0.017114103981199523 -0.06852663391615021
-0.11836241253972819 -0.11677065073453438 -0.1621718039581439 -0.0765408498603815 0.08251763030134099 0.009718890253448114 0.010627580249771543 -0.03992816501848724
0.11020149775853431 -0.029216230007450307 0.07926790222396402 -0.16583764660877706 -0.15455057088493412 0.12908764768366784 0.1420627381533046 -0.13426608233828374
-0.08191121339462494 -0.0905558768469341 -0.06470337750445553 0.09477316019892587 0.1681206352549859 0.01560212203916344 -0.164590044254195 -0.09092160900974348
0.1040602985334139 0.051170241565382 0.09275178955480529 0.05405919963108336 0.09643715660421714 0.03664262283992928 -0.05389419795853167 0.12446388344167587
-0.04078344195700636 -0.15746390421238157 -0.1437314239022757 -0.05948120087944262 0.009916046389904561 -0.062074172065027716 0.07134480199774217 -0.03278888657051305
-0.08668678235613878 0.04393854660794984 -0.06893811409074667 0.1588406424738778 -0.06241711235928455 0.031975384369656586 -0.09052368665986536 -0.12599871601524362
0.019833714072946516 -0.0056883263784777574 0.12998247977585006 0.15531290447977486 -0.027057382579480836 -0.02835411258398655 -0.08526638388843394 -0.04576984866923127
0.09619227668314358 0.1374128838043354 0.0290951827089478 -0.12961326221492775 -0.1411128053009242 0.14623693174994692 0.06539001133206657
00000000: 4d98 e387 a253 b5bf 7c7f ee8a 8ca6 a3bf
00000010: c8f7 4904 bf2e b83f e9c5 ec12 ab84 bf3f
00000020: fcb1 3535 7789 a23f f533 790b 5a09 c03f
00000030: e7d4 81eb 4e0c a0bf 4902 6637 ea36 b5bf
00000040: b4ae 442b 0200 b53f 28bb 31bb 4d2a c3bf
00000050: 40c5 b9ea 1220 c3bf 536d b814 d5a0 c43f
00000060: b41b 15f0 00fd b63f 9df4 7f00 a782 81bf
00000070: 4dd9 24c7 f256 a4bf 8606 6e1c c155 bd3f
00000080: b209 c61b d6de c2bf ccb8 e9cf f3ec a0bf
00000090: 7804 3f62 2702 80bf bf60 e72f 2ec9 bd3f
000000a0: 3cfd b41c 363c b23f 5064 d353 d0bb b13f
000000b0: 268b 988d e581 b83f e17c 1eeb 986e b4bf
000000c0: dd8e 67d4 f0ce b3bf 8ba7 ce56 b03b a63f
000000d0: 0d5f 4c9c 860c b7bf 7f02 5544 4bf3 873f
000000e0: 5b0b c2fd 320d c0bf 1399 7254 8b61 b7bf
000000f0: 1adf 2482 2dc8 81bf 9bec 08f3 a2e4 c03f
00000100: 71ed 2d87 6a74 c0bf a500 f832 6b45 b5bf
00000110: b147 e9c1 7f1c b63f ff4b b75b 12ec b23f
00000120: a424 5399 5874 c53f 3165 afd6 7ef0 a93f
00000130: e6c7 c592 fa88 babf ecb8 09ae 8933 c33f
00000140: 1e6a 77f0 cae3 c0bf 8915 1cf5 053d c53f
00000150: fe19 d2b1 1a32 5ebf 4f33 4588 a6e8 b6bf
00000160: 4eeb deac 7d5a 803f 63c0 fc39 2561 a2bf
00000170: 0c65 b9d3 e377 babf 170b 8652 b988 b23f
00000180: 88f6 7487 4232 b3bf 409f 9c1d a190 be3f
00000190: 4e19 6d2f 46d5 c03f bfd7 697d 45c3 c03f
000001a0: 5b4b 5265 7824 b0bf bce9 d0a8 3447 c5bf
000001b0: c738 9cab 2e5c b33f 4c25 9d74 657b c13f
000001c0: 2118 b1ee 2b05 b23f 2a46 0b90 762e acbf
000001d0: 8c63 4a66 83f1 a13f 9690 be00 200e b93f
000001e0: c219 51f3 83af c3bf 34e8 f825 e86f c53f
000001f0: 600d 315d 2ed1 87bf 59f7 0f64 9313 b4bf
00000200: b026 496f 6161 c3bf e4db e87f 8929 97bf
00000210: e2ec f722 da2c aabf 0b99 22db 9213 8dbf
00000220: 57d2 d4fb 988e babf 416b ae91 d88f b63f
00000230: 70ba 48de 19b9 b93f 33ee b322 d32e c13f
00000240: e40d 753d c2f7 c0bf 87be 0400 0000 0080
00000250: fac0 da66 6325 c6bf 87be 0400 0000 0000
00000260: 87be 0400 0000 0080 6b72 4954 7fcc ce3f
00000270: 20e8 8b9c 08cb cebf 87be 0400 0000 0080
00000280: 87be 0400 0000 0080 1bf4 c804 9a7c 973f
00000290: 87be 0400 0000 0080 b4c2 7eb2 1f8f ce3f
000002a0: 42ae 2a77 e6f7 b93f acf0 005b aa93 c03f
000002b0: 6f8e 8ca5 cb2d 4d3f 26e6 fad4 32e3 adbf
000002c0: 8a81 d145 78db adbf 55be 885a 6c83 bc3f
000002d0: 714c b06f b851 d33f d664 ce99 8380 97bf
000002e0: 4b2a 884f 8f9e a83f bb24 3360 591b bbbf
000002f0: d23e dd78 de71 973f 76b0 7d74 2ff4 ce3f
00000300: 6e91 5de0 4416 c83f a5e2 e415 dde0 e1bf
00000310: 5ff3 a3b6 cb02 d03f 777a f8cf f249 a4bf
00000320: 67a8 6742 2120 b13f 4793 e0ee 4394 d3bf
00000330: 718b 8fc5 15c9 ab3f 11cc 4104 56fd c13f
00000340: f901 4796 748a a4bf 0a4e 94b8 957e c0bf
00000350: fbbf 2214 c4c2 c4bf c236 aa4d f643 a23f
00000360: 42cb 7f02 14c7 c33f a59e a64c 88fc bebf
00000370: 862f 9913 5c86 91bf 0828 9323 f68a b1bf
00000380: 0d0d efc2 ff4c bebf 3697 096e aee4 bdbf
00000390: d0b1 2ab1 0bc2 c4bf b358 f55e 2e98 b3bf
000003a0: 7ad8 7c1b e01f b53f d6f5 555e 7fe7 833f
000003b0: 95f8 ddac e9c3 853f da2b e3e5 7671 a4bf
000003c0: dbd6 d754 2a36 bc3f fae0 9301 dcea 9dbf
000003d0: d4a8 acb7 e64a b43f c3ad 5002 2b3a c5bf
000003e0: b6b3 c327 50c8 c3bf e338 8fac f185 c03f
000003f0: b8a0 2c9f 1c2f c23f b86f 4d88 a12f c1bf
00000400: a1a1 b41e 22f8 b4bf cfa7 8481 ab2e b7bf
00000410: 6787 528a 6690 b0bf eecb 97c7 0d43 b83f
00000420: edf8 191b fa84 c53f bc52 405f 01f4 8f3f
00000430: b0d3 a85c 4911 c5bf eb50 3279 a346 b7bf
00000440: 9754 031b b2a3 ba3f 157d 1a64 fc32 aa3f
00000450: 7c8a c8ce 94be b73f c947 edbc a5ad ab3f
00000460: e8fd bb01 1bb0 b83f e46c 7965 d2c2 a23f
00000470: 5f22 5a33 0598 abbf 8547 ea74 dddc bf3f
00000480: 83e9 d83a 91e1 a4bf 8942 72f7 c627 c4bf
00000490: 3dad 8892 ca65 c2bf ed0d 02e9 5174 aebf
000004a0: 5e21 9a37 dd4e 843f dc21 e495 2fc8 afbf
000004b0: d7e4 5127 a743 b23f 0137 fc76 b4c9 a0bf
000004c0: de0f 37df 1a31 b6bf 8209 6ef9 1c7f a63f
000004d0: 77b9 77a1 eda5 b1bf 32b8 59e2 e354 c43f
000004e0: 0978 96c0 22f5 afbf b916 4adc 135f a03f
000004f0: 53ac b771 8f2c b7bf a1cd 4fd6 b920 c0bf
00000500: b9c1 3405 4a4f 943f 318a 3b7c a44c 77bf
00000510: 5b5a d811 44a3 c03f 7c96 b112 4be1 c33f
00000520: b64a 2d35 eeb4 9bbf bb73 0549 dc08 9dbf
00000530: ccbe 3f8a 04d4 b5bf 3ebc 5a46 256f a7bf
00000540: d15c 7b9a 0ea0 b83f b18c fed0 be96 c13f
00000550: 7405 d3a8 20cb 9d3f 78a5 2bd9 2a97 c0bf
00000560: 7d3a e801 fc0f c2bf 0dad aa4b e4b7 c23f
00000570: f802 2858 66bd b03f

tcn.network.0.downsample.weight f8 [5, 3, 1]
-0.0030855656097450047 0.004272778939453574 -0.0067463430696918245 0.001746726069952984 -0.0033990243842057944 0.004088038820402689 0.12256934420335369 0.013764457916290345
0.4711915657608633 -0.01025186715022993 0.007439816932975192 0.01969644330859465 -0.0028283144300679723 0.011724082407639096 -0.0021780580410179695
00000000: a4c5 456c e646 69bf 9e87 ed5c 5580 713f
00000010: a179 a1ad 0da2 7bbf 5cfa 1cd6 4c9e 5c3f
00000020: e4e8 3052 45d8 6bbf ac51 9d90 9ebe 703f
00000030: 5c77 d85c b460 bf3f 09f5 c744 8a30 8c3f
00000040: 2203 46ab 0028 de3f acbd 1051 eefe 84bf
00000050: c84b a5a6 3679 7e3f be85 6eef 4d2b 943f
00000060: 6fb9 5bbf 672b 67bf 36a0 21b4 cb02 883f
00000070: ae3f c201 b8d7 61bf

tcn.network.0.downsample.bias f8 [5]
-0.36250338341888744 -0.28848401190303213 -0.04369282538599337 -0.48166565678327944 -0.2025239347344565
00000000: 564d 1e64 4133 d7bf a5b6 22a5 8576 d2bf
00000010: 7c92 34f0 e75e a6bf 1a65 df30 9cd3 debf
00000020: c8bd 2be6 4dec c9bf

tcn.network.1.conv1.bias f8 [5]
-0.16848456090107763 -0.08241692579723948 -0.00787739299785956 -0.0029563788421407564 -0.12272355660517338
00000000: f7bb 79ef e690 c5bf d99d ef90 4619 b5bf
00000010: a2a9 6dca 0522 80bf 426e 21ce f937 68bf
00000020: 0d6a 119e cf6a bfbf

tcn.network.1.conv1.parametrizations.weight.original0 f8 [5, 1, 1]
0.7817274344268689 0.5002161854500317 0.22564413052869187 0.09859661156247224 0.5070377144733097
00000000: f9fa a740 e903 e93f 1b02 ae5f c501 e03f
00000010: e2d9 9328 e8e1 cc3f 7840 28a6 a03d b93f
00000020: e30b 3028 a739 e03f

tcn.network.1.conv1.parametrizations.weight.original1 f8 [5, 5, 7]
-7.944374856270843e-236 -4.255242963422849e-15 -0.08176927292441925 0.05838171615215117 -0.047668074351304476 0.027355248144092483 0.024727713687049045 -7.944374856270843e-236
0.03829043554011189 -0.049559169059530894 7.944374860379307e-236 7.944374856270843e-236 7.944374856270843e-236 -0.05074254985248326 -0.013803420110320432 0.17798891916591306
0.1615409828717145 0.16891916641588886 -0.0693364147808554 -0.07639303421904702 0.6358886290497149 -0.06671648583682677 -0.08398287351483541 -7.944374856270843e-236
-7.944374860379307e-236 4.299921873855291e-10 3.0314683476823365e-25 -0.02929959645587482 7.94437486037952e-236 -7.944374856270843e-236 7.94437486037952e-236 -0.06634679691808366
7.944374860379556e-236 -0.0775304842346675 0.05962126195196515 6.878336513255904e-238 -6.500588957747791e-238 -3.6440381213749777e-202 0.2333342002118754 0.16634105949159095
-0.12627195110379935 2.8641598237560585e-218 -0.1548639760016802 -0.16973257920021464 0.17806963291896766 -2.988598473609925e-238 -0.1207237665116145 0.15721473506714082
2.1312337555270457e-194 0.03371467655509098 0.07317561664492782 -0.3711521450315863 -0.007175890995488126 -0.04820711754568596 0.27215090137715364 0.341659059718294
-1.2804227169969393e-195 1.0572182440955766e-205 -0.1782175076989709 -6.500588937403434e-238 0.21142075704883986 0.17908462255529864 -0.17003393148561188 -0.1941316698192388
-6.500588956355147e-238 0.20905865958865635 6.500594691395675e-238 0.1525158939368914 -0.14336025412346257 -0.16573621488479995 -0.4354961832758317 0.41697730424271556
0.4446945672268125 0.5375030070824287 -0.4949349539822565 -0.4422523030782515 0.5093021099871259 0.5077065849525991 0.4163044768962885 0.41941524635471433
0.5298961377728342 -0.3823024917484016 0.41325933346390875 0.5286554760848398 0.009555295170097594 0.008687914165992586 -0.07175368054273892 0.03378222905281638
-0.16195645636671083 -0.05223401627545546 0.12234916546047034 -0.4265694785223331 0.5439511892518294 -0.3861152257102896 0.5644832585131596 -0.5217276051806797
0.4566369796889891 0.37888891180380185 0.5339114698648187 -0.4489847462648789 -0.3916933306505009 0.456113764160079 -0.5601507623963106 -0.5575980246050278
-0.48054704699263595 -0.5397543205166716 0.45226992752763906 0.5951279760494466 0.5601145714995996 -0.5192724646202861 0.4333081739456021 -0.598434120349248
0.5998414158553665 -0.5857646580872368 0.45656710726041666 -0.5940934192915038 -0.49530523375278995 0.563774341414453 0.6044399328387053 0.014635971914185336
-0.08178407002538893 0.004631530233482267 0.04841511619546573 -0.29679873505854876 -0.06754357105813678 0.015021360425537025 0.4786665717581542 0.4705927570566855
0.5522335711516523 0.5736639746140981 0.5581654928187958 0.5087140476519767 0.5058415873000786 0.5349750372537069 -0.5163010628246366 -0.46852815046151536
-0.46337160701200014 -0.5896230740338456 -0.45880696361743406 0.45679735734460364 0.054390942393042936 0.0923063005505923 0.015278534848397363 -0.11557986994485625
-0.15784696475627352 -0.07099289429439688 -0.14103141643878067 -0.05548371491615015 0.03095167203286416 0.1592925333807679 -0.0916735792982009 -0.09344285856698142
-0.00432205638306277 0.036056087371881845 -0.107032558339477 -0.014958221077759574 0.008953420295179447 0.03384080993775717 0.015476386397442133 0.041717023663080714
0.0295768509699386 -0.011054850266335365 0.04921642430720929 -0.04135217216793986 0.08999962932487408 0.01156590753257668 0.12318901585596699 -0.13361849743568036
0.15491316685882614 -0.02197879198224664 -0.15472433789143086 0.008010647600592932 -0.030390786796234304 -0.07860596268329989 0.13206480591466577
00000000: 14da c01f 882a 208f 1472 f30b f629 f3bc
00000010: 2f30 07c1 d4ee b4bf c29d 1d53 35e4 ad3f
00000020: 7ee6 cd28 f367 a8bf 9782 9ca0 0303 9c3f
00000030: 99e7 5cc6 3852 993f 14da c01f 882a 208f
00000040: bdeb c9d0 cd9a a33f d8bd a7c4 d15f a9bf
00000050: 6ac2 e41f 882a 200f 14da c01f 882a 200f
00000060: 14da c01f 882a 200f 0e9e 4370 edfa a9bf
00000070: c1fe 92af f744 8cbf 1b1a 6f45 57c8 c63f
00000080: 29e8 32fb 5fad c43f df3f b6ab 249f c53f
00000090: a8d9 e701 08c0 b1bf 9bee 9c6f 7e8e b3bf
000000a0: 6f56 351c 3359 e43f a0f1 c5e4 5414 b1bf
000000b0: 449a 2bcf e67f b5bf 14da c01f 882a 208f
000000c0: 6ac2 e41f 882a 208f a053 a6a7 808c fd3d
000000d0: 4ce1 7511 7174 d73a f083 41a2 b600 9ebf
000000e0: e4c2 e41f 882a 200f 14da c01f 882a 208f
000000f0: e4c2 e41f 882a 200f 3920 f58a 1afc b0bf
00000100: f9c2 e41f 882a 200f eb1e 3bae 09d9 b3bf
00000110: 9fba 7594 ad86 ae3f 642f 3f16 7cea b10e
00000120: d423 2d23 9aee b08e b4ac b841 1090 1c96
00000130: 9662 7923 e5dd cd3f b4ca 3ff1 a94a c53f
00000140: 824b 32e6 ad29 c0bf 74ee b6ee 9738 c412
00000150: 43bc 2030 95d2 c3bf ff85 5d12 ccb9 c5bf
00000160: be1a e658 fcca c63f 3a76 aa04 3523 9f8e
00000170: 5d6f 04b5 c0e7 bebf b505 c8c8 9c1f c43f
00000180: 63dd 0afb 79e4 b817 110f 66d2 0c43 a13f
00000190: f3c6 5a20 a3bb b23f f10e 30ed f4c0 d7bf
000001a0: 9f13 5392 7764 7dbf a017 9672 9aae a8bf
000001b0: 9779 3f9d eb6a d13f dcd1 f7f5 bddd d53f
000001c0: 3104 a65e a0ed 7797 20fb 0b54 9ef8 6015
000001d0: 7f23 92cf d4cf c6bf d28b 4922 9aee b08e
000001e0: bb33 9cda d50f cb3f a7b6 8bb2 3eec c63f
000001f0: f172 78ff abc3 c5bf 80e9 7e7a 4ed9 c8bf
00000200: 738f 1d23 9aee b08e 017f f024 6fc2 ca3f
00000210: eade bb1d 9bee b00e b221 4a0c a485 c33f
00000220: add5 80f9 a059 c2bf acb5 5823 d836 c5bf
00000230: 14f6 2c62 2bdf dbbf 9f63 3993 c1af da3f
00000240: 93ac bc33 e075 dc3f 4676 9d81 3933 e13f
00000250: 5011 40a8 03ad dfbf 3450 939a dc4d dcbf
00000260: 47b6 45f0 334c e03f 71ba 4ae1 213f e03f
00000270: 29ab 5c88 bba4 da3f d162 a20b b3d7 da3f
00000280: 625a c0be e8f4 e03f c646 cfde a477 d8bf
00000290: bca1 7f46 d772 da3f a157 94e3 beea e03f
000002a0: 50d5 1202 ba91 833f 8807 b519 f8ca 813f
000002b0: 4a77 4cff 725e b2bf 1387 ef81 e74b a13f
000002c0: 274c bc39 fdba c4bf b49b 48bf 6abe aabf
000002d0: 167a 5860 4652 bf3f 9969 ee11 ea4c dbbf
000002e0: 0a9f 0e53 0c68 e13f 5d74 baa2 1cb6 d8bf
000002f0: 5a83 ce31 3f10 e23f 457c 3517 feb1 e0bf
00000300: a023 7a4f 8a39 dd3f 3beb 4047 b73f d83f
00000310: ffea c081 cd15 e13f a512 6784 2abc dcbf
00000320: 4122 4de7 8011 d9bf f8ab 14c9 f730 dd3f
00000330: b74a aa4a c1ec e1bf 00c5 ffcf d7d7 e1bf
00000340: ae74 c166 48c1 debf 43cd 4fda aa45 e1bf
00000350: 1283 ec90 fdf1 dc3f 3a25 42d3 490b e33f
00000360: 9c52 d364 75ec e13f ff3c a849 e19d e0bf
00000370: cfe4 0b35 52bb db3f d0bc f64f 5f26 e3bf
00000380: 0753 fc9f e631 e33f cb64 3486 95be e2bf
00000390: 5738 873e 6538 dd3f c106 d433 d002 e3bf
000003a0: 2560 20b9 14b3 dfbf 535e d67c 700a e23f
000003b0: a209 fe69 9257 e33f 1099 bbe5 76f9 8d3f
000003c0: 02c3 1702 cdef b4bf edc1 21ee 82f8 723f
000003d0: d714 62b9 ddc9 a83f 4b85 241f c0fe d2bf
000003e0: 97ef bf14 894a b1bf 3b23 27de 84c3 8e3f
000003f0: 00f1 d81d 79a2 de3f 7dbf 5215 311e de3f
00000400: 3730 fbbc e5ab e13f b48c 3b8d 745b e23f
00000410: cc32 2de1 7ddc e13f f6ca b5ae 6247 e03f
00000420: 5c23 4db2 da2f e03f 2fcb 25f8 831e e13f
00000430: 7119 77ce 8985 e0bf 7134 df7e 5dfc ddbf
00000440: 7fbc 8062 e1a7 ddbf c327 7e35 31de e2bf
00000450: 037e fae1 175d ddbf 616f acfb 2a3c dd3f
00000460: c9b0 8d2d 21d9 ab3f c85c 14be 62a1 b73f
00000470: c08c 093c 5a4a 8f3f 1035 7d71 a496 bdbf
00000480: ea55 b34f 5434 c4bf 6d29 3e1f 972c b2bf
00000490: 4f14 a844 510d c2bf 1508 0d8a 5c68 acbf
000004a0: 35f9 8c8c cbb1 9f3f 8506 af9e b263 c43f
000004b0: 9337 fe70 eb77 b7bf 3806 9705 dfeb b7bf
000004c0: c44b 112d 01b4 71bf a4fb 2a88 f175 a23f
000004d0: 38de ac59 7c66 bbbf c2b9 ae72 6aa2 8ebf
000004e0: cc52 d7ba 2b56 823f dfd7 e727 9553 a13f
000004f0: 1a89 7f6b 15b2 8f3f 0f87 a308 ef5b a53f
00000500: 0bc8 89de 6449 9e3f 4a44 d9e2 eca3 86bf
00000510: ffaa a629 e532 a93f d2e3 28a6 1c2c a5bf
00000520: 9b3a 9a38 370a b73f f9cc ced4 ddaf 873f
00000530: f1ea 53ba 5089 bf3f 7d3e 5032 691a c1bf
00000540: 0771 b0d4 31d4 c33f e7cc 13c3 9b81 96bf
00000550: 16c9 91d1 01ce c3bf 58f1 b6eb e267 803f
00000560: 40e2 8e2d c31e 9fbf 88d0 fe36 851f b4bf
00000570: ed93 2de3 7fe7 c03f

tcn.network.1.conv2.bias f8 [5]
-0.0019752520935345428 -0.07837969537306634 0.011793216622464494 -0.12170746967758776 0.10009555194352888
00000000: eb29 9464 672e 60bf 293a 4c14 b110 b4bf
00000010: 513f aabd 0a27 883f e3b3 f181 3828 bfbf
00000020: 0d91 12b2 dc9f b93f

tcn.network.1.conv2.parametrizations.weight.original0 f8 [5, 1, 1]
2.212009272242902 0.5602965673505476 0.28723189415358086 0.6172183102328651 0.487757439072893
00000000: 30db d5ea 31b2 0140 fc9c 1a11 f3ed e13f
00000010: 327f f0e1 0162 d23f 4529 1e9d 40c0 e33f
00000020: f1b8 4cfa 6a37 df3f

tcn.network.1.conv2.parametrizations.weight.original1 f8 [5, 5, 7]
8.687804866640845e-06 0.5053129531506602 0.4245847684519417 -0.4307112784717009 0.2871857673657719 -0.11446160705678586 -0.4251057741106584 -0.022046038317986037
-0.001550557427337011 0.2712325929148381 0.17990338566602396 0.13990173081176713 -2.2087018158543283e-05 -0.00011750801287442332 -3.063946753677468e-05 3.4760775031682642e-06
0.0003771830576167604 0.00034997016711061637 -5.962378502048617e-05 -2.2405605964615515e-05 -3.546111370310277e-05 -5.022423190594568e-06 -7.372304365878598e-05 -2.354575960742446e-05
-6.441451692516187e-05 4.816110466985588e-05 5.9103860400812134e-05 -0.0001036823915646704 8.9352285141621e-247 8.93522881132162e-247 8.93522817051956e-247 -2.1824072257359923e-05
4.504277316881031e-05 -8.935239928076258e-247 2.107583680060045e-05 0.09193484219560696 -0.02588615643381675 -0.16839333455336689 0.09156865197059183 -0.03769830924059685
0.12203299112455017 0.00781407488338539 0.0606078949117038 0.1369067350388141 -0.11659227496227643 0.14200823822526548 -0.02555271351780509 0.12718561582116822
-0.04771722676610131 -0.14353650747142993 -0.1080453577641232 -0.07744902594975331 0.031505298696318816 -0.00918633807229106 -0.16149616528224914 0.018998653567837125
0.11933262966755896 -0.09226949906131768 -0.10663793878742417 0.10940842923124827 0.06093696729921781 -0.008250380657563904 0.06397017885308054 -0.042589953127229484
-0.040423835716519224 0.0677657194534574 0.12022801144557733 -0.028056509064536064 0.1036022388734721 -0.1504429567933185 -0.3957008233327004 -0.13959704172952095
-0.08073848128799604 -0.4306039469568638 0.00031194036250798524 0.021604433015791943 0.2115863938531692 0.0006303582023961935 -0.3299154119547065 -0.04443393521009965
-0.16819771617154042 -0.13597229769066974 -0.5609389323325022 -0.259005568096073 0.35428840967815867 1.0737399355070258 -0.30182504676450606 -0.5537411668393313
-0.23873791764502925 -0.37626739427582756 -0.09997082719709434 -0.0065459268982146065 0.9318956840186254 -0.23010709375653662 -0.2135539856713102 -0.10992747751073198
-0.16457973300901269 -0.2613536367074025 -0.2426590227890655 0.22415985697363514 0.3277741139380716 9.008261700866264e-176 0.3795767716404892 -0.3846761998850975
-9.008261700862838e-176 -0.12977792830043983 -0.12202160664619258 0.15382843757104714 -0.05468907027491419 0.10343941239071686 0.040270428756739675 -0.06514662493576859
0.019795324777693253 0.1681842936247544 -0.15104424587716533 -0.10377640957376791 -0.004819375425953424 -0.14708748414844053 -0.12450167626078981 0.031509363174612885
0.13249763629451805 -0.0612337566424021 -0.08785267118776754 0.13269916538936588 -0.008933643093458534 -0.059745970252006786 0.06303581174373508 -0.09078624959454631
-0.06131407684555279 0.15682217653669162 0.1396788514453925 -0.08204585706610114 0.13233376570435895 -0.012816132269328599 -0.09236470583635087 -0.15468835205793155
-0.043803734231195574 0.15724009527095353 0.06676591744200452 0.08523653973049883 -0.16612408860164019 0.22885066377373128 -0.16249195229872 0.0614301984801813
0.12176648249782322 0.09054959991106572 -0.32489420658075824 0.11825606855391603 -0.2546520105387088 0.07416558008188924 -0.003071869162918215 0.0454608218980347
-0.08671484940701576 0.038963617543203224 0.30832601230706447 -0.12388877526413973 0.3101589053994833 0.2577723748011249 -0.2084116083169605 -0.07174704332451709
5.4913966572429234e-17 0.24936107785247313 0.5619022215942691 0.03309695217918712 0.044562213583519895 -0.11108502168672477 -0.23766216855990108 -0.2495608464399839
6.4085791251923234e-164 -6.4085791251923234e-164 -6.4085791251923234e-164 -6.4085791251923234e-164 6.4085791251923234e-164 6.4085791251923234e-164 -6.4085791251923234e-164
00000000: 8024 10cf 3a38 e23e 5cdf 0012 862b e03f
00000010: 645f b897 652c db3f b879 c309 c690 dbbf
00000020: 219c ad69 4061 d23f 0fdd f41a 5b4d bdbf
00000030: be58 49d9 ee34 dbbf 6615 5496 3c93 96bf
00000040: 120e 395c 8267 59bf b96c 0bf3 df5b d13f
00000050: 2108 f0fa 1207 c73f 4fc3 3ec7 4ce8 c13f
00000060: 798a 9c54 f028 f7be 3893 0c4a d4cd 1ebf
00000070: 74b9 9a16 5c10 00bf 23d6 1fd1 d128 cd3e
00000080: e754 a6e5 14b8 383f 98e2 1c6c 86ef 363f
00000090: 0d57 60a7 9142 0fbf aa40 9184 757e f7be
000000a0: ddb7 cd96 8297 02bf 71a2 a62c c910 d5be
000000b0: f394 f33e 7853 13bf ee26 9247 84b0 f8be
000000c0: 355a 6df9 c8e2 10bf 0b75 baf4 1240 093f
000000d0: afa0 0e2e c9fc 0e3f 04e2 7bec 012e 1bbf
000000e0: 32dc 3ef7 60fd d80c 2959 3005 61fd d80c
000000f0: 4604 1fe7 60fd d80c f3f3 65d3 5ae2 f6be
00000100: d964 c5e6 899d 073f b51a cf0e 63fd d88c
00000110: a0b4 097a 8019 f63e 4ed2 97b4 0a89 b73f
00000120: dfa3 358d e681 9abf 53b3 62ac e98d c5bf
00000130: 8070 8d0d 0b71 b73f 3610 9b5a 314d a3bf
00000140: 73ba e9d9 8d3d bf3f ccc1 9460 d300 803f
00000150: 6de3 0c7d ff07 af3f 1303 ccee 2886 c13f
00000160: 29e1 edc7 fdd8 bdbf f254 7871 532d c23f
00000170: 0339 8893 7d2a 9abf e29c 3c46 9e47 c03f
00000180: ea1a d570 646e a8bf d298 af7e 675f c2bf
00000190: 13df 144e dca8 bbbf cead 8f09 b3d3 b3bf
000001a0: 3351 1a67 7621 a03f b652 b96c 49d0 82bf
000001b0: aa88 2806 e8ab c4bf 1bb3 f70e 6274 933f
000001c0: 7f91 c44d 958c be3f 4afc e250 f99e b7bf
000001d0: 94d6 9abb 9f4c bbbf 1077 74d9 3002 bc3f
000001e0: aeca 5553 2133 af3f c68e d458 93e5 80bf
000001f0: 58df 1782 5960 b03f b3a5 a3af 59ce a5bf
00000200: 443d c3d8 6eb2 a4bf c5ae d71c 1859 b13f
00000210: 5dcc 3851 43c7 be3f 640a 7d73 d8ba 9cbf
00000220: 6102 c123 ad85 ba3f c7a0 abfd b641 c3bf
00000230: d0b5 cd8b 2953 d9bf b15e 6cdc 50de c1bf
00000240: 6c20 a9f0 46ab b4bf f353 6ddb 038f dbbf
00000250: 7a0c c0a7 7d71 343f dc7b 01f5 781f 963f
00000260: 3f60 f050 4315 cb3f 766b 99ee d3a7 443f
00000270: 5fad 3288 551d d5bf 31b3 1e75 0bc0 a6bf
00000280: effc 1bb5 8087 c5bf d327 df4d 8a67 c1bf
00000290: ea7a 2d34 36f3 e1bf 1817 1d17 8c93 d0bf
000002a0: c4d9 3a4b a9ac d63f d696 36ed 092e f13f
000002b0: 00e7 3d00 1a51 d3bf 08c3 4065 3fb8 e1bf
000002c0: 8fde 4cce f68e cebf f2cf 3dd6 c314 d8bf
000002d0: 2597 5d29 b097 b9bf cf89 32df e6cf 7abf
000002e0: ee97 c4e5 16d2 ed3f f186 2135 2674 cdbf
000002f0: e7c1 31ac bc55 cbbf 7222 d708 3524 bcbf
00000300: ead6 6ddd f210 c5bf 5855 969a 04ba d0bf
00000310: 61ab 7a6b 730f cfbf f78e 632b 45b1 cc3f
00000320: a7b8 f546 40fa d43f 4bd6 15e3 9cd0 961b
00000330: 2c19 215f fc4a d83f 5e96 83ec 889e d8bf
00000340: c1cc 15e3 9cd0 969b be81 e52a 909c c0bf
00000350: e265 f3d9 ce3c bfbf 8cfd 4776 a6b0 c33f
00000360: cd0d 8fb0 3400 acbf f8e8 555d 017b ba3f
00000370: dd1e 035d 539e a43f 4e3d 8bff 72ad b0bf
00000380: 52b4 22c2 3945 943f f0da 681c 1087 c53f
00000390: db4c 25f8 6a55 c3bf d233 373d 1791 babf
000003a0: 5e42 773d 7bbd 73bf a4c3 083f c3d3 c2bf
000003b0: 7257 d683 57df bfbf 879b b4c8 fe21 a03f
000003c0: 3854 57bb aef5 c03f 3774 61ec 075a afbf
000003d0: ca21 9e3d 837d b6bf a0e3 c647 49fc c03f
000003e0: 6e44 5d47 cd4b 82bf 50ae 9918 0697 aebf
000003f0: 2189 ea6d 1d23 b03f ba60 ef84 c43d b7bf
00000400: b012 ac05 8f64 afbf d49d c1c3 bf12 c43f
00000410: 844d 7321 ffe0 c13f a106 df10 f500 b5bf
00000420: eca9 ed15 50f0 c03f a2ef a927 583f 8abf
00000430: 742d df9e 36a5 b7bf 059a 94f2 d3cc c3bf
00000440: 146b ee6b 716d a6bf 7d82 6785 7120 c43f
00000450: ce9d e637 9217 b13f 1013 91d6 0fd2 b53f
00000460: d098 cfdb 8d43 c5bf 97bc 4982 fa4a cd3f
00000470: 9e3b 7e4a 89cc c4bf 0418 eb6a c773 af3f
00000480: 4bbd 1394 162c bf3f 71ae 4832 422e b73f
00000490: 7f26 fb11 11cb d4bf 411b fe9a 0746 be3f
000004a0: 32f6 47f2 374c d0bf 11ca f0f4 83fc b23f
000004b0: c852 f432 2d2a 69bf 3249 9a0e a446 a73f
000004c0: cedb 47c2 f132 b6bf 12f0 290e 0af3 a33f
000004d0: 1a5b d706 9dbb d33f 6dd9 19be 2cb7 bfbf
000004e0: 8840 d0bc a4d9 d33f 4851 e5b3 577f d03f
000004f0: 69ff e948 3bad cabf e0da a9a4 035e b2bf
00000500: 6cfa 5f00 dfa7 8f3c 7ac6 2255 10eb cf3f
00000510: 1882 295e 1afb e13f c8ec 696e 15f2 a03f
00000520: 1509 f5c3 dbd0 a63f 924d 3867 1170 bcbf
00000530: 1409 bbc4 b66b cebf 0931 e91c 9cf1 cfbf
00000540: 5b7a f8f1 0a86 0d1e 5b7a f8f1 0a86 0d9e
00000550: 5b7a f8f1 0a86 0d9e 5b7a f8f1 0a86 0d9e
00000560: 5b7a f8f1 0a86 0d1e 5b7a f8f1 0a86 0d1e
00000570: 5b7a f8f1 0a86 0d9e

tcn.network.1.net.0.bias f8 [5]
-0.16848456090107763 -0.08241692579723948 -0.00787739299785956 -0.0029563788421407564 -0.12272355660517338
00000000: f7bb 79ef e690 c5bf d99d ef90 4619 b5bf
00000010: a2a9 6dca 0522 80bf 426e 21ce f937 68bf
00000020: 0d6a 119e cf6a bfbf

tcn.network.1.net.0.parametrizations.weight.original0 f8 [5, 1, 1]
0.7817274344268689 0.5002161854500317 0.22564413052869187 0.09859661156247224 0.5070377144733097
00000000: f9fa a740 e903 e93f 1b02 ae5f c501 e03f
00000010: e2d9 9328 e8e1 cc3f 7840 28a6 a03d b93f
00000020: e30b 3028 a739 e03f
